checkpoints/bestmodel.pt (torch_old, 444568 bytes, 32 tensors)

shared_encoder.input_linear.weight f4 [50, 5]
-0.004242025 0.008693429 -0.033233535 0.019813405 -0.34914148 -0.03178062 -0.053597067 -0.031735223
0.018257098 -0.1074278 8.8666566e-05 0.0009493097 0.038174253 -0.031669736 0.35640875 -0.0012859119
0.0066435263 0.03945046 -0.020208647 0.34091187 0.0020893253 0.008111417 -0.02061282 0.0056734122
0.5479979 0.0018544486 -0.0026688755 -0.056267347 0.021241738 -0.27723306 -0.009726704 -0.0017408801
0.012496838 0.005785281 0.37076467 -0.025672259 -0.1847535 -0.030337885 -0.08135139 -0.053248074
-0.013376147 -0.05717683 -0.022271147 -0.006766891 -0.11372528 0.010975384 0.0024858762 0.008920029
0.0007390169 -0.45840436 -0.037443988 -0.077747524 -0.014043018 0.0065454585 -0.057148322 0.015070645
0.035093952 0.030322583 -0.042869043 0.25568998 -0.00079009664 0.016333833 0.013019782 0.0072681326
-0.5199019 -0.005193841 -0.079245605 -0.11936341 0.03406777 -0.11036804 0.05023515 0.06555234
0.023130866 -0.031470336 0.05016054 -0.011289645 -0.01253178 0.015225546 -0.011043889 0.43801752
0.014606615 -0.047328014 -0.11731668 0.018269412 -0.1400017 -0.023881998 -0.19354726 -0.041498467
-0.039135717 -0.06661714 -0.054390926 -0.046715416 -0.0047390857 0.034384932 -0.03649024 -0.004297571
-0.03364489 -0.094064556 0.023637084 -0.15205826 0.02481739 0.0397955 0.045913585 -0.022667667
0.13799573 -0.019876532 -0.05145129 -0.0852307 0.04349478 -0.13215867 0.023758698 0.088806495
0.06832131 -0.033570502 0.09366865 0.0031394628 -0.017181996 -0.018539662 0.0067090197 0.495544
0.0011235042 -0.0028772296 0.0030771173 0.004189251 -0.4656147 0.036405176 0.07581645 0.031077428
-0.026759906 0.07271716 0.014983126 0.07990759 0.03341277 -0.011992493 0.120641 -0.0061853877
0.005086157 0.03623317 -0.015340261 0.3505645 0.0045033027 -0.0048283245 -0.0036845414 -0.0022082757
0.4073447 -0.011657802 -0.009554756 -0.04119992 0.03150017 -0.30835226 -0.008804426 0.0010893012
-0.0073072226 -0.01213011 0.4664554 0.021115802 0.08137678 0.07663883 -0.03578464 0.11328524
0.0059319106 0.013935647 -0.037482094 0.00974122 -0.3597794 0.007629264 -0.019440975 -0.024816781
0.022872264 -0.35252434 0.006477224 -0.020284241 0.03253722 -0.013840616 -0.5437045 0.028308269
0.10530049 0.014576573 -0.017839247 0.06440993 0.0075343223 -0.006837822 -0.024171704 0.02770785
-0.41498175 -0.022949435 -0.065785915 -0.049625803 0.006417499 -0.073341794 0.0025755202 -0.0042463527
-0.025072813 0.002173706 0.47236922 -0.0005777871 0.01873845 -0.0059736352 -0.0028573703 -0.4351002
-0.0064333696 0.010339212 -0.018667098 -0.0048817727 0.479206 -0.014095193 -0.00862825 0.034582768
-0.023697436 0.41779575 -0.0166773 0.00049261487 -0.0005932787 0.010127907 0.53669333 -0.012502756
-0.0013134647 0.056194622 -0.015494343 0.3482527 0.00763113 -0.015682084 0.02533303 -0.0019395936
-0.48173156 -0.0026873893 0.0083059715 -0.018353432 0.0145951575 -0.38879225 0.0058137854 0.011581076
0.0033139833 0.010330469 -0.5505959 0.039712057 0.099420816 0.026259439 -0.019131646 0.045527633
0.017883737 0.044492487 0.04731067 -0.026701534 0.14018403 -0.0075881947 0.01973142 -0.014848313
0.00872167 -0.37983438
00000000: af00 8bbb e26e 0e3c e31f 08bd b94f a23c
00000010: acc2 b2be 652c 02bd 9988 5bbd cbfc 01bd
00000020: e98f 953c 1b03 dcbd 80f2 b938 18db 783a
00000030: 9b5c 1c3d 20b8 01bd 357b b63e 0b8c a8ba
00000040: f0b1 d93b ce96 213d 9b8c a5bc 008c ae3e
00000050: 10ed 083b c0e5 043c 37dc a8bc 08e8 b93b
00000060: 9749 0c3f f810 f33a 4de8 2ebb 9778 66bd
00000070: 2703 ae3c 7ef1 8dbe c15c 1fbc 3e2e e4ba
00000080: 8abf 4c3c 7492 bd3b ded4 bd3e a14e d2bc
00000090: 0630 3dbe 2887 f8bc 8f9b a6bd a71a 5abd
000000a0: a027 5bbc 4032 6abd fb71 b6bc ccbc ddbb
000000b0: cde8 e8bd 19d2 333c 15ea 223b 5025 123c
000000c0: 96ba 413a fab3 eabe de5e 19bd 183a 9fbd
000000d0: b014 66bc 497b d63b 5c14 6abd deea 763c
000000e0: adbe 0f3d 1167 f83c 7397 2fbd cce9 823e
000000f0: 7d1e 4fba 88ce 853c ec50 553c 8429 ee3b
00000100: 4a18 05bf 1931 aabb 854b a2bd ce74 f4bd
00000110: a58a 0b3d a408 e2bd 5fc3 4d3d 4e40 863d
00000120: f17c bd3c 0ae7 00bd 2375 4d3d 34f8 38bc
00000130: 1852 4dbc 9274 793c 6ef1 34bc d543 e03e
00000140: 9550 6f3c 05db 41bd ba43 f0bd bca9 953c
00000150: 9b5c 0fbe 2ea4 c3bc 4131 46be 4cfa 29bd
00000160: c64c 20bd 916e 88bd 05c9 5ebd aa58 3fbd
00000170: 554a 9bbb 37d7 0c3d ca76 15bd a3d2 8cbb
00000180: 39cf 09bd eba4 c0bd 8fa2 c13c 29b5 1bbe
00000190: d74d cb3c 9b00 233d e20f 3c3d 8bb1 b9bc
000001a0: c14e 0d3e 1cd4 a2bc 96be 52bd 6f8d aebd
000001b0: 9527 323d 9a54 07be 9aa1 c23c 2ee0 b53d
000001c0: 0bec 8b3d 3981 09bd 59d5 bf3d 72bf 4d3b
000001d0: 42c1 8cbc 7de0 97bc 56d7 db3b f1b7 fd3e
000001e0: 8c42 933a e78f 3cbb 76a9 493b fc45 893b
000001f0: 0d65 eebe 981d 153d a845 9b3d 1796 fe3c
00000200: 9737 dbbc bcec 943d c97b 753c 97a6 a33d
00000210: d4db 083d 297c 44bc a112 f73d cbae cabb
00000220: c7a9 a63b 3c69 143d b855 7bbc 317d b33e
00000230: 7190 933b ec36 9ebb 5978 71bb b8b8 10bb
00000240: 7c8f d03e 5e00 3fbc 8d8b 1cbc 3fc1 28bd
00000250: 5206 013d 59e0 9dbe 7040 10bc e2c6 8e3a
00000260: 6d71 efbb 5ebd 46bc 3ed3 ee3e 0cfb ac3c
00000270: dfa8 a63d d2f4 9c3d ea92 12bd 1802 e83d
00000280: 7960 c23b 5752 643c d386 19bd a399 1f3c
00000290: 0135 b8be e8fe f93b ae42 9fbc 904c cbbc
000002a0: 9d5e bb3c 127e b4be e53e d43b 232b a6bc
000002b0: bf45 053d c0c3 62bc 3830 0bbf bee6 e73c
000002c0: c9a7 d73d 94d2 6e3c 9d23 92bc 5ae9 833d
000002d0: 7ae2 f63b cf0f e0bb bd03 c6bc 93fb e23c
000002e0: 7d78 d4be 7400 bcbc c4ba 86bd 6d44 4bbd
000002f0: e249 d23b 3934 96bd 0fca 283b fd24 8bbb
00000300: 8065 cdbc bc74 0e3b 61da f13e a376 17ba
00000310: 6181 993c 7cbe c3bb b842 3bbb 74c5 debe
00000320: 04cf d2bb cc65 293c beeb 98bc 47f7 9fbb
00000330: 7d5a f53e 86ef 66bc 815d 0dbc a9a6 0d3d
00000340: 2021 c2bc 53e9 d53e d59e 88bc d322 013a
00000350: 4286 1bba 85ef 253c bc64 093f 5cd8 4cbc
00000360: 9028 acba 552c 663d fcdb 7dbc 2e4e b23e
00000370: 8f0e fa3b b777 80bc 3787 cf3c f639 feba
00000380: 85a5 f6be e91e 30bb c515 083c f059 96bc
00000390: 8720 6f3c c70f c7be 9181 be3b 8ebe 3d3c
000003a0: 6a2f 593b 2141 293c daf3 0cbf 1ca9 223d
000003b0: 249d cb3d 091e d73c f8b9 9cbc 2f7b 3a3d
000003c0: ea80 923c c13d 363d d5c8 413d 2dbd dabc
000003d0: 678c 0f3e 64a6 f8bb c9a3 a13c 5746 73bc
000003e0: 56e5 0e3c a779 c2be

shared_encoder.input_linear.bias f4 [50]
0.14892243 0.11495286 -0.15274084 -0.15486494 -0.16984805 0.14029828 -0.14878047 0.1832772
0.114197604 0.1612197 0.10029319 -0.13854839 0.16651757 0.13896295 -0.09163244 -0.16000059
0.13705088 0.1800672 0.07503896 0.13758828 -0.12322083 0.1317528 -0.12401301 -0.16650732
0.1756805 -0.103758484 -0.1267876 -0.15387854 -0.15897499 0.1530674 -0.16195984 -0.13431124
0.15181042 0.15103675 0.16777636 -0.10663167 0.16436276 0.103762195 -0.16630664 0.16709536
-0.16721174 -0.1628032 -0.16745612 -0.15794116 0.16739528 0.15731996 0.17207766 -0.102109134
-0.12112732 0.15200858
00000000: 1f7f 183e 686c eb3d 1868 1cbe ea94 1ebe
00000010: a6ec 2dbe 5aaa 0f3e e859 18be 05ad 3b3e
00000020: 6fe0 e93d c716 253e 8466 cd3d a1df 0dbe
00000030: 9583 2a3e 4e4c 0e3e caa9 bbbd 32d7 23be
00000040: 1157 0c3e 8963 383e 07ae 993d f1e3 0c3e
00000050: 345b fcbd 35ea 063e 88fa fdbd e580 2abe
00000060: 97e5 333e 547f d4bd 9cd4 01be 5692 1dbe
00000070: 57ca 22be b3bd 1c3e cdd8 25be e388 09be
00000080: 3174 1b3e 61a9 1a3e 91cd 2b3e b461 dabd
00000090: b64e 283e 4681 d43d 4a4c 2abe 0c1b 2b3e
000000a0: 8e39 2bbe e2b5 26be 9e79 2bbe 54bb 21be
000000b0: ab69 2b3e 7c18 213e 2035 303e 981e d1bd
000000c0: 9a11 f8bd 23a8 1b3e

shared_encoder.gru_left.weight_ih_l0 f4 [150, 50]
-0.11379293 -0.06025946 0.12037283 0.13714013 0.09161016 -0.14219122 0.1255438 6.0025428e-05
-0.113114424 -0.09696283 -0.027182827 0.10384768 -0.09539164 0.05329956 -0.08695752 0.12932779
-0.055469334 0.041929714 0.08405425 -0.10359541 0.108946435 -0.053693287 0.0093996385 0.06872052
-0.09029407 0.018992962 0.09982521 0.13485615 0.1163911 -0.110111155 0.10555589 0.052271932
-0.13965677 -0.12662578 -0.09383492 0.070698775 -0.124024294 -0.034729194 0.08049174 -0.09001148
0.07776824 0.13729458 0.10079762 0.153112 -0.08653813 -0.11868162 -0.10704055 -0.07485319
0.083023936 -0.092710964 -0.08059534 -0.15028594 0.057121735 0.1032404 0.076497264 -0.10889865
0.0986342 -0.12833704 -0.1863166 -0.065407224 -0.14529462 0.1333221 -0.036043182 0.11990938
0.06548065 0.045064673 -0.031770233 -0.14648393 -0.059345357 -0.08984335 0.12531526 -0.054243598
0.06747609 0.056910872 -0.06700329 0.11316166 0.1613396 0.10376076 0.071622625 -0.10616683
0.04592458 0.06908703 -0.090435825 -0.10903089 -0.10492327 0.19680902 -0.06599149 -0.07970605
0.08196553 -0.07047891 0.069805555 0.063714415 0.08693943 0.09007875 -0.06777897 -0.06286555
-0.055018723 0.1161207 0.12937716 -0.0725491 0.04944069 -0.00229869 -0.044016764 -0.05155569
-0.08171559 -0.010046947 -0.06399823 -0.26226285 0.040489536 0.09145767 -0.024509778 -0.04110663
0.09963229 -0.38399017 0.15596189 -0.061427087 -0.27938148 -0.27116442 -0.07961739 -0.19610065
0.038288068 -0.14732598 0.15379755 -0.08390073 0.09637628 0.030640423 -0.025147656 -0.03382631
-0.088557065 0.010945883 -0.10327914 0.14640705 0.02801354 0.06443335 0.084100775 -0.0335642
0.06376962 -0.16057873 -0.12043787 0.065819465 -0.11115402 -0.047155827 -0.0489471 0.036899354
0.12517464 0.070529796 0.07159067 0.1979858 0.017532678 0.07304879 -0.037980206 -0.08932048
0.033481654 0.050094016 0.031335834 -0.076489605 0.052674975 0.045834474 -0.11966874 -0.021168882
-0.0764287 0.08441015 -0.0081821345 0.13552372 -0.0028199072 0.0076713697 -0.013493596 -0.0005488567
0.005054236 -0.06638646 0.07371378 -0.009191416 0.010590191 0.020717964 -0.043589126 0.07451798
0.13306434 0.03639913 0.014670151 -0.050608445 0.015934158 0.012003785 -0.071760215 -0.061369322
-0.025264917 0.11639183 -0.0046909936 -0.033257097 0.004836859 -0.021119183 0.017323866 0.028244345
0.04823073 0.059278537 -0.016586035 -0.029794708 -0.010311911 0.038689416 0.07952987 -0.02518554
0.22798906 -0.0920845 -0.22408941 -0.19619179 -0.3103962 0.12401997 -0.29510623 -1.1368744
0.0023783355 0.32204515 -0.35478956 -0.14867087 0.3036701 -1.0573574 0.80377096 -0.2945137
-0.5367536 -1.3752702 -0.6224236 -0.32305562 0.0726944 -0.42117578 0.72402763 -0.32471493
0.28993386 0.4229575 0.10311332 -0.23597579 -0.29969373 0.17359681 -0.30443332 0.57144094
0.2504458 0.2252477 0.26257685 0.40526718 0.25478405 -0.53733337 -0.33458155 0.31019333
-0.29797477 -0.2542833 -0.2749489 -0.16928165 0.30734643 0.28561264 0.2936068 1.1283063
0.08102643 0.28160354 -0.02727498 -0.121939756 0.036145777 0.07557693 0.035202283 -0.094931476
00000000: 450c e9bd a0d2 76bd 0886 f63d 766e 0c3e
00000010: 1c9e bb3d 939a 11be 8e8e 003e d0c3 7b38
00000020: 89a8 e7bd 7394 c6bd 85ae debc 18ae d43d
00000030: b15c c3bd a450 5a3d c916 b2bd 816e 043e
00000040: d033 63bd 7ebe 2b3d a224 ac3d d529 d4bd
00000050: 4f1f df3d 7eed 5bbd f100 1a3c 58bd 8c3d
00000060: 19ec b8bd 2197 9b3c 2971 cc3d bb17 0a3e
00000070: 755e ee3d f581 e1bd b02d d83d 181b 563d
00000080: 2f02 0fbe 30aa 01be 862c c0bd 85ca 903d
00000090: 7300 febd 3340 0ebd dad8 a43d f057 b8bd
000000a0: f444 9f3d f396 0c3e fc6e ce3d 64c9 1c3e
000000b0: e73a b1bd 590f f3bd 1338 dbbd a14c 99bd
000000c0: 7408 aa3d 3fdf bdbd 2b0f a5bd 8fe4 19be
000000d0: 7bf8 693d b46f d33d 99aa 9c3d 4106 dfbd
000000e0: ba00 ca3d c96a 03be c7c9 3ebe 39f4 85bd
000000f0: 1dc8 14be 9785 083e 04a2 13bd 0d93 f53d
00000100: b81a 863d bc95 383d 8121 02bd e2ff 15be
00000110: 1e14 73bd caff b7bd a552 003e 892e 5ebd
00000120: e730 8a3d 601b 693d 0539 89bd 4dc1 e73d
00000130: 3536 253e 8580 d43d e2ae 923d ff6d d9bd
00000140: 6a1b 3c3d 807d 8d3d 6b36 b9bd 964b dfbd
00000150: 03e2 d6bd 4e88 493e 8c26 87bd ed3c a3bd
00000160: 8bdd a73d 3f57 90bd 37f6 8e3d b47c 823d
00000170: 4d0d b23d 357b b83d b3cf 8abd a7bf 80bd
00000180: 505b 61bd b1d0 ed3d 727b 043e 9f94 94bd
00000190: 5282 4a3d 9ea5 16bb ec4a 34bd 0f2c 53bd
000001a0: 815a a7bd f39b 24bc 8111 83bd 5147 86be
000001b0: 5bd8 253d 294e bb3d bbc8 c8bc 6d5f 28bd
000001c0: 040c cc3d 5c9a c4be 79b4 1f3e f89a 7bbd
000001d0: 170b 8fbe 10d6 8abe 710e a3bd 9cce 48be
000001e0: f3d3 1c3d 9fdc 16be 1b7d 1d3e 25d4 abbd
000001f0: ed60 c53d a001 fb3c 7502 cebc 758d 0abd
00000200: 685d b5bd 5c56 333c 0484 d3bd bbeb 153e
00000210: a77c e53c a2f5 833d 073d ac3d 9d7a 09bd
00000220: a699 823d c06e 24be 21a8 f6bd 5bcc 863d
00000230: b8a4 e3bd 7826 41bd c17c 48bd c723 173d
00000240: c82d 003e ed71 903d 219e 923d cabc 4a3e
00000250: b1a0 8f3c 9b9a 953d 2291 1bbd a8ed b6bd
00000260: 0f24 093d 622f 4d3d 015a 003d 95a6 9cbd
00000270: b7c1 573d eebc 3b3d e214 f5bd 5d6a adbc
00000280: a686 9cbd 3bdf ac3d 5c0e 06bc bbc6 0a3e
00000290: 31ce 38bb 1d60 fb3b 3e14 5dbc 26e1 0fba
000002a0: 019e a53b a0f5 87bd 40f7 963d 9897 16bc
000002b0: 7b82 2d3c b8b8 a93c 838a 32bd e29c 983d
000002c0: 0542 083e 4117 153d 135b 703c cd4a 4fbd
000002d0: 5a88 823c 86ab 443c 05f7 92bd 665e 7bbd
000002e0: 5ff8 cebc d75e ee3d e8b6 99bb 9838 08bd
000002f0: 847e 9e3b 2302 adbc c8ea 8d3c af60 e73c
00000300: 968d 453d 0dce 723d 70df 87bc 0814 f4bc
00000310: 4af3 28bc cb78 1e3d 8ee0 a23d e851 cebc
00000320: f775 693e cc96 bcbd b277 65be 80e6 48be
00000330: 40ec 9ebe 2ffe fd3d 2a18 97be 1a85 91bf
00000340: d9dd 1b3b 1ae3 a43e faa6 b5be 2d3d 18be
00000350: a67a 9b3e 7d57 87bf efc3 4d3f 80ca 96be
00000360: af68 09bf db08 b0bf 2757 1fbf 8c67 a5be
00000370: cde0 943d 5aa4 d7be e059 393f 0941 a6be
00000380: 3672 943e e38d d83e 142d d33d a3a3 71be
00000390: 7571 99be 5dc3 313e afde 9bbe f449 123f
000003a0: 6f3a 803e 55a7 663e 7970 863e 2e7f cf3e
000003b0: 0e73 823e ae8e 09bf 464e abbe a9d1 9e3e
000003c0: 2690 98be 6c31 82be 1ac6 8cbe 2b58 2dbe
000003d0: 835c 9d3e d23b 923e a153 963e 576c 903f
000003e0: 2ff1 a53d 572e 903e c76f dfbc 8dbb f9bd
000003f0: 980d 143d 14c8 9a3d 4530 103d 6f6b c2bd

shared_encoder.gru_left.weight_hh_l0 f4 [150, 50]
-0.78727007 0.08696234 0.26218754 -0.14298943 0.23113172 -0.14010833 0.15418446 -0.10433842
-0.16309957 -0.25174686 0.12878059 0.10965572 0.1798275 -0.21431303 -0.044055253 0.16358086
0.18142003 0.25707933 0.10633032 -0.12249694 0.20468709 0.096345976 0.18197016 0.081569955
0.3464604 0.2748934 -0.28493595 0.17937438 -0.13340102 0.025366088 0.11500529 -0.20049325
0.13640645 0.45980567 -0.14192127 0.17204408 -0.019566588 0.43141943 0.11147573 0.20926575
0.29751962 0.049464576 0.0912881 -0.09350773 0.012809489 -0.13200721 0.22481781 0.1104689
-0.1882108 0.23132212 0.00067650137 -0.06793556 0.16025087 -0.10174397 0.24139512 -0.0553855
0.098269686 0.022705138 -0.16256393 -0.30839375 0.03758978 0.0802205 0.07839381 -0.18707007
0.10090978 -0.008631159 0.135338 0.17286363 0.03952365 -0.02515356 0.16940913 -0.091483735
0.1495314 -0.1272572 0.3866818 0.3306177 -0.2921729 0.14606307 -0.083241515 -0.12730187
0.080958694 -0.15542625 0.073223785 0.4926314 -0.12772138 0.11344332 -0.0060184333 0.46830475
0.0583901 0.20594163 0.30619526 -0.109368704 -0.07277065 -0.042335644 0.03744195 -0.14938237
0.17993405 0.08676944 -0.20437127 0.119777836 0.18566027 0.1639077 0.02174708 -0.13243453
0.26183262 -0.11537044 0.16006948 -0.15825036 -0.30254954 -0.21350801 0.08116842 -0.015073303
0.16941217 -0.13206686 -0.06542466 0.0024626455 0.3336557 0.092020676 0.121044524 -0.092250966
0.15830734 0.12862892 0.3078898 0.14781058 0.2738077 0.29187095 -0.32439488 0.06818339
-0.12372913 0.17383072 0.25376454 -0.19478615 0.12392696 0.39837563 -0.2951584 0.09338286
0.28890073 0.41029805 0.14261809 0.1438706 0.32072255 0.12017552 0.09714621 -0.08799736
-0.12300663 -0.20768641 0.13052912 0.29373306 -0.27868012 0.06150351 -0.024975438 -0.010310966
0.11698215 -0.11747346 0.25953987 -0.08886046 0.12032779 -0.044056058 -0.15952668 -0.29158002
0.04127171 0.11499797 0.096612915 -0.16604325 0.09466584 0.009324463 0.1679681 0.12907198
0.04534017 -0.060040317 0.18088165 -0.011239379 0.17478338 -0.052289136 0.28990874 0.34913984
-0.33386916 0.0989619 -0.068359315 -0.04479812 0.098471224 -0.114395164 0.08378978 0.5031235
-0.1345277 0.12034623 0.01956638 0.4788296 0.083711945 0.17601533 0.34194115 -0.04842804
-0.018771816 -0.075209394 0.10293354 -0.1425964 0.12974435 0.09160687 -0.20227009 0.10889838
-0.1580386 -0.15283756 -0.025800258 0.124405965 0.11113152 0.109764226 -0.14725871 0.10686073
-0.22800761 -0.45579934 -0.27418223 0.10937709 0.14447176 0.027559515 0.17049126 -0.30754992
0.077023685 -0.0020744447 -0.037209615 0.16065788 0.0028537523 -0.26404464 0.31354034 -0.1454359
0.21568105 0.21995763 -0.122496024 -0.15557069 0.22623816 -0.30107528 0.1392406 -0.19237177
-0.19111656 0.17198917 -0.16266654 -0.13171375 -0.18314737 0.14698285 -0.03937185 0.023251897
0.19971468 -0.15514097 -0.1890527 0.35954437 0.035115138 -0.30886275 -0.033951513 0.10475101
-0.22575465 -0.064139225 -0.0055889045 -0.030638887 0.1282587 -0.10384231 0.25350496 -0.060088675
00000000: 888a 49bf 5019 b23d 723d 863e d26b 12be
00000010: cbad 6c3e 8f78 0fbe 88e2 1d3e 62af d5bd
00000020: 9303 27be f7e4 80be 0fdf 033e 2e93 e03d
00000030: b324 383e e074 5bbe 4873 34bd be81 273e
00000040: 2cc6 393e e79f 833e b6c3 d93d addf fabd
00000050: 7e99 513e 0a51 c53d 6356 3a3e 260e a73d
00000060: 4263 b13e d4be 8c3e 20e3 91be ebad 373e
00000070: 479a 08be 8bcc cf3c e587 eb3d 1a4e 4dbe
00000080: 22ae 0b3e a66b eb3e cf53 11be 532c 303e
00000090: 1c4a a0bc 02e3 dc3e 634d e43d c349 563e
000000a0: 7e54 983e 5e9b 4a3d 41f5 ba3d fb80 bfbd
000000b0: e4de 513c e62c 07be a436 663e 853d e23d
000000c0: 55ba 40be b5df 6c3e 3d57 313a cd21 8bbd
000000d0: ce18 243e 245f d0bd 4830 773e e8db 62bd
000000e0: 9e41 c93d 2000 ba3c 2977 26be c9e5 9dbe
000000f0: bef7 193d a54a a43d ef8c a03d 4c8f 3fbe
00000100: c9a9 ce3d b469 0dbc 0b96 0a3e 2a03 313e
00000110: 8de3 213d d70e cebc 9679 2d3e d35b bbbd
00000120: c21e 193e b64f 02be 28fb c53e b946 a93e
00000130: b097 95be 8f91 153e 877a aabd 6c5b 02be
00000140: accd a53d 0f28 1fbe 5af6 953d 2f3a fc3e
00000150: 65c9 02be f954 e83d 4736 c5bb a4c5 ef3e
00000160: 752a 6f3d 5de2 523e a0c5 9c3e b3fc dfbd
00000170: c708 95bd 2468 2dbd bb5c 193d b1f7 18be
00000180: a240 383e 2db4 b13d b446 51be 154e f53d
00000190: ba1d 3e3e 6cd7 273e ef26 b23c eb9c 07be
000001a0: ed0e 863e 5647 ecbd 41e9 233e 620c 22be
000001b0: c6e7 9abe d8a1 5abe a13b a63d 04f6 76bc
000001c0: 627a 2d3e 893c 07be 5dfd 85bd 5664 213b
000001d0: ebd4 aa3e 5675 bc3d 31e6 f73d 13ee bcbd
000001e0: 521b 223e 4db7 033e bba3 9d3e a85b 173e
000001f0: 8630 8c3e 1c70 953e 1617 a6be bca3 8b3d
00000200: b365 fdbd ae00 323e 6ded 813e 0576 47be
00000210: 6bcd fd3d e4f7 cb3e 001f 97be 833f bf3d
00000220: ccea 933e 9612 d23e 7a0a 123e d152 133e
00000230: bf35 a43e 951e f63d 98f4 c63d f637 b4bd
00000240: e6ea fbbd bfab 54be 6da9 053e 2e64 963e
00000250: 29af 8ebe 1beb 7b3d 4a99 ccbc 53ef 28bc
00000260: 5694 ef3d ed95 f0bd 69e2 843e 79fc b5bd
00000270: 6b6e f63d 2074 34bd f65a 23be fa49 95be
00000280: 860c 293d 0e84 eb3d fedc c53d 3e07 2abe
00000290: 2ae0 c13d a2c5 183c d4ff 2b3e 722b 043e
000002a0: 9db6 393d d6ec 75bd 0a39 393e 5f25 38bc
000002b0: 6afa 323e 222d 56bd eb6e 943e 75c2 b23e
000002c0: e6f0 aabe 89ac ca3d f8ff 8bbd 3c7e 37bd
000002d0: 48ab c93d 0348 eabd fa99 ab3d b4cc 003f
000002e0: a1c1 09be 1678 f63d ac49 a03c 2729 f53e
000002f0: 2b71 ab3d 5d3d 343e e912 af3e 7b5c 46bd
00000300: 5ac7 99bc 6207 9abd d2ce d23d ca04 12be
00000310: b4db 043e 629c bb3d e41f 4fbe 1d06 df3d
00000320: dfd4 21be 7381 1cbe 105b d3bc 8ec8 fe3d
00000330: ec98 e33d 11cc e03d fdca 16be ccd9 da3d
00000340: d47a 69be 885e e9be 9d61 8cbe 1901 e03d
00000350: 68f0 133e 7ec4 e13c 4395 2e3e 2f77 9dbe
00000360: 98be 9d3d 68f3 07bb 1c69 18bd 8083 243e
00000370: 0506 3b3b dc30 87be 5c88 a03e 26ed 14be
00000380: 7edb 5c3e 933c 613e 32df fabd ec4d 1fbe
00000390: faaa 673e 8a26 9abe 1695 0e3e 1bfd 44be
000003a0: 0fb4 43be ee1d 303e 0f92 26be f8df 06be
000003b0: fc8a 3bbe ac82 163e 6144 21bd c37a be3c
000003c0: 0182 4c3e 46dd 1ebe 0897 41be 3316 b83e
000003d0: e4d4 0f3d 4223 9ebe be10 0bbd b387 d63d
000003e0: 3a2c 67be 6d5b 83bd 2123 b7bb 67fe fabc
000003f0: 4056 033e 47ab d4bd 67cb 813e 8b1f 76bd

shared_encoder.gru_left.bias_ih_l0 f4 [150]
0.1416716 0.25349483 0.22238965 0.27085096 0.11009236 0.25404954 0.28755113 0.22128987
0.21357515 -0.059209276 0.26949078 0.009776509 0.10927206 0.2266144 0.246435 0.1570259
0.21714915 0.20367876 0.20929962 0.26157984 0.21593733 0.29065222 0.12970409 0.19882151
0.19714475 0.13498491 0.13640879 0.27276754 0.24486682 0.30386853 0.22949302 0.19312659
0.2487618 0.0174608 0.19867216 0.2529563 0.23030147 0.0829672 0.22729768 0.21104844
0.1655245 0.22851107 0.24916637 0.29071844 0.022882972 0.104251884 0.2327863 0.23831162
0.15327248 0.22933911 1.8199768 1.1736804 0.57885987 0.81727546 0.149031 0.97785366
0.6277452 1.2831821 0.2546873 0.2795782 0.6485872 0.60127497 0.5657605 0.5567073
1.4969105 0.8389733 0.31960335 0.44066304 1.321322 1.0354158 0.8075266 1.018728
0.41899607 1.3608282 -0.48875338 0.7845953 0.5524147 0.7548155 0.601953 0.9722363
0.48056048 0.46152994 0.6450354 0.035906233 0.31249866 0.68751705 1.3083587 -0.09673607
1.1194745 0.6052838 0.6607175 1.3900255 1.2119666 0.63252485 0.58609056 0.5448682
0.5026116 0.45283142 0.2339607 0.5954794 -0.008045113 -0.033094972 -0.03849854 0.04043378
-0.074238636 0.037566554 -0.04644986 0.032862924 0.06840945 0.10548 -0.034222566 0.027523499
-0.013204171 0.04639766 0.027817905 0.011514309 -0.06317722 -0.04235722 -0.03354414 0.034581218
-0.045834485 -0.031156212 -0.07270074 -0.027944515 -0.11073507 -0.06885401 0.0695591 -0.039199665
0.03507807 -0.033117503 -0.05581784 0.048243783 -0.03868504 -0.0507336 0.05977422 -0.04140245
-0.026233153 -0.06293035 -0.03628127 -0.047187187 -0.0705241 -0.027399573 -0.03032368 0.032246042
0.035650518 0.05242767 -0.04671755 -0.05581485 0.07383838 -0.042072285
00000000: 5c12 113e 13ca 813e 1dba 633e faac 8a3e
00000010: 1a78 e13d c812 823e e739 933e d099 623e
00000020: 72b3 5a3e 6d85 72bd b2fa 893e a72d 203c
00000030: 08ca df3d 9b0d 683e 7559 7c3e 66cb 203e
00000040: 595c 5e3e 2a91 503e a452 563e cbed 853e
00000050: ad1e 5d3e 5ed0 943e 26d1 043e de97 4b3e
00000060: 50e0 493e 7c39 0a3e bfae 0b3e 30a8 8b3e
00000070: 5ebe 7a3e a894 9b3e 3800 6b3e fac2 453e
00000080: 6abb 7e3e f409 8f3c b770 4b3e 7d83 813e
00000090: 26d4 6b3e b5ea a93d b9c0 683e 151d 583e
000000a0: 417f 293e cefe 693e 7825 7f3e 0cd9 943e
000000b0: 1275 bb3c 0382 d53d 885f 6e3e f607 743e
000000c0: 76f3 1c3e dfd7 6a3e 00f5 e83f 293b 963f
000000d0: 2930 143f f738 513f 959b 183e 9e54 7a3f
000000e0: e9b3 203f 503f a43f 6066 823e e024 8f3e
000000f0: d009 263f 28ed 193f aed5 103f 5f84 0e3f
00000100: c39a bf3f f4c6 563f 0da3 a33e 969e e13e
00000110: 1421 a93f 8188 843f 10ba 4e3f ae65 823f
00000120: a786 d63e 9e2f ae3f e23d fabe 3ddb 483f
00000130: 0d6b 0d3f 973b 413f 9819 1a3f 7ae4 783f
00000140: 060c f63e a74d ec3e 0a21 253f 6a12 133d
00000150: d3ff 9f3e 1e01 303f 4c78 a73f 901d c6bd
00000160: f14a 8f3f e1f3 1a3f c824 293f 5bec b13f
00000170: b921 9b3f 26ed 213f 080a 163f 7b7c 0b3f
00000180: 27ab 003f 85d9 e73e 6593 6f3e 5771 183f
00000190: a6cf 03bc 988e 07bd a5b0 1dbd e49d 253d
000001a0: 6d0a 98bd 63df 193d 3542 3ebd 469b 063d
000001b0: 411a 8c3d e605 d83d f62c 0cbd f678 e13c
000001c0: 4f56 58bc 790b 3e3d 60e2 e33c 83a6 3c3c
000001d0: 0f63 81bd c47e 2dbd 9565 09bd 09a5 0d3d
000001e0: f1bc 3bbd 503b ffbc 20e4 94bd e5eb e4bc
000001f0: 12c9 e2bd 5503 8dbd 0075 8e3d d48f 20bd
00000200: 06ae 0f3d 38a6 07bd 3fa1 64bd 469b 453d
00000210: 3474 1ebd 09ce 4fbd d0d5 743d 9e95 29bd
00000220: e9e6 d6bc a1e1 80bd ab9b 14bd 5a47 41bd
00000230: f06e 90bd 1275 e0bc 5e69 f8bc 6d14 043d
00000240: 4706 123d 66be 563d e75a 3fbd 1d9e 64bd
00000250: 9438 973d fd53 2cbd

shared_encoder.gru_left.bias_hh_l0 f4 [150]
0.1416716 0.25349483 0.22238965 0.27085096 0.11009236 0.25404954 0.28755113 0.22128987
0.21357515 -0.059209276 0.26949078 0.009776509 0.10927206 0.2266144 0.246435 0.1570259
0.21714915 0.20367876 0.20929962 0.26157984 0.21593733 0.29065222 0.12970409 0.19882151
0.19714475 0.13498491 0.13640879 0.27276754 0.24486682 0.30386853 0.22949302 0.19312659
0.2487618 0.0174608 0.19867216 0.2529563 0.23030147 0.0829672 0.22729768 0.21104844
0.1655245 0.22851107 0.24916637 0.29071844 0.022882972 0.104251884 0.2327863 0.23831162
0.15327248 0.22933911 1.8199768 1.1736804 0.57885987 0.81727546 0.149031 0.97785366
0.6277452 1.2831821 0.2546873 0.2795782 0.6485872 0.60127497 0.5657605 0.5567073
1.4969105 0.8389733 0.31960335 0.44066304 1.321322 1.0354158 0.8075266 1.018728
0.41899607 1.3608282 -0.48875338 0.7845953 0.5524147 0.7548155 0.601953 0.9722363
0.48056048 0.46152994 0.6450354 0.035906233 0.31249866 0.68751705 1.3083587 -0.09673607
1.1194745 0.6052838 0.6607175 1.3900255 1.2119666 0.63252485 0.58609056 0.5448682
0.5026116 0.45283142 0.2339607 0.5954794 -0.03584696 -0.045472115 -0.07114312 0.052119605
-0.03911716 0.04772227 -0.061578244 0.043471154 0.07011376 0.046922136 -0.06133131 -0.084785886
-0.07972083 0.050087377 0.044702645 -0.069044024 -0.05516902 -0.053610437 -0.036958516 0.047271412
-0.042645577 -0.054219928 -0.07838266 -0.04459891 -0.11341695 -0.034778282 0.035669018 -0.05460512
0.065927565 -0.060368374 -0.066515125 0.06783113 -0.06078924 0.005862244 0.057148647 -0.05636076
-0.04141825 -0.014638035 -0.04098475 -0.044494074 -0.040280856 -0.039226893 -0.04463295 0.062187113
-0.072491065 0.05304875 -0.056203317 -0.060863238 0.06276033 -0.06531991
00000000: 5c12 113e 13ca 813e 1dba 633e faac 8a3e
00000010: 1a78 e13d c812 823e e739 933e d099 623e
00000020: 72b3 5a3e 6d85 72bd b2fa 893e a72d 203c
00000030: 08ca df3d 9b0d 683e 7559 7c3e 66cb 203e
00000040: 595c 5e3e 2a91 503e a452 563e cbed 853e
00000050: ad1e 5d3e 5ed0 943e 26d1 043e de97 4b3e
00000060: 50e0 493e 7c39 0a3e bfae 0b3e 30a8 8b3e
00000070: 5ebe 7a3e a894 9b3e 3800 6b3e fac2 453e
00000080: 6abb 7e3e f409 8f3c b770 4b3e 7d83 813e
00000090: 26d4 6b3e b5ea a93d b9c0 683e 151d 583e
000000a0: 417f 293e cefe 693e 7825 7f3e 0cd9 943e
000000b0: 1275 bb3c 0382 d53d 885f 6e3e f607 743e
000000c0: 76f3 1c3e dfd7 6a3e 00f5 e83f 293b 963f
000000d0: 2930 143f f738 513f 959b 183e 9e54 7a3f
000000e0: e9b3 203f 503f a43f 6066 823e e024 8f3e
000000f0: d009 263f 28ed 193f aed5 103f 5f84 0e3f
00000100: c39a bf3f f4c6 563f 0da3 a33e 969e e13e
00000110: 1421 a93f 8188 843f 10ba 4e3f ae65 823f
00000120: a786 d63e 9e2f ae3f e23d fabe 3ddb 483f
00000130: 0d6b 0d3f 973b 413f 9819 1a3f 7ae4 783f
00000140: 060c f63e a74d ec3e 0a21 253f 6a12 133d
00000150: d3ff 9f3e 1e01 303f 4c78 a73f 901d c6bd
00000160: f14a 8f3f e1f3 1a3f c824 293f 5bec b13f
00000170: b921 9b3f 26ed 213f 080a 163f 7b7c 0b3f
00000180: 27ab 003f 85d9 e73e 6593 6f3e 5771 183f
00000190: 43d4 12bd f840 3abd 7cb3 91bd 5e7b 553d
000001a0: 5139 20bd 6d78 433d 7839 7cbd cf0e 323d
000001b0: ce97 8f3d 6d31 403d 8a36 7bbd 39a4 adbd
000001c0: ad44 a3bd 6c28 4d3d 1f1a 373d f466 8dbd
000001d0: e9f8 61bd 9e96 5bbd d061 17bd ab9f 413d
000001e0: 21ad 2ebd b715 5ebd 1787 a0bd 59ad 36bd
000001f0: 2547 e8bd ac73 0ebd ad19 123d 9ea9 5fbd
00000200: 0805 873d d444 77bd 1539 88bd 0ceb 8a3d
00000210: 23fe 78bd 1118 c03b b314 6a3d 8ada 66bd
00000220: 2fa6 29bd 5ed4 6fbc a0df 27bd 6b3f 36bd
00000230: 8afd 24bd 61ac 20bd 0ad1 36bd eab7 7e3d
00000240: 3276 94bd a549 593d 7335 66bd bb4b 79bd
00000250: 7d88 803d 72c6 85bd

shared_encoder.gru_left.weight_ih_l0_reverse f4 [150, 50]
0.3072185 0.21890362 -0.293627 -0.322255 -0.06279407 0.32747796 -0.29170302 -0.078586586
0.25682336 0.20472285 0.17423408 -0.2693089 0.14363384 0.28136668 -0.16993974 -0.26358655
0.4162112 -0.034851417 0.16251002 0.4557347 -0.2549162 0.3959258 -0.287575 -0.16464849
0.1790633 -0.21785241 -0.23370777 -0.3302406 -0.20703764 0.30440763 -0.21803445 -0.27995858
0.35616723 0.31331038 0.0747385 -0.15118548 0.30215243 0.28695747 -0.17509076 0.2651344
-0.17451589 -0.34656766 -0.1625366 -0.40569934 0.13662153 0.2866531 0.14715087 -0.06180968
-0.27508757 0.26776227 0.50610036 0.29420093 -0.5076566 -0.53835547 -0.29443097 0.48979756
-0.50294507 0.32073608 0.34220156 0.49596378 0.23932108 -0.48099017 0.4359524 0.44940007
-0.20212159 -0.5184117 0.49262953 0.32854095 0.1675866 0.47079796 -0.3312039 0.41144156
-0.38565993 -0.4308822 0.4362645 -0.27393588 -0.34240043 -0.5481827 -0.49218112 0.5052169
-0.49410406 -0.39121285 0.57779455 0.54977316 0.291144 -0.24479428 0.56716615 0.35722613
-0.42890295 0.49468297 -0.46603793 -0.5713099 -0.37631363 -0.5913766 0.44140542 0.5291555
0.43025693 -0.19697513 -0.3545784 0.48996788 0.04861176 0.015167304 -0.033936284 -0.040859636
-0.20436954 0.022878857 -0.035458863 0.07794899 0.020045009 0.08969253 0.008766479 -0.024843885
0.14003648 0.04331331 -0.03234408 -0.07334676 0.060156785 0.07216055 0.007179098 0.009173314
-0.043450344 0.022274524 -0.04271256 -0.10838222 0.08816081 -0.035267852 -0.037478734 -0.039045803
-0.059927005 0.034934685 -0.09840824 -0.05777312 0.0067576957 0.046003602 0.17211339 -0.023230787
0.07834905 0.02437749 -0.09230531 0.070757955 -0.08040394 -0.049191434 -0.20933025 -0.03270945
0.0927331 0.035921022 0.17279346 -0.033008568 -0.02189433 0.034702186 0.6090913 0.19332062
-0.6088449 -0.6351493 -0.10082733 0.6645762 -0.5752106 -0.67618597 0.2979569 0.43280303
-0.28021157 -0.49953645 0.31679106 0.13169023 0.5388582 -0.5371672 0.55834395 -0.80519724
-0.58946556 0.63918686 -0.3688156 0.41131654 0.043262273 -0.29797593 0.34680927 0.15212324
-0.14624415 -0.6412588 -0.45052212 0.5938205 -0.39572003 -0.14801668 0.7057274 0.59978604
0.07014046 0.35555562 0.52512175 0.01184793 -0.33261874 0.51115936 -0.30738884 -0.6579615
-0.21507591 -0.7504432 0.25916702 0.61009437 0.26653576 0.7097778 -0.40151605 0.5819698
0.19474411 0.0959287 -0.18957393 -0.20922507 -0.20449112 0.17831194 -0.19056778 0.19155568
0.084375754 0.22050346 0.07086019 -0.13921195 0.25765237 0.23050088 -0.10927011 -0.23931886
0.22834805 0.16489972 0.08755293 0.20319602 -0.09377374 0.1586125 -0.15543559 -0.18977185
0.15738538 -0.08523153 -0.09002757 -0.22103652 -0.17806457 0.16130418 -0.21909687 -0.14805278
0.21659814 0.19708934 0.19499785 -0.09787813 0.24995035 0.14619468 -0.18667535 0.21995133
-0.19985914 -0.2516545 -0.24213903 -0.27483797 0.19091862 0.22261304 0.2695672 -0.111403
-0.12277204 0.17847015 -0.063039884 -0.16494286 0.042010974 0.077081256 -0.3343821 -0.10751789
00000000: be4b 9d3e 4528 603e 4756 96be 9bfe a4be
00000010: 2d9a 80bd 31ab a73e 195a 95be 01f2 a0bd
00000020: 5a7e 833e dea2 513e 6b6a 323e dbe2 89be
00000030: c014 133e 4b0f 903e af04 2ebe d1f4 86be
00000040: a219 d53e 5cc0 0ebd 0769 263e 0f56 e93e
00000050: 6084 82be c9b6 ca3e 083d 93be 9d99 28be
00000060: 5f5c 373e b414 5fbe 1751 6fbe 4c15 a9be
00000070: ad01 54be 51db 9b3e 6c44 5fbe bb56 8fbe
00000080: 8d5b b63e 386a a03e 8010 993d 5ed0 1abe
00000090: b9b3 9a3e 17ec 923e fe4a 33be b2bf 873e
000000a0: 4bb4 32be 5171 b1be ff6f 26be d3b7 cfbe
000000b0: 84e6 0b3e 32c4 923e b8ae 163e 262c 7dbd
000000c0: 47d8 8cbe 2318 893e cb8f 013f 81a1 963e
000000d0: c8f5 01bf aad1 09bf a8bf 96be bfc6 fa3e
000000e0: 02c1 00bf 8537 a43e 0b35 af3e f7ee fd3e
000000f0: 9610 753e 5844 f6be 2735 df3e c417 e63e
00000100: f6f8 4ebe a1b6 04bf f039 fc3e 8536 a83e
00000110: d29b 2b3e 6e0c f13e 8f93 a9be 78a8 d23e
00000120: 3875 c5be 979c dcbe 0f5e df3e 5341 8cbe
00000130: 1c4f afbe b455 0cbf 2aff fbbe e555 013f
00000140: 35fb fcbe 0d4d c8be 58ea 133f efbd 0c3f
00000150: d410 953e 5aab 7abe cd31 113f 58e6 b63e
00000160: 2b99 dbbe 1647 fd3e 869c eebe 5e41 12bf
00000170: 2eac c0be 7564 17bf e4ff e13e bc76 073f
00000180: a34a dc3e d9b3 49be 4d8b b5be 12dd fa3e
00000190: 201d 473d 4980 783c c600 0bbd 6f5c 27bd
000001a0: 4046 51be 716c bb3c 503d 11bd b8a3 9f3d
000001b0: 6e35 a43c b8b0 b73d 47a1 0f3c 6785 cbbc
000001c0: b965 0f3e 4c69 313d 3a7b 04bd d336 96bd
000001d0: f666 763d e9c8 933d a43e eb3b ab4b 163c
000001e0: fdf8 31bd 1079 b63c 5ef3 2ebd 7ff7 ddbd
000001f0: a88d b43d 0675 10bd 4d83 19bd 7eee 1fbd
00000200: 0576 75bd ac17 0f3d 428a c9bd 82a3 6cbd
00000210: a96f dd3b 466e 3c3d 7e3e 303e 7e4e bebc
00000220: 7775 a03d 4db3 c73c 910a bdbd 8ce9 903d
00000230: d2aa a4bd f57c 49bd ab5a 56be 58fa 05bd
00000240: daea bd3d ec21 133d c5f0 303e fe33 07bd
00000250: bd5b b3bc e123 0e3d 68ed 1b3f d7f5 453e
00000260: 42dd 1bbf 2599 22bf 8f7e cebd aa21 2a3f
00000270: 0041 13bf 861a 2dbf cf8d 983e 5c98 dd3e
00000280: e477 8fbe 3ec3 ffbe 7032 a23e ced9 063e
00000290: 9cf2 093f ca83 09bf a1ef 0e3f 6821 4ebf
000002a0: 37e7 16bf c0a1 233f 66d5 bcbe 1598 d23e
000002b0: c833 313d 4d90 98be fc90 b13e 32c6 1b3e
000002c0: 07c1 15be 8929 24bf d6aa e6be 9f04 183f
000002d0: d19b cabe af91 17be 8daa 343f 948b 193f
000002e0: cda5 8f3d 630b b63e 616e 063f d21d 423c
000002f0: 014d aabe 57db 023f 1262 9dbe 2a70 28bf
00000300: dc3c 5cbe 0c1d 40bf 8ab1 843e 252f 1c3f
00000310: 6077 883e ffb3 353f 8393 cdbe f9fb 143f
00000320: 006b 473e 4476 c43d ab1f 42be 193f 56be
00000330: 1f66 51be 6897 363e 3324 43be 2c27 443e
00000340: 32cd ac3d a9cb 613e 261f 913d 948d 0ebe
00000350: 03eb 833e 6c08 6c3e 02c9 dfbd 0110 75be
00000360: 12d4 693e 79db 283e f34e b33d 9e12 503e
00000370: 720c c0bd 516b 223e 822a 1fbe 8d53 42be
00000380: a229 213e de8d aebd 6060 b8bd 6657 62be
00000390: 8f56 36be ec2c 253e ee5a 60be 269b 17be
000003a0: e7cb 5d3e cad1 493e 84ad 473e 5474 c8bd
000003b0: fcf2 7f3e 0fb4 153e d327 3fbe ec3a 613e
000003c0: e0a7 4cbe dcd8 80be 4bf3 77be 90b7 8cbe
000003d0: 2c80 433e acf4 633e b604 8a3e 4227 e4bd
000003e0: e86f fbbd e1c0 363e 0e1b 81bd c8e6 28be
000003f0: b313 2c3d c7dc 9d3d 2134 abbe 5732 dcbd

shared_encoder.gru_left.weight_hh_l0_reverse f4 [150, 50]
0.24132563 0.0036922493 -0.027760627 0.11434359 -0.03665189 0.04624404 0.18438084 0.01701573
0.052860532 -0.052795958 -0.037019636 -0.031380385 -0.034103636 0.008468359 0.06288603 0.045247387
0.019300167 0.040238317 0.057425704 -0.018640656 -0.03285818 -0.13367671 -0.08127492 -0.021221464
-0.038974795 -0.0385344 -0.07199693 0.06683197 -0.00051178667 -0.009029013 0.056541104 0.0008920547
-0.029622883 0.022921091 0.04470622 -0.019602625 0.01598281 -0.19432433 0.010915853 0.05747623
0.04838204 -0.01162021 0.11161327 0.0777571 -0.016820759 -0.06879126 0.06068935 0.019378679
0.15782389 -0.0486997 -0.05493346 -0.07120742 0.023642795 0.3151826 -0.16722865 0.048980188
0.03979071 0.057495255 0.1155716 -0.12295063 -0.15105873 -0.03332006 -0.114126995 0.14289556
0.079632334 0.01714589 0.022762762 0.020775566 0.115474515 0.14618166 -0.011778693 -0.1477371
0.17727008 0.003540337 -0.08463425 -0.059626956 -0.13902469 0.1954573 -0.07990561 0.057912134
0.004776911 -0.040757824 0.13629597 0.012009647 0.026585573 -0.06538823 -0.032407045 -0.019006684
0.19541092 -0.13590398 0.058882974 -0.058101308 -0.14752649 -0.18902862 -0.13832328 -0.17015608
-0.15751842 0.17498298 0.0036429309 -0.09820061 -0.0072540003 0.022578372 0.12088621 0.059958745
-0.019511828 0.02075943 0.010195702 0.015056825 0.06459297 0.027567944 -0.021807827 -0.059630007
-0.00753125 0.029749153 0.06810854 0.048008945 -0.06827531 -0.021743685 0.051974975 0.019628882
0.004381495 0.0071608 0.039947215 -0.022548795 0.005091917 0.027410736 -0.0730787 0.019124517
-0.059425287 -0.010216066 0.023734735 -0.02529771 -0.07744918 0.012407265 0.04551434 -0.0023490307
0.033953886 0.011222597 0.0032237128 0.04693009 0.070640914 -0.07556236 -0.02891357 -0.0066709146
-0.036715273 -0.017356528 -0.025761498 0.024821512 -0.024711529 -0.009917461 -0.023893327 -0.13510756
0.060414102 -0.015481561 0.017894397 0.059383772 0.13202158 0.19174033 -0.1167153 -0.16923118
0.10737545 -0.043819744 0.11996838 -0.09157062 -0.19166437 -0.13629955 -0.04013682 0.14925355
-0.13526814 0.04298726 0.028490162 0.0033062757 -0.119068496 0.044551536 0.026617885 0.087895334
0.09172303 0.14018461 -0.0102992505 0.086786106 -0.24463835 0.0679181 -0.019610526 -0.12527323
0.026930826 -0.15587522 0.1554691 -0.11246755 0.058338046 -0.15551464 -0.018873665 -0.041799635
0.029425725 0.1341608 -0.110397786 0.25646132 0.04431871 -0.053692736 0.16248204 0.005785142
-0.019957164 -0.007859247 0.06382478 0.10432565 -0.07697202 0.07236965 -0.002914377 0.038057823
0.081065685 -0.02550011 0.0012118954 -0.08827642 -0.036321152 0.04851079 0.05499538 0.019448135
-0.032922238 0.0037610822 0.074727364 0.04223108 0.0005559399 -0.015682837 0.057008233 0.040537037
-0.007746106 -0.053083625 -0.069836184 -0.020623144 -0.09019557 0.023021968 0.016245067 0.0019886792
0.056940857 0.033884678 -0.0027555192 -0.0031380523 -0.046682194 0.020013822 0.03460143 0.010705785
0.010636236 0.022861494 -0.027816469 -0.042925686 0.013674825 -0.053497083 -0.05282263 -0.01056868
-0.010228255 0.010784966 -0.12195234 -0.12344236 -0.07000795 0.14512935 0.090691485 -0.11031249
00000000: 111e 773e aaf9 713b 416a e3bc f92c ea3d
00000010: 4b20 16bd 646a 3d3d 55ce 3c3e 9264 8b3c
00000020: 4984 583d 9340 58bd e7a1 17bd b888 00bd
00000030: 41b0 0bbd dfbe 0a3c 64ca 803d 5355 393d
00000040: 621b 9e3c efd0 243d 3737 6b3d 4ab4 98bc
00000050: 4d96 06bd 8ce2 08be 7773 a6bd a3d8 adbc
00000060: 09a4 1fbd 3fd6 1dbd 2073 93bd 33df 883d
00000070: 6c29 06ba 6dee 13bc a597 673d c7d8 693a
00000080: b0ab f2bc 03c5 bb3c df1d 373d af95 a0bc
00000090: 62ee 823c f5fc 46be 68d8 323c 326c 6b3d
000000a0: 3f2c 463d b162 3ebc 8095 e43d 1d3f 9f3d
000000b0: b0cb 89bc 6fe2 8cbd 6595 783d 09c0 9e3c
000000c0: 969c 213e 5679 47bd e801 61bd 32d5 91bd
000000d0: 89ae c13c 9d5f a13e fd3d 2bbe 739f 483d
000000e0: 95fb 223d 2580 6b3d ceb0 ec3d 8acd fbbd
000000f0: 24af 1abe 9e7a 08bd 6abb e9bd 3753 123e
00000100: 4716 a33d 8a75 8c3c f978 ba3c 8531 aa3c
00000110: e77d ec3d a5b0 153e 6bfb 40bc 6548 17be
00000120: 4a86 353e 0005 683b b954 adbd 653b 74bd
00000130: 7d5c 0ebe f525 483e 8da5 a3bd 4635 6d3d
00000140: a287 9c3b adf1 26bd 2c91 0b3e 1cc4 443c
00000150: fdc9 d93c 44ea 85bd 40bd 04bd e8b3 9bbc
00000160: cd19 483e 6a2a 0bbe 462f 713d a3fb 6dbd
00000170: 2f11 17be b890 41be 9ea4 0dbe 653d 2ebe
00000180: 824c 21be bd2e 333e 3dbe 6e3b 671d c9bd
00000190: f7b2 edbb 47f6 b83c 3093 f73d 4d97 753d
000001a0: 45d7 9fbc ae0f aa3c e00b 273c e7b0 763c
000001b0: 5249 843d 2bd6 e13c 54a6 b2bc 983e 74bd
000001c0: b4c8 f6bb 7fb4 f33c 7d7c 8b3d 07a5 443d
000001d0: edd3 8bbd d01f b2bc b6e3 543d c0cc a03c
000001e0: a592 8f3b 25a5 ea3b b19f 233d 40b8 b8bc
000001f0: 18da a63b 7b8c e03c 49aa 95bd 05ab 9c3c
00000200: ee67 73bd 4961 27bc 596f c23c 253d cfbc
00000210: ad9d 9ebd d747 4b3c 3f6d 3a3d 32f2 19bb
00000220: 3b13 0b3d fcde 373c ed44 533b c439 403d
00000230: 2fac 903d 70c0 9abd 27dc ecbc b097 dabb
00000240: c162 16bd 472f 8ebc c709 d3bc 7c56 cb3c
00000250: d56f cabc d97c 22bc f0bb c3bc a359 0abe
00000260: c774 773d 60a6 7dbc 4597 923c 663c 733d
00000270: aa30 073e 9457 443e 6e08 efbd f04a 2dbe
00000280: a9e7 db3d 557c 33bd fbb1 f53d 6189 bbbd
00000290: aa43 44be 1c92 0bbe 8266 24bd ecd5 183e
000002a0: bb83 0abe 6913 303d 3364 e93c 1aae 583b
000002b0: 2fda f3bd ac7b 363d c00d da3c 7802 b43d
000002c0: 49d9 bb3d 8e8c 0f3e 30be 28bc eabc b13d
000002d0: 7a82 7abe a518 8b3d 41a6 a0bc a047 00be
000002e0: 099e dc3c c19d 1fbe 4b33 1f3e 6355 e6bd
000002f0: e0f3 6e3d 3b3f 1fbe f29c 9abc 1836 2bbd
00000300: 380e f13c 7361 093e 3c18 e2bd e64e 833e
00000310: 8987 353d eaec 5bbd b161 263e 4a91 bd3b
00000320: 357d a3bc 12c4 00bc 91b6 823d b0a8 d53d
00000330: 82a3 9dbd 8a36 943d 22ff 3ebb 85e2 1b3d
00000340: c405 a63d 9be5 d0bc 76d8 9e3a 45ca b4bd
00000350: 7dc5 14bd 40b3 463d d642 613d b251 9f3c
00000360: 78d9 06bd 7d7c 763b a90a 993d 7ffa 2c3d
00000370: 7fbc 113a 4b79 80bc 7781 693d 2a0a 263d
00000380: 0cd3 fdbb 376e 59bd 4606 8fbd def1 a8bc
00000390: 74b8 b8bd 9198 bc3c 6014 853c 8054 023b
000003a0: d13a 693d a9ca 0a3d f195 34bb c8a7 4dbb
000003b0: d435 3fbd 07f4 a33c 3bba 0d3d 5167 2f3c
000003c0: 9b43 2e3c 0748 bb3c 5ddf e3bc d8d2 2fbd
000003d0: 600c 603c c21f 5bbd 8b5c 58bd 4228 2dbc
000003e0: 6994 27bc 6db3 303c 26c2 f9bd 59cf fcbd
000003f0: 5460 8fbd ca9c 143e 75bc b93d 84eb e1bd

shared_encoder.gru_left.bias_ih_l0_reverse f4 [150]
0.15363951 0.35565308 -0.22701237 0.61752486 -0.047219224 -0.6055081 0.17677025 0.00022483192
0.54750127 0.080917306 0.06462997 -0.18998623 0.24568577 0.26225623 0.533038 0.39807102
-0.089967884 0.1478282 0.54108703 0.15825662 0.08878558 0.20589049 0.0934991 -0.17460386
-0.059823647 0.15870644 0.5620034 0.10504098 -0.00350974 0.09319324 0.45927754 -0.30482912
-0.09376069 -0.33884183 -0.06885536 0.07608052 -0.0651609 0.20581283 -0.009053375 0.39428362
-0.06356707 -0.22187892 0.16988611 0.088058345 -0.0041036285 0.3089551 0.36595574 0.05901238
0.20914686 0.27154884 0.8671256 1.593839 2.3094912 0.5709552 1.795484 2.9767091
1.3465072 1.0621709 0.5633949 1.16291 1.8210016 2.1850483 0.91372716 0.75876355
0.5986896 0.5766962 1.8696176 1.2788146 0.57677144 1.2795935 1.7309676 1.2440596
1.0455551 2.1613128 2.0530736 1.9292139 0.55125254 1.814488 1.784046 1.5998098
0.6099409 2.2909787 2.1957512 2.1575837 1.9339324 1.1021196 2.0217383 0.92586017
1.3882798 0.77283245 2.1062582 1.9955955 0.90176326 1.0723221 1.4396782 0.8664201
1.5089763 1.5467187 0.799419 1.6432658 -0.013597267 0.0034802828 0.0039374293 0.061871435
0.004290253 -0.0006274748 -0.02737797 -0.00024635336 0.03445045 0.0064598043 -0.007776857 -0.00080317864
-0.023344405 0.02453901 0.031853955 0.016838165 0.0024247735 0.011663468 0.034084033 0.0013919162
0.024254961 0.016797414 0.02538456 -0.0053686295 0.007197227 -0.008873285 -0.03171872 -0.019012557
0.0029050573 0.024603488 0.020148873 0.005435698 0.0023306238 0.015356514 -0.008119063 -0.0036991187
-0.025547286 0.006858137 0.00604719 0.0124065755 0.00035507255 -0.018231245 -0.0064614294 -0.013486377
0.0032719856 -0.014337193 0.008296731 0.0050488734 -0.01941635 0.02020805
00000000: ad53 1d3e 2918 b63e ee75 68be 1c16 1e3f
00000010: f268 41bd 9402 1bbf 4303 353e dcc0 6b39
00000020: 0b29 0c3f f9b7 a53d b85c 843d c08b 42be
00000030: 0d95 7b3e 7346 863e 2e75 083f f7cf cb3e
00000040: 1541 b8bd 4760 173e ae84 0a3f 060e 223e
00000050: 37d5 b53d f5d4 523e 757c bf3d 5bcb 32be
00000060: a409 75bd f183 223e 74df 0f3f ba1f d73d
00000070: ab03 66bb 19dc be3d 6d26 eb3e 9012 9cbe
00000080: 9b05 c0bd ad7c adbe 0a04 8dbd 1bd0 9b3d
00000090: 1473 85bd 99c0 523e 9b54 14bc 8bdf c93e
000000a0: 742f 82bd 3a34 63be a0f6 2d3e ef57 b43d
000000b0: bb77 86bb 5d2f 9e3e 8d5e bb3e f7b6 713d
000000c0: 982a 563e 7308 8b3e f1fb 5d3f eb02 cc3f
000000d0: b4ce 1340 1f2a 123f 6bd2 e53f 6782 3e40
000000e0: 595a ac3f 37f5 873f a63a 103f 3cda 943f
000000f0: 9516 e93f d5d7 0b40 06ea 693f 543e 423f
00000100: b943 193f 5da2 133f a14f ef3f 32b0 a33f
00000110: 4ba7 133f b8c9 a33f 5990 dd3f 583d 9f3f
00000120: c0d4 853f f352 0a40 8f65 0340 7bf0 f63f
00000130: e31e 0d3f 2541 e83f 9f5b e43f 91c6 cc3f
00000140: 1625 1c3f 659f 1240 3087 0c40 da15 0a40
00000150: 198b f73f 4112 8d3f 2964 0140 2c05 6d3f
00000160: 27b3 b13f 59d8 453f efcc 0640 ac6f ff3f
00000170: f5d9 663f da41 893f 6047 b83f b5cd 5d3f
00000180: 2326 c13f e1fa c53f b9a6 4c3f 8956 d23f
00000190: 12c7 5ebc 7515 643b 8d05 813b e76c 7d3d
000001a0: 4095 8c3b 1f7d 24ba c447 e0bc fd28 81b9
000001b0: ea1b 0d3d c4ac d33b 01d5 febb 688c 52ba
000001c0: c43c bfbc 0906 c93c 4b79 023d 31f0 893c
000001d0: f3e8 1e3b 2118 3f3c b39b 0b3d f570 b63a
000001e0: 57b2 c63c bb9a 893c 48f3 cf3c 54eb afbb
000001f0: b7d6 eb3b 4161 11bc 7deb 01bd 39c0 9bbc
00000200: c662 3e3b 418d c93c 400f a53c f11d b23b
00000210: 61bd 183b e399 7b3c d205 05bc ea6c 72bb
00000220: 8b48 d1bc 39ba e03b 8227 c63b f344 4b3c
00000230: 0829 ba39 b159 95bc 66ba d3bb f7f5 5cbc
00000240: cf6e 563b 8ce6 6abc 03ef 073c 0571 a53b
00000250: 0a0f 9fbc 5a8b a53c

shared_encoder.gru_left.bias_hh_l0_reverse f4 [150]
0.15363951 0.35565308 -0.22701237 0.61752486 -0.047219224 -0.6055081 0.17677025 0.00022483192
0.54750127 0.080917306 0.06462997 -0.18998623 0.24568577 0.26225623 0.533038 0.39807102
-0.089967884 0.1478282 0.54108703 0.15825662 0.08878558 0.20589049 0.0934991 -0.17460386
-0.059823647 0.15870644 0.5620034 0.10504098 -0.00350974 0.09319324 0.45927754 -0.30482912
-0.09376069 -0.33884183 -0.06885536 0.07608052 -0.0651609 0.20581283 -0.009053375 0.39428362
-0.06356707 -0.22187892 0.16988611 0.088058345 -0.0041036285 0.3089551 0.36595574 0.05901238
0.20914686 0.27154884 0.8671256 1.593839 2.3094912 0.5709552 1.795484 2.9767091
1.3465072 1.0621709 0.5633949 1.16291 1.8210016 2.1850483 0.91372716 0.75876355
0.5986896 0.5766962 1.8696176 1.2788146 0.57677144 1.2795935 1.7309676 1.2440596
1.0455551 2.1613128 2.0530736 1.9292139 0.55125254 1.814488 1.784046 1.5998098
0.6099409 2.2909787 2.1957512 2.1575837 1.9339324 1.1021196 2.0217383 0.92586017
1.3882798 0.77283245 2.1062582 1.9955955 0.90176326 1.0723221 1.4396782 0.8664201
1.5089763 1.5467187 0.799419 1.6432658 0.021365624 0.032725252 0.012542856 -0.045486514
-0.0025788804 -0.0050333194 -0.017371574 0.012068115 -0.045098625 -0.0028096384 -0.018433029 -0.0101296455
0.019107573 -0.010172101 -0.047702573 -0.04368447 -0.0023714672 0.020852502 -0.04342254 0.006772671
0.03685395 0.009664844 0.010984148 -0.006524283 -0.0036240174 0.0017131511 0.041036293 -0.01166327
-0.0024668993 0.031761874 -0.055188093 -0.0043400964 -0.011082707 0.02868206 -0.0021312325 -0.021660335
-0.010313914 -0.02145125 0.011890433 -0.04269003 0.011744079 -0.008783098 0.022794737 0.016253605
-0.012755438 0.03038838 0.032712664 0.011902599 0.01350413 0.015249555
00000000: ad53 1d3e 2918 b63e ee75 68be 1c16 1e3f
00000010: f268 41bd 9402 1bbf 4303 353e dcc0 6b39
00000020: 0b29 0c3f f9b7 a53d b85c 843d c08b 42be
00000030: 0d95 7b3e 7346 863e 2e75 083f f7cf cb3e
00000040: 1541 b8bd 4760 173e ae84 0a3f 060e 223e
00000050: 37d5 b53d f5d4 523e 757c bf3d 5bcb 32be
00000060: a409 75bd f183 223e 74df 0f3f ba1f d73d
00000070: ab03 66bb 19dc be3d 6d26 eb3e 9012 9cbe
00000080: 9b05 c0bd ad7c adbe 0a04 8dbd 1bd0 9b3d
00000090: 1473 85bd 99c0 523e 9b54 14bc 8bdf c93e
000000a0: 742f 82bd 3a34 63be a0f6 2d3e ef57 b43d
000000b0: bb77 86bb 5d2f 9e3e 8d5e bb3e f7b6 713d
000000c0: 982a 563e 7308 8b3e f1fb 5d3f eb02 cc3f
000000d0: b4ce 1340 1f2a 123f 6bd2 e53f 6782 3e40
000000e0: 595a ac3f 37f5 873f a63a 103f 3cda 943f
000000f0: 9516 e93f d5d7 0b40 06ea 693f 543e 423f
00000100: b943 193f 5da2 133f a14f ef3f 32b0 a33f
00000110: 4ba7 133f b8c9 a33f 5990 dd3f 583d 9f3f
00000120: c0d4 853f f352 0a40 8f65 0340 7bf0 f63f
00000130: e31e 0d3f 2541 e83f 9f5b e43f 91c6 cc3f
00000140: 1625 1c3f 659f 1240 3087 0c40 da15 0a40
00000150: 198b f73f 4112 8d3f 2964 0140 2c05 6d3f
00000160: 27b3 b13f 59d8 453f efcc 0640 ac6f ff3f
00000170: f5d9 663f da41 893f 6047 b83f b5cd 5d3f
00000180: 2326 c13f e1fa c53f b9a6 4c3f 8956 d23f
00000190: f606 af3c ea0a 063d 8d80 4d3c 1150 3abd
000001a0: 6f02 29bb 8bee a4bb d54e 8ebc 58b9 453c
000001b0: 56b9 38bd e921 38bb dd00 97bc d0f6 25bc
000001c0: 7c87 9c3c e2a8 26bc c663 43bd 7dee 32bd
000001d0: 9e6a 1bbb ded2 aa3c d5db 31bd 48ed dd3b
000001e0: 2bf4 163d 4b59 1e3c dbf6 333c a7c9 d5bb
000001f0: ec80 6dbb d08b e03a ac15 283d 4d17 3fbc
00000200: b4ab 21bb bd18 023d e90c 62bd 5e37 8ebb
00000210: 3e94 35bc a4f6 ea3c 26ac 0bbb 0471 b1bc
00000220: b1fb 28bc 88ba afbc 17d0 423c bedb 2ebd
00000230: 3d6a 403c fce6 0fbc 07bc ba3c 4826 853c
00000240: 2ffc 50bc 0df1 f83c b7fd 053d 1e03 433c
00000250: 6d40 5d3c 45d9 793c
