checkpoints/bestmodel.pt (torch_old, 94773 bytes, 34 tensors)

shared_encoder.input_linear.weight f4 [20, 11]
0.091898255 0.00086237385 -0.010198927 -0.015220193 0.010611849 0.002255459 0.0071619954 -0.0111532025
0.0071142535 -0.003929237 -0.0022980908 0.07733893 0.0037874212 -0.038362604 0.008610101 0.01857886
-0.017491277 0.0010990582 0.0020280639 0.019956024 -0.013075138 -0.018503336 -0.08743813 -0.0014618675
0.022722023 0.008767556 0.007621308 -0.017936682 0.011807865 0.0062031825 0.0012385299 -0.0077788658
-0.008830419 0.091618605 0.0038111843 -0.0001494192 -0.004397948 0.009671692 -0.008524373 -0.009450869
0.007728509 0.0071249944 0.025213854 0.005600777 0.0834992 0.004796581 -0.005404631 -0.0014021306
0.014654196 0.0050199423 -0.012699713 0.0042113774 -0.011035535 0.021594744 -0.014377635 0.08366113
-0.0031442845 -0.01947469 -0.01307131 0.00499115 -0.0115972785 -0.0034186153 0.005114347 0.02232149
0.019008696 0.01288563 0.08095206 -5.5411816e-05 0.011169299 -0.0055437037 0.0059769363 0.010663283
-0.008200745 0.00090017606 -0.008017024 -0.0041412585 0.004908409 0.0955199 0.0120281475 0.016719665
0.007803261 -0.002230037 0.004994957 -0.0036129602 -0.011136665 0.013577535 0.0036766478 0.008169218
-0.07884011 -0.03262625 0.019451672 0.004195086 -0.0072738184 -0.009241898 0.011190628 0.004056862
-0.006550613 -0.002761784 -0.016681097 -0.088243425 -0.016045664 0.017533367 0.0021053804 0.015335278
0.002851467 -0.0020404137 -0.00047892195 -0.006956928 -0.00082181976 -0.0022029546 0.08487604 -0.002350091
-0.025722379 -0.0067922296 -0.019593012 0.008045595 0.0004927999 -0.02094795 0.01636121 0.016897164
0.012181545 0.08215102 0.011040388 0.001470734 -0.0051849587 0.0041438276 -0.009458094 0.0018886016
0.016238097 0.026046768 -0.011985218 -0.002189456 0.079401225 0.021599386 -0.029887374 -0.0027329007
-0.0005526751 0.014453654 0.0063228495 -0.011907063 0.008553705 0.0057776207 0.024988616 -0.082353726
-0.009974174 0.0072006756 0.024984093 -0.00904656 0.007159983 0.01106023 -0.0005667403 -0.015533472
-0.0067752977 0.0099059 -0.090337135 -0.016706407 0.002260925 -0.005207279 -0.0008486099 0.00629277
0.0037145969 -0.0127292015 -0.0008383796 0.0191963 0.005404788 0.116667055 0.027508136 -0.019637322
-0.0048274216 -0.014001919 -0.0056757117 0.0020515157 -0.021039814 0.020589123 0.004043785 0.01255121
0.09818382 0.0041837273 -0.009472423 -0.0065791267 -0.0076970463 0.0027066325 -0.0015027497 -0.014678562
0.01056098 -0.0031184326 0.0149255255 0.10102215 0.018457204 -0.020717882 -0.013085867 -0.023514206
-0.012613284 0.0014978081 0.0021504322 0.0035902045 0.017418144 0.0016521421 0.075335376 0.010326172
-0.01146598 -0.021080995 -0.011786586 -0.0014785808 -0.0024327924 0.016259175 0.016617667 0.017012361
0.015445639 -0.09792579 0.008706095 0.032311544 0.0036414627 0.006294224 -0.0042405035 -0.0026929087
0.0019560624 -0.0117997965 -0.014229166 0.0127391135
00000000: 2735 bc3d ee10 623a 6619 27bc 1e5e 79bc
00000010: 52dd 2d3c 53d0 133b 2caf ea3b ecbb 36bc
00000020: af1e e93b d4c0 80bb 919b 16bb df63 9e3d
00000030: 6236 783b 1b22 1dbd 6211 0d3c b232 983c
00000040: de49 8fbc 460e 903a 44e9 043b d17a a33c
00000050: 1b39 56bc 4f94 97bc c312 b3bd 229c bfba
00000060: 8923 ba3c cca5 0f3c 2abc f93b f3ef 92bc
00000070: c775 413c 1144 cb3b 2b56 a23a dbe5 febb
00000080: 76ad 10bc 89a2 bb3d 10c5 793b 69ad 1cb9
00000090: a91c 90bb 0476 1e3c d0a9 0bbc d1d7 1abc
000000a0: 6f3f fd3b c978 e93b 498d ce3c b986 b73b
000000b0: a101 ab3d a32c 9d3b 5519 b1bb b2c7 b7ba
000000c0: 2718 703c 547e a43b 7512 50bc 98ff 893b
000000d0: 63ce 34bc 76e7 b03c 2c90 6bbc 8756 ab3d
000000e0: 5710 4ebb 6389 9fbc 0c29 56bc cd8c a33b
000000f0: 8302 3ebc d90a 60bb 4196 a73b 8fdb b63c
00000100: 20b8 9b3c 401e 533c 32ca a53d fc69 68b8
00000110: 6fff 363c f5a7 b5bb 2dda c33b 0db5 2e3c
00000120: 6b5c 06bc cbf9 6b3a d659 03bc 65b3 87bb
00000130: b8d6 a03b f09f c33d b511 453c aef7 883c
00000140: 7fb2 ff3b d025 12bb bcac a33b 6ac7 6cbb
00000150: 8f76 36bc 4f74 5e3c eaf3 703b 2fd8 053c
00000160: ec76 a1bd 1aa3 05bd 1d59 9f3c ef76 893b
00000170: 3659 eebb 546b 17bc e558 373c 6def 843b
00000180: 86a6 d6bb 0cff 34bb cca6 88bc f8b8 b4bd
00000190: 3272 83bc 23a2 8f3c 6cfa 093b d140 7b3c
000001a0: aedf 3a3b 76b8 05bb d117 fbb9 f1f6 e3bb
000001b0: 646f 57ba 725f 10bb 7dd3 ad3d fc03 1abb
000001c0: bdb7 d2bc 5a91 debb 8681 a0bc acd1 033c
000001d0: 3e2f 013a 099b abbc f207 863c ec6b 8a3c
000001e0: 1a95 473c cb3e a83d bee2 343c a5c5 c03a
000001f0: 96e6 a9bb f2c8 873b 1ff6 1abc f48a f73a
00000200: c205 853c 0860 d53c a65d 44bc fa7c 0fbb
00000210: 1c9d a23d 32f1 b03c 5ed6 f4bc 771a 33bb
00000220: 66e1 10ba 05cf 6c3c e82f cf3b d815 43bc
00000230: d724 0c3c 3252 bd3b edb4 cc3c 12a9 a8bd
00000240: b86a 23bc a5f3 eb3b 71ab cc3c 0638 14bc
00000250: 4a9e ea3b f835 353c 4c91 14ba 1b80 7ebc
00000260: 5103 debb 5b4c 223c ad02 b9bd e0db 88bc
00000270: 072c 143b d3a1 aabb 3f75 5eba 9533 ce3b
00000280: 9870 733b 248e 50bc b4c6 5bba 8f41 9d3c
00000290: a61a b13b 23ef ee3d be58 e13c 73de a0bc
000002a0: 592f 9ebb 4e68 65bc 52fb b9bb b972 063b
000002b0: b05b acbc 85aa a83c ba81 843b 97a3 4d3c
000002c0: 9914 c93d a617 893b 3932 1bbc b795 d7bb
000002d0: 8137 fcbb c261 313b eaf7 c4ba 5a7e 70bc
000002e0: f607 2d3c 9e5e 4cbb 318a 743c b3e4 ce3d
000002f0: 9033 973c 8cb8 a9bc 1b66 56bc dda0 c0bc
00000300: f3a7 4ebc 1a52 c43a 44ee 0c3b a349 6b3b
00000310: 7fb0 8e3c b18c d83a 6f49 9a3d 1b2f 293c
00000320: cedb 3bbc 0db2 acbc 861c 41bc f0cc c1ba
00000330: 7c6f 1fbb f631 853c c621 883c 825d 8b3c
00000340: b50f 7d3c 518d c8bd 02a4 0e3c 1c59 043d
00000350: 9ba5 6e3b c73f ce3b ecf3 8abb 837b 30bb
00000360: 4831 003b ef53 41bc 7321 69bc b7b7 503c

shared_encoder.input_linear.bias f4 [20]
-0.006161092 -0.0016350064 0.0006004701 -0.004108438 -0.002411622 -0.0009976052 -0.001033917 -0.0028560048
0.0031634888 0.0029202302 -0.00079141324 -0.0056413817 0.0013969827 0.0045920224 0.008228336 -0.009354652
-0.0057575055 -0.0078038042 -0.0055320016 0.003540378
00000000: fce2 c9bb b64d d6ba de68 1d3a 13a0 86bb
00000010: 4e0c 1ebb 13c2 82ba 7f84 87ba cf2b 3bbb
00000020: 8952 4f3b 5561 3f3b d876 4fba 57db b8bb
00000030: f61a b73a ad78 963b 25d0 063c 4144 19bc
00000040: 75a9 bcbb 0eb7 ffbb cb45 b5bb b005 683b

shared_encoder.gru.weight_ih_l0 f4 [60, 20]
0.005811561 0.050548002 -0.034138754 0.013282478 0.028982194 0.028068902 0.012976802 0.020975966
-0.031216945 -0.026512017 0.041459627 0.04757452 0.020969022 -0.019055499 -0.014240966 0.047982927
0.014231934 0.025262317 0.03260834 -0.02519905 0.040897295 0.07709879 -0.030366847 0.021684764
0.009501959 0.04390956 0.02639937 0.016030801 -0.008664336 -0.03339576 0.028228244 0.047036584
0.035139192 -0.0163847 0.0042089103 0.03577752 0.02250473 0.01918035 0.00525241 -0.022394689
0.017766584 0.072014995 -0.01685658 0.008104487 0.02639853 0.039255306 0.025981624 0.0067872177
-0.027599743 -0.021696882 0.037421383 0.028279938 0.01617326 -0.026459958 -0.0122701805 0.01793756
0.009221055 0.01722399 0.013323691 -0.03187737 0.08026796 0.072659336 -0.045515314 0.036563948
0.03937933 0.06709715 0.035570547 0.05105107 -0.04894988 -0.06101319 0.061592292 0.048993163
0.07256341 -0.05769136 -0.051132564 0.051255837 0.047763754 0.060304627 0.0629671 -0.06294764
0.045990784 0.06258573 -0.020585947 0.036027372 0.031909622 0.037958898 0.034855325 0.02430411
-0.035763994 -0.032622658 0.016772801 0.028551942 0.03696298 -0.018481646 -0.015873022 0.024139361
0.015976215 0.0299798 0.025182886 -0.04274689 0.045719344 0.06900003 -0.033659726 0.01945058
0.03112458 0.049615007 0.026366213 0.014318227 -0.024210317 -0.048433267 0.04536416 0.038369887
0.04516246 -0.026741503 -0.014529259 0.044629145 0.021993302 0.014278759 0.02154394 -0.038324974
0.016128395 0.048681654 -0.014223128 0.045299303 0.015364735 0.049494617 0.021175625 0.02791715
-0.056649316 -0.014539129 0.023352621 0.020150779 0.030325396 -0.03349614 -0.04468136 0.018513191
0.023324322 0.016803266 0.022110892 -0.015713599 0.032594483 0.058474142 -0.045900937 0.022836106
0.016991157 0.045210525 0.024871329 0.025508331 -0.0152891595 -0.005275969 0.04669795 0.04099404
0.039082557 -0.01918893 -0.006681217 0.022105796 0.014894053 0.020226557 0.03738006 -0.02174366
0.05306071 0.038520414 -0.018417299 0.03334974 0.0108945165 0.036170468 0.023784013 0.00858177
-0.028886406 -0.034753576 0.03739848 0.012502676 0.031816732 -0.01966185 -0.018877598 0.022444505
0.035944972 0.022587216 0.026640603 -0.032777265 0.045447085 0.065062776 -0.031580683 0.039383207
0.016178787 0.028725833 0.023371033 0.020357484 -0.0312746 -0.026261566 0.045142904 0.03275992
0.046292096 -0.05068948 -0.025530528 0.04785167 0.018160325 0.013161258 0.033407442 -0.03351137
0.030129611 0.056936756 -0.030056885 0.041669924 0.0186222 0.034945287 0.013282023 0.011645798
-0.024553146 -0.033064883 0.044531483 0.035396278 0.021352626 -0.04903774 -0.03053562 0.029201046
0.0362823 0.022743532 0.028764749 -0.03855209 0.034650136 0.053509355 -0.017554058 0.029652432
0.024896804 0.039792493 0.008257041 0.015721545 -0.021546584 -0.016963517 0.034635954 0.05859773
0.032152604 -0.026189867 -0.030149383 0.039353754 0.008523227 0.008478314 0.036436733 -0.02508015
0.013288453 0.029285936 -0.011504932 0.029550463 0.024435533 0.018049136 0.019982552 0.01023195
-0.02638048 -0.023390377 0.024962654 0.03896747 0.03874921 -0.021687578 -0.028671129 0.017763048
00000000: e86e be3b 6c0b 4f3d 14d5 0bbd c09e 593c
00000010: 116c ed3c c1f0 e53c a79c 543c cad5 ab3c
00000020: aeba ffbc bb2f d9bc 92d1 293d 80dd 423d
00000030: 3ac7 ab3c 471a 9cbc f152 69bc bf89 443d
00000040: 0f2d 693c ebf2 ce3c 5390 053d 3d6e cebc
00000050: ec83 273d f8e5 9d3d e5c3 f8bc 3fa4 b13c
00000060: 1bae 1b3c 83da 333d 7e43 d83c 0753 833c
00000070: dcf4 0dbc fec9 08bd eb3e e73c 6fa9 403d
00000080: 1dee 0f3d 3539 86bc e6ea 893b 738b 123d
00000090: d75b b83c 1c20 9d3c 691c ac3b 1175 b7bc
000000a0: 3a8b 913c 997c 933d cf16 8abc afc8 043c
000000b0: bb41 d83c 2cca 203d 6ad7 d43c 4f67 de3b
000000c0: db18 e2bc a9bd b1bc 2a47 193d 54ab e73c
000000d0: c97d 843c 8ec2 d8bc de08 49bc caf1 923c
000000e0: e813 173c 5319 8d3c 9c4b 5a3c d891 02bd
000000f0: 8763 a43d 6bce 943d 446e 3abd 14c4 153d
00000100: 384c 213d 3b6a 893d 6cb2 113d ed1a 513d
00000110: ab7f 48bd f7e8 79bd 3348 7c3d 0ead 483d
00000120: 209c 943d c74d 6cbd 6170 51bd a4f1 513d
00000130: eda3 433d fc01 773d e5f4 803d b1ea 80bd
00000140: d560 3c3d f22c 803d dca3 a8bc 7091 133d
00000150: aab3 023d ca7a 1b3d 75c4 0e3d 6a19 c73c
00000160: 447d 12bd 569f 05bd 1d67 893c c3e5 e93c
00000170: 7e66 173d d266 97bc 2408 82bc e9bf c53c
00000180: 8de0 823c 3398 f53c 574c ce3c 5d17 2fbd
00000190: 3544 3b3d e34f 8d3d c8de 09bd d356 9f3c
000001a0: faf8 fe3c 1b39 4b3d f5fd d73c ff96 6a3c
000001b0: b754 c6bc f661 46bd c5cf 393d be29 1d3d
000001c0: 46fc 383d ff10 dbbc 210c 6ebc 0dcd 363d
000001d0: 4c2b b43c 75f1 693c eb7c b03c a6fa 1cbd
000001e0: b21f 843c 6a66 473d 1f08 69bc c38b 393d
000001f0: 5fbc 7b3c deba 4a3d 8178 ad3c 82b2 e43c
00000200: 1d09 68bd 8735 6ebc ff4d bf3c 3f13 a53c
00000210: f76c f83c 4033 09bd cd03 37bd faa8 973c
00000220: a612 bf3c 01a7 893c e721 b53c ceb9 80bc
00000230: cb81 053d 9582 6f3d 9f02 3cbd c912 bb3c
00000240: 0a31 8b3c ac2e 393d f5be cb3c d9f6 d03c
00000250: 627f 7abc 09e2 acbb 5a46 3f3d 5ee9 273d
00000260: 0815 203d 1a32 9dbc 1cee dabb 3717 b53c
00000270: 3006 743c 2ab2 a53c d51b 193d c31f b2bc
00000280: 3056 593d 95c7 1d3d e0df 96bc bd99 083d
00000290: ea7e 323c 7c27 143d b1d6 c23c 8d9a 0c3c
000002a0: 2fa3 ecbc c459 0ebd 262f 193d 06d8 4c3c
000002b0: 4352 023d e311 a1bc 31a5 9abc 8add b73c
000002c0: 093b 133d d308 b93c 653d da3c 7441 06bd
000002d0: b926 3a3d a23f 853d bf5a 01bd 4950 213d
000002e0: 6089 843c 7052 eb3c 9c74 bf3c bdc4 a63c
000002f0: cc19 00bd 7f22 d7bc c4e7 383d 442f 063d
00000300: c89c 3d3d c69f 4fbd 6625 d1bc 1d00 443d
00000310: f6c4 943c 51a2 573c 3ed6 083d 3843 09bd
00000320: 60d2 f63c 8436 693d db39 f6bc 15ae 2a3d
00000330: 958d 983c ca22 0f3d d89c 593c 04ce 3e3c
00000340: ae23 c9bc 0b6f 07bd a566 363d b0fb 103d
00000350: b4eb ae3c ccdb 48bd d625 fabc 0837 ef3c
00000360: c09c 143d a550 ba3c 0da4 eb3c cce8 1dbd
00000370: 4ded 0d3d a02c 5b3d 87cd 8fbc a8e9 f23c
00000380: 62f4 cb3c 74fd 223d 8a48 073c 78ca 803c
00000390: 7682 b0bc 13f7 8abc 6ede 0d3d 2c04 703d
000003a0: 73b2 033d 228c d6bc d7fb f6bc 6731 213d
000003b0: 01a5 0b3c a0e8 0a3c af3e 153d e374 cdbc
000003c0: d0b7 593c 0fe9 ef3c 2f7f 3cbc d013 f23c
000003d0: 072d c83c c8db 933c 73b2 a33c e9a3 273c
000003e0: e01b d8bc 2d9d bfbc 7b7e cc3c 5b9c 1f3d
000003f0: 7eb7 1e3d 26aa b1bc b7df eabc d083 913c

shared_encoder.gru.weight_hh_l0 f4 [60, 20]
0.071103096 0.06607193 -0.047403373 -0.07889961 -0.078571916 -0.07253012 -0.06744519 0.06190392
-0.059860915 0.06854364 -0.06378076 0.07076888 -0.045449544 0.07264183 -0.080729604 0.06349224
0.07989703 0.0623678 -0.056984704 -0.052301396 0.04001022 0.051343422 -0.05299817 -0.05182042
-0.09001053 -0.06745224 -0.09418304 0.06851511 -0.07293635 0.053350814 -0.06266983 0.045017254
-0.059965752 0.06413431 -0.07407646 0.07671458 0.071254924 0.060061507 -0.059144817 -0.047196005
0.07238692 0.055350386 -0.052773315 -0.090152726 -0.060986023 -0.06972272 -0.049537238 0.06627198
-0.06438726 0.0721446 -0.050751027 0.08290458 -0.06249112 0.0609507 -0.08453173 0.05340522
0.08238991 0.06507446 -0.05860176 -0.05381149 0.06824119 0.07501461 -0.08597105 -0.08316991
-0.073728085 -0.093705714 -0.076532036 0.07948627 -0.0839889 0.07955157 -0.089559436 0.08598743
-0.078434706 0.06697534 -0.0882189 0.067282125 0.088225186 0.081579596 -0.094071 -0.08013086
0.046791352 0.07218111 -0.05387583 -0.095934026 -0.06586212 -0.068948716 -0.076227285 0.057020925
-0.08160378 0.06591046 -0.054881528 0.0633554 -0.06016392 0.0690595 -0.05669166 0.07673129
0.06721613 0.07870636 -0.06260444 -0.05862688 0.07778892 0.05001114 -0.06883699 -0.07694555
-0.08470953 -0.077775955 -0.06984301 0.07451845 -0.06798484 0.09702478 -0.08938027 0.055980083
-0.07766185 0.08124676 -0.07123584 0.06814157 0.09158746 0.077123865 -0.08504768 -0.07950265
0.063348494 0.052634746 -0.04686203 -0.075676866 -0.06629383 -0.06685504 -0.05947725 0.06252933
-0.06857859 0.042544648 -0.062151123 0.06352396 -0.05512691 0.0659262 -0.0688627 0.06223471
0.06791982 0.06270824 -0.0792148 -0.05671526 0.07302566 0.065317646 -0.06331993 -0.08117879
-0.06649062 -0.051339056 -0.05317706 0.064964406 -0.059260145 0.08632659 -0.06410884 0.048391543
-0.07842432 0.05463677 -0.0723259 0.06724483 0.074560575 0.06750888 -0.064356446 -0.048739087
0.06713868 0.061408263 -0.06337857 -0.076906934 -0.044394214 -0.06945552 -0.052468017 0.06246968
-0.08602885 0.059548315 -0.083199345 0.06277853 -0.055163044 0.043629956 -0.046150893 0.065759845
0.06659488 0.057165895 -0.057901677 -0.058217254 0.06543455 0.06223924 -0.08382494 -0.08543964
-0.0620661 -0.06713091 -0.056079928 0.052801542 -0.06777406 0.07414757 -0.06319502 0.043918632
-0.06521669 0.070522696 -0.07912411 0.054030422 0.072013855 0.06811005 -0.07303216 -0.06552609
0.07738265 0.069708645 -0.07087188 -0.07495209 -0.06500259 -0.05093514 -0.049922 0.08697958
-0.066050455 0.08302634 -0.08120465 0.069243975 -0.072376765 0.072557606 -0.09308801 0.05874168
0.08372586 0.054511122 -0.083524294 -0.054708555 0.044318028 0.063649826 -0.05425277 -0.09226363
-0.06321939 -0.06315494 -0.054144 0.061509233 -0.06665738 0.06689379 -0.06280754 0.06525233
-0.06728649 0.055288285 -0.05861885 0.059239853 0.070236206 0.0892837 -0.05809794 -0.061142135
0.06924134 0.06641354 -0.06460395 -0.080347724 -0.06151664 -0.038365055 -0.06867214 0.060442775
-0.055233628 0.06432465 -0.054967016 0.07988007 -0.06336676 0.049481723 -0.08405768 0.07227227
00000000: 809e 913d b850 873d 0a2a 42bd 1e96 a1bd
00000010: 50ea a0bd ac8a 94bd b420 8abd f78e 7d3d
00000020: b830 75bd 9c60 8c3d 7d9f 82bd 46ef 903d
00000030: 4d29 3abd 3dc5 943d 9055 a5bd 3808 823d
00000040: 0ea1 a33d 6175 7f3d cb68 69bd fd39 56bd
00000050: c2e1 233d 7b4d 523d 9c14 59bd a641 54bd
00000060: 7157 b8bd 6624 8abd 0ae3 c0bd a651 8c3d
00000070: a75f 95bd 6286 5a3d 0a59 80bd 0364 383d
00000080: a69e 75bd d958 833d 66b5 97bd 891c 9d3d
00000090: 1aee 913d 0e03 763d d641 72bd 9950 41bd
000000a0: 983f 943d 16b7 623d d528 58bd fea1 b8bd
000000b0: 7bcc 79bd c9ca 8ebd 8fe7 4abd 9bb9 873d
000000c0: 78dd 83bd 8cc0 933d 4fe0 4fbd e0c9 a93d
000000d0: b0f6 7fbd 71a7 793d f91e adbd 6fbf 5a3d
000000e0: 0bbc a83d c245 853d 6608 70bd 7069 5cbd
000000f0: 09c2 8b3d 43a1 993d 9711 b0bd fc54 aabd
00000100: c0fe 96bd c8e8 bfbd d4bc 9cbd b3c9 a23d
00000110: 5f02 acbd efeb a23d f06a b7bd 2d1a b03d
00000120: 60a2 a0bd 5e2a 893d 1cac b4bd 36cb 893d
00000130: 68af b43d 3413 a73d 4ca8 c0bd a61b a4bd
00000140: 4aa8 3f3d b1d3 933d e7ac 5cbd 0f79 c4bd
00000150: b8e2 86bd fc34 8dbd 0d1d 9cbd c68e 693d
00000160: e21f a7bd 10fc 863d 74cb 60bd 7ac0 813d
00000170: 716e 76bd 116f 8d3d 8435 68bd 4b25 9d3d
00000180: 9ca8 893d cd30 a13d c236 80bd bd22 70bd
00000190: cc4f 9f3d 7bd8 4c3d 68fa 8cbd a195 9dbd
000001a0: 317c adbd 0049 9fbd da09 8fbd 219d 983d
000001b0: a33b 8bbd eeb4 c63d 010d b7bd 5f4b 653d
000001c0: 2d0d 9fbd b464 a63d 19e4 91bd cf8d 8b3d
000001d0: 3592 bb3d 1ef3 9d3d 7a2d aebd 49d2 a2bd
000001e0: dbbc 813d 8897 573d 66f2 3fbd 79fc 9abd
000001f0: 0fc5 87bd 4ceb 88bd 6b9e 73bd 610f 803d
00000200: ef72 8cbd 4c43 2e3d 2d92 7ebd da18 823d
00000210: c1cc 61bd 5104 873d e307 8dbd d3e9 7e3d
00000220: 8c19 8b3d 2d6d 803d 5e3b a2bd 434e 68bd
00000230: 7a8e 953d 42c5 853d e1ad 81bd 1141 a6bd
00000240: 3c2c 88bd e748 52bd 30d0 59bd 0f0c 853d
00000250: c4ba 72bd ffcb b03d 7f4b 83bd 3636 463d
00000260: ee9c a0bd ceca 5f3d 9a1f 94bd a8b7 893d
00000270: 37b3 983d 1842 8a3d 50cd 83bd a3a2 47bd
00000280: 0180 893d 3b87 7b3d a0cc 81bd 6281 9dbd
00000290: b5d6 35bd b23e 8ebd b4e8 56bd 35e0 7f3d
000002a0: e52f b0bd efe8 733d 6b64 aabd 0892 803d
000002b0: a5f2 61bd 53b5 323d b808 3dbd 19ad 863d
000002c0: e562 883d c926 6a3d 4f2a 6dbd 3775 6ebd
000002d0: 8d02 863d 93ee 7e3d 69ac abbd fafa aebd
000002e0: 0639 7ebd ee7b 89bd 11b4 65bd 6e46 583d
000002f0: 20cd 8abd aeda 973d 646c 81bd 06e4 333d
00000300: 5490 85bd 346e 903d d20b a2bd 014f 5d3d
00000310: 007c 933d 487d 8b3d e391 95bd 8b32 86bd
00000320: cb7a 9e3d 68c3 8e3d 4725 91bd 7b80 99bd
00000330: 1420 85bd 5ea1 50bd 037b 4cbd 5a22 b23d
00000340: 7645 87bd b709 aa3d a04e a6bd c9cf 8d3d
00000350: 453a 94bd 1599 943d eda4 bebd 1e9b 703d
00000360: 7778 ab3d 0e47 5f3d c90e abbd 1416 60bd
00000370: d286 353d d75a 823d 2738 5ebd b7f4 bcbd
00000380: 2b79 81bd 6157 81bd 19c6 5dbd 1bf1 7b3d
00000390: aa83 88bd 9dff 883d 3da1 80bd 03a3 853d
000003a0: 80cd 89bd f875 623d 521a 70bd 7da5 723d
000003b0: 00d8 8f3d 5fda b63d 1bf8 6dbd 2d70 7abd
000003c0: 67ce 8d3d d203 883d 134f 84bd 598d a4bd
000003d0: dff8 7bbd ad24 1dbd fba3 8cbd d892 773d
000003e0: a83c 62bd a4bc 833d 1825 61bd 2a98 a33d
000003f0: 6fc6 81bd 59ad 4a3d 6f26 acbd 7c03 943d

shared_encoder.gru.bias_ih_l0 f4 [60]
0.078234464 0.081314735 0.08009457 0.067405276 0.077119514 0.073510624 0.080919884 0.07974961
0.081445485 0.073603764 0.07430199 0.08008483 0.07864824 0.08047339 0.07632483 0.07847432
0.06980973 0.08038206 0.06499116 0.078531735 -0.026587378 -0.02825492 -0.027816875 -0.011161801
-0.01899681 -0.014646494 -0.028864082 -0.023214726 -0.025500795 -0.01923932 -0.022452636 -0.027108455
-0.026707495 -0.028167918 -0.02173053 -0.021937003 -0.011484989 -0.025712479 -0.014558057 -0.027632102
-0.0035982574 -0.0042110393 0.004034127 -0.0087831 0.0008485739 0.0007732924 0.0044512674 -0.0030174516
0.0034935775 0.0023060127 -0.00056158187 -0.0039109616 0.0040724943 -0.004235964 -0.00020279008 -0.0023646338
0.005342336 -0.0037814067 -0.005180215 0.0043123686
00000000: 6439 a03d 5788 a63d 9f08 a43d c70b 8a3d
00000010: d6f0 9d3d bd8c 963d 53b9 a53d c353 a33d
00000020: e4cc a63d 92bd 963d a42b 983d 8403 a43d
00000030: 5412 a13d 3ccf a43d 3150 9c3d 25b7 a03d
00000040: 67f8 8e3d 599f a43d 161a 853d 3fd5 a03d
00000050: c6cd d9bc dd76 e7bc 37e0 e3bc fddf 36bc
00000060: 339f 9bbc d9f7 6fbc 5e74 ecbc cf2c bebc
00000070: 0be7 d0bc c79b 9dbc 97ee b7bc 8d12 debc
00000080: adc9 dabc 68c0 e6bc 3904 b2bc 3bb5 b3bc
00000090: 892b 3cbc faa2 d2bc eb84 6ebc b85c e2bc
000000a0: bed0 6bbb c2fc 89bb b630 843b fee6 0fbc
000000b0: d572 5e3a c6b6 4a3a f0db 913b 70c0 45bb
000000c0: 81f4 643b 7920 173b 1f37 13ba 8627 80bb
000000d0: 8f72 853b d7cd 8abb 0ca4 54b9 f9f7 1abb
000000e0: c30e af3b 7ad1 77bb cbbe a9bb c54e 8d3b

shared_encoder.gru.bias_hh_l0 f4 [60]
0.078234464 0.08131476 0.08009457 0.067405276 0.0771195 0.07351061 0.08091987 0.07974961
0.081445485 0.07360379 0.07430201 0.08008485 0.07864825 0.08047339 0.07632483 0.07847433
0.069809735 0.08038207 0.06499117 0.07853172 -0.026587375 -0.028254919 -0.027816877 -0.011161793
-0.018996814 -0.0146464985 -0.028864074 -0.023214722 -0.025500799 -0.019239323 -0.022452636 -0.027108455
-0.026707485 -0.02816791 -0.021730538 -0.02193703 -0.011484986 -0.025712473 -0.014558043 -0.027632097
-0.004298347 -0.005072912 0.0052255034 -0.009920085 0.001593811 0.00090175733 0.0053311936 -0.003876001
0.004375624 0.0017313965 -0.0001167434 -0.0047227917 0.005384952 -0.0052889274 0.0008239888 -0.0034283553
0.0055225915 -0.0050277277 -0.005727471 0.005158465
00000000: 6439 a03d 5a88 a63d 9f08 a43d c70b 8a3d
00000010: d4f0 9d3d bb8c 963d 51b9 a53d c353 a33d
00000020: e4cc a63d 95bd 963d a72b 983d 8703 a43d
00000030: 5512 a13d 3ccf a43d 3150 9c3d 26b7 a03d
00000040: 68f8 8e3d 5b9f a43d 171a 853d 3dd5 a03d
00000050: c4cd d9bc dc76 e7bc 38e0 e3bc f4df 36bc
00000060: 359f 9bbc def7 6fbc 5a74 ecbc cd2c bebc
00000070: 0de7 d0bc c99b 9dbc 97ee b7bc 8d12 debc
00000080: a8c9 dabc 64c0 e6bc 3e04 b2bc 49b5 b3bc
00000090: 862b 3cbc f7a2 d2bc dc84 6ebc b55c e2bc
000000a0: 26d9 8cbb ac3a a6bb b33a ab3b da87 22bc
000000b0: 6ce7 d03a e963 6c3a 4bb1 ae3b 8204 7ebb
000000c0: 6561 8f3b 07f0 e23a 23d4 f4b8 a6c1 9abb
000000d0: 4074 b03b bd4e adbb f400 583a 42ae 60bb
000000e0: dbf6 b43b a3bf a4bb 82ad bbbb 5708 a93b

shared_encoder.gru.weight_ih_l0_reverse f4 [60, 20]
0.03541562 0.024821615 -0.01710037 0.027518211 0.025634244 0.033545118 0.016038682 0.016505992
-0.011414392 -0.00905809 0.010595209 -0.0024907475 0.018104443 -0.016352654 -0.010932983 0.029361295
0.012642757 0.013294038 0.02931123 -0.009620355 0.010758508 0.0238569 -0.028969014 0.0252874
0.0222751 0.023065792 0.022244196 0.03763162 -0.028693931 -0.014057017 0.014447231 0.024658404
0.012768727 -0.027125917 -0.014889444 0.020739678 0.017605519 0.0077620735 0.015698217 -0.010684395
0.011693291 0.023948705 -0.013009656 9.399256e-05 0.02261851 0.015652504 0.011356105 0.021690268
-0.034065858 -0.027059166 0.024635142 0.042818073 0.019878263 -0.005613773 -0.011128798 0.028855152
0.013216454 0.023095082 -0.0013004172 -0.010803525 0.01015478 0.037968285 -0.036649585 0.015864741
0.017568462 0.028346771 0.0044290326 0.012251819 -0.008507355 -0.005066001 0.019095281 0.031246537
0.03835047 -0.034935582 -0.036489137 0.030628018 0.016993046 0.03254582 0.02050143 -0.036967568
0.023222582 0.023900142 -0.03199824 0.036826644 0.011605691 0.009421643 0.021560287 -0.0028779984
-0.042589694 -0.028166667 0.0177667 0.014065324 0.030096188 -0.031790137 -0.028407078 0.01869747
0.024675703 0.012551794 0.03423897 -0.0014883209 0.021297617 0.023777956 -0.024170887 0.024960188
0.022886 0.034168318 0.013785978 0.004619884 -0.030636026 -0.019553581 0.028360968 0.023799935
0.023571158 -0.018094063 -0.025985237 0.013721039 0.031043638 0.0136485305 0.0054144026 -0.0040347357
0.024123337 0.02894808 -0.010335294 0.03039445 0.005752781 0.02711672 0.039198156 0.008660582
-0.028383136 -0.012991464 0.02537759 0.030558607 0.01980007 -0.0063096015 -0.010711562 0.016034063
0.024497084 0.012977717 0.01965497 -0.011384682 0.024055446 0.0290591 -0.0117889475 0.025052989
0.0008511571 0.028522706 0.02009806 0.012893488 -0.029048376 -0.018722799 0.016689561 0.03408241
0.02701545 -0.025524661 -0.023852026 0.011997595 0.022105388 0.021850118 0.013750318 -0.014634707
0.03840981 0.057178587 -0.03573266 0.028818086 0.037893232 0.038960267 0.041949436 0.045810744
-0.039765492 -0.04434754 0.041962188 0.042323828 0.05113522 -0.03134432 -0.059502106 0.046249554
0.055898238 0.045489047 0.018127846 -0.037905354 0.020443033 0.048497975 -0.01850084 0.045498494
0.027022846 0.026407115 0.04006618 0.036510766 -0.057499144 -0.036781035 0.02273245 0.03987244
0.044689953 -0.043574747 -0.008138895 0.050858732 0.031932853 0.0424288 0.035684705 -0.03162103
0.027675979 0.051792324 -0.04790132 0.048261844 0.02339982 0.029333336 0.0434841 0.040074967
-0.025612628 -0.04838135 0.03730541 0.019817006 0.030925412 -0.022873797 -0.026784256 0.025875801
0.029973038 0.020371007 0.04867118 -0.036257163 0.02719 0.012286335 -0.0253047 0.011723028
0.02278076 0.016591234 0.034796663 0.005271981 -0.038761083 -0.008867679 0.016325766 0.018318549
0.012390562 -0.02998071 -0.027851775 0.02363529 0.016427282 0.009416523 0.012459599 -0.012284515
0.040264055 0.047129277 -0.021817347 0.025020236 0.02303027 0.041689914 0.028300166 0.032416567
-0.022440026 -0.029507214 0.03423322 0.023770759 0.04814934 -0.022150496 -0.01540645 0.030721879
00000000: f80f 113d b356 cb3c 1316 8cbc df6d e13c
00000010: e8fe d13c 9b66 093d 8e63 833c 9337 873c
00000020: 6e03 3bbc 6268 14bc 8797 2d3c cf3b 23bb
00000030: c54f 943c 00f6 85bc 4120 33bc 1987 f03c
00000040: 9123 4f3c 3dcf 593c 1b1e f03c b29e 1dbc
00000050: 7444 303c 8c6f c33c 6d50 edbc 8627 cf3c
00000060: 457a b63c 79f4 bc3c 7639 b63c 9d23 1a3d
00000070: 890f ebbc 674f 66bc 14b4 6c3c 6c00 ca3c
00000080: ec33 513c 2c37 debc dbf2 73bc 42e6 a93c
00000090: 7339 903c fe58 fe3b 8c99 803c 9a0d 2fbc
000000a0: 3895 3f3c 1330 c43c 7426 55bc df1d c538
000000b0: 744a b93c ae39 803c f50e 3a3c caaf b13c
000000c0: a488 0bbd 2fab ddbc a3cf c93c 0162 2f3d
000000d0: bdd7 a23c bef3 b7bb 9055 36bc a461 ec3c
000000e0: d389 583c e631 bd3c c372 aaba 4501 31bc
000000f0: 3c60 263c a284 1b3d e01d 16bd c6f6 813c
00000100: bceb 8f3c 7d37 e83c 6b21 913b dabb 483c
00000110: 6f62 0bbc b200 a6bb b56d 9c3c bdf8 ff3c
00000120: 6215 1d3d 9d18 0fbd a275 15bd 9ce7 fa3c
00000130: 0035 8b3c c44e 053d 9df2 a73c 4e6b 17bd
00000140: 493d be3c 3bca c33c 9610 03bd 89d7 163d
00000150: cc25 3e3c 3c5d 1a3c 339f b03c cd9c 3cbb
00000160: 8872 2ebd c8bd e6bc 788b 913c 3f72 663c
00000170: 488c f63c 6036 02bd f6b5 e8bc 702b 993c
00000180: b324 ca3c 0aa6 4d3c 2a3e 0c3d c313 c3ba
00000190: 5778 ae3c fdc9 c23c 0602 c6bc 4f79 cc3c
000001a0: 6c7b bb3c 14f4 0b3d 95de 613c 6562 973b
000001b0: 67f8 fabc d52e a0bc 4355 e83c 15f8 c23c
000001c0: 4d18 c13c 003a 94bc fede d4bc 35ce 603c
000001d0: 3a4f fe3c 169e 5f3c 4d6b b13b d135 84bb
000001e0: 4e9e c53c 8624 ed3c 5d55 29bc c8fd f83c
000001f0: d381 bc3b e223 de3c 3f8e 203d 1de5 0d3c
00000200: c083 e8bc 26da 54bc aae4 cf3c 0b56 fa3c
00000210: c233 a23c c6c0 cebb 8c7f 2fbc de59 833c
00000220: 1cae c83c 7ea0 543c 7603 a13c d186 3abc
00000230: ed0f c53c 5a0d ee3c 6e26 41bc ed3b cd3c
00000240: 3020 5f3a 73a8 e93c b0a4 a43c 353f 533c
00000250: dcf6 edbc 8e60 99bc 8cb8 883c ff99 0b3d
00000260: 814f dd3c 1819 d1bc 5365 c3bc 9091 443c
00000270: 5c16 b53c 05ff b23c 0449 613c 69c6 6fbc
00000280: 9b53 1d3d 1834 6a3d 695c 12bd e813 ec3c
00000290: ef35 1b3d cd94 1f3d 2cd3 2b3d 0ca4 3b3d
000002a0: 24e1 22bd c4a5 35bd 8be0 2b3d c05b 2d3d
000002b0: 2a73 513d e762 00bd 7bb8 73bd 2c70 3d3d
000002c0: 8df5 643d b952 3a3d d980 943c a542 1bbd
000002d0: 2678 a73c d0a5 463d 138f 97bc a15c 3a3d
000002e0: 045f dd3c bc53 d83c 6f1c 243d 508c 153d
000002f0: 3984 6bbd b6a7 16bd 6739 ba3c 4951 233d
00000300: d00c 373d 6f7b 32bd 0059 05bc 3f51 503d
00000310: 06cc 023d d2c9 2d3d 202a 123d 0e85 01bd
00000320: bcb8 e23c 3024 543d 2d34 44bd 36ae 453d
00000330: fbb0 bf3c 774c f03c 621c 323d a625 243d
00000340: 93d1 d1bc 862b 46bd 8fcd 183d 4657 a23c
00000350: 4a57 fd3c d461 bbbc a86a dbbc 7df9 d33c
00000360: 048a f53c 19e1 a63c 6e5b 473d 6482 14bd
00000370: 90bd de3c a04c 493c cd4b cfbc f111 403c
00000380: b79e ba3c 57ea 873c f286 0e3d 95c0 ac3b
00000390: f1c3 1ebd be49 11bc 9dbd 853c c810 963c
000003a0: c901 4b3c 1b9a f5bc 6829 e4bc cc9e c13c
000003b0: 8292 863c c347 1a3c 5923 4c3c fe44 49bc
000003c0: eceb 243d a10a 413d 4bba b2bc 3df7 cc3c
000003d0: faa9 bc3c 0bc3 2a3d c0d5 e73c 3cc7 043d
000003e0: 25d4 b7bc 1db9 f1bc 2238 0c3d e5ba c23c
000003f0: 3e38 453d f574 b5bc 566b 7cbc 73ac fb3c

shared_encoder.gru.weight_hh_l0_reverse f4 [60, 20]
-0.020993626 -0.014971038 0.041749645 0.008887116 -0.036813367 0.038970917 0.017241832 0.02686224
-0.033769105 -0.036838744 0.028291987 0.029158847 -0.036171254 -0.023631992 0.03100035 -0.031082842
0.032151997 -0.0319054 -0.036668584 0.020426974 -0.023227818 -0.02140632 0.011390654 0.03348029
-0.028128633 0.030823931 0.025093483 0.030219354 -0.028511783 -0.036780015 0.024428861 0.020631373
-0.037590243 -0.023871524 0.013502722 -0.022006452 0.029685033 -0.04115428 -0.033639148 0.042536195
-0.026792258 -0.036913216 0.033005286 0.026279321 -0.022053802 0.025987955 0.028320666 0.021288294
-0.01779994 -0.023534862 0.021867815 0.02876765 -0.036522646 -0.027328407 0.017538767 -0.01521609
0.02352125 -0.02076644 -0.041766305 0.013845664 -0.021274555 -0.025012618 0.013481233 0.030143337
-0.017651767 0.036907155 0.032302745 0.016347015 -0.036675658 -0.027283698 0.039438892 0.0110479295
-0.027566506 -0.02766793 0.011783708 -0.026467018 0.034789376 -0.017247517 -0.013478755 0.040310707
-0.012787631 -0.035364743 0.027398681 0.036010128 -0.043138627 0.021439074 0.029271157 0.026644709
-0.032744315 -0.042118993 0.022660464 0.0130187385 -0.031613324 -0.026050152 0.023465868 -0.007791126
0.010441884 -0.02238112 -0.038764086 0.023810081 -0.011865337 -0.026768662 0.034447037 0.037717782
-0.025469381 0.02627922 0.03327296 0.016578224 -0.02906831 -0.027120808 0.026410948 0.024189116
-0.04504403 -0.041514307 0.031176003 -0.010458045 0.031810265 -0.021024035 -0.038825847 0.035018165
-0.021304801 -0.02536103 0.023621373 0.017964296 -0.024614314 0.023500716 0.012300617 0.0254153
-0.015932726 -0.01276268 0.03985579 0.016480302 -0.041816086 -0.04980939 0.01868284 -0.022547903
0.05432391 -0.017771738 -0.022943322 0.038083266 -0.019434482 -0.010625284 0.027807621 0.029029861
-0.020956991 0.027240995 0.021928191 0.029740967 -0.025053373 -0.004766746 0.051021673 0.013399554
-0.023804467 -0.04369833 0.033793807 -0.05037564 0.016162476 -0.025050286 -0.029128578 0.021394944
-0.007411414 -0.036084224 0.04272803 0.028516285 -0.04997523 0.025582809 0.035614938 0.022338135
-0.02739086 -0.036374655 0.027121156 0.046414122 -0.029467914 -0.049524333 0.011607382 -0.02760242
0.033200294 -0.028553652 -0.033218507 0.025689304 -0.015447154 -0.012903513 0.02198976 0.023379626
-0.049432084 0.025747862 0.02896683 0.033338774 -0.03926978 -0.043303985 0.013860516 0.027638502
-0.03669129 -0.035573866 0.023857215 -0.017416703 0.023767104 -0.031957205 -0.042767975 0.02222509
-0.053082883 -0.04433694 0.028897306 0.046277683 -0.042723432 0.027607197 0.042533983 0.042711925
-0.039343517 -0.053719696 0.047545698 0.02892099 -0.030300656 -0.035483047 0.021116538 -0.039609525
0.036048133 -0.04263887 -0.02464933 0.036610976 -0.02324629 -0.023556441 0.022308942 0.017943362
-0.028716832 0.026597245 0.031087428 0.006938768 -0.03277723 -0.020348636 0.053765856 0.03008873
-0.026225226 -0.02609734 0.038397174 -0.030987715 0.015038564 -0.03184285 -0.031385325 0.021442812
-0.044259038 -0.05668539 0.026032051 0.03987583 -0.02422323 0.01018141 0.03293142 0.019127812
-0.05808493 -0.039101485 0.035423018 0.016770847 -0.028396608 -0.0296381 0.048982255 -0.04400878
00000000: d3fa abbc 1649 75bc ad01 2b3d 449b 113c
00000010: 9dc9 16bd f89f 1f3d be3e 8d3c 330e dc3c
00000020: 7951 0abd 39e4 16bd 99c4 e73c 89de ee3c
00000030: 4f28 14bd e197 c1bc 72f4 fd3c 72a1 febc
00000040: d0b1 033d 3daf 02bd cc31 16bd 7856 a73c
00000050: 4448 bebc 4f5c afbc de9f 3a3c a122 093d
00000060: 056e e6bc 7882 fc3c d990 cd3c 948e f73c
00000070: 8b91 e9bc a4a6 16bd 091f c83c 2003 a93c
00000080: 3af8 19bd 378e c3bc 853a 5d3c e046 b4bc
00000090: 072e f33c 6491 28bd 34c9 09bd 6f3a 2e3d
000000a0: 707b dbbc 5032 17bd 8d30 073d bb47 d73c
000000b0: 2daa b4bc b1e4 d43c be00 e83c ca64 ae3c
000000c0: 2ed1 91bc 2fcc c0bc 2224 b33c 22aa eb3c
000000d0: c598 15bd d3df dfbc 76ad 8f3c e84c 79bc
000000e0: a3af c03c 621e aabc 2513 2bbd edd8 623c
000000f0: fa47 aebc 43e7 ccbc 64e0 5c3c 29ef f63c
00000100: 709a 90bc f52b 173d e24f 043d 2dea 853c
00000110: 3739 16bd 1082 dfbc ad8a 213d 6002 353c
00000120: 27d3 e1bc dba7 e2bc 7410 413c 5cd1 d8bc
00000130: 4e7f 0e3d aa4a 8dbc ffd5 5cbc d71c 253d
00000140: 3683 51bc 9fda 10bd 3373 e03c 5b7f 133d
00000150: 21b2 30bd ffa0 af3c 11ca ef3c 0146 da3c
00000160: e71e 06bd f784 2cbd 70a2 b93c 8c4c 553c
00000170: f97c 01bd 2167 d5bc 7e3b c03c b44c ffbb
00000180: 7014 2b3c 9c58 b7bc 17c7 1ebd 5c0d c33c
00000190: d566 42bc f449 dbbc 5618 0d3d f67d 1a3d
000001a0: 2aa5 d0bc 8547 d73c 3a49 083d 0ecf 873c
000001b0: aa20 eebc 752c debc c65b d83c 4128 c63c
000001c0: 1780 38bd e80a 2abd d164 ff3c 3858 2bbc
000001d0: 7b4b 023d 993a acbc da07 1fbd 356f 0f3d
000001e0: 6887 aebc efc1 cfbc 9c81 c13c dc29 933c
000001f0: f5a3 c9bc 9384 c03c 8788 493c bf33 d03c
00000200: 5985 82bc 8f1a 51bc d33f 233d b301 873c
00000210: 5847 2bbd ee04 4cbd c10c 993c 61b6 b8bc
00000220: c082 5e3d 0996 91bc a2f3 bbbc 33fd 1b3d
00000230: 1035 9fbc ac15 2ebc cfcc e33c 08d0 ed3c
00000240: ffad abbc 8228 df3c c0a2 b33c 54a3 f33c
00000250: bb3c cdbc 5d32 9cbb 1afc 503d ce89 5b3c
00000260: 9601 c3bc 05fd 32bd 606b 0a3d b056 4ebd
00000270: 2b67 843c 4236 cdbc 0e9f eebc 7344 af3c
00000280: 72db f2bb 0dcd 13bd 9603 2f3d fc9a e93c
00000290: d4b2 4cbd 0a93 d13c f8e0 113d 77fe b63c
000002a0: cc62 e0bc 97fd 14bd 302d de3c bc1c 3e3d
000002b0: b266 f1bc 07da 4abd e42c 3e3c 781e e2bc
000002c0: 08fd 073d 59e9 e9bc 2110 08bd 6072 d23c
000002d0: 0f16 7dbc 4269 53bc df23 b43c a186 bf3c
000002e0: 4c79 4abd 2eed d23c d84b ed3c 3d8e 083d
000002f0: 59d9 20bd 855f 31bd 3817 633c 246a e23c
00000300: 9b49 16bd e7b5 11bd 3570 c33c 79ad 8ebc
00000310: 3bb3 c23c 8fe5 02bd 792d 2fbd 6411 b63c
00000320: 706d 59bd a79a 35bd 0bba ec3c ab8d 3d3d
00000330: c4fe 2ebd 7d28 e23c 1d38 2e3d b3f2 2e3d
00000340: ab26 21bd 2f09 5cbd 47bf 423d b6eb ec3c
00000350: 1539 f8bc ac56 11bd 97fc ac3c 993d 22bd
00000360: 35a7 133d 19a6 2ebd 64ed c9bc 64f5 153d
00000370: 016f bebc 70f9 c0bc 3ec1 b63c f5fd 923c
00000380: 903f ebbc 77e2 d93c 10ab fe3c 9b5e e33b
00000390: 6b41 06bd 2fb2 a6bc 9639 5c3d a47c f63c
000003a0: 49d6 d6bc 17ca d5bc 5b46 1d3d f3d9 fdbc
000003b0: 4f64 763c a66d 02bd e68d 00bd d6a8 af3c
000003c0: f748 35bd f12e 68bd 2b41 d53c d754 233d
000003d0: cc6f c6bc eecf 263c 19e3 063d eeb1 9c3c
000003e0: 77ea 6dbd e128 20bd ba17 113d 0463 893c
000003f0: 01a0 e8bc 9acb f2bc 9ea1 483d 8d42 34bd

shared_encoder.gru.bias_ih_l0_reverse f4 [60]
0.003273905 0.0032781456 0.0033519256 0.0031045857 0.003368994 0.002667318 0.0035062325 0.0036327837
-0.0031200694 -0.0003209361 -0.004243962 0.0037844798 -0.0006933076 -0.004489217 0.0023382902 0.0035905447
0.0032887917 0.0011496692 -8.813605e-05 0.0031325321 -0.043587565 -0.047189508 -0.043518126 -0.044686664
-0.049599912 -0.04587283 -0.044941105 -0.04674075 -0.035307694 -0.035663817 -0.025632357 -0.047006845
-0.038960103 -0.03321138 -0.042027403 -0.046169523 -0.04600898 -0.041944973 -0.04255115 -0.04247689
0.002910822 0.0034369405 -0.0026050515 -0.0031689354 0.0035390826 -0.003010244 -0.0031126307 -0.0035024087
-0.0056294384 -0.0047973576 0.0037044513 -0.0032249654 -0.0004440154 -0.0033811692 -0.00279912 0.0033367455
-0.002482741 -0.001666205 0.00048627116 -0.0035140272
00000000: 038f 563b 28d6 563b fbab 5b3b 4e76 4b3b
00000010: 57ca 5c3b 2cce 2e3b d2c8 653b ff13 6e3b
00000020: 147a 4cbb 5043 a8b9 ef10 8bbb 0905 783b
00000030: 16bf 35ba 481a 93bb 003e 193b 584f 6b3b
00000040: c588 573b 7fb0 963a aed5 b8b8 2b4b 4d3b
00000050: e088 32bd c949 41bd 1040 32bd 5d09 37bd
00000060: 4729 4bbd 26e5 3bbd 2a14 38bd 3b73 3fbd
00000070: cd9e 10bd 3914 12bd f3fa d1bc 408a 40bd
00000080: a194 1fbd a808 08bd ed24 2cbd 411c 3dbd
00000090: ea73 3cbd 7ece 2bbd 1d4a 2ebd 3ffc 2dbd
000000a0: 7dc3 3e3b 4b3e 613b 83b9 2abb eaad 4fbb
000000b0: f4ef 673b 8447 45bb 47fd 4bbb ab88 65bb
000000c0: 2777 b8bb 2733 9dbb 61c6 723b f159 53bb
000000d0: bdca e8b9 9b96 5dbb 7171 37bb 4dad 5a3b
000000e0: 7bb5 22bb 9064 daba 36f2 fe39 984b 66bb

shared_encoder.gru.bias_hh_l0_reverse f4 [60]
0.0032739008 0.0032781407 0.0033519298 0.0031045827 0.0033689959 0.0026673144 0.0035062293 0.0036327771
-0.0031200687 -0.00032093865 -0.0042439573 0.0037844777 -0.00069330743 -0.0044892156 0.0023382893 0.0035905405
0.0032887917 0.0011496678 -8.813298e-05 0.003132537 -0.04358758 -0.04718951 -0.04351813 -0.04468668
-0.04959991 -0.045872826 -0.04494112 -0.046740744 -0.035307694 -0.03566382 -0.025632368 -0.047006845
-0.038960107 -0.033211384 -0.042027403 -0.046169523 -0.046008985 -0.041944984 -0.042551152 -0.042476878
0.0051785014 0.005635566 -0.004836546 -0.0049148556 0.0055574616 -0.00519954 -0.0053257975 -0.0056853364
-0.004432332 -0.003256083 0.002036046 -0.0055248863 0.0013471922 -0.001954426 -0.0051395237 0.0054751593
-0.0048501124 0.00056657556 0.0026933542 -0.005602303
00000000: f18e 563b 13d6 563b 0dac 5b3b 4176 4b3b
00000010: 5fca 5c3b 1cce 2e3b c4c8 653b e313 6e3b
00000020: 117a 4cbb a843 a8b9 e510 8bbb 0005 783b
00000030: 13bf 35ba 451a 93bb fc3d 193b 464f 6b3b
00000040: c588 573b 73b0 963a 09d4 b8b8 404b 4d3b
00000050: e488 32bd ca49 41bd 1140 32bd 6109 37bd
00000060: 4629 4bbd 25e5 3bbd 2e14 38bd 3973 3fbd
00000070: cd9e 10bd 3a14 12bd f9fa d1bc 408a 40bd
00000080: a294 1fbd a908 08bd ed24 2cbd 411c 3dbd
00000090: eb73 3cbd 81ce 2bbd 1e4a 2ebd 3cfc 2dbd
000000a0: 6bb0 a93b 8eaa b83b e37b 9ebb cc0c a1bb
000000b0: 5e1b b63b e760 aabb 0784 aebb 0f4c babb
000000c0: 183d 91bb 0264 55bb 2f6f 053b 1b0a b5bb
000000d0: 4594 b03a d415 00bb 7369 a8bb f768 b33b
000000e0: b1ed 9ebb 3e86 143a fc82 303b 8693 b7bb

shared_encoder.gru.weight_ih_l1 f4 [60, 40]
0.01877469 0.028585585 -0.018552152 -0.055056784 -0.024970494 -0.033267245 -0.042093173 0.020902252
-0.02592182 0.0370975 -0.020778622 0.037581783 -0.010551932 0.016992731 -0.044438414 0.030659992
0.0549062 0.010688901 -0.040427916 -0.022882337 -0.01608218 -0.024980363 0.018462885 0.0046529765
-0.0025309126 -0.0011489412 0.019367244 0.0010404553 -0.014128687 -0.005635304 0.013235807 -0.010712767
-0.0048878253 -0.01035438 0.004609786 -0.0013030514 0.0008469648 -0.02820636 -0.009731719 0.007066959
0.0146098975 0.031715117 -0.03036911 -0.024149107 -0.042954527 -0.032535497 -0.029961845 0.018234003
-0.032968994 0.038304485 -0.027087817 0.02462632 -0.039570037 0.02692222 -0.014564981 0.019291814
0.04236554 0.037205137 -0.032486938 -0.041331355 -0.01885638 -0.023007913 0.018795898 0.027059233
-0.017656231 0.024711149 -5.501993e-05 0.012972906 -0.008253207 -0.016915582 0.024565121 0.012658327
-0.026400013 -0.027859792 0.0066895806 -0.01539791 0.01157865 -0.029022409 -0.0128807705 0.01378086
0.018084165 0.042303618 -0.019437969 -0.04854528 -0.016953748 -0.051799033 -0.028604528 0.032403197
-0.033787478 0.028007703 -0.045231182 0.029851314 -0.04973989 0.043967035 -0.024852749 0.032449227
0.043465357 0.021190183 -0.04965138 -0.021851914 -0.024126502 -0.018786525 0.01093038 0.015480689
-0.025882069 0.017376158 0.03266132 0.01045521 -0.020555224 -0.035966657 0.024596523 0.012412524
-0.007919304 -0.029753076 0.0046103857 -0.010662919 0.009192941 -0.024028394 -0.021895971 0.008366276
0.029255798 0.03480671 -0.029880928 -0.034194443 -0.048186902 -0.037444893 -0.03321034 0.030254487
-0.01919237 0.03855865 -0.03854992 0.023035057 -0.020556886 0.025460428 -0.03204521 0.031479917
0.032501 0.027509784 -0.026489045 -0.03259806 0.0011626998 -0.013592356 0.013781608 0.022842225
-0.012116099 0.009277155 -0.0029257797 -0.0029955308 -0.014257251 -0.016996179 0.027639046 0.014933168
-0.022327587 -0.015118131 0.010311965 -0.006654082 0.01512428 -0.029525302 0.008632799 0.016817441
0.024348702 0.027132057 -0.024300305 -0.043046344 -0.04749198 -0.04121296 -0.038321506 0.02273244
-0.017253852 0.042326238 -0.040662576 0.033019807 -0.018223718 0.026635142 -0.029632237 0.026248178
0.046655625 0.028361093 -0.03575546 -0.036158405 -0.0013704053 -0.028069898 0.015552645 0.008214692
0.01191052 0.0016100341 0.016948028 0.024825282 -0.018831663 -0.011488724 0.0036563626 0.024516867
-0.025556227 -0.013381466 0.010377099 -0.0030490805 0.02416108 -0.021804228 -0.018318826 0.010250926
0.031820763 0.035212193 -0.02747011 -0.043763235 -0.020819373 -0.03330436 -0.04560609 0.027703768
-0.03154231 0.03763394 -0.017103484 0.025623739 -0.019247713 0.020379424 -0.03917969 0.046748746
0.022264184 0.028086502 -0.03878644 -0.02062984 -0.0023478973 -0.01810794 0.019952945 0.013014305
-0.028565113 0.011811698 -4.563552e-05 0.0035814166 -0.016726295 -0.018799711 0.028927235 0.013484357
-0.009813894 -0.03217103 0.0074813454 -0.014838007 0.019755766 -0.03333742 -0.017701495 -0.00483985
0.023817187 0.024233097 -0.047504477 -0.05099153 -0.016692791 -0.054268517 -0.009820049 0.020326085
-0.022467406 0.03855683 -0.022123365 0.041882504 -0.02421011 0.017792972 -0.03725197 0.042747322
00000000: 61cd 993c 512c ea3c affa 97bc 3983 61bd
00000010: ec8e ccbc 3c43 08bd e469 2cbd 333b ab3c
00000020: ff59 d4bc 8cf3 173d ee37 aabc 5bef 193d
00000030: 03e2 2cbc 5734 8b3c 0e05 36bd aa2a fb3c
00000040: 53e5 603d 8020 2f3c be97 25bd bd73 bbbc
00000050: c7be 83bc 9ea3 ccbc 7a3f 973c ff77 983b
00000060: abdd 25bb 1298 96ba 0ea8 9e3c e35f 883a
00000070: 027c 67bc 5ba8 b8bb 00db 583c 9a84 2fbc
00000080: 0d2a a0bb 6ba5 29bc b00d 973b 26cb aaba
00000090: d806 5e3a 0611 e7bc ca71 1fbc f391 e73b
000000a0: 5a5e 6f3c b6e7 013d a4c8 f8bc 59d4 c5bc
000000b0: 16f1 2fbd f143 05bd 8b72 f5bc 7a5f 953c
000000c0: 7f0a 07bd 2ae5 1c3d 45e7 ddbc 23bd c93c
000000d0: 3114 22bd fd8b dc3c f5a1 6ebc de09 9e3c
000000e0: 7d87 2d3d 6a64 183d 0611 05bd 114b 29bd
000000f0: b278 9abc 177b bcbc dbf9 993c 53ab dd3c
00000100: cda3 90bc 096f ca3c 33c5 66b8 508c 543c
00000110: 7638 07bc 8c92 8abc cb3c c93c df64 4f3c
00000120: d744 d8bc 383a e4bc 4534 db3b 8447 7cbc
00000130: 61b4 3d3c 67c0 edbc de09 53bc 1ec9 613c
00000140: 3e25 943c 8f46 2d3d 603c 9fbc 6ad7 46bd
00000150: 96e2 8abc 392b 54bd 0b54 eabc 37b9 043d
00000160: bd64 0abd 6970 e53c 5544 39bd be8a f43c
00000170: 0ebc 4bbd c716 343d fe97 cbbc 7be9 043d
00000180: bb08 323d 0997 ad3c 3f5f 4bbd c902 b3bc
00000190: f1a4 c5bc 33e6 99bc 5615 333c b7a2 7d3c
000001a0: a206 d4bc 7258 8e3c e0c7 053d 544c 2b3c
000001b0: 6e63 a8bc c651 13bd a67e c93c e65d 4b3c
000001c0: f8bf 01bc b9bc f3bc b812 973b 86b3 2ebc
000001d0: fd9d 163c 32d7 c4bc 2e5f b3bc b412 093c
000001e0: dba9 ef3c 7b91 0e3d d9c8 f4bc 790f 0cbd
000001f0: a15f 45bd d15f 19bd 9107 08bd 42d8 f73c
00000200: 5139 9dbc adef 1d3d 85e6 1dbd 04b4 bc3c
00000210: ea66 a8bc 6392 d03c d741 03bd 16f1 003d
00000220: c51f 053d 335c e13c 8eff d8bc 8b85 05bd
00000230: bb65 983a 79b2 5ebc 41cc 613c 9e1f bb3c
00000240: 9a82 46bc 35ff 173c 70be 3fbb ab50 44bb
00000250: 3f97 69bc 923b 8bbc 486b e23c 3faa 743c
00000260: 58e8 b6bc 0ab2 77bc 84f3 283c 7c0a dabb
00000270: d4cb 773c 0cdf f1bc 9570 0d3c bbc4 893c
00000280: ee76 c73c 0c44 de3c 6f11 c7bc 5d51 30bd
00000290: f386 42bd ecce 28bd 03f7 1cbd 6239 ba3c
000002a0: f357 8dbc 475e 2d3d cd8d 26bd c73f 073d
000002b0: e849 95bc f131 da3c 4ebf f2bc 6b06 d73c
000002c0: f819 3f3d 8655 e83c 5174 12bd d61a 14bd
000002d0: 2c9f b3ba d8f2 e5bc 85d0 7e3c ea96 063c
000002e0: 5724 433c c807 d33a 97d6 8a3c 645e cb3c
000002f0: dc44 9abc 333b 3cbc 969f 6f3b 99d7 c83c
00000300: 4b5b d1bc f03d 5bbc b504 2a3c 15d3 47bb
00000310: 75ed c53c c89e b2bc 5d11 96bc 80f3 273c
00000320: 7d56 023d a93a 103d ff08 e1bc 1441 33bd
00000330: 648d aabc 276a 08bd 74cd 3abd 03f3 e23c
00000340: 8232 01bd 0c26 1a3d 9b1c 8cbc e0e8 d13c
00000350: 61ad 9dbc c0f2 a63c e27a 20bd 9d7b 3f3d
00000360: 6163 b63c aa15 e63c 88de 1ebd e9ff a8bc
00000370: 2edf 19bb 1a57 94bc 5c74 a33c f439 553c
00000380: 6201 eabc da85 413c c468 3fb8 33b6 6a3b
00000390: 9505 89bc da01 9abc cff8 ec3c 7eed 5c3c
000003a0: 74ca 20bc c5c5 03bd 1326 f53b 1d1b 73bc
000003b0: d8d6 a13c d28c 08bd ba02 91bc 9b97 9ebb
000003c0: 431c c33c 7d84 c63c 0e94 42bd 7fdc 50bd
000003d0: 52bf 88bc aa48 5ebd 45e4 20bc e482 a63c
000003e0: 910d b8bc c4ed 1d3d 0f3c b5bc fd8c 2b3d
000003f0: 4854 c6bc 91c2 913c 8695 18bd d117 2f3d

shared_encoder.gru.weight_hh_l1 f4 [60, 20]
0.05320487 0.033494048 0.030848268 0.0457771 0.043704905 0.041365903 -0.051372793 0.0332516
0.014042831 -0.039607532 -0.02383692 -0.040686596 -0.047396354 0.051049165 -0.059547596 -0.05004767
0.029839762 0.0331136 0.038405873 0.036337968 0.03754064 0.028304536 0.035623148 0.047979888
0.041765403 0.031156346 -0.054751143 0.04121531 0.036131814 -0.050403222 -0.04061496 -0.05080738
-0.026261114 0.05917072 -0.040420685 -0.04351691 0.04035189 0.056693625 0.029364415 0.029703671
0.04018308 0.049700033 0.037477225 0.029113488 0.05863436 0.033572882 -0.03694569 0.044426195
0.024952153 -0.03349273 -0.04417113 -0.040148422 -0.032912355 0.039030362 -0.031114548 -0.046408907
0.036961406 0.046027843 0.02780786 0.043992564 0.03605974 0.028476845 0.024161192 0.03413349
0.04988689 0.017071461 -0.036302 0.032234155 0.04373071 -0.046846498 -0.021086775 -0.035245128
-0.029540714 0.039187513 -0.025167085 -0.028492182 0.029230356 0.04384668 0.049287017 0.03717664
0.050717294 0.044660788 0.041071635 0.021233244 0.028579107 0.028785156 -0.041791674 0.05077048
0.020625014 -0.04647356 -0.03968957 -0.03906002 -0.020606332 0.04988485 -0.051862955 -0.037109435
0.049673203 0.035904784 0.024937442 0.041933116 0.049997613 0.054035358 0.055140615 0.03418774
0.047279105 0.027845474 -0.036572307 0.020894894 0.029599596 -0.043147825 -0.018700197 -0.0403322
-0.028296717 0.03193237 -0.025367886 -0.022156777 0.04667022 0.020951426 0.031018268 0.017023306
0.034348033 0.041026343 0.040318932 0.032287903 0.0356239 0.02148761 -0.038188647 0.042012814
0.03556625 -0.01224899 -0.03370424 -0.04288194 -0.029003963 0.04572948 -0.0268647 -0.041586965
0.029434407 0.04072375 0.047193725 0.068671934 0.033966318 0.032245018 0.023318272 0.027603993
0.049692467 0.01962835 -0.049149882 0.03875881 0.032811973 -0.045018665 -0.03640819 -0.027248025
-0.044402756 0.04100551 -0.033759814 -0.01910427 0.054925866 0.029267728 0.016939031 0.04550431
0.03808098 0.043297112 0.03315229 0.04573855 0.04031929 0.018668674 -0.049964905 0.043887
0.029630328 -0.028403182 -0.036704645 -0.02358507 -0.0402928 0.03246815 -0.029297123 -0.030849505
0.043095574 0.036018062 0.04324127 0.028640484 0.042751286 0.03561742 0.039486583 0.032641962
0.038329143 0.027877294 -0.036532175 0.017758122 0.023025982 -0.03776474 -0.025065243 -0.05740897
-0.046199456 0.036660988 -0.054093644 -0.024024937 0.03537441 0.03751296 0.027499933 0.027261373
0.041077726 0.046050258 0.052724868 0.03780173 0.028717145 0.030520238 -0.045150448 0.03258295
0.04696836 -0.035443958 -0.03095473 -0.024149615 -0.04967626 0.027725853 -0.037151128 -0.033044957
0.031121623 0.032524955 0.05343209 0.04018635 0.035202634 0.042319626 0.035230923 0.043653563
0.021024872 0.029858757 -0.035296235 0.046528235 0.02160768 -0.058208436 -0.03347121 -0.027272161
-0.057016235 0.01334481 -0.02720532 -0.0279861 0.035025507 0.02633033 0.023771998 0.027842496
0.042382967 0.041104387 0.03417448 0.03590916 0.033043955 0.017547207 -0.029713366 0.044973142
0.025319312 -0.0493691 -0.028058114 -0.031390674 -0.042580247 0.023666443 -0.04351126 -0.034893744
00000000: 5aed 593d 0e31 093d 82b5 fc3c c580 3b3d
00000010: ea03 333d 4b6f 293d 476c 52bd d432 083d
00000020: e713 663c 823b 22bd a545 c3bc fda6 26bd
00000030: ae22 42bd ee18 513d 2ee8 73bd c9fe 4cbd
00000040: 8472 f43c 20a2 073d 7a4f 1d3d 1fd7 143d
00000050: 37c4 193d eade e73c 94e9 113d 8f86 443d
00000060: 3312 2b3d 983b ff3c bc42 60bd 63d1 283d
00000070: f4fe 133d 9c73 4ebd df5b 26bd 661b 50bd
00000080: 8c21 d7bc ff5c 723d 2990 25bd ca3e 32bd
00000090: 0648 253d 9337 683d a48d f03c 1d55 f33c
000000a0: 0397 243d 4392 4b3d b881 193d 697f ee3c
000000b0: 952a 703d b883 093d 5d54 17bd 3ef8 353d
000000c0: 7568 cc3c ac2f 09bd c9ec 34bd ac72 24bd
000000d0: 1bcf 06bd 4dde 1f3d f0e3 febc 4417 3ebd
000000e0: d864 173d b187 3c3d 4fcd e33c 8c31 343d
000000f0: 61b3 133d 4648 e93c b1ed c53c 8fcf 0b3d
00000100: 3256 4c3d 73d9 8b3c 68b1 14bd f607 043d
00000110: f91e 333d 1de2 3fbd 2cbe acbc 325d 10bd
00000120: 5eff f1bc 1683 203d 342b cebc 7068 e9bc
00000130: 8074 ef3c 9498 333d 2fe1 493d 8846 183d
00000140: f0bc 4f3d 3bee 363d bb3a 283d 57f1 ad3c
00000150: bb1e ea3c d9ce eb3c bf2d 2bbd b5f4 4f3d
00000160: caf5 a83c 0f5b 3ebd 8891 22bd 66fd 1fbd
00000170: 9cce a8bc 0e54 4c3d 406e 54bd 1000 18bd
00000180: 2176 4b3d e510 133d 9b49 cc3c 0fc2 2b3d
00000190: 4cca 4c3d 2e54 5d3d 20db 613d 7208 0c3d
000001a0: bca7 413d 311c e43c d8cc 15bd c52b ab3c
000001b0: da7a f23c c6bb 30bd 2831 99bc 6033 25bd
000001c0: 84ce e7bc 84cb 023d 50d0 cfbc 2182 b5bc
000001d0: 4629 3f3d 53a2 ab3c 061a fe3c 7674 8b3c
000001e0: 86b0 0c3d 3d0b 283d 7725 253d 5240 043d
000001f0: 5eea 113d c906 b03c b36b 1cbd a115 2c3d
00000200: ebad 113d fdaf 48bc 750d 0abd f9a4 2fbd
00000210: b899 edbc d64e 3b3d 5c13 dcbc 1857 2abd
00000220: 6d20 f13c f2cd 263d 354e 413d dfa3 8c3d
00000230: 4420 0b3d 5a13 043d f605 bf3c c521 e23c
00000240: 548a 4b3d a2cb a03c 6351 49bd 8fc1 1e3d
00000250: d965 063d 7e65 38bd c120 15bd 4037 dfbc
00000260: aadf 35bd 65f5 273d bb47 0abd 8f80 9cbc
00000270: f2f9 603d e0c2 ef3c b9c3 8a3c ba62 3a3d
00000280: cdfa 1b3d 5058 313d b2ca 073d 5958 3b3d
00000290: d725 253d 0cef 983c 00a8 4cbd dbc2 333d
000002a0: 4dbb f23c caad e8bc 9c57 16bd 7a35 c1bc
000002b0: 100a 25bd 53fd 043d 8500 f0bc 1ab8 fcbc
000002c0: fc84 303d ad87 133d c21d 313d 739f ea3c
000002d0: f91b 2f3d 92e3 113d afbc 213d 94b3 053d
000002e0: 05ff 1c3d ec5e e43c c3a2 15bd 7b79 913c
000002f0: fca0 bc3c 33af 1abd a055 cdbc ab25 6bbd
00000300: a43b 3dbd d529 163d 4c91 5dbd f2cf c4bc
00000310: c2e4 103d 31a7 193d 8a47 e13c 3e53 df3c
00000320: 1e41 283d 329f 3c3d 08f6 573d fdd5 1a3d
00000330: 3840 eb3c 9405 fa3c adef 38bd b375 053d
00000340: e561 403d af2d 11bd c694 fdbc 6ad5 c5bc
00000350: 5679 4bbd 5421 e33c c82b 18bd 265a 07bd
00000360: c6f2 fe3c e338 053d 9bdb 5a3d 719a 243d
00000370: a330 103d 5857 2d3d 4d4e 103d 14ce 323d
00000380: 5a3c ac3c 5a9a f43c c992 10bd 6494 3e3d
00000390: 9702 b13c f86b 6ebd 1c19 09bd de69 dfbc
000003a0: db89 69bd 31a4 5a3c b1dd debc 1b43 e5bc
000003b0: e876 0f3d b4b2 d73c 7ebd c23c f215 e43c
000003c0: c399 2d3d 135d 283d 8afa 0b3d 7c15 133d
000003d0: 1959 073d 29bf 8f3c 7269 f3bc c235 383d
000003e0: 726a cf3c 4137 4abd 21da e5bc 8293 00bd
000003f0: a068 2ebd 21e0 c13c dd38 32bd beec 0ebd
