checkpoints/bestmodel.pt (torch_old, 444568 bytes, 32 tensors)

shared_encoder.input_linear.weight f4 [50, 5]
-0.0027855819 0.011970341 0.0041678934 0.0038508244 -0.20827779 -0.0102647925 0.005640373 0.024181126
0.0037436883 -0.17438196 0.0005195745 -0.0033737225 0.002345558 -0.014793243 0.20486848 -0.003444101
0.0010657696 0.0011188083 -0.006227158 0.20586072 0.009818428 0.009663607 -0.014600087 0.0053050565
0.2755661 0.0073304735 0.0086308755 -0.002907324 0.0025850376 -0.19378848 -0.0115753515 -0.0064980728
-0.01296732 0.015296332 0.2145707 -0.011330945 0.0033274186 -0.0004364403 -0.00017655392 -0.10248459
0.009952004 -0.0022418024 0.022688873 -0.016711483 -0.17718819 0.006216243 0.00076856447 0.015281543
-0.004838009 -0.23863958 -0.0041170097 0.0024718575 0.012234968 -0.0058409604 -0.16721714 0.009447814
0.011723683 -0.019335609 -0.026837697 0.19117168 -0.004856915 0.010727109 0.0101194205 0.002940872
-0.28769976 -0.02062675 -0.010183755 0.024817407 0.0053877304 0.31425157 0.018177873 -0.017396545
-0.0074935444 -0.005652668 0.1543341 -0.010198915 -0.010005595 0.0032108799 -0.003560977 0.23372154
-0.0032398198 -0.010522033 0.00575922 -0.009524906 0.28750533 -0.0024050742 -0.0066389022 -0.016695922
0.016568802 -0.115606405 -0.017130932 0.03491937 0.011879412 -0.004779257 -0.15159804 0.01880501
-0.041979976 -0.071976475 -0.016736206 -0.1812599 0.007701357 -0.0058693006 -0.013982584 -0.004532988
0.17980848 -0.0055050584 -0.029140636 -0.04426132 0.01742598 -0.17757031 0.00012003402 0.04761918
0.05533423 -0.012902861 0.1599543 0.012960765 -0.012069651 -0.019113967 0.013177848 0.2479717
-0.012102211 -0.0075646043 0.003312097 -0.008112557 -0.23498924 0.008028034 -0.0007956629 -0.011013761
-0.012814303 0.16408645 -0.005565147 0.01696356 -0.0105061205 -0.002863724 0.1770905 -0.008558144
0.00040209063 0.0020977189 -0.0030969472 0.20582233 0.009885902 -0.0043489654 -0.019447662 0.011465367
0.22012119 -0.007194707 0.0036590334 0.0074697514 0.010969053 -0.20172761 -0.00297375 0.0050648614
-0.012091933 -0.007392351 0.24052344 0.0051197223 0.022216244 0.024954757 -0.023783261 0.15729944
0.009836954 0.014459102 -0.0019825287 -0.0049581397 -0.21623592 0.010788517 -0.012635405 0.006417063
0.013556605 -0.2167275 -0.004766417 -0.02278314 0.02177145 -0.013471961 -0.26993975 -0.0031251644
0.01647304 -0.012071267 -0.011477883 0.16148373 0.0050737294 -0.00864631 -0.0071383975 0.01824134
-0.2177298 0.007584189 -0.0058205235 -0.019007301 -0.0052877846 -0.16833995 0.012338091 -0.0011474693
-0.026984524 0.010370793 0.23677072 -0.0035609994 0.016739635 0.0093945805 -0.013454803 -0.2320397
0.0016858455 0.0125870025 -0.019228594 -8.15743e-05 0.2429715 -0.016275467 0.000102556914 0.020418784
-0.011866933 0.24984977 -0.013446335 0.0046813465 0.009343123 0.00922685 0.28741974 -0.02009346
0.005079417 0.027848018 0.0014085697 0.22612058 -0.0027247376 -0.018199008 0.022533448 -0.0055353935
-0.2429621 -0.0028051583 0.008205676 0.007930084 0.0033348757 -0.21760722 0.006219121 0.009721763
-0.011986395 0.00220143 -0.35634083 0.010672369 -0.0019218276 0.0011861132 -0.009758605 0.13898776
0.0023228312 -0.00075056334 -0.0114612095 -0.010769481 0.17794491 -0.008904112 0.02007629 0.015885698
-0.006376492 -0.21452016
00000000: 4f8e 36bb 401f 443c d392 883b 1d5e 7c3b
00000010: c646 55be a92d 28bc e1d2 b83b 7f17 c63c
00000020: ab58 753b 2f91 32be 0e34 083a ac19 5dbb
00000030: efb7 193b 5c5f 72bc 0bc9 513e 6db6 61bb
00000040: 4bb1 8b3a faa4 923a 300d ccbb 27cd 523e
00000050: 79dd 203c 1b54 1e3c 3435 6fbc 0ad6 ad3b
00000060: 0017 8d3e 7834 f03b 8468 0d3c cd88 3ebb
00000070: bc69 293b 7d70 46be 8ba6 3dbc c9ed d4bb
00000080: e274 54bc 779d 7a3c 6cb8 5b3e 6ea5 39bc
00000090: d210 5a3b 07d2 e4b9 5521 39b9 71e3 d1bd
000000a0: bb0d 233c 34eb 12bb 04de b93c 85e6 88bc
000000b0: d270 35be a0b1 cb3b 7d79 493a 705f 7a3c
000000c0: 2988 9ebb ef5d 74be fbe7 86bb e3fe 213b
000000d0: 2d75 483c 8765 bfbb f83a 2bbe 01cb 1a3c
000000e0: b114 403c b665 9ebc bbda dbbc 82c2 433e
000000f0: c226 9fbb c2c0 2f3c edcb 253c a5bb 403b
00000100: 624d 93be 6ef9 a8bc c4d9 26bc e04d cb3c
00000110: 8f8b b03b 95e5 a03e c3e9 943c 3383 8ebc
00000120: 688c f5bb 043a b9bb c209 1e3e 5a19 27bc
00000130: 82ee 23bc a06d 523b 485f 69bb b354 6f3e
00000140: 2853 54bb 9b64 2cbc d7b7 bc3b 5a0e 1cbc
00000150: e633 933e 739e 1dbb 268b d9bb e3c5 88bc
00000160: 4cbb 873c 0dc3 ecbd 2b56 8cbc 9d07 0f3d
00000170: dea1 423c 509b 9cbb 843c 1bbe f70c 9a3c
00000180: 32f3 2bbd 6768 93bd 5e1a 89bc 329c 39be
00000190: aa5b fc3b 4353 c0bb 3517 65bc 7689 94bb
000001a0: b71f 383e c763 b4bb 58b8 eebc 5c4b 35bd
000001b0: eec0 8e3c fed4 35be c6ba fb38 540c 433d
000001c0: 25a6 623d 8666 53bc 0fcb 233e 6359 543c
000001d0: c9bf 45bc e594 9cbc e7e7 573c 4bec 7d3e
000001e0: 5a48 46bc 80e0 f7bb c40f 593b 88ea 04bc
000001f0: 05a1 70be 0488 033c 0994 50ba 1073 34bc
00000200: 15f3 51bc 4706 283e d65b b6bb 2af7 8a3c
00000210: dd21 2cbc 51ad 3bbb 3657 353e 7537 0cbc
00000220: b1cf d239 e279 093b 27f6 4abb 17c3 523e
00000230: 7af8 213c c481 8ebb b450 9fbc 3cd9 3b3c
00000240: 7367 613e 94c1 ebbb 65cc 6f3b d1c4 f43b
00000250: 8bb7 333c af91 4ebe 3fe3 42bb 23f7 a53b
00000260: 3e1d 46bc 893b f2bb c74b 763e 58c3 a73b
00000270: d7fe b53c eb6d cc3c 1dd5 c2bc 1b13 213e
00000280: 2d2b 213c dfe5 6c3c 50ed 01bb e477 a2bb
00000290: f36c 5dbe 52c2 303c bb04 4fbc 3a46 d23b
000002a0: 861c 5e3c d0ed 5dbe 9b2f 9cbb b5a3 babc
000002b0: 0a5a b23c 80b9 5cbc 8b35 8abe 8fcf 4cbb
000002c0: 78f2 863c 90c6 45bc bb0d 3cbc fe5b 253e
000002d0: 8741 a63b 41a9 0dbc 38e9 e9bb dd6e 953c
000002e0: 90f4 5ebe ca84 f83b 17ba bebb 33b5 9bbc
000002f0: 2745 adbb 4f61 2cbe b425 4a3c ae66 96ba
00000300: a60e ddbc 42ea 293c 0674 723e a85f 69bb
00000310: 8f21 893c baeb 193c 8971 5cbc d19b 6dbe
00000320: 97f7 dc3a b739 4e3c 4985 9dbc de12 abb8
00000330: 85cd 783e 2154 85bc d313 d738 4b45 a73c
00000340: 866d 42bc 9ed8 7f3e 044e 5cbc fb65 993b
00000350: e613 193c 372c 173c ae28 933e 0a9b a4bc
00000360: 3d71 a63b 8721 e43c c29f b83a 278c 673e
00000370: 8391 32bb 1616 95bc 1198 b83c 3f62 b5bb
00000380: 0fcb 78be bfd6 37bb 1a71 063c 2fed 013c
00000390: ee8d 5a3b 6dd4 5ebe c5c9 cb3b 0848 1f3c
000003a0: 9662 44bc de45 103b 4e72 b6be 29db 2e3c
000003b0: d5e5 fbba 5b77 9b3a 8ee2 1fbc cf52 0e3e
000003c0: a43a 183b 74c1 44ba ccc7 3bbc 7a72 30bc
000003d0: 3137 363e 8de2 11bc 0877 a43c b922 823c
000003e0: e4f1 d0bb 2cab 5bbe

shared_encoder.input_linear.bias f4 [50]
0.076304555 0.06680791 -0.07405275 -0.08454621 -0.078179635 0.07673347 -0.07493514 0.06175812
0.06762777 0.076841764 0.06635033 -0.06923562 0.08871031 -0.12029322 -0.07591287 -0.086041294
-0.11879614 0.06329726 0.06297277 0.15158409 -0.07072664 0.12524617 -0.12897381 -0.071937375
0.07285933 -0.06744481 -0.068797134 -0.08587772 -0.069486275 0.08021372 -0.07647107 -0.09364205
0.08993724 0.08512529 0.06928214 -0.06303535 0.08671243 0.09858324 -0.07055215 0.085479744
-0.07415752 -0.10460361 -0.08880458 -0.11079857 0.071903236 0.08457939 0.10110468 -0.0741851
-0.071812205 0.07320574
00000000: 9045 9c3d 96d2 883d f8a8 97bd 9026 adbd
00000010: a51c a0bd 7026 9d3d 9877 99bd 15f6 7c3d
00000020: 6e80 8a3d 375f 9d3d afe2 873d 68cb 8dbd
00000030: c0ad b53d 4b5c f6bd 3578 9bbd 6b36 b0bd
00000040: 644b f3bd fea1 813d def7 803d dc38 1b3e
00000050: 21d9 90bd 8840 003e b611 04be e753 93bd
00000060: 4637 953d 8120 8abd 83e5 8cbd a8e0 afbd
00000070: d24e 8ebd 1747 a43d dd9c 9cbd 67c7 bfbd
00000080: 0431 b83d 2b56 ae3d cbe3 8d3d ad18 81bd
00000090: 4996 b13d 02e6 c93d a57d 90bd 0110 af3d
000000a0: e6df 97bd 6b3a d6bd 2ddf b5bd 5cea e2bd
000000b0: 0142 933d f637 ad3d f80f cf3d 5cee 97bd
000000c0: 4712 93bd e4ec 953d

shared_encoder.gru_left.weight_ih_l0 f4 [150, 50]
0.006035967 0.0037670666 0.0023236333 0.008907421 0.0122796325 -0.00627135 0.012995764 -0.025011832
-0.02111409 -0.0025960086 -0.004704954 -0.018561719 0.006811356 -0.026622498 -0.017762663 0.015182711
-0.010746279 0.010894814 0.01622915 -0.057436727 0.02513064 -0.022435846 0.022226648 -0.009143488
-0.011713459 0.0020861041 0.0112149725 0.005677671 0.03092541 0.011521347 0.01335407 0.019158442
-0.0057678577 0.0021726592 -0.02108908 0.014172735 -0.008895091 -0.03800105 0.0079526445 0.0075957724
-0.0039385315 0.0046187863 -0.01055647 0.0020956306 -0.010802926 -0.0073370957 0.04725495 0.012391702
-0.010175322 0.007114349 0.02837965 0.017605849 -0.031175716 -0.010289052 -0.017592393 0.022318961
-0.019804306 -0.011968291 0.004305581 0.03183031 0.013380598 -0.016206866 0.08279919 -0.072751254
-0.05586457 -0.057369325 -0.11012107 -0.0072800987 0.071129486 -0.15500957 -0.02368593 -0.064114235
0.13318022 -0.02713749 -0.012246052 -0.02838376 0.005015275 -0.011619629 -0.009562777 0.014286973
-0.041510064 0.027067956 0.043192107 0.021159 -0.016844245 0.0026002175 0.01562726 -0.013714859
0.0014098556 0.026042579 -0.01260528 -0.03697165 -0.024783025 -0.025443485 0.013636181 0.048774205
0.106100164 -0.034663994 -0.035669897 0.027878754 0.073607296 0.06191844 -0.043126006 -0.07124774
-0.053596616 0.0612606 -0.06279904 0.026252309 0.06746143 0.06072651 0.025068142 -0.040283162
0.11166792 -0.11879379 -0.08619179 -0.06533608 -0.13870063 -0.0018768943 0.091905475 -0.18235831
-0.041946426 -0.075615376 0.137827 -0.053640958 0.027057948 -0.055119466 -0.017013434 -0.05475527
-0.039702967 0.036655948 -0.05939123 0.035765152 0.091468096 0.058862228 0.03237113 -0.021790871
0.033748142 0.020760063 -0.06244261 0.06331106 -0.047632616 -0.063998476 -0.055836946 -0.017585846
0.05130435 0.0787777 0.13973914 -0.059018377 -0.06645741 0.07747498 0.017359957 0.01509236
-0.0014343036 -0.005300914 0.005397109 0.0074472157 0.001548863 -0.033283435 -0.004422477 0.0062186127
0.0034355605 0.00011402869 0.044847038 -0.06432676 -0.037863076 -0.035793934 -0.08212297 -0.03971963
0.056837324 -0.17388114 -0.020897662 -0.065115154 0.15043084 0.0026881734 -0.05498317 0.0067623695
0.05225521 -0.019347936 0.0019243371 0.013611548 -0.0024639203 0.030353911 0.006916064 0.00073875627
-0.01016697 0.018892847 0.01573832 -0.034249287 -0.0036737563 0.011914915 0.008758535 -0.016289674
0.0024560315 -0.0029870858 -0.011530777 0.019849679 0.0861269 0.011842842 -0.027601061 0.016607586
0.09983181 0.117953934 -0.09128691 -0.0880953 -0.13076004 0.0905229 -0.11638323 0.0800422
0.09974503 0.115819454 0.07763651 -0.11518275 0.14575127 -0.16868268 -0.13980293 -0.12175853
-0.21050449 0.030035341 0.12757811 -0.15245885 -0.09047896 -0.046792965 0.12914756 -0.11373444
0.061982147 -0.07427736 -0.06819504 -0.11684437 -0.07563356 0.10049499 -0.094587244 6.3130574e-06
0.14465025 0.09705502 0.060514156 -0.07462506 0.0826512 0.060081728 -0.10103481 0.118757315
-0.074279554 -0.11210421 -0.12021467 -0.086753175 0.075255744 0.12700342 0.20621127 -0.08057551
-0.100161605 0.10191353 0.04112934 0.002754625 -0.0116275335 0.006483902 -0.005887741 0.000113877584
00000000: 5cc9 c53b e4e0 763b 1948 183b 6ef0 113c
00000010: 8330 493c e67f cdbb 2fec 543c 9de5 ccbc
00000020: 75f7 acbc cc21 2abb 042c 9abb bf0e 98bc
00000030: cc31 df3b 6d17 dabc 0183 91bc e8c0 783c
00000040: 2911 30bc 2980 323c fff2 843c c642 6bbd
00000050: c6de cd3c 61cb b7bc a914 b63c 91ce 15bc
00000060: cfe9 3fbc 05b7 083b 01bf 373c c20b ba3b
00000070: 4957 fd3c 08c4 3c3c 07cb 5a3c 2af2 9c3c
00000080: 4c00 bdbb 2c63 0e3b 02c3 acbc c234 683c
00000090: b7bc 11bc fda6 1bbd cf4b 023c f5e5 f83b
000000a0: cc0e 81bb 3059 973b 0bf5 2cbc d956 093b
000000b0: c1fe 30bc 056c f0bb 688e 413d 9106 4b3c
000000c0: 65b6 26bc 7c1f e93b 717c e83c 243a 903c
000000d0: 3764 ffbc 6993 28bc ec1d 90bc 41d6 b63c
000000e0: a43c a2bc a716 44bc d515 8d3b 8060 023d
000000f0: 4c3a 5b3c 43c4 84bc 9f92 a93d 9cfe 94bd
00000100: 3fd2 64bd 19fc 6abd 2887 e1bd e58d eebb
00000110: 56ac 913d d4ba 1ebe ff08 c2bc 534e 83bd
00000120: 6560 083e 714f debc aaa3 48bc 0f85 e8bc
00000130: 2d57 a43b 4260 3ebc 32ad 1cbc e813 6a3c
00000140: 7506 2abd 9ebd dd3c 35ea 303d a455 ad3c
00000150: f1fc 89bc 6968 2a3b bd04 803c 4ab4 60bc
00000160: e7ca b83a 3f57 d53c 6086 4ebc 966f 17bd
00000170: c505 cbbc db6e d0bc 4a6a 5f3c 76c7 473d
00000180: 0b4b d93d d5fb 0dbd 991a 12bd fc61 e43c
00000190: 6cbf 963d 319e 7d3d e5a4 30bd 56ea 91bd
000001a0: 2088 5bbd 65ec 7a3d c89c 80bd 150f d73c
000001b0: 3829 8a3d 5cbc 783d b45b cd3c f5ff 24bd
000001c0: 27b2 e43d 294a f3bd 5285 b0bd ecce 85bd
000001d0: 8a07 0ebe 1f02 f6ba f038 bc3d 23bc 3abe
000001e0: 04d0 2bbd 3cdc 9abd 8522 0d3e 9fb6 5bbd
000001f0: a1a8 dd3c f3c4 61bd c25f 8bbc 1047 60bd
00000200: 949f 22bd 8c24 163d 3844 73bd 7b7e 123d
00000210: a053 bb3d 8519 713d 9797 043d c582 b2bc
00000220: 7e3b 0a3d 0211 aa3c d2c3 7fbd 3ba9 813d
00000230: 6b1a 43bd a211 83bd 48b5 64bd 3110 90bc
00000240: 8324 523d 3456 a13d c717 0f3e 41bd 71bd
00000250: d31a 88bd 34ab 9e3d 7836 8e3c f245 773c
00000260: 3eff bbba 4ab3 adbb 3bda b03b c607 f43b
00000270: 3803 cb3a 3654 08bd 6dea 90bb 81c5 cb3b
00000280: 2427 613b b022 ef38 87b1 373d c0bd 83bd
00000290: 5016 1bbd a99c 12bd 1630 a8bd 0db1 22bd
000002a0: 41ce 683d e60d 32be 9331 abbc 185b 85bd
000002b0: 8b0a 1a3e 112c 303b 0836 61bd de96 dd3b
000002c0: 8f09 563d 907f 9ebc 0a3a fc3a f802 5f3c
000002d0: b979 21bb c4a8 f83c 26a0 e23b 18a9 413a
000002e0: 5d93 26bc 2cc5 9a3c a6ed 803c fb48 0cbd
000002f0: 67c3 70bb c736 433c f57f 0f3c ec71 85bc
00000300: 5ff5 203b fcc2 43bb 96eb 3cbc cb9b a23c
00000310: 4d63 b03d 7b08 423c 9f1b e2bc a20c 883c
00000320: 9f74 cc3d d591 f13d a2f4 babd 4f6b b4bd
00000330: f6e5 05be 1264 b93d 555a eebd 2aed a33d
00000340: 1f47 cc3d c032 ed3d e4ff 9e3d efe4 ebbd
00000350: d23f 153e 27bb 2cbe 8028 0fbe 895c f9bd
00000360: 7d8e 57be ad0c f63c d6a3 023e 2c1e 1cbe
00000370: 084d b9bd fba9 3fbd 423f 043e 9aed e8bd
00000380: fee0 7d3d bb1e 98bd d7a9 8bbd 1a4c efbd
00000390: c5e5 9abd 51d0 cd3d f5b6 c1bd c0d4 d336
000003a0: 321f 143e c8c4 c63d b1dd 773d 06d5 98bd
000003b0: 0845 a93d 4218 763d 57eb cebd 0937 f33d
000003c0: e11f 98bd e496 e5bd 1c33 f6bd a6ab b1bd
000003d0: af1f 9a3d 2f0d 023e 0c29 533e c604 a5bd
000003e0: 8721 cdbd 0ab8 d03d 3d77 283d f086 343b
000003f0: 6981 3ebc ea76 d43b f4ed c0bb 90d1 ee38

shared_encoder.gru_left.weight_hh_l0 f4 [150, 50]
0.030705243 0.04778238 0.022929091 -0.03285381 0.0441116 -0.04856255 0.02945806 -0.039289735
-0.043080024 -0.072180636 0.027385278 0.055561285 0.04498652 -0.04708659 -0.048616305 0.018807806
0.051294383 0.056467775 0.04229538 -0.038104683 0.0516574 0.056143776 0.06200472 0.044187807
0.11667967 0.037926815 -0.051026303 0.045742285 -0.020507503 0.018025557 0.033254888 -0.04173901
0.031749457 0.060802054 -0.046950907 0.047537163 0.033754002 0.0331609 0.05761538 0.054957937
0.05362974 0.03309637 0.038134437 -0.022521922 0.016444938 -0.069504306 0.04627772 0.05271769
-0.052754603 0.02484868 0.033514258 0.096086025 0.09457605 -0.08726873 0.098935165 -0.08753063
0.080635466 -0.07891083 -0.08866944 -0.095224336 0.08767334 0.101255625 0.082825534 -0.101056196
-0.10513365 0.08380372 0.09513328 0.08564935 0.08903545 -0.09902373 0.08709727 0.07884743
0.0861152 0.10585048 0.10775752 0.11207264 -0.08552024 0.105512604 -0.09378166 0.09181458
0.089445814 -0.08747215 0.090622514 0.116664894 -0.10115426 0.105640724 0.07234576 0.1057532
0.10996976 0.09845607 0.09248201 0.07177892 0.09492902 -0.09655699 0.0100015635 -0.098624036
0.08605393 0.08394608 -0.10873308 0.07638634 0.011889596 0.06591317 0.063903965 -0.07034489
0.06855747 -0.06303583 0.072702 -0.080519706 -0.059735797 -0.079026036 0.049884062 0.101054765
0.08833191 -0.0728305 -0.048070595 0.07386809 0.0681052 0.06510998 0.09238047 -0.0658146
0.06547333 0.057050657 0.06111909 0.08816796 0.10381984 0.09206571 -0.08244072 0.058104552
-0.062517844 0.074121974 0.069078445 -0.0836686 0.07599624 0.10733402 -0.06315833 0.057741955
0.05828636 0.08099388 0.07571305 0.05682352 0.072868444 0.05614482 0.065363266 -0.036346927
-0.0014100744 -0.06863871 0.063345134 0.07583999 -0.077057056 0.0629039 0.027687427 0.12554172
0.10207181 -0.13005328 0.113652356 -0.12937586 0.12750494 -0.1203103 -0.11532689 -0.10440198
0.07189199 0.12896854 0.13038383 -0.12045728 -0.0987714 0.07908803 0.116719544 0.11067177
0.094279714 -0.12939872 0.1292541 0.11387791 0.12031521 0.12493232 0.13297074 0.1351199
-0.13355495 0.0987625 -0.094247766 0.10964329 0.12179941 -0.11672965 0.10932982 0.1568281
-0.11679847 0.13241887 0.10907042 0.1339301 0.13565235 0.11323845 0.122837685 0.11735345
0.12404947 -0.11731011 0.057529423 -0.11539851 0.09853951 0.098999046 -0.114773944 0.107615255
0.0046228054 0.050595254 0.057295002 -0.036415733 0.040912967 -0.050487295 0.042868044 -0.05301401
-0.03720634 -0.037358448 0.051577035 0.06541679 0.08943467 -0.031935856 -0.041489713 0.034534365
0.060939584 0.043118432 0.07006201 -0.049825985 0.061961632 0.031915955 0.05462342 0.08235577
0.058820944 0.06711869 -0.053560264 0.05094602 -0.059050016 0.0642648 0.05939097 -0.054581966
0.034614813 0.08709087 -0.053022236 0.036619436 0.046883803 0.07041813 0.07453709 0.040920943
0.061704468 0.045884855 0.06545184 -0.034105282 -0.008679654 -0.046857275 0.057053696 0.04516526
-0.052244917 0.04550775 0.037034877 0.11967505 0.10229222 -0.11980351 0.11703831 -0.10924788
00000000: 9089 fb3c 75b7 433d cad5 bb3c b791 06bd
00000010: 5dae 343d 86e9 46bd 0852 f13c 46ee 20bd
00000020: ae74 30bd 71d3 93bd 1757 e03c 3b94 633d
00000030: c943 383d dedd 40bd e421 47bd d412 9a3c
00000040: 0f1a 523d c14a 673d ec3d 2d3d a813 1cbd
00000050: b696 533d 04f7 653d a9f8 7d3d 46fe 343d
00000060: c0f5 ee3d 2659 1b3d f500 51bd 435c 3b3d
00000070: 5aff a7bc 55aa 933c 4736 083d 86f6 2abd
00000080: b80b 023d 930b 793d 984f 40bd 54b6 423d
00000090: a341 0a3d b9d3 073d 1bfe 6b3d 931b 613d
000000a0: dcaa 5b3d 0f90 073d db32 1c3d e57f b8bc
000000b0: 89b7 863c 4658 8ebd b58d 3d3d 81ee 573d
000000c0: 3615 58bd 758f cb3c 3f46 093d c0c8 c43d
000000d0: 17b1 c13d f3b9 b2bd 859e ca3d 4243 b3bd
000000e0: 3524 a53d 009c a1bd 5398 b5bd fa04 c3bd
000000f0: 158e b33d 1c5f cf3d 6fa0 a93d 8df6 cebd
00000100: 5050 d7bd 49a1 ab3d 3dd5 c23d ed68 af3d
00000110: 3858 b63d f4cc cabd 0e60 b23d c37a a13d
00000120: 2a5d b03d 23c8 d83d faaf dc3d 5786 e53d
00000130: 3c25 afbd fe16 d83d 9910 c0bd 4809 bc3d
00000140: 5e2f b73d 9924 b3bd 4c98 b93d 01ee ee3d
00000150: f729 cfbd 2a5a d83d 042a 943d 2295 d83d
00000160: d337 e13d 56a3 c93d 3567 bd3d d400 933d
00000170: 256a c23d acbf c5bd 99dd 233c 66fb c9bd
00000180: 0b3d b03d eceb ab3d 73af debd 7170 9c3d
00000190: 94cc 423c 7cfd 863d 15e0 823d fb10 90bd
000001a0: dc67 8c3d ee18 81bd c9e4 943d 84e7 a4bd
000001b0: 86ad 74bd 67d8 a1bd 3b53 4c3d cdf5 ce3d
000001c0: 5ce7 b43d 2828 95bd ace5 44bd 2748 973d
000001d0: bd7a 8b3d 6258 853d f931 bd3d cec9 86bd
000001e0: e216 863d f3ad 693d 0358 7a3d 6791 b43d
000001f0: 7f9f d43d f28c bc3d aed6 a8bd 0aff 6d3d
00000200: 5b09 80bd 43cd 973d 0079 8d3d 715a abbd
00000210: eba3 9b3d f0d1 db3d 2859 81bd d482 6c3d
00000220: aebd 6e3d 1fe0 a53d 720f 9b3d c8bf 683d
00000230: 0d3c 953d 1cf8 653d 2ddd 853d 84e0 14bd
00000240: 3fd2 b8ba 7492 8cbd 18bb 813d ff51 9b3d
00000250: 17d0 9dbd c3d3 803d bed0 e23c 028e 003e
00000260: 060b d13d b02c 05be 91c2 e83d 1b7b 04be
00000270: a890 023e 3f65 f6bd 8130 ecbd b5d0 d5bd
00000280: 1c3c 933d 5410 043e 5783 053e 4eb2 f6bd
00000290: a948 cabd e8f8 a13d a80a ef3d e2a7 e23d
000002a0: b915 c13d 1981 04be 305b 043e d238 e93d
000002b0: d267 f63d 84dc ff3d 7b29 083e df5c 0a3e
000002c0: a1c2 08be fe43 ca3d f904 c1bd a98c e03d
000002d0: f871 f93d f40f efbd 50e8 df3d 8c97 203e
000002e0: 0934 efbd d098 073e 5060 df3d f924 093e
000002f0: 73e8 0a3e 8fe9 e73d 5392 fb3d 0157 f03d
00000300: a60d fe3d 4840 f0bd f9a3 6b3d 0e56 ecbd
00000310: 15cf c93d 03c0 ca3d 9a0e ebbd 6365 dc3d
00000320: e77a 973b f83c 4f3d 2aae 6a3d aa28 15bd
00000330: 5b94 273d c4cb 4ebd 6796 2f3d 3825 59bd
00000340: ad65 18bd 2c05 19bd 7142 533d 3df9 853d
00000350: 8629 b73d 2ccf 02bd 1ef1 29bd e873 0d3d
00000360: c99b 793d f49c 303d ac7c 8f3d 5516 4cbd
00000370: 7bcb 7d3d 4eba 023d cfbc 5f3d 24aa a83d
00000380: 3bee 703d 8675 893d 0262 5bbd c6ac 503d
00000390: 6ede 71bd 439d 833d f243 733d 5791 5fbd
000003a0: 43c8 0d3d b35c b23d d82d 59bd 43fe 153d
000003b0: 3b09 403d 6137 903d e7a6 983d b89c 273d
000003c0: d3bd 7c3d c2f1 3b3d 9d0b 863d fbb1 0bbd
000003d0: 1c35 0ebc 6aed 3fbd 23b1 693d 35ff 383d
000003e0: c4fe 55bd 5666 3a3d e2b1 173d 3118 f53d
000003f0: 957e d13d 8b5b f5bd c8b1 ef3d 5abd dfbd

shared_encoder.gru_left.bias_ih_l0 f4 [150]
0.02480012 0.06490687 0.04866468 0.091814764 0.009884147 0.084214866 0.08951447 0.10606789
0.059574258 -0.014465806 0.08183972 0.05615151 0.05710598 0.05996699 0.08572706 0.055019774
0.0753738 0.030387098 0.05928986 0.05981491 0.08189075 0.07102969 0.040779404 0.10077127
0.02929973 0.095938005 0.053846035 0.09013783 0.06150076 0.07950948 0.054581366 0.050616354
0.04877163 0.1313755 0.038377095 0.0769458 0.052598756 0.10855327 0.066838995 0.06303044
0.10267264 0.071708 0.06329682 0.0935706 0.01857018 0.01636637 0.07517464 0.050971217
0.029061971 0.050662033 0.14209332 0.008268101 -0.1270143 0.02638622 -0.30914545 0.041288428
-0.046500437 0.08982038 -0.176421 -0.8031609 0.043728713 -0.39280626 -0.26435667 -0.09062248
0.12953271 -0.08714563 -0.08775185 -0.22849007 -0.0036237105 0.02056089 0.030272728 0.039902672
-0.4232179 0.09933772 -1.1898018 -0.0163654 -0.14250894 0.01907067 -0.075643845 0.046672728
-0.14643086 -0.21936859 -0.13402565 0.03883742 -0.22348037 0.006708121 0.10857439 -0.05422647
0.01673361 -0.12524363 -0.013638001 0.135603 0.087991856 0.03242794 0.13723296 -0.38127333
-0.0012403774 -0.20159996 -0.31153905 -0.04043144 -0.012798261 -0.024281986 -0.0326751 0.018020589
-0.049668208 0.019213602 -0.024436895 0.010857266 0.03785862 0.08031693 -0.020775877 -0.047009088
-0.043412253 0.028071944 0.013571382 -0.029356314 -0.030081348 -0.0421941 -0.024746161 0.024779905
-0.018272866 -0.020494606 -0.051946267 -0.006013006 -0.0624656 -0.013118016 0.026934111 -0.016278127
0.029844088 -0.02247783 -0.037755884 0.0403993 -0.03471216 -0.0008374227 0.043002255 -0.02364674
-0.01783111 -0.009868149 -0.020809023 -0.026964838 -0.015505057 -0.01569948 -0.01907565 0.018269276
-0.014232945 0.054235928 -0.023220465 -0.038115412 0.049734235 -0.030416267
00000000: 9f29 cb3c e5ed 843d 9e54 473d 6109 bc3d
00000010: 1ef1 213c d878 ac3d 5d53 b73d 1f3a d93d
00000020: 2304 743d fd01 6dbc 959b a73d 20ff 653d
00000030: f6e7 693d f29f 753d ab91 af3d 6a5c 613d
00000040: 945d 9a3d 5dee f83c edd9 723d 7b00 753d
00000050: 56b6 a73d 0478 913d 4e08 273d 2b61 ce3d
00000060: fd05 f03c 257b c43d a98d 5c3d 2f9a b83d
00000070: 39e8 7b3d ded5 a23d b690 5f3d 1853 4f3d
00000080: c3c4 473d 4d87 063e 4d31 1d3d c295 9d3d
00000090: cb71 573d 2d51 de3d e2e2 883d 1a16 813d
000000a0: 0846 d23d a5db 923d c3a1 813d f1a1 bf3d
000000b0: 7d20 983c c412 863c 29f5 993d 32c7 503d
000000c0: 5f13 ee3c fe82 4f3d e980 113e ee76 073c
000000d0: 0910 02be ea27 d83c 5048 9ebe 0e1e 293d
000000e0: 3e77 3ebd bff3 b73d b5a7 34be f49b 4dbf
000000f0: e11c 333d e71d c9be c259 87be 4798 b9bd
00000100: 39a4 043e 6879 b2bd 3eb7 b3bd 4df9 69be
00000110: c67b 6dbb 506f a83c 83fe f73c fc70 233d
00000120: 04b0 d8be 9371 cb3d 6d4b 98bf bb10 86bc
00000130: dded 11be 183a 9c3c 29eb 9abd e72b 3f3d
00000140: f9f1 15be 29a2 60be 053e 09be fd13 1f3d
00000150: 0ad8 64be cccf db3b 405c de3d 931c 5ebd
00000160: ec14 893c de3f 00be ec71 5fbc 83db 0a3e
00000170: 1335 b43d 29d3 043d cc86 0c3e 4236 c3be
00000180: 2994 a2ba 3870 4ebe 0c82 9fbe 709b 25bd
00000190: ccaf 51bc 04eb c6bc 53d6 05bd ea9f 933c
000001a0: e470 4bbd d865 9d3c e22f c8bc ade2 313c
000001b0: a411 1b3d 347d a43d 2c32 aabc 9a8c 40bd
000001c0: 0cd1 31bd 22f7 e53c 805a 5e3c a77c f0bc
000001d0: 296d f6bc b8d3 2cbd 76b8 cabc 3aff ca3c
000001e0: fab0 95bc 4ee4 a7bc 9cc5 54bd c008 c5bb
000001f0: eedb 7fbd f2ec 56bc eda4 dc3c b559 85bc
00000200: 977b f43c 6d23 b8bc eaa5 1abd bd79 253d
00000210: 562e 0ebd 7c86 5bba 2223 303d cfb6 c1bc
00000220: 8c12 92bc 04ae 21bc af77 aabc 5de5 dcbc
00000230: ec08 7ebc 329c 80bc 8a44 9cbc 73a9 953c
00000240: 4c31 69bc 7e26 5e3d d838 bebc e81e 1cbd
00000250: 20b6 4b3d 892b f9bc

shared_encoder.gru_left.bias_hh_l0 f4 [150]
0.02480012 0.06490687 0.04866468 0.091814764 0.009884147 0.084214866 0.08951447 0.10606789
0.059574258 -0.014465806 0.08183972 0.05615151 0.05710598 0.05996699 0.08572706 0.055019774
0.0753738 0.030387098 0.05928986 0.05981491 0.08189075 0.07102969 0.040779404 0.10077127
0.02929973 0.095938005 0.053846035 0.09013783 0.06150076 0.07950948 0.054581366 0.050616354
0.04877163 0.1313755 0.038377095 0.0769458 0.052598756 0.10855327 0.066838995 0.06303044
0.10267264 0.071708 0.06329682 0.0935706 0.01857018 0.01636637 0.07517464 0.050971217
0.029061971 0.050662033 0.14209332 0.008268101 -0.1270143 0.02638622 -0.30914545 0.041288428
-0.046500437 0.08982038 -0.176421 -0.8031609 0.043728713 -0.39280626 -0.26435667 -0.09062248
0.12953271 -0.08714563 -0.08775185 -0.22849007 -0.0036237105 0.02056089 0.030272728 0.039902672
-0.4232179 0.09933772 -1.1898018 -0.0163654 -0.14250894 0.01907067 -0.075643845 0.046672728
-0.14643086 -0.21936859 -0.13402565 0.03883742 -0.22348037 0.006708121 0.10857439 -0.05422647
0.01673361 -0.12524363 -0.013638001 0.135603 0.087991856 0.03242794 0.13723296 -0.38127333
-0.0012403774 -0.20159996 -0.31153905 -0.04043144 -0.008995763 -0.013800487 -0.021425283 0.009850203
-0.03233279 0.010241525 -0.01444569 0.0043510236 0.02449133 0.06371267 -0.013706075 -0.033638574
-0.029030979 0.016169716 0.007846117 -0.019865284 -0.018488988 -0.027405217 -0.013716652 0.015193092
-0.008293568 -0.012202955 -0.035546616 -0.00062064955 -0.08137248 -0.0017216934 0.01192231 -0.0074518346
0.019047262 -0.015690677 -0.023977656 0.027226172 -0.021882327 0.008342246 0.028544912 -0.013758988
-0.011655468 0.0017751735 -0.010027255 -0.01254337 -0.004654322 -0.010130548 -0.010254497 0.01276182
-0.010401725 0.037271522 -0.01353211 -0.024330027 0.033707686 -0.020289078
00000000: 9f29 cb3c e5ed 843d 9e54 473d 6109 bc3d
00000010: 1ef1 213c d878 ac3d 5d53 b73d 1f3a d93d
00000020: 2304 743d fd01 6dbc 959b a73d 20ff 653d
00000030: f6e7 693d f29f 753d ab91 af3d 6a5c 613d
00000040: 945d 9a3d 5dee f83c edd9 723d 7b00 753d
00000050: 56b6 a73d 0478 913d 4e08 273d 2b61 ce3d
00000060: fd05 f03c 257b c43d a98d 5c3d 2f9a b83d
00000070: 39e8 7b3d ded5 a23d b690 5f3d 1853 4f3d
00000080: c3c4 473d 4d87 063e 4d31 1d3d c295 9d3d
00000090: cb71 573d 2d51 de3d e2e2 883d 1a16 813d
000000a0: 0846 d23d a5db 923d c3a1 813d f1a1 bf3d
000000b0: 7d20 983c c412 863c 29f5 993d 32c7 503d
000000c0: 5f13 ee3c fe82 4f3d e980 113e ee76 073c
000000d0: 0910 02be ea27 d83c 5048 9ebe 0e1e 293d
000000e0: 3e77 3ebd bff3 b73d b5a7 34be f49b 4dbf
000000f0: e11c 333d e71d c9be c259 87be 4798 b9bd
00000100: 39a4 043e 6879 b2bd 3eb7 b3bd 4df9 69be
00000110: c67b 6dbb 506f a83c 83fe f73c fc70 233d
00000120: 04b0 d8be 9371 cb3d 6d4b 98bf bb10 86bc
00000130: dded 11be 183a 9c3c 29eb 9abd e72b 3f3d
00000140: f9f1 15be 29a2 60be 053e 09be fd13 1f3d
00000150: 0ad8 64be cccf db3b 405c de3d 931c 5ebd
00000160: ec14 893c de3f 00be ec71 5fbc 83db 0a3e
00000170: 1335 b43d 29d3 043d cc86 0c3e 4236 c3be
00000180: 2994 a2ba 3870 4ebe 0c82 9fbe 709b 25bd
00000190: f762 13bc 701b 62bc 1384 afbc bf62 213c
000001a0: 636f 04bd 12cc 273c 9ead 6cbc 0893 8e3b
000001b0: 0ba2 c83c ca7b 823d 728f 60bc 9ac8 09bd
000001c0: 60d2 edbc 5a76 843c 008d 003c 85bc a2bc
000001d0: 3876 97bc e880 e0bc cfbb 60bc 72ec 783c
000001e0: bfe1 07bc e7ee 47bc 5499 11bd 16b3 22ba
000001f0: 9da6 a6bd 72aa e1ba cb55 433c 852e f4bb
00000200: 0109 9c3c bc89 80bc ca6c c4bc 6c09 df3c
00000210: 9142 b3bc eaad 083c 05d7 e93c 616d 61bc
00000220: 93f6 3ebc f0ac e83a 5b49 24bc b582 4dbc
00000230: 4883 98bb 99fa 25bc 7a02 28bc f416 513c
00000240: ff6b 2abc 06aa 183d c8b5 5dbc c44f c7bc
00000250: 1211 0a3d 4835 a6bc

shared_encoder.gru_left.weight_ih_l0_reverse f4 [150, 50]
0.010616871 -0.004910276 -0.005813944 0.001091886 0.02158244 -0.0055761766 -0.014006076 -0.001641372
0.012442955 -0.007894302 0.006666916 0.0024058346 -0.03822295 0.023269845 -0.0039024274 0.008750991
0.009299664 0.0068362635 0.020846734 -0.0067379717 -0.00016079412 0.020248374 -0.0126251755 -0.006704073
0.012893408 -0.017761927 -0.029720908 0.0052359155 0.008673774 0.0035514177 -0.009304279 0.0023670855
-0.003989845 -0.0016675583 0.0034629896 0.018562175 0.013368061 0.00161039 -0.010284547 0.0046663284
-0.0061657904 0.0065522557 -0.011323227 0.016183898 -0.009548941 -0.016006071 -0.051908784 -0.0014242312
0.00057345687 0.0014940096 0.0014457739 0.007906595 0.00031094463 -0.0031256091 0.0031607794 0.0026590643
0.0024778906 0.0053979876 0.020544758 0.0040294053 0.027273262 -0.008893012 -0.008450918 0.02018532
0.009986295 0.009665477 0.03425143 0.01260658 0.030165482 0.009718712 0.00304557 -0.004371115
0.0060605532 -0.017169649 -0.002110759 -0.014208109 -0.022444896 0.0013350317 -0.023506992 0.008390049
0.002020878 0.0069905357 0.027081126 -0.0018705719 -0.0019218808 0.007201917 0.012273151 0.017586963
0.011865875 -0.01736151 -0.0042272476 0.012803669 0.0053356076 -0.00018606431 0.0011579973 -0.00950507
-0.015690789 -0.008733606 0.0025695106 0.003934599 0.023096211 0.0070894496 -0.0034254356 -0.009036508
-0.030137993 0.0062839836 -0.0021193367 0.03463604 0.009698943 0.011011146 -0.008162597 -0.010191238
-0.0012193971 -0.008024747 -0.01949539 -0.0052041905 0.0018066843 0.015841823 0.004227193 -0.008073886
-0.031827677 0.0003676762 -0.0015095839 -0.009533339 0.015013653 -0.016499069 -0.014619588 -0.0041635726
-0.018995492 0.01827135 -0.011689477 -0.013549681 -0.01773587 0.0130894 0.01571504 0.003253447
0.013478518 -0.00065746804 -0.016865922 0.013930849 0.014335297 0.008494992 -0.0140259545 0.002318598
-0.004393039 -0.0031047286 -0.020173699 0.0016353661 -0.009983764 0.009116186 -0.009016405 -0.012899071
-0.011199668 -0.012972765 0.0017969641 -0.006763797 0.003236527 -0.006528385 -0.0053196927 0.014266154
0.0139140375 -0.0019408874 -0.0013500873 -0.005583097 9.179849e-05 -0.0032868374 0.0049009165 -0.0064762966
0.007179562 0.014005092 0.0016903207 0.0066739605 -0.006380521 0.0073577943 0.0098363375 -0.021434493
0.018335454 -0.0025703977 0.018880147 -0.0040817386 0.0012500057 -0.026840298 -0.001858069 0.006900562
-0.012291978 -0.006240525 -0.011304847 -0.0034294254 0.0007762503 -0.009286715 0.002919168 -0.0042732228
0.013392072 0.0033102087 -0.008637118 0.017367385 -0.050996576 0.0054809474 -0.009649552 -0.002817724
0.01751824 0.020199986 -0.012427301 -0.009586959 -0.0059777917 0.017942425 -0.004961234 0.016156914
-0.0011283185 0.006760217 0.004522094 -0.0023282878 0.009044694 0.008442254 -0.015550028 -0.0073957955
0.018843362 0.021440215 0.023622183 0.009923625 -0.0027300764 -0.0023166777 0.00370466 5.828103e-05
-0.0076022795 -0.0038789231 -0.0053729694 -0.0037257206 -0.014853249 0.0034122115 0.0010015765 0.0008157864
-0.005197174 -0.015846169 0.015711784 -0.022161812 0.009952437 0.013462548 -0.008093104 0.006822206
0.0016767125 0.021414848 0.009477965 -0.011052798 0.0016304952 0.0054176874 -0.018863795 -0.0032831032
-0.02163408 0.009322028 0.11694871 0.07301734 -0.13300915 -0.13971739 -0.16049339 0.12667081
00000000: 62f2 2d3c 61e6 a0bb e682 bebb 9d1d 8f3a
00000010: a8cd b03c 5cb8 b6bb be79 65bc 4e23 d7ba
00000020: 89dd 4b3c 1a57 01bc 2576 da3b 35ab 1d3b
00000030: ab8f 1cbd 67a0 be3c debf 7fbb 5160 0f3c
00000040: 9e5d 183c bc02 e03b c5c6 aa3c 34ca dcbb
00000050: d89a 28b9 ebdf a53c d3d9 4ebc d7ad dbbb
00000060: df3e 533c 7681 91bc 4379 f3bc 0b92 ab3b
00000070: 721c 0e3c e7be 683b fa70 18bc 1b21 1b3b
00000080: 3fbd 82bb f991 daba 53f3 623b b40f 983c
00000090: b605 5b3c b913 d33a 8480 28bc 00e8 983b
000000a0: 660a cabb 4eb4 d63b 0e85 39bc 1894 843c
000000b0: 2973 1cbc 2a1f 83bc 4e9e 54bd 45ad baba
000000c0: 0a54 163a a5d2 c33a 1f80 bd3a aa8a 013c
000000d0: 4806 a339 05d7 4cbb 1425 4f3b b243 2e3b
000000e0: 1b64 223b 9ae1 b03b 7b4d a83c 1a09 843b
000000f0: 2d6c df3c ffb3 11bc b875 0abc af5b a53c
00000100: 8f9d 233c f35b 1e3c 3a4b 0c3d d48b 4e3c
00000110: 9a1d f73c 3c3b 1f3c 3098 473b 923b 8fbb
00000120: 9b97 c63b 5da7 8cbc a954 0abb 21c9 68bc
00000130: 5cde b7bc 3bfc ae3a bc91 c0bc 6b76 093c
00000140: b570 043b dd10 e53b 3dd9 dd3c fa2d f5ba
00000150: 9ee7 fbba 0ffe eb3b 5415 493c 8912 903c
00000160: 1669 423c ba39 8ebc b984 8abb 7bc6 513c
00000170: 52d6 ae3b 421a 43b9 f1c7 973a 27bb 1bbc
00000180: f889 80bc 6617 0fbc 3c65 283b cfed 803b
00000190: 4434 bd3c 9d4e e83b 467d 60bb dd0d 14bc
000001a0: f4e3 f6bc e0e9 cd3b 92e4 0abb 85de 0d3d
000001b0: 51e8 1e3c 1868 343c 6abc 05bc 26f9 26bc
000001c0: 2dd4 9fba 3a7a 03bc ccb4 9fbc ea87 aabb
000001d0: 44ce ec3a b6c6 813c 4484 8a3b 5548 04bc
000001e0: bd5d 02bd aac4 c039 3bdd c5ba b931 1cbc
000001f0: d3fb 753c 0e29 87bc ff86 6fbc 946e 88bb
00000200: 6f9c 9bbc ccad 953c 3885 3fbc 7bff 5dbc
00000210: d14a 91bc ec74 563c d4bc 803c c837 553b
00000220: 01d5 5c3c ef59 2cba 672a 8abc 373e 643c
00000230: 98de 6a3c 942e 0b3c 1ecd 65bc 9ff3 173b
00000240: 7bf3 8fbb b478 4bbb 5043 a5bc c859 d63a
00000250: f192 23bc 0e5c 153c 8bb9 13bc a056 53bc
00000260: d07e 37bc b88b 54bc 1c88 eb3a d7a2 ddbb
00000270: ea1b 543b 10ec d5bb d150 aebb 96bc 693c
00000280: b4f7 633c 6065 feba 6af5 b0ba 6af2 b6bb
00000290: f083 c038 fb67 57bb de97 a03b 1d37 d4bb
000002a0: 8842 eb3b 9d75 653c c08d dd3a 3db1 da3b
000002b0: b113 d1bb a719 f13b 9728 213c 6497 afbc
000002c0: 3c34 963c 1e74 28bb 8aaa 9a3c 1bc0 85bb
000002d0: 3bd7 a33a 2fe0 dbbc 738a f3ba 1c1e e23b
000002e0: 4b64 49bc 517d ccbb f737 39bc 36c0 60bb
000002f0: 477d 4b3a 4e27 18bc 834f 3f3b 6406 8cbb
00000300: 6c6a 5b3c 16f0 583b b382 0dbc 0c46 8e3c
00000310: c9e1 50bd 8599 b33b 2819 1ebc 90a9 38bb
00000320: 6982 8f3c 717a a53c e19b 4bbc 9f12 1dbc
00000330: 5ae1 c3bb fefb 923c d991 a2bb 815b 843c
00000340: 16e4 93ba cf84 dd3b 132e 943b 3096 18bb
00000350: 3230 143c 6151 0a3c 8bc5 7ebc 6e58 f2bb
00000360: 655d 9a3c 64a3 af3c 4f83 c13c b396 223c
00000370: 15eb 32bb 67d3 17bb e2c9 723b c872 7438
00000380: 8b1c f9bb 8835 7ebb bc0f b0bb 382b 74bb
00000390: 0b5b 73bc 699f 5f3b 5547 833a 80da 553a
000003a0: 0e4d aabb d3cf 81bc 00b6 803c b08c b5bc
000003b0: 8c0f 233c 0592 5c3c f098 04bc d08c df3b
000003c0: 23c5 db3a 316e af3c 7749 1b3c cb16 35bc
000003d0: 57b6 d53a db86 b13b 3f88 9abc 5529 57bb
000003e0: f439 b1bc 6bbb 183c ce82 ef3d 1d8a 953d
000003f0: 8d33 08be 1312 0fbe 6158 24be feb5 013e

shared_encoder.gru_left.weight_hh_l0_reverse f4 [150, 50]
-0.0020199812 -0.009321064 -0.028220281 0.020073561 0.03024494 -0.081752226 -0.0056338157 -0.004798314
0.0018368063 0.022606192 0.012466097 0.003527425 -0.012592724 0.010932953 0.021779457 0.011180574
0.014078356 -0.007093252 0.009447468 -0.006298475 -0.0152075635 0.012809942 0.0041366625 0.022940446
0.0027565255 -0.025559764 -0.016051965 -0.001447702 0.002863295 -0.00074793946 0.022831282 0.012908688
0.023215178 0.00260161 0.014858942 0.013615705 -0.022329623 0.003435763 0.009458246 0.0050797407
-0.01138007 0.008056011 -0.0208352 -0.018039614 0.029150471 -0.02178904 0.0010967983 -0.002597471
-0.015488658 0.019427625 -0.012566035 -0.003450125 -0.006119712 0.030481959 0.0057523404 -0.08606052
-0.022016823 -0.020056779 0.01296124 0.007880583 0.0064372886 -0.011566138 -0.018680433 0.022805557
0.020392047 0.01994178 0.007637002 -0.017785048 0.013078163 -0.020831103 -0.005455059 0.010979277
0.0146506615 0.0039329687 0.02062644 -0.01935474 -0.012993662 -0.016651709 0.022091564 -0.008344574
0.015268953 0.01637489 -0.008866155 -0.009708557 -0.008296064 -0.00046902703 -0.02530802 0.023250768
-0.0076550753 0.018225566 0.002682234 0.0067943963 -0.00523523 -0.020009225 -0.0040912237 -0.0165823
-0.024744885 -0.015658079 -0.022564348 0.027431503 -0.015264289 -0.008233212 -0.00861926 0.016312864
0.018405657 -0.08045794 0.0045607886 -0.0073571033 0.02729915 0.019498462 0.013003627 0.015058467
-0.006909376 0.02151124 0.039263975 0.02548311 0.012446958 -0.011404234 0.014560584 -0.010854973
-0.013663421 0.011740528 0.038904466 0.008135126 0.03951492 -0.01053208 -0.019394979 -0.027449992
0.0076302732 -0.028605172 0.0026808789 0.017838238 -0.005495823 -0.0029067027 -0.0131137995 0.009438553
-0.011267998 0.012148985 -0.019893086 0.029746234 -0.010402174 0.0083503015 -0.017501986 -0.020884665
0.0110456385 -0.013790877 -0.022338083 -0.0022459656 -0.018183326 0.02288442 -0.011112021 -0.010695833
0.005916316 0.009115197 0.0066795736 -0.07399166 -0.016745163 -0.011168402 0.00042454072 0.0119649405
0.016452104 0.015152502 -0.0033858286 0.006782369 0.0018574127 0.0005874375 -0.024796618 -0.013208645
-0.0028743725 0.0058552437 -0.01452537 0.011601176 0.009361376 0.016947854 -0.005274576 -0.0014570509
0.0031983794 -0.0037311849 0.00025092118 -0.00491081 0.010679211 0.011579785 0.010087958 -0.0069299443
-0.01187415 0.002238679 -0.007538261 0.0067327926 -0.012921109 0.00087715394 -0.0031299333 -0.0006380032
-0.014669513 0.0009109154 0.0051091216 -0.007407083 -0.0043317913 -0.0011344481 -0.015329539 0.008245049
-0.016922895 0.0014907928 -0.017544774 0.014750813 0.021345355 -0.07211738 -0.011334717 -0.00237567
0.035082035 0.010597932 0.015488507 0.012885048 -0.013668485 0.02101172 0.024846915 0.0025920346
0.003234388 -0.021386148 0.028437922 -0.0024605903 -0.012916492 0.020557435 0.0178989 0.008427004
0.015587983 -0.024630494 -0.006638287 -0.020504897 0.013459625 -0.012422277 0.0054065506 0.026154524
0.0050020725 -0.012299094 0.009944216 0.02290163 -0.01686446 0.028775373 -0.01178514 0.018892726
-0.002993315 0.013107826 0.00048063678 -0.02482428 0.010552919 -0.0092719905 -0.012811919 -0.019252496
-0.0042967936 0.011423688 -0.047582168 -0.030846689 0.04833759 0.08871916 -0.013369035 -0.23275699
00000000: a961 04bb 60b7 18bc 382e e7bc 4f71 a43c
00000010: 3dc4 f73c b66d a7bd df9b b8bb 2d3b 9dbb
00000020: fec0 f03a 9f30 b93c 9a3e 4c3c 5f2c 673b
00000030: b651 4ebc 2120 333c d56a b23c ba2e 373c
00000040: e8a8 663c 836e e8bb 8ec9 1a3c 7063 cebb
00000050: 2529 79bc cae0 513c d78c 873b 9aed bb3c
00000060: d3a6 343b b662 d1bc 697f 83bc d1c0 bdba
00000070: 1ea6 3b3b 5e11 44ba ab08 bb3c f67e 533c
00000080: c22d be3c c67f 2a3b eb72 733c 6814 5f3c
00000090: 9dec b6bc 8a2a 613b c2f6 1a3c f473 a63b
000000a0: 7973 3abc 5cfd 033c 95ae aabc d0c7 93bc
000000b0: f8cc ee3c ee7e b2bc 72c2 8f3a 553a 2abb
000000c0: 24c4 7dbc af26 9f3c c5e1 4dbc 7e1b 62bb
000000d0: dd87 c8bb 4db5 f93c 217e bc3b 7f40 b0bd
000000e0: a05c b4bc 1d4e a4bc 615b 543c 901d 013c
000000f0: e4ef d23b e67f 3dbc b507 99bc b8d2 ba3c
00000100: 390d a73c f25c a33c d13f fa3b f3b1 91bc
00000110: cb45 563c fda5 aabc 5ac0 b2bb 6de2 333c
00000120: 5409 703c 22e0 803b c8f8 a83c d58d 9ebc
00000130: 5ee3 54bc 2a69 88bc 5ef9 b43c aeb7 08bc
00000140: a12a 7a3c a224 863c 5943 11bc a410 1fbc
00000150: 37ec 07bc bee7 f5b9 c452 cfbc 6578 be3c
00000160: 6dd7 fabb c84d 953c 6bc8 2f3b 87a3 de3b
00000170: 4b8c abbb 63ea a3bc ac0f 86bb 9bd7 87bc
00000180: c9b5 cabc 5f45 80bc ded8 b8bc 08b8 e03c
00000190: 1217 7abc 98e4 06bc cc37 0dbc 8ea2 853c
000001a0: 76c7 963c 22c7 a4bd ab72 953b db13 f1bb
000001b0: 78a2 df3c 3dbb 9f3c 2a0d 553c cab7 763c
000001c0: 0c68 e2bb 5738 b03c 43d3 203d f5c1 d03c
000001d0: 53ee 4b3c d3d8 3abc 848f 6e3c 0fd9 31bc
000001e0: 8bdc 5fbc 585b 403c 4a5a 1f3d 3149 053c
000001f0: 66da 213d bf8e 2cbc 38e2 9ebc cede e0bc
00000200: 5f07 fa3b 6555 eabc afb1 2f3b 7f21 923c
00000210: 4e16 b4bb 617e 3ebb 43db 56bc 29a4 1a3c
00000220: 699d 38bc 890c 473c d3f6 a2bc 60ae f33c
00000230: e16d 2abc b4cf 083c 5360 8fbc 5116 abbc
00000240: c4f8 343c 21f3 61bc 5bfe b6bc 0d31 13bb
00000250: 33f5 94bc 1b78 bb3c 320f 36bc 933d 2fbc
00000260: a8dd c13b e857 153c 53e0 da3b f088 97bd
00000270: 272d 89bc acfb 36bc e494 de39 9908 443c
00000280: 90c6 863c 3342 783c c7e4 5dbb a33e de3b
00000290: 6e74 f33a 43fe 193a 4722 cbbc 1369 58bc
000002a0: f85f 3cbb 58dd bf3b d1fb 6dbc dc12 3e3c
000002b0: 7560 193c 3ad6 8a3c 5ad6 acbb 84fa beba
000002c0: e79b 513b e586 74bb 128e 8339 dcea a0bb
000002d0: dbf7 2e3c 23b9 3d3c f647 253c 9614 e3bb
000002e0: cb8b 42bc cdb6 123b 8403 f7bb c29e dc3b
000002f0: 0fb3 53bc cef0 653a 911f 4dbb ac3f 27ba
00000300: 6658 70bc 7fca 6e3a 6b6a a73b 1eb7 f2bb
00000310: b3f1 8dbb c3b1 94ba bf28 7bbc 3e16 073c
00000320: e2a1 8abc b566 c33a 0fba 8fbc 65ad 713c
00000330: 74dc ae3c 47b2 93bd 40b5 39bc 21b1 1bbb
00000340: 2eb2 0f3d f3a2 2d3c 82c3 7d3c cf1b 533c
00000350: c8f1 5fbc c520 ac3c c28b cb3c 20df 293b
00000360: 07f8 533b 0132 afbc a5f6 e83c db41 21bb
00000370: b29f 53bc 1168 a83c b7a0 923c 6b11 0a3c
00000380: bd64 7f3c e4c5 c9bc fd85 d9bb e3f9 a7bc
00000390: c285 5c3c ce86 4bbc 6f29 b13b 0342 d63c
000003a0: 6de8 a33b 2482 49bc 11ed 223c 339c bb3c
000003b0: 5627 8abc 55ba eb3c 7616 41bc ebc4 9a3c
000003c0: 7e2b 44bb 35c2 563c fafd fb39 4a5c cbbc
000003d0: 26e6 2c3c 8ce9 17bc 15e9 51bc 69b7 9dbc
000003e0: 1ecc 8cbb 6c2a 3b3c 85e5 42bd 32b2 fcbc
000003f0: a3fd 453d 64b2 b53d cc09 5bbc d957 6ebe

shared_encoder.gru_left.bias_ih_l0_reverse f4 [150]
-0.017069193 -0.019890895 -0.020918723 -0.0099623455 -0.026228985 -0.09016617 -0.01482711 -0.017764842
-0.012167012 -0.01663885 -0.012937215 -0.01717677 -0.013938106 -0.01573653 -0.01378447 -0.008605941
-0.025512844 -0.011729502 -0.009894257 -0.016681315 -0.01902351 -0.016919982 -0.015453617 -0.016992984
-0.027708614 -0.018135935 -0.010650098 -0.016986124 -0.016177539 -0.017258432 -0.013465007 -0.031576667
-0.019382223 -0.009601301 -0.029300466 -0.017814897 -0.016157284 -0.016913127 -0.017979344 -0.014334642
-0.019174106 -0.029164458 -0.013353781 -0.016709095 -0.02160943 -0.014636151 -0.015957428 -0.015250818
-0.015870498 -0.01575264 0.09616838 0.106589966 0.08669005 0.090953514 0.08531772 0.41638154
0.06584425 0.09344415 0.07207026 0.076782905 0.07228675 0.07693766 0.095066495 0.08226196
0.093730845 0.05589008 0.06510906 0.061032165 0.08037219 0.09105837 0.100748524 0.09677506
0.08275635 0.07056615 0.06389195 0.090649135 0.06701716 0.076669596 0.07276181 0.09618701
0.08706024 0.06470452 0.0906724 -0.07259837 0.062250387 0.106959574 0.093649395 0.0866719
0.08897236 0.09082443 0.07620652 0.061123773 0.08913508 0.1031091 0.038050402 0.087539636
0.08038412 0.0656315 0.08146491 0.07726966 -0.00583023 -0.0037149314 -0.0006668388 0.0051891943
0.0020136226 0.04685947 -0.0030337612 -0.0024457937 0.0031811157 0.0014559316 -0.00031363583 -0.00034299452
-0.005728671 0.0047950516 0.0070440844 0.005966483 -0.0030388257 -0.0025141416 0.0056294613 -0.0013552158
-0.0026819303 0.002493062 0.0026220416 0.000985513 -0.0015643999 -0.0035648164 -0.008415328 -0.0018021269
0.00044526113 -0.0032315047 0.0060070497 -0.0014931592 0.002708691 0.0067020287 0.00014536791 0.0047285096
-0.0016529454 0.0040850043 -0.0039434484 0.004289691 -0.0009436714 -0.003082417 -0.0021027308 -0.004592815
-0.00357685 -0.0047273044 -0.002643951 -0.0018575987 -0.0048961937 0.002863211
00000000: b1d4 8bbc 3bf2 a2bc be5d abbc 1b39 23bc
00000010: 2bde d6bc 0aa9 b8bd 68ed 72bc 9387 91bc
00000020: 2658 47bc 334e 88bc 9df6 53bc 4cb6 8cbc
00000030: a75c 64bc e5e9 80bc 42d8 61bc efff 0cbc
00000040: 5000 d1bc 192d 40bc 861b 22bc 41a7 88bc
00000050: 31d7 9bbc c69b 8abc 2b31 7dbc df34 8bbc
00000060: 2dfd e2bc d091 94bc c07d 2ebc 7c26 8bbc
00000070: c286 84bc 8e61 8dbc 559c 5cbc 8956 01bd
00000080: 78c7 9ebc c64e 1dbc 8807 f0bc 8cf0 91bc
00000090: 485c 84bc 668d 8abc 6b49 93bc d9db 6abc
000000a0: 0413 9dbc 4dea eebc d1c9 5abc 83e1 88bc
000000b0: 4206 b1bc 77cc 6fbc 27b9 82bc 91de 79bc
000000c0: d902 82bc ae0b 81bc edf3 c43d d74b da3d
000000d0: 8e8a b13d d645 ba3d 0fbb ae3d f62f d53e
000000e0: 5ad9 863d a65f bf3d 9399 933d 5b40 9d3d
000000f0: 130b 943d 7e91 9d3d 39b2 c23d f578 a83d
00000100: f5f5 bf3d ffec 643d e657 853d ddfc 793d
00000110: 2d9a a43d d07c ba3d 3e55 ce3d 0132 c63d
00000120: 297c a93d fc84 903d c8d9 823d 41a6 b93d
00000130: 4b40 893d f304 9d3d 2504 953d b2fd c43d
00000140: a44c b23d ce83 843d 74b2 b93d 74ae 94bd
00000150: 43fa 7e3d 9f0d db3d 41cb bf3d 0981 b13d
00000160: 2437 b63d 2902 ba3d 2a12 9c3d ec5c 7a3d
00000170: 748c b63d dd2a d33d bdda 1b3d fb47 b33d
00000180: 6ea0 a43d cf69 863d 13d7 a63d 8e3f 9e3d
00000190: 840b bfbb 3576 73bb cbce 2eba 1e0a aa3b
000001a0: fbf6 033b b7ef 3f3d 11d2 46bb 9c49 20bb
000001b0: 447a 503b f5d4 be3a 7d6f a4b9 f2d3 b3b9
000001c0: 93b7 bbbb cf1f 9d3b 10d2 e63b 7d82 c33b
000001d0: 0927 47bb 4cc4 24bb 5877 b83b 7fa1 b1ba
000001e0: 53c3 2fbb a462 233b 8fd6 2b3b 542c 813a
000001f0: 8d0c cdba b29f 69bb 72e0 09bc 5835 ecba
00000200: f071 e939 a7c7 53bb c9d6 c43b 1cb6 c3ba
00000210: 4b84 313b b19c db3b e76d 1839 9df1 9a3b
00000220: a5a7 d8ba 80db 853b 0b38 81bb 8990 8c3b
00000230: b760 77ba 6002 4abb f8cd 09bb 537f 96bb
00000240: 9669 6abb 81e7 9abb 2346 2dbb ab7a f3ba
00000250: 4070 a0bb b6a4 3b3b

shared_encoder.gru_left.bias_hh_l0_reverse f4 [150]
-0.017069193 -0.019890895 -0.020918723 -0.0099623455 -0.026228985 -0.09016617 -0.01482711 -0.017764842
-0.012167012 -0.01663885 -0.012937215 -0.01717677 -0.013938106 -0.01573653 -0.01378447 -0.008605941
-0.025512844 -0.011729502 -0.009894257 -0.016681315 -0.01902351 -0.016919982 -0.015453617 -0.016992984
-0.027708614 -0.018135935 -0.010650098 -0.016986124 -0.016177539 -0.017258432 -0.013465007 -0.031576667
-0.019382223 -0.009601301 -0.029300466 -0.017814897 -0.016157284 -0.016913127 -0.017979344 -0.014334642
-0.019174106 -0.029164458 -0.013353781 -0.016709095 -0.02160943 -0.014636151 -0.015957428 -0.015250818
-0.015870498 -0.01575264 0.09616838 0.106589966 0.08669005 0.090953514 0.08531772 0.41638154
0.06584425 0.09344415 0.07207026 0.076782905 0.07228675 0.07693766 0.095066495 0.08226196
0.093730845 0.05589008 0.06510906 0.061032165 0.08037219 0.09105837 0.100748524 0.09677506
0.08275635 0.07056615 0.06389195 0.090649135 0.06701716 0.076669596 0.07276181 0.09618701
0.08706024 0.06470452 0.0906724 -0.07259837 0.062250387 0.106959574 0.093649395 0.0866719
0.08897236 0.09082443 0.07620652 0.061123773 0.08913508 0.1031091 0.038050402 0.087539636
0.08038412 0.0656315 0.08146491 0.07726966 -0.0058536623 -0.0036400184 -0.00034118138 0.0052552344
0.001809514 0.040826127 -0.0030162288 -0.002490228 0.0033654794 0.0015822006 -0.00012841154 -0.0005156474
-0.00576707 0.004734771 0.007009913 0.006049658 -0.0031819388 -0.002576907 0.005717506 -0.0013567713
-0.002804417 0.002543414 0.0027178663 0.00086043065 -0.0022323432 -0.003596785 -0.0082361745 -0.0016008178
0.0003347129 -0.00337118 0.0060127876 -0.0020922164 0.0025920775 0.0070672673 0.00055345905 0.004817621
-0.0017848803 0.004051832 -0.0037923458 0.00443442 -0.0006856136 -0.0032247242 -0.0022469093 -0.004709547
-0.0034584424 -0.00485219 -0.0026484772 -0.0019548223 -0.0048362026 0.0028493758
00000000: b1d4 8bbc 3bf2 a2bc be5d abbc 1b39 23bc
00000010: 2bde d6bc 0aa9 b8bd 68ed 72bc 9387 91bc
00000020: 2658 47bc 334e 88bc 9df6 53bc 4cb6 8cbc
00000030: a75c 64bc e5e9 80bc 42d8 61bc efff 0cbc
00000040: 5000 d1bc 192d 40bc 861b 22bc 41a7 88bc
00000050: 31d7 9bbc c69b 8abc 2b31 7dbc df34 8bbc
00000060: 2dfd e2bc d091 94bc c07d 2ebc 7c26 8bbc
00000070: c286 84bc 8e61 8dbc 559c 5cbc 8956 01bd
00000080: 78c7 9ebc c64e 1dbc 8807 f0bc 8cf0 91bc
00000090: 485c 84bc 668d 8abc 6b49 93bc d9db 6abc
000000a0: 0413 9dbc 4dea eebc d1c9 5abc 83e1 88bc
000000b0: 4206 b1bc 77cc 6fbc 27b9 82bc 91de 79bc
000000c0: d902 82bc ae0b 81bc edf3 c43d d74b da3d
000000d0: 8e8a b13d d645 ba3d 0fbb ae3d f62f d53e
000000e0: 5ad9 863d a65f bf3d 9399 933d 5b40 9d3d
000000f0: 130b 943d 7e91 9d3d 39b2 c23d f578 a83d
00000100: f5f5 bf3d ffec 643d e657 853d ddfc 793d
00000110: 2d9a a43d d07c ba3d 3e55 ce3d 0132 c63d
00000120: 297c a93d fc84 903d c8d9 823d 41a6 b93d
00000130: 4b40 893d f304 9d3d 2504 953d b2fd c43d
00000140: a44c b23d ce83 843d 74b2 b93d 74ae 94bd
00000150: 43fa 7e3d 9f0d db3d 41cb bf3d 0981 b13d
00000160: 2437 b63d 2902 ba3d 2a12 9c3d ec5c 7a3d
00000170: 748c b63d dd2a d33d bdda 1b3d fb47 b33d
00000180: 6ea0 a43d cf69 863d 13d7 a63d 8e3f 9e3d
00000190: 14d0 bfbb 608d 6ebb 97e0 b2b9 1a34 ac3b
000001a0: 372d ed3a 4c39 273d ecab 45bb 1833 23bb
000001b0: 608f 5c3b d861 cf3a 36a6 06b9 832c 07ba
000001c0: b1f9 bcbb 2326 9b3b 6ab3 e53b 363c c63b
000001d0: 1388 50bb 53e1 28bb eb59 bb3b b1d5 b1ba
000001e0: 4fca 37bb 68af 263b 3b1e 323b 868e 613a
000001f0: 814c 12bb 0ab8 6bbb 05f1 06bc 88d2 d1ba
00000200: 687c af39 04ef 5cbb eb06 c53b 911d 09bb
00000210: d8df 293b 8994 e73b 0216 113a 22dd 9d3b
00000220: a5f2 e9ba 3bc5 843b 0189 78bb 9c4e 913b
00000230: c0ba 33ba e555 53bb e240 13bb 8b52 9abb
00000240: 09a7 62bb 1fff 9ebb 1392 2dbb 7a1c 00bb
00000250: 0279 9ebb 98bc 3a3b
