checkpoints/bestmodel_NO.pt (torch_old, 300239 bytes, 22 tensors)

shared_encoder.input_linear.weight f4 [50, 5]
0	0x3c2b5708	0.010457762
1	0x3b6320b1	0.0034656937
2	0x3cc0f1bc	0.023552768
3	0x3bd6bd4c	0.0065533277
4	0xbe90b416	-0.28262395
5	0xbc03a690	-0.008035317
6	0xbd685ebd	-0.056730974
7	0xbd3b04de	-0.04565894
8	0xbbd127a2	-0.0063828984
9	0xbd1d28b6	-0.038368903
10	0xbbc40c9b	-0.005982948
11	0xbb556a42	-0.0032564555
12	0xbc71b0da	-0.014751637
13	0x3c8db45a	0.017297912
14	0x3e2e82ec	0.1704213
15	0x3c6c7cb4	0.014434028
16	0xbdd9ea0f	-0.10640346
17	0xbd62c346	-0.05536201
18	0xbbed1e3f	-0.0072362716
19	0xbd7db522	-0.06194032
20	0x3bfbd2c2	0.0076850364
21	0xbc8d230a	-0.017228622
22	0x3cea1ca9	0.02857812
23	0x3bd9cb17	0.0066465246
24	0xbe814505	-0.2524797
25	0xbcbe08a0	-0.023197472
26	0x3cafcef5	0.02146099
27	0x3c0a07fb	0.008424754
28	0xbb1a21ce	-0.0023518684
29	0x3e66ec0b	0.22550981
30	0x3c820b8a	0.015874643
31	0xbc21cc55	-0.009875377
32	0xbd2eb87c	-0.042656407
33	0xbbc76c49	-0.0060859066
34	0x3e980e5a	0.2969845
35	0xbd296069	-0.04135171
36	0x3b52ff60	0.0032195672
37	0x3c5912dd	0.013249126
38	0x3c2f1b71	0.010687695
39	0x3e8fd102	0.28089148
40	0x3ae7a86d	0.0017674096
41	0xbcded1df	-0.027199684
42	0xbb76768e	-0.0037607285
43	0x3c077bfd	0.008269307
44	0xbe0faa62	-0.1402984
45	0x3c08fe74	0.008361448
46	0xbc1f52e2	-0.009724351
47	0xbd0fb1db	-0.035081726
48	0xbb1d902c	-0.0024042232
49	0xbecd86cc	-0.40141904
50	0xbb3677f4	-0.0027842494
51	0x3bce8a5e	0.0063031157
52	0x3bb72590	0.0055891946
53	0xbc11a749	-0.008889982
54	0x3e299dc5	0.1656409
55	0xbcb44260	-0.022004306
56	0x3c819688	0.01581885
57	0xbb9ed2e7	-0.004846919
58	0x3ca82957	0.020527525
59	0xbe076be4	-0.13224751
60	0x3c9e33cc	0.019311808
61	0x3bbc5f6d	0.0057486803
62	0x3bf1ca33	0.0073788404
63	0xbc39673c	-0.011316117
64	0x3d9d75c5	0.076884784
65	0x3a5509e1	0.0008126777
66	0x3b7a2b96	0.0038172952
67	0x3b492ceb	0.003069694
68	0xbbd607e1	-0.006531701
69	0x3e265c0d	0.16246052
70	0x3c75dc65	0.015006159
71	0xbc9b62e0	-0.018968046
72	0xbce0be09	-0.027434366
73	0x3c4a5db3	0.012351441
74	0xbeaafb6f	-0.33394954
75	0xbbd22cb1	-0.006414019
76	0x39ef2152	0.00045610458
77	0xbc16c959	-0.009203278
78	0x3c852979	0.016255127
79	0xbe276fc9	-0.16351236
80	0xbc0287e6	-0.007966971
81	0x3bd7eb03	0.006589295
82	0x3cdb038e	0.026735093
83	0x3c1fd602	0.009755613
84	0xbea8a47f	-0.32938
85	0xbc27564a	-0.010213444
86	0x3b501d39	0.00317557
87	0xbb88934a	-0.004167949
88	0xbc094772	-0.00837885
89	0x3e7ca7dc	0.24673408
90	0xbbbff3b2	-0.005857908
91	0x3c8073e3	0.01568026
92	0x3cab8e72	0.020941947
93	0x3bd97d25	0.006637233
94	0xbe80c564	-0.25150597
95	0x3cc84457	0.02444665
96	0x3be53c2a	0.0069956975
97	0xbb3ae3ab	-0.0028517048
98	0xbc26ced7	-0.01018115
99	0xbe907cb7	-0.2822015
100	0x3d44bc88	0.04803136
101	0xbc7df696	-0.015500685
102	0xbc83fad4	-0.016110815
103	0x3c19a310	0.009377256
104	0x3c702c83	0.01465905
105	0xbc1fc47a	-0.0097514335
106	0xbcec901b	-0.028877309
107	0xbc72ce49	-0.01481969
108	0x3c3e7cad	0.011626405
109	0x3e9d0049	0.3066428
110	0xbc68808d	-0.014190805
111	0xbacb4cdc	-0.0015510577
112	0xbc69065d	-0.0142227085
113	0x3cd402fa	0.025880326
114	0xbe438d8d	-0.19096966
115	0x3c3a5af4	0.011374224
116	0x3cfddd63	0.030989354
117	0x3c949035	0.01813517
118	0xbcb25796	-0.02177028
119	0x3df599c6	0.119922206
120	0x3a818862	0.0009882564
121	0xbd0f49da	-0.03498254
122	0xbc033afc	-0.008009668
123	0x3b840489	0.004028861
124	0x3e59abed	0.2125699
125	0xbc8c37d8	-0.017116472
126	0xbb8d61fc	-0.004314659
127	0x3b1284a3	0.002235689
128	0x3d001f51	0.031279866
129	0xbe267c92	-0.16258457
130	0x3d2dcdbf	0.042432543
131	0xbd28288e	-0.0410543
132	0xbcc90a25	-0.02454097
133	0x3bce555e	0.0062967977
134	0x3d8f0051	0.06982482
135	0x3c43cc58	0.011950575
136	0x3bb24de8	0.005441416
137	0xbca1b23d	-0.019738311
138	0xbc0fd1b2	-0.008778023
139	0x3e37d3dd	0.17951913
140	0xbbd318c9	-0.0064421636
141	0x3c8662bf	0.016404508
142	0x3c22e7fc	0.009943005
143	0x3c84c477	0.016206963
144	0xbe65d6c5	-0.2244521
145	0xbb55f055	-0.003264447
146	0x3a320165	0.0006790369
147	0xbb96ce04	-0.0046021957
148	0xbcbc869a	-0.023013402
149	0x3e69b1c2	0.22821715
150	0xba229807	-0.00062024634
151	0x3bbc1133	0.005739355
152	0xbc3a3c40	-0.011366904
153	0xbccb8b61	-0.024846734
154	0x3e96b7b5	0.29437032
155	0x3c850d06	0.016241562
156	0xbc8083f7	-0.015687926
157	0xbcae9547	-0.021311415
158	0x3cc2006e	0.023681846
159	0xbe66edc1	-0.22551633
160	0xbc75fa9f	-0.015013366
161	0xbc1b7652	-0.009488659
162	0xbc425af6	-0.011862507
163	0x3d14888f	0.036263045
164	0xbe24b1c2	-0.16083434
165	0xbce22756	-0.027606647
166	0x3c88727d	0.016656155
167	0x3c0c1d30	0.008551881
168	0x3ce6e170	0.028183669
169	0xbe0f5ab9	-0.13999452
170	0xbbd9afe7	-0.0066432836
171	0xbc1e641b	-0.009667422
172	0xbb74dd19	-0.003736323
173	0x3c96eeb7	0.018424375
174	0xbe1712d6	-0.14753279
175	0xbbd6a8b6	-0.0065508736
176	0xbc8f1e44	-0.017470486
177	0x3c05e2ee	0.00817178
178	0x3bdac7a2	0.00667663
179	0xbda6b937	-0.08140796
180	0xbb38cb4a	-0.0028197342
181	0xbc0a379a	-0.008436108
182	0xbd02794e	-0.031853966
183	0x3c17ff8b	0.009277235
184	0x3e8ed6f1	0.27898362
185	0xbc90776f	-0.017635075
186	0x3d2648ee	0.040596895
187	0x3ca4693b	0.020069709
188	0xbae03cf5	-0.001710801
189	0xbe1ff080	-0.15619087
190	0x3c821dce	0.015883353
191	0xbb6140b6	-0.0034370846
192	0xbcc14064	-0.023590274
193	0x3c4fa6a0	0.012674004
194	0xbea42ddc	-0.32066238
195	0xbbdfda0d	-0.0068314136
196	0x3cd047f4	0.025424935
197	0x3d17148a	0.036884822
198	0x3bd9e46c	0.0066495445
199	0xbe9c3ac5	-0.30513588
200	0x3c0e3c71	0.008681403
201	0x3c2a629e	0.010399489
202	0x3b2a9bda	0.0026032836
203	0xbc0b0608	-0.008485325
204	0x3e23c15b	0.15991728
205	0x3c8ba8c8	0.017048255
206	0xbc2adc6b	-0.010428528
207	0xb97c15be	-0.00024040692
208	0x3c154f83	0.009113195
209	0xbe83e5e4	-0.2576133
210	0xbbf0c7d8	-0.007348042
211	0xbb96acec	-0.0045982506
212	0xbc71df6d	-0.0147627415
213	0xbc478d24	-0.012179647
214	0x3ea2c204	0.31788647
215	0x3c6325b4	0.01386397
216	0x3c3a5e69	0.011375048
217	0x3b858228	0.0040743537
218	0xbb991922	-0.0046721855
219	0x3d93e04e	0.07220517
220	0x3c35130d	0.011051905
221	0x3d8322f6	0.06403153
222	0x3cf0d011	0.029396089
223	0xbcea341d	-0.028589303
224	0x3d8dfcab	0.06932958
225	0xbd1ae588	-0.037816554
226	0x3d9ae474	0.07563105
227	0x3d1be1e3	0.03805722
228	0xbb98bfd8	-0.0046615414
229	0xbe2e1a7e	-0.17002293
230	0xbcd83dcd	-0.026396656
231	0xbbf14770	-0.0073632523
232	0xbbf2005b	-0.0073852963
233	0x3c6fbeb9	0.014632874
234	0x3e7c2b25	0.24625833
235	0x3cbef425	0.023309777
236	0x3ceef531	0.02916965
237	0x3c630d51	0.013858155
238	0xbc8ad88f	-0.016948966
239	0x3d25a4b5	0.04044028
240	0xbab9855a	-0.0014154122
241	0x3bced838	0.0063123964
242	0xbbdbdc3a	-0.0067096027
243	0xbcde79fb	-0.027157774
244	0x3e986f8f	0.29772612
245	0x3c2e529a	0.010639811
246	0x3baa210a	0.005191927
247	0xbc4b5394	-0.012410063
248	0xbbfde168	-0.007747818
249	0xbed5abf0	-0.4173274

shared_encoder.input_linear.bias f4 [50]
0	0x3ddab750	0.10679495
1	0x3db2de91	0.087338574
2	0xbda66157	-0.08124035
3	0x3def07d3	0.11671414
4	0x3dd76fb2	0.10519351
5	0xbddd96ee	-0.10819803
6	0xbde30f67	-0.11086922
7	0xbde34d72	-0.11098756
8	0x3dadfb7f	0.08495235
9	0x3e06da26	0.13169155
10	0xbdb11ab6	-0.08647673
11	0x3d902951	0.070391305
12	0xbd6ee55c	-0.058324203
13	0xbdad61dc	-0.08465931
14	0x3e138770	0.14407134
15	0x3db1362e	0.08652912
16	0x3dfc972b	0.123335205
17	0xbdd9c220	-0.106327295
18	0x3ddb93d8	0.10721558
19	0x3def7a36	0.11693232
20	0xbcfcf620	-0.03087908
21	0xbdde5ff2	-0.10858144
22	0x3dd7e0b0	0.105409026
23	0xbdb5d386	-0.088782355
24	0xbdb3ee19	-0.08785648
25	0x3dac0276	0.08398907
26	0xbd189f96	-0.037261568
27	0xbdb3ebdc	-0.08785221
28	0x3dc1eb70	0.09468734
29	0xbdc98330	-0.09839475
30	0xbdf1dada	-0.11809321
31	0x3ddae0f4	0.10687438
32	0x3db55e32	0.08855857
33	0x3d894fd2	0.06704678
34	0x3da579e4	0.080798894
35	0x3d51981f	0.051170465
36	0xbddaf127	-0.106905274
37	0x3d81da23	0.063404344
38	0x3e07980c	0.13241595
39	0x3debb4dc	0.115091056
40	0xbdbb7725	-0.091535844
41	0x3de86464	0.11347273
42	0xbde56fb7	-0.112029485
43	0xbd67feb2	-0.05663938
44	0xbdab7ac4	-0.08373025
45	0x3d72f8f6	0.05931946
46	0xbdcea5dc	-0.10090229
47	0xbd6028cc	-0.054726407
48	0xbdec0406	-0.11524205
49	0x3df9b746	0.1219316

shared_encoder.gru.weight_ih_l0 f4 [150, 50]
0	0x3df3a7b9	0.11897225
1	0xbd92e4f8	-0.071725786
2	0xbdb5ed95	-0.08883206
3	0xbd63bcbb	-0.05559991
4	0x3dc1a505	0.09455303
5	0xbdbb6406	-0.09149937
6	0xbe034b92	-0.12821797
7	0xbdb8f1e4	-0.09030512
8	0x3d8b8f00	0.068143845
9	0x3e0f4cf0	0.13994193
10	0xbd84b493	-0.06479754
11	0x3d6efaa9	0.058344517
12	0xbc735ad6	-0.0148532
13	0xbd6adf00	-0.057341576
14	0x3deeff0a	0.116697386
15	0x3d9e6730	0.07734525
16	0x3e24d3fe	0.16096494
17	0xbd99445e	-0.07483743
18	0x3e18df79	0.14928998
19	0x3df0c5c1	0.117564686
20	0xbbf20e26	-0.0073869405
21	0xbde45a15	-0.11149994
22	0x3dce170c	0.100629896
23	0xbd6b3536	-0.057423793
24	0xbdcdf6e1	-0.10056854
25	0x3dd29f0c	0.10284242
26	0xbd75cb83	-0.060008537
27	0xbdcf2a3b	-0.10115477
28	0x3de33f3f	0.110960476
29	0xbdd8a60a	-0.105785444
30	0xbddccfbe	-0.10781811
31	0x3d7be2dc	0.061495647
32	0x3d8ee224	0.06976727
33	0x3d9ecf8f	0.077544324
34	0x3dbd4275	0.09241191
35	0x3d8b26e9	0.06794531
36	0xbdc94f7c	-0.098296136
37	0x3dc971e1	0.09836174
38	0x3e0dbd2d	0.13841696
39	0x3e3e5596	0.18587336
40	0xbd4dc96f	-0.05024093
41	0x3dd2e148	0.10296875
42	0xbdf264f0	-0.118356586
43	0xbd0e1f16	-0.034697615
44	0x398d6ad4	0.0002697321
45	0x3e07e65e	0.13271472
46	0xbde0a109	-0.10968215
47	0x3c1ecd68	0.009692527
48	0xbdef8a86	-0.11696343
49	0x3e12e17a	0.14343825
50	0x3e2a99ac	0.16660184
51	0xbd53fbe9	-0.051753912
52	0xbe1ebbc5	-0.15501316
53	0x3de6ea0f	0.11275112
54	0x3e1fdb86	0.15611085
55	0xbdf8f119	-0.12155361
56	0xbe29e82a	-0.1659247
57	0xbe1f338a	-0.15547004
58	0x3e2b7240	0.16742802
59	0x3e406ef2	0.18792322
60	0xbe0b4874	-0.13601857
61	0x3d9b1e75	0.075741686
62	0xbd629065	-0.055313487
63	0xbdbd99d7	-0.09257858
64	0x3e556834	0.20840532
65	0x3dd8087a	0.10548492
66	0x3e71164f	0.23543666
67	0xbe06baa9	-0.13157143
68	0x3e5a6d42	0.21330741
69	0x3e389c7f	0.18028449
70	0xbd959e12	-0.0730554
71	0xbe1f46ea	-0.15554395
72	0x3e2da970	0.16959167
73	0xbe1fc136	-0.15601048
74	0xbe03cfee	-0.12872288
75	0x3e403a29	0.18772186
76	0xbdcc8449	-0.09986169
77	0xbe08d3f6	-0.13362107
78	0x3e0c55c3	0.1370459
79	0xbe33add2	-0.17546776
80	0xbe3da530	-0.18520045
81	0x3dc43bbf	0.09581708
82	0x3de31e26	0.11089735
83	0x3de63973	0.11241426
84	0x3e1a4d80	0.15068626
85	0x3e027fa1	0.12743999
86	0xbe19cb99	-0.15019073
87	0x3e225258	0.15851724
88	0x3e5dd943	0.2166491
89	0x3e8ead90	0.27866793
90	0xbdc515b3	-0.096232794
91	0x3e40e949	0.18838991
92	0xbe2b24d5	-0.16713269
93	0xbdb917c7	-0.09037738
94	0xbde5d5a0	-0.11222386
95	0x3e333382	0.17500117
96	0xbe0f7e84	-0.14013106
97	0xbcfd887e	-0.030948874
98	0xbe1b1513	-0.15144758
99	0x3e645226	0.22296962
100	0x3e12970f	0.14315437
101	0xbdca9c30	-0.09893072
102	0xbdb4df12	-0.0883161
103	0xbd6aaa70	-0.057291448
104	0x3df8b13e	0.12143181
105	0xbdc2ef6a	-0.09518321
106	0xbe12a70d	-0.14321537
107	0xbdb1f623	-0.08689525
108	0x3dacb405	0.084327735
109	0x3e04bf9f	0.12963723
110	0xbdd520c7	-0.104066424
111	0x3d8e3480	0.06943607
112	0xbd01da6a	-0.031702437
113	0xbd97868f	-0.07398712
114	0x3e05e32a	0.13074937
115	0x3d9834c0	0.07431936
116	0x3e25a097	0.16174541
117	0xbdf0b573	-0.11753359
118	0x3e35dbfc	0.17759699
119	0x3def9667	0.11698609
120	0xbd37ddae	-0.044889145
121	0xbe0b59ba	-0.13608447
122	0x3df0c6b8	0.117566526
123	0xbd9a36df	-0.07529997
124	0xbdf570a2	-0.11984374
125	0x3dec1873	0.11528101
126	0xbda385aa	-0.07984479
127	0xbdd63a46	-0.104603335
128	0x3df3acd2	0.11898197
129	0xbde8cc27	-0.11367064
130	0xbe1bf631	-0.15230633
131	0x3d96ad89	0.07357318
132	0x3d933bba	0.07189126
133	0x3ddb118b	0.106967054
134	0x3dadd271	0.08487404
135	0x3d9c3318	0.07626933
136	0xbdf34874	-0.11879054
137	0x3e0200ef	0.12695669
138	0x3e1273a9	0.14301933
139	0x3e55e852	0.20889404
140	0xbd9dbccd	-0.077020265
141	0x3e051ed9	0.13000049
142	0xbe0a6cd2	-0.13518074
143	0xbd1f56a4	-0.038900986
144	0xbc3cebca	-0.011530826
145	0x3e20c042	0.1569834
146	0xbde8dafe	-0.113698944
147	0x3c3fb9e2	0.011702033
148	0xbe08a78f	-0.13345169
149	0x3e2e912e	0.17047569
150	0x3d71637e	0.058932774
151	0xbde3ab22	-0.11116625
152	0xbc38063e	-0.011231957
153	0xbd19421d	-0.037416566
154	0x3d23e9f8	0.040018052
155	0xbcc9ad88	-0.024618879
156	0xbd89c649	-0.06727273
157	0xbcbfcd1c	-0.023413233
158	0x3d26a446	0.040684007
159	0x3db6e7d9	0.0893094
160	0xbbcb8f6e	-0.0062121665
161	0xbcf7076e	-0.03015491
162	0x3d45ba77	0.04827353
163	0x3c3e4ad7	0.011614523
164	0x3dc0310b	0.09384354
165	0xbb94934b	-0.0045341603
166	0x3ddbf963	0.10740926
167	0xbce3eda2	-0.027823273
168	0x3d7dd46e	0.061970167
169	0x3d46f422	0.048572667
170	0xbbec5030	-0.0072117075
171	0xbd814a77	-0.06313031
172	0x3ceeef29	0.029166775
173	0x3bb5057c	0.0055243354
174	0xbccb9e09	-0.02485563
175	0x3ca54498	0.02017431
176	0x3c8ef83c	0.017452352
177	0xbd36fe28	-0.044675976
178	0x3cdcc819	0.026950883
179	0xbcdfb544	-0.027308114
180	0xbd8fe9ee	-0.070270404
181	0xbc3f5f56	-0.011680445
182	0xbcc0ad63	-0.023520177
183	0xbab23a00	-0.0013597608
184	0x3ca8fca4	0.020628281
185	0x3b5aa5c4	0.0033362964
186	0xbd5bf1ee	-0.05369752
187	0x3ca80ab0	0.020512909
188	0x3d7d7643	0.06188036
189	0x3de7a146	0.11310057
190	0x3c80d3f8	0.015726075
191	0x3d5d6893	0.054054808
192	0xbd696cb7	-0.056988444
193	0x3d2722b8	0.040804595
194	0x3cd6480b	0.0261574
195	0x3cf925f7	0.03041361
196	0xbc90ad08	-0.017660633
197	0x3d49aec4	0.049238935
198	0xbd61e984	-0.05515434
199	0x3dd3507a	0.10318084
200	0x3db31b3b	0.08745428
201	0xbd71cd82	-0.05903388
202	0xbd33d98f	-0.043908652
203	0x3c85ea9f	0.016347228
204	0x3d8fe267	0.07025605
205	0xbcbfb60a	-0.023402233
206	0xbdae4516	-0.08509271
207	0xbd460add	-0.048350204
208	0x3d4dc836	0.050239764
209	0x3ddfa665	0.10920409
210	0xbcc6658e	-0.024218347
211	0xbc823d2e	-0.015898313
212	0x3d195b51	0.0374406
213	0xbc18cd8a	-0.009326348
214	0x3df59d6a	0.11992915
215	0x3c5994f4	0.013280142
216	0x3e0c5c34	0.13707048
217	0xbd20bde2	-0.039243586
218	0x3dfc7a3e	0.12328003
219	0x3d5fe3dc	0.054660663
220	0xb9566b02	-0.00020448494
221	0xbd8faaf9	-0.07015032
222	0x3d967303	0.073461555
223	0xbc9dbbe3	-0.01925463
224	0xbd834303	-0.06409266
225	0x3d7cfff4	0.061767533
226	0xb9ec92bc	-0.00045122753
227	0xbd148455	-0.036259014
228	0x3d5e5793	0.054282736
229	0xbd8e82f3	-0.0695857
230	0xbdad50b4	-0.084626585
231	0x3ccd454c	0.025057457
232	0x3cebfaa8	0.028806046
233	0x3c840419	0.016115235
234	0x3cc4d79a	0.024028588
235	0x3d00c252	0.03143532
236	0xbd8f3f49	-0.069944926
237	0x3d0e962c	0.034811184
238	0x3dc1e4ad	0.094674446
239	0x3e0f6c5e	0.14006183
240	0x3bb1b522	0.005423204
241	0x3da10878	0.078629434
242	0xbde49cad	-0.11162696
243	0x3ba9f6dd	0.005186899
244	0xbc71827b	-0.014740582
245	0x3d78dfd4	0.060760334
246	0xbd5ea0fe	-0.054352753
247	0x3cd09a3d	0.025464172
248	0xbd9d66ca	-0.07685621
249	0x3df9fb71	0.12206162
250	0x3e31e4d2	0.17372444
251	0xbd078d37	-0.033093657
252	0xbdddc9c3	-0.108294986
253	0xbca19299	-0.019723224
254	0x3e087466	0.13325652
255	0xbdfcb081	-0.12338353

shared_encoder.gru.weight_hh_l0 f4 [150, 50]
0	0x3d1d05ef	0.038335737
1	0xbc8d871b	-0.017276337
2	0x3d1b78be	0.037956946
3	0xbbba068a	-0.005677049
4	0xbce0511c	-0.027382426
5	0x3d204236	0.039125644
6	0x3db6b3e5	0.08921031
7	0x3d65b616	0.056081854
8	0x3d10f997	0.035394277
9	0x3ec482a7	0.3838093
10	0x3d07a657	0.03311762
11	0xba598425	-0.0008297584
12	0xbce45602	-0.027873043
13	0x3d28bd67	0.041196253
14	0xbdafc9b5	-0.085833944
15	0x3d6e09cb	0.058114808
16	0xbd568387	-0.052371528
17	0xbc8f195f	-0.017468153
18	0x3d425bf4	0.047450975
19	0xbd74d69c	-0.05977498
20	0xbd8826ac	-0.06648001
21	0x3cb3fa4e	0.02196994
22	0x3d1ba835	0.03800221
23	0xbd7da776	-0.06192728
24	0x3d4ccc7e	0.049999706
25	0x39b56874	0.00034600834
26	0xbc493b3f	-0.012282192
27	0x3d87ada9	0.0662492
28	0xbd67aaf3	-0.056559514
29	0xbd4ddddf	-0.05026042
30	0x3d715126	0.05891528
31	0x3d5240b2	0.05133123
32	0x3d5d229c	0.053988084
33	0xbd56567b	-0.052328568
34	0xbd94b269	-0.072605915
35	0xbd103d30	-0.035214603
36	0x3d35678a	0.044288196
37	0x3d116881	0.035500053
38	0x3d089675	0.033346612
39	0x3d5e4baf	0.054271396
40	0x3cd1ee79	0.025626408
41	0x3cee86c6	0.029117
42	0x3d8a4ea1	0.067532785
43	0xbcc92403	-0.024553305
44	0x3d2b6d86	0.041852497
45	0xbcd26611	-0.025683435
46	0x3d5c5ed0	0.053801358
47	0xbd0e2e9c	-0.03471242
48	0xbc9ce4c0	-0.019152045
49	0x3cbf3175	0.023339013
50	0x3dbdde9b	0.09270974
51	0x3e9d9a83	0.30781946
52	0x3db1dbc1	0.08684493
53	0x3ea5c47c	0.32376468
54	0xbeb3bba6	-0.35104102
55	0x3d8c224e	0.068424806
56	0x3e6a8701	0.22903062
57	0x3e283b83	0.16428952
58	0x3d3ec1bf	0.04657149
59	0x3c8cf756	0.017207783
60	0x3d8a0a6c	0.06740269
61	0xbe92e28d	-0.2868847
62	0xbd29bcaf	-0.04143971
63	0x3d6bb734	0.057547763
64	0xbe531216	-0.20612368
65	0x3e1799d8	0.1480478
66	0xbdf0c7ec	-0.11756882
67	0xbd2f32ec	-0.042773172
68	0x3e6e18ef	0.23251699
69	0xbdf68103	-0.12036326
70	0xbdfd640b	-0.12372597
71	0x3d8dab60	0.06917453
72	0x3eada704	0.33916485
73	0xbe98689e	-0.29767317
74	0x3df8fe35	0.12157861
75	0xbe9e6721	-0.30938056
76	0xbda8b28e	-0.082371816
77	0x3df46730	0.11933744
78	0xbdae4c02	-0.08510591
79	0xbe543197	-0.20722042
80	0x3e6c9592	0.23103932
81	0x3e5ff920	0.21872377
82	0x3dcce7da	0.1000516
83	0xbedcc6fb	-0.4312056
84	0xbe109130	-0.14117885
85	0xbd681ca3	-0.056667935
86	0x3df4ea3a	0.11958738
87	0x3dfa7654	0.122296005
88	0x3da0967b	0.07841202
89	0x3dbb9169	0.09158594
90	0x3d967475	0.07346431
91	0x3d8eee55	0.06979052
92	0x3e4a7985	0.19772919
93	0xbe764ffe	-0.24053952
94	0x3dc57ecf	0.096433274
95	0xbe7a77d5	-0.24459775
96	0x3db5cc1a	0.0887682
97	0xbea23ab4	-0.31685412
98	0xbd7350a9	-0.059403095
99	0x3e94abfa	0.29037458
100	0x3d079c7d	0.033108223
101	0xbd238a0d	-0.039926577
102	0x3d0a0a93	0.03370149
103	0x3c3eeeca	0.011653611
104	0xbd66b1ae	-0.056321792
105	0x3cc0c34d	0.023530627
106	0x3ddcdd05	0.10784344
107	0x3d7a06f2	0.06104178
108	0xbb1ec654	-0.00242271
109	0x3ec5e913	0.38654384
110	0xbc4b6c1f	-0.012415915
111	0x3cbabb26	0.022794317
112	0xbbd6973f	-0.0065487917
113	0xbc67dbd3	-0.014151531
114	0xbdc034c8	-0.09385067
115	0x3d2baf1f	0.041915055
116	0xbd1b234b	-0.037875455
117	0xbbc3b8a5	-0.005972939
118	0x3d3efb7a	0.046626545
119	0xbd631114	-0.05543621
120	0xbd98426f	-0.07434546
121	0x3bcf2704	0.0063217897
122	0x3d0d6142	0.03451658
123	0xbd7490c2	-0.059708364
124	0x3d393551	0.045216862
125	0xbcc7d299	-0.024392413
126	0xbbc6fb5a	-0.006072444
127	0x3d54a715	0.051917154
128	0xbd518370	-0.05115074
129	0xbd81af07	-0.06332212
130	0x3cbeddbf	0.023299096
131	0x3d593b21	0.053034905
132	0x3d14d606	0.03633692
133	0xbd6025d5	-0.05472358
134	0xbd6ee008	-0.05831912
135	0xbd12b392	-0.035815783
136	0x3d105a0e	0.035242133
137	0x3cae07e4	0.021243997
138	0x3d244228	0.040102154
139	0x3d8f7ddf	0.0700643
140	0x3ca42413	0.020036733
141	0x3ab30f27	0.0013661132
142	0x3d813481	0.063088425
143	0xbce29f86	-0.027663957
144	0x3d25cb8f	0.04047733
145	0xbc31c1c3	-0.010849419
146	0x3d04cc2f	0.032421287
147	0xbd731b3f	-0.059352156
148	0xbc71411b	-0.014724995
149	0x3d06e39f	0.03293192
150	0x3dc6c58c	0.09705648
151	0x3e40acda	0.18815938
152	0x3db8aa0f	0.09016811
153	0x3e4b88c7	0.19876395
154	0xbe634d6b	-0.22197501
155	0x3d97b81d	0.07408164
156	0x3e49cf99	0.19708098
157	0x3e26a7bf	0.16274928
158	0x3d9efc28	0.07762939
159	0xbdb99dd4	-0.090633065
160	0x3d53fc76	0.051754437
161	0xbe25bf6f	-0.16186307
162	0xbd2a7ffd	-0.041625965
163	0x3d3d2bd6	0.046184383
164	0xbe37601e	-0.1790776
165	0x3e0be5ff	0.13661955
166	0xbdc42786	-0.09577851
167	0xbd8b467d	-0.06800554
168	0x3e1e20db	0.15442221
169	0xbdf3a4ca	-0.118966654
170	0xbdf5eb4a	-0.120077685
171	0x3dac2a7a	0.08406539
172	0x3e3a288b	0.18179528
173	0xbe53ca81	-0.20682718
174	0x3dd5f130	0.104463935
175	0xbe5e239b	-0.2169327
176	0xbd83f4a1	-0.06443144
177	0x3df83717	0.121198826
178	0xbdbac306	-0.09119229
179	0xbe2f7060	-0.17132711
180	0x3e1a6d47	0.15080748
181	0x3e3216c1	0.17391492
182	0x3ddad4cb	0.10685118
183	0xbe7f91ea	-0.24958006
184	0xbddc16f8	-0.107465684
185	0xbd7cb3c7	-0.061694887
186	0x3dd4c159	0.10388441
187	0x3dd7f29c	0.10544321
188	0x3dae5fb9	0.085143514
189	0x3da983b4	0.082770735
190	0x3dc665c1	0.09687377
191	0x3d6267ed	0.055274893
192	0x3e1bf2ab	0.15229289
193	0xbe32ee31	-0.17473675
194	0x3dfd32e4	0.12363222
195	0xbe34c0f8	-0.17651737
196	0x3dd9ef90	0.10641396
197	0xbe4dfa71	-0.20115067
198	0xbd8704f2	-0.0659274
199	0x3e38517d	0.17999835
200	0x3e09b844	0.13449198
201	0x3e729956	0.23691306
202	0x3e06448b	0.13112085
203	0x3e799910	0.24374795
204	0xbe8da419	-0.2766426
205	0x3defe8b5	0.11714307
206	0x3e7a5454	0.24446231
207	0x3e315495	0.17317422
208	0x3de620be	0.11236714
209	0xbb0bef64	-0.0021352405
210	0x3dfaf967	0.12254601
211	0xbe5c672b	-0.2152373
212	0xbdcbcfea	-0.09951766
213	0x3dbafbf9	0.09130091
214	0xbe6c8d74	-0.23100835
215	0x3e471066	0.1943985
216	0xbe1c44cb	-0.15260617
217	0xbdf431c1	-0.11923552
218	0x3e634db5	0.22197612
219	0xbe29d21c	-0.16584057
220	0xbe2a1039	-0.16607751
221	0x3e090941	0.13382436
222	0x3e8869c8	0.26643205
223	0xbe82fe42	-0.25584608
224	0x3e1c177e	0.15243337
225	0xbe829641	-0.2550526
226	0xbe0e368f	-0.13888
227	0x3e352e99	0.17693557
228	0xbe060fd1	-0.13091971
229	0xbe4b8d5a	-0.1987814
230	0x3e599ce2	0.21251252
231	0x3e523106	0.20526513
232	0x3e27fc03	0.16404729
233	0xbe984603	-0.29740915
234	0xbe2ff8b9	-0.17184724
235	0xbde155fa	-0.11002727
236	0x3e181e05	0.14855202
237	0x3e04fb9a	0.12986603
238	0x3e051957	0.12997948
239	0x3e0d4b0c	0.1379816
240	0x3dfb228a	0.12262447
241	0x3de0f53d	0.109842755
242	0x3e5c33f5	0.21504195
243	0xbe5bd14d	-0.2146656
244	0x3e225fde	0.15856883
245	0xbe452bb4	-0.19254953
246	0x3e0d72f2	0.1381338
247	0xbe78d0ed	-0.24298449
248	0xbe00dc2e	-0.12583992
249	0x3e7276d9	0.2367815
250	0xbd2671e0	-0.040635943
251	0xbdbc87cf	-0.09205591
252	0xbd3c948c	-0.046040103
253	0xbcfecfae	-0.031104889
254	0x3bafdeee	0.0053671515
255	0xbd7d4484	-0.06183292

shared_encoder.gru.bias_ih_l0 f4 [150]
0	0xbd2d35cc	-0.042287633
1	0x3c724c8a	0.014788756
2	0xbd937f1c	-0.072019786
3	0xbc4e3494	-0.012585778
4	0x3ca67ce4	0.020323224
5	0xbe1adaf0	-0.1512258
6	0xbc8e38d2	-0.017361078
7	0xbd40fc56	-0.047115646
8	0xbe399a65	-0.18125303
9	0x3df88479	0.12134642
10	0xbe135673	-0.14388447
11	0xbb68b4ef	-0.0035508235
12	0xbe22e4db	-0.15907614
13	0xbe0ccb3d	-0.13749404
14	0xbb497c3a	-0.003074421
15	0xbb309674	-0.0026945146
16	0xbd1f52dd	-0.038897384
17	0xbe2f9bbf	-0.17149256
18	0x3c405229	0.0117383385
19	0x3a51271b	0.00079785445
20	0xbd45cbc6	-0.048290037
21	0xbdab3ecf	-0.08361589
22	0x3ca3764d	0.019953871
23	0x3ca4d11b	0.02011924
24	0xbd9e0a9e	-0.07716869
25	0xbc06da43	-0.008230749
26	0xbe3349f9	-0.17508687
27	0xbccfed9d	-0.025381858
28	0xbd967559	-0.07346601
29	0xbd2f9a19	-0.04287157
30	0x3c03d399	0.008046054
31	0x3bea935f	0.0071586813
32	0xbd6104ba	-0.05493615
33	0x3c4cb5a5	0.012494479
34	0xbce84d6c	-0.02835723
35	0xbdd68042	-0.10473682
36	0xbd8999ed	-0.06718812
37	0xbd7d3fd8	-0.061828464
38	0xbd99b9b5	-0.07506124
39	0xbd36dbab	-0.044643085
40	0xbdbda649	-0.09260232
41	0xbe23fd04	-0.16014487
42	0xbbf7825c	-0.007553382
43	0x3ba2e634	0.00497129
44	0xbc8428c1	-0.016132714
45	0xbc26effc	-0.010189053
46	0xbd6f6e39	-0.058454726
47	0x3cac7465	0.021051595
48	0xbdc34afa	-0.09535785
49	0x3c56ce7d	0.013110754
50	0x3e971cac	0.29514062
51	0x3f1195cf	0.56869215
52	0x3e9d2901	0.30695346
53	0x3f18cc98	0.59687185
54	0x3f19d14d	0.6008499
55	0x3e543621	0.20723774
56	0x3ee3020b	0.44337496
57	0x3ead6e96	0.33873433
58	0x3e1f2f49	0.15545382
59	0x3ee8b7e0	0.45452785
60	0x3db2c291	0.08728517
61	0x3f26d027	0.65161365
62	0x3e1c589c	0.15268177
63	0x3db7407e	0.08947848
64	0x3f1220bf	0.57081217
65	0x3f26afd8	0.65112066
66	0x3ea31e1c	0.3185891
67	0x3da65002	0.08120729
68	0x3f2a3e01	0.6650086
69	0x3f0e263b	0.55527085
70	0x3e736a97	0.2377113
71	0x3e51e4d6	0.2049745
72	0x3f21647a	0.6304394
73	0x3f2a8e69	0.6662355
74	0x3ea881a0	0.32911396
75	0x3f14752c	0.5799129
76	0x3e27d662	0.16390374
77	0x3eaad9b5	0.33369222
78	0x3ea3b8e8	0.3197701
79	0x3ecd9ed0	0.40160227
80	0x3f2ce931	0.6754332
81	0x3f252e0c	0.64523387
82	0x3eaf547a	0.34244138
83	0x3f0a85c0	0.54110336
84	0x3ecc0711	0.3984914
85	0x3e08ace1	0.13347198
86	0x3e836d55	0.2566935
87	0x3e77c979	0.2419795
88	0x3e35de05	0.17760475
89	0x3ea810e1	0.32825378
90	0x3e1c7e50	0.1528256
91	0x3e056e3e	0.13030335
92	0x3ed89f8f	0.42309234
93	0x3f2c6586	0.6734241
94	0x3eea13dc	0.45718277
95	0x3f1e1e4a	0.6176497
96	0x3ecae10e	0.39624828
97	0x3f1fb912	0.6239177
98	0x3df5009a	0.11963005
99	0x3f1e18c6	0.6175655
100	0xbc4820db	-0.012214865
101	0xbd2d1060	-0.042251945
102	0xbc29f5d9	-0.010373556
103	0xbc92335d	-0.017846758
104	0x3ca54f15	0.02017931
105	0x3c3f8e41	0.011691631
106	0xbc230998	-0.009951018
107	0xbc07d9dd	-0.008291689
108	0x3c40585c	0.0117398165
109	0x3e19575c	0.14974731
110	0x3d29e831	0.0414812
111	0x3cee72f6	0.029107552
112	0xbd32d7e2	-0.043662913
113	0x3d6d933d	0.058001745
114	0x3c1db75d	0.009626237
115	0xbc95060f	-0.018191366
116	0x3c6971a6	0.014248287
117	0xbd239839	-0.039940093
118	0xbc857d0b	-0.016294977
119	0x3c7d8a0c	0.0154748075
120	0x3b0865fc	0.002081274
121	0xbc11dd52	-0.0089028645
122	0xbccc209d	-0.024917895
123	0x3c6733ef	0.014111503
124	0xbc05c691	-0.008165018
125	0x3c85de50	0.016341358
126	0xbd07db61	-0.0331682
127	0xbc309dc5	-0.010779803
128	0x3c550ee0	0.013004035
129	0x3c187ca9	0.009307065
130	0xbcbd17c9	-0.02308263
131	0xbc441949	-0.011968919
132	0xbc600115	-0.013672133
133	0x3cdf629c	0.0272687
134	0x3c580ac5	0.013186161
135	0xbc4594c5	-0.012059395
136	0xbb27ca01	-0.0025602581
137	0xbbc59a4d	-0.006030357
138	0xbbd3480d	-0.006447798
139	0xbc2ba975	-0.010477413
140	0xbb1744ff	-0.0023081896
141	0x3c5764ab	0.01314656
142	0xbc11f0ea	-0.008907536
143	0x3c70248f	0.014657154
144	0xbc89c288	-0.016816393
145	0x3c6f24f6	0.0145962145
146	0xbc74d7f0	-0.014944062
147	0x3c8d969b	0.017283728
148	0x38474d8d	4.7517522e-05
149	0xbc840be7	-0.016118957

shared_encoder.gru.bias_hh_l0 f4 [150]
0	0xbd2d35cc	-0.042287633
1	0x3c724c8a	0.014788756
2	0xbd937f1c	-0.072019786
3	0xbc4e3494	-0.012585778
4	0x3ca67ce4	0.020323224
5	0xbe1adaf0	-0.1512258
6	0xbc8e38d2	-0.017361078
7	0xbd40fc56	-0.047115646
8	0xbe399a65	-0.18125303
9	0x3df88479	0.12134642
10	0xbe135673	-0.14388447
11	0xbb68b4ef	-0.0035508235
12	0xbe22e4db	-0.15907614
13	0xbe0ccb3d	-0.13749404
14	0xbb497c3a	-0.003074421
15	0xbb309674	-0.0026945146
16	0xbd1f52dd	-0.038897384
17	0xbe2f9bbf	-0.17149256
18	0x3c405229	0.0117383385
19	0x3a51271b	0.00079785445
20	0xbd45cbc6	-0.048290037
21	0xbdab3ecf	-0.08361589
22	0x3ca3764d	0.019953871
23	0x3ca4d11b	0.02011924
24	0xbd9e0a9e	-0.07716869
25	0xbc06da43	-0.008230749
26	0xbe3349f9	-0.17508687
27	0xbccfed9d	-0.025381858
28	0xbd967559	-0.07346601
29	0xbd2f9a19	-0.04287157
30	0x3c03d399	0.008046054
31	0x3bea935f	0.0071586813
32	0xbd6104ba	-0.05493615
33	0x3c4cb5a5	0.012494479
34	0xbce84d6c	-0.02835723
35	0xbdd68042	-0.10473682
36	0xbd8999ed	-0.06718812
37	0xbd7d3fd8	-0.061828464
38	0xbd99b9b5	-0.07506124
39	0xbd36dbab	-0.044643085
40	0xbdbda649	-0.09260232
41	0xbe23fd04	-0.16014487
42	0xbbf7825c	-0.007553382
43	0x3ba2e634	0.00497129
44	0xbc8428c1	-0.016132714
45	0xbc26effc	-0.010189053
46	0xbd6f6e39	-0.058454726
47	0x3cac7465	0.021051595
48	0xbdc34afa	-0.09535785
49	0x3c56ce7d	0.013110754
50	0x3e971cac	0.29514062
51	0x3f1195cf	0.56869215
52	0x3e9d2901	0.30695346
53	0x3f18cc98	0.59687185
54	0x3f19d14d	0.6008499
55	0x3e543621	0.20723774
56	0x3ee3020b	0.44337496
57	0x3ead6e96	0.33873433
58	0x3e1f2f49	0.15545382
59	0x3ee8b7e0	0.45452785
60	0x3db2c291	0.08728517
61	0x3f26d027	0.65161365
62	0x3e1c589c	0.15268177
63	0x3db7407e	0.08947848
64	0x3f1220bf	0.57081217
65	0x3f26afd8	0.65112066
66	0x3ea31e1c	0.3185891
67	0x3da65002	0.08120729
68	0x3f2a3e01	0.6650086
69	0x3f0e263b	0.55527085
70	0x3e736a97	0.2377113
71	0x3e51e4d6	0.2049745
72	0x3f21647a	0.6304394
73	0x3f2a8e69	0.6662355
74	0x3ea881a0	0.32911396
75	0x3f14752c	0.5799129
76	0x3e27d662	0.16390374
77	0x3eaad9b5	0.33369222
78	0x3ea3b8e8	0.3197701
79	0x3ecd9ed0	0.40160227
80	0x3f2ce931	0.6754332
81	0x3f252e0c	0.64523387
82	0x3eaf547a	0.34244138
83	0x3f0a85c0	0.54110336
84	0x3ecc0711	0.3984914
85	0x3e08ace1	0.13347198
86	0x3e836d55	0.2566935
87	0x3e77c979	0.2419795
88	0x3e35de05	0.17760475
89	0x3ea810e1	0.32825378
90	0x3e1c7e50	0.1528256
91	0x3e056e3e	0.13030335
92	0x3ed89f8f	0.42309234
93	0x3f2c6586	0.6734241
94	0x3eea13dc	0.45718277
95	0x3f1e1e4a	0.6176497
96	0x3ecae10e	0.39624828
97	0x3f1fb912	0.6239177
98	0x3df5009a	0.11963005
99	0x3f1e18c6	0.6175655
100	0x3bb971f8	0.005659338
101	0xbcebdc3f	-0.028791545
102	0x3c0d4926	0.008623397
103	0xbc0ccc42	-0.008593621
104	0x3c4b8f40	0.01242429
105	0x3cc72c01	0.024312975
106	0x3b136503	0.0022490628
107	0x3bbbe0c2	0.0057335803
108	0x3ce4e784	0.027942427
109	0x3e246c70	0.1605699
110	0x3d45df46	0.048308633
111	0x3c918c17	0.017766995
112	0xbd389e53	-0.045072865
113	0x3d6656dd	0.056235183
114	0xba42b8ee	-0.00074280694
115	0xba9019e7	-0.0010994048
116	0xbb6977f7	-0.0035624483
117	0xbd3f824b	-0.046755116
118	0xbbde6a16	-0.006787549
119	0xbabcf3ea	-0.0014415954
120	0xbc3e259c	-0.011605646
121	0x3c3862c1	0.0112540135
122	0xbc96fee9	-0.018432098
123	0x3c0895ed	0.008336526
124	0x3bb74308	0.0055927075
125	0x3c233bb2	0.009962963
126	0xbd1b72b0	-0.03795117
127	0x3b95b5fa	0.0045688124
128	0xbb378f1f	-0.002800889
129	0xbb4754c7	-0.0030415521
130	0xbc0df197	-0.008663557
131	0xbac63d1a	-0.0015124411
132	0x3b8ae926	0.0042392192
133	0x3c9442f6	0.018098336
134	0xbb3162cf	-0.002706695
135	0xbcdf04f0	-0.027224034
136	0x3c29d38b	0.010365377
137	0x3c2455d2	0.010030227
138	0x3c500575	0.012696614
139	0x3ba48230	0.0050204024
140	0x3c8b4afb	0.017003527
141	0x3ce8757d	0.028376335
142	0x3af6685d	0.0018799413
143	0x3bb7fc01	0.005614758
144	0x3a794b28	0.00095097953
145	0x3b919c6f	0.004443697
146	0x3b06a52a	0.0020545223
147	0x3c40ae4d	0.011760307
148	0xbca9d322	-0.020730559
149	0xbc1b8028	-0.009491004

shared_encoder.gru.weight_ih_l0_reverse f4 [150, 50]
0	0x3e107780	0.14108086
1	0xbd182e6e	-0.037153654
2	0xbdf46f63	-0.11935308
3	0xbd8d3c39	-0.06896252
4	0x3db99ef9	0.09063525
5	0xbda8db17	-0.08244913
6	0xbde9684e	-0.11396848
7	0xbe001dbe	-0.12511346
8	0x3dadd9c0	0.08488798
9	0x3e4f6ba1	0.20255901
10	0xbe0de169	-0.13855518
11	0x3dd5d45d	0.10440896
12	0xbd86ed69	-0.06588251
13	0xbdc88f5a	-0.09792967
14	0x3e733926	0.23752269
15	0x3dee3539	0.11631245
16	0x3e482eaf	0.19549058
17	0xbdf2b830	-0.11851537
18	0x3e6f05a8	0.23342001
19	0x3e58d08b	0.21173303
20	0xbd8c8c26	-0.06862669
21	0xbe186947	-0.1488391
22	0x3e3b5711	0.18294932
23	0xbd98aa93	-0.074544095
24	0xbe4f7d50	-0.20262647
25	0x3e091ace	0.13389131
26	0xbdfad650	-0.12247908
27	0xbdbf9660	-0.09354854
28	0x3e0dce31	0.13848187
29	0xbe0ec2e8	-0.13941538
30	0xbe127d94	-0.14305717
31	0x3dcacc75	0.09902278
32	0x3dabaa80	0.0838213
33	0x3df187b5	0.11793462
34	0x3dcbc2b8	0.09949249
35	0x3d46ceab	0.048536938
36	0xbdc24780	-0.09486294
37	0x3e30bb69	0.17258991
38	0x3e6f4e0c	0.23369616
39	0x3e8a3cf5	0.26999632
40	0xbdb01216	-0.085971996
41	0x3e2be04a	0.16784778
42	0xbdf44d6a	-0.11928828
43	0xbd978aa0	-0.073994875
44	0x3c8bc988	0.017063871
45	0x3e734cb8	0.23759735
46	0xbe2f5dc0	-0.17125607
47	0xbb4228fd	-0.0029626482
48	0xbdd66beb	-0.104698025
49	0x3e5689fa	0.20951071
50	0x3e0b3b82	0.13596919
51	0xbdc6c6e8	-0.09705907
52	0xbdd63a6b	-0.10460361
53	0xbde7970e	-0.11308108
54	0x3d9b1f45	0.075743236
55	0xbdb28889	-0.08717448
56	0xbdafd9bc	-0.085864514
57	0xbdc562bc	-0.09637973
58	0x3dbcaa11	0.09212125
59	0x3e0a0c1b	0.1348118
60	0xbdf7a59c	-0.12092134
61	0x3db47c0e	0.08812724
62	0xbd98025a	-0.074223235
63	0xbdb14272	-0.086552516
64	0x3e2d4ba0	0.1692338
65	0x3dec5fbd	0.11541698
66	0x3e419acc	0.18906707
67	0xbd941de2	-0.07232262
68	0x3e5b622f	0.21424173
69	0x3e32b975	0.17453559
70	0xbe01d1b3	-0.1267765
71	0xbe0b58ed	-0.13608141
72	0x3e149fc4	0.14514071
73	0xbd913ce6	-0.070916936
74	0xbe2eb764	-0.17062145
75	0x3df5cebc	0.12002322
76	0xbdf23240	-0.11825991
77	0xbda1640d	-0.07880411
78	0x3df33109	0.11874587
79	0xbdfa66f5	-0.12226669
80	0xbe01cea9	-0.12676491
81	0x3d96f12a	0.07370217
82	0x3d8480c3	0.06469872
83	0x3e037676	0.12838158
84	0x3de287d6	0.11061065
85	0x3d8819e6	0.06645565
86	0xbd884991	-0.06654657
87	0x3e1ff1cd	0.15619583
88	0x3e2e03b8	0.16993606
89	0x3e77ad33	0.24187164
90	0xbd802ec8	-0.06258923
91	0x3e0855c5	0.13313968
92	0xbde901bc	-0.11377284
93	0xbd9c72df	-0.076390974
94	0x3c9d6174	0.019211508
95	0x3e7164a0	0.23573542
96	0xbe0bd211	-0.13654353
97	0xba6056d4	-0.000855786
98	0xbda0fcde	-0.078607306
99	0x3e0b45c8	0.13600838
100	0x3d686889	0.056740317
101	0xbe891730	-0.26775503
102	0xbd699692	-0.05702836
103	0xbe69f539	-0.22847451
104	0x3d8d2928	0.068926156
105	0x3ce0ec55	0.027456442
106	0xbdc0d3fd	-0.094154336
107	0x3d34c1e3	0.044130217
108	0x3c0cf99b	0.008604432
109	0xbce76d18	-0.028250262
110	0x3c63771e	0.01388338
111	0xbc6b80d7	-0.0143739795
112	0x3c88b4e9	0.016687827
113	0xbc70ef4f	-0.014705493
114	0xbd399cea	-0.04531566
115	0xbcf151c9	-0.029457944
116	0x3dd59b10	0.104299664
117	0xbc45486a	-0.012041191
118	0x3db6df5d	0.08929322
119	0xbc3b035e	-0.011414377
120	0xbdcfd41f	-0.10147881
121	0xbce35f2c	-0.027755342
122	0xbd56c1a1	-0.052430753
123	0x3d4a8c60	0.04945028
124	0xbce1283c	-0.027485006
125	0x3c8a1ebe	0.016860362
126	0xbd9a9793	-0.07548442
127	0xbd81d58f	-0.06339561
128	0x3cd51eb5	0.026015619
129	0xbc9a064d	-0.018801833
130	0xbd25c8b0	-0.040474594
131	0xbd40e29a	-0.047091104
132	0xbcaea371	-0.02131817
133	0x3ce5a78d	0.028033996
134	0x3be10ef7	0.006868239
135	0x3d8cded6	0.0687844
136	0xbd8e800a	-0.06958015
137	0x3d91678f	0.0709983
138	0xbd4bb4cb	-0.049732964
139	0x3e14c95e	0.1452994
140	0xbadaac8f	-0.0016683507
141	0x3c785f22	0.0151594
142	0xbccb5694	-0.024821557
143	0xbb0c1769	-0.0021376258
144	0x3dc8d0bb	0.09805437
145	0x3deeb815	0.116562046
146	0xbcd9fd4d	-0.026610041
147	0x3cba63a9	0.0227526
148	0xbc51d249	-0.012806484
149	0x3c1fc31d	0.0097511085
150	0x3e3512dc	0.17682976
151	0xbe83bcbc	-0.2572993
152	0xbe21998d	-0.15781231
153	0xbe5747c9	-0.21023478
154	0x3dff1d4a	0.12456758
155	0xbd92ff0d	-0.07177553
156	0xbe01446f	-0.12623762
157	0xbd9873de	-0.07443975
158	0x3df38731	0.1189102
159	0x3e066b3d	0.13126846
160	0xbe084669	-0.1330811
161	0x3db47948	0.08812195
162	0xbd6a230a	-0.057162322
163	0xbd9c4921	-0.07631136
164	0x3e1ea8ef	0.1549413
165	0x3dea7bae	0.11449371
166	0x3e5f629f	0.21814965
167	0xbdb98404	-0.09058383
168	0x3e92387e	0.28558725
169	0x3e3642f3	0.17798977
170	0xbe3a5e27	-0.18199979
171	0xbe060f1d	-0.13091703
172	0x3e0e2c0d	0.13883992
173	0xbd836240	-0.06415224
174	0xbe3eaabf	-0.18619822
175	0x3e287b63	0.16453318
176	0xbe449a28	-0.19199431
177	0xbdd2e8f0	-0.102983356
178	0x3e129b36	0.14317021
179	0xbe0e223e	-0.1388025
180	0xbe098003	-0.13427739
181	0x3d4254a4	0.047444
182	0x3d8551ad	0.06509719
183	0x3e01bad1	0.12668921
184	0x3df48091	0.119385846
185	0x3e013737	0.12618719
186	0xbde57ae6	-0.11205082
187	0x3e54c694	0.20778877
188	0x3e119c0a	0.1421968
189	0x3e9c1c1a	0.3049019
190	0xbd8bf063	-0.068329595
191	0x3e21675d	0.15762086
192	0xbdd8b1ef	-0.10580813
193	0xbda8ff6c	-0.08251843
194	0x3d563b4f	0.052302655
195	0x3ea491e3	0.32142553
196	0xbe2304e3	-0.15919833
197	0xbc3333d5	-0.010937651
198	0xbdb1c69b	-0.08680459
199	0x3e281a9e	0.16416404
200	0x3e1f5732	0.15560606
201	0xbe080beb	-0.13285796
202	0xbdfd493d	-0.12367485
203	0xbe050eba	-0.12993899
204	0x3de400fc	0.11133
205	0xbdb0c40c	-0.08631143
206	0xbdd2b55e	-0.10288499
207	0xbe02d70d	-0.12777348
208	0x3e00b142	0.12567618
209	0x3e248514	0.1606639
210	0xbe0e3872	-0.1388872
211	0x3dea8d68	0.11452752
212	0xbd352c77	-0.044231858
213	0xbdac9388	-0.08426577
214	0x3e4a6679	0.19765653
215	0x3df3e2c7	0.11908489
216	0x3e671011	0.22564723
217	0xbdc2f586	-0.09519486
218	0x3e87bc87	0.26511022
219	0x3e3e4268	0.1858002
220	0xbe0f7679	-0.14010037
221	0xbe15d79e	-0.14633033
222	0x3e1dae6c	0.15398568
223	0xbd9f1d7f	-0.07769298
224	0xbe32e0ab	-0.17468517
225	0x3e0bd5cd	0.13655777
226	0xbe15a094	-0.14612037
227	0xbde5b45f	-0.11216044
228	0x3e0de27b	0.13855927
229	0xbe1105e3	-0.14162402
230	0xbe055fe5	-0.13024862
231	0x3d8fd7e2	0.07023598
232	0x3d460674	0.048345998
233	0x3df63060	0.120209455
234	0x3dacd764	0.0843952
235	0x3dca5620	0.09879708
236	0xbe0d8576	-0.13820443
237	0x3e483794	0.19552451
238	0x3e506240	0.2034998
239	0x3e95dd5b	0.29270443
240	0xbd8b78d7	-0.06810158
241	0x3e33cb02	0.1755791
242	0xbdf8ad50	-0.12142432
243	0xbd8cf168	-0.06881982
244	0x3cb1f31e	0.021722373
245	0x3e809816	0.25116032
246	0xbe0d6326	-0.13807353
247	0x3b0a04df	0.0021060032
248	0xbdca4a48	-0.09877449
249	0x3e0e5883	0.13900952
250	0x3e29644b	0.16542165
251	0xbea551a9	-0.32288864
252	0xbe16ac6d	-0.14714213
253	0xbe8564af	-0.26053378
254	0x3e03c99b	0.12869875
255	0xbda6e997	-0.081500225

shared_encoder.gru.weight_hh_l0_reverse f4 [150, 50]
0	0x3baa62cc	0.005199766
1	0x3cbf6da2	0.023367707
2	0x3d1a5d0f	0.037686404
3	0xbc2fb7e2	-0.010724993
4	0xbc9f996e	-0.01948234
5	0x3c520ea7	0.012820876
6	0x3c69df0c	0.01427437
7	0x3c0f0e45	0.008731429
8	0xbba3cb41	-0.004998595
9	0xbc13913b	-0.009006794
10	0xbc94432d	-0.018098438
11	0xbb535bdd	-0.00322508
12	0x3ccf6a90	0.025319368
13	0xbc0d5c6a	-0.00862799
14	0xbbcf75a3	-0.006331162
15	0x3c514936	0.0127738025
16	0xb91acec3	-0.00014763609
17	0xbc493621	-0.012280972
18	0xbd05ae60	-0.032637
19	0x3d0f8452	0.0350383
20	0xbe0bf521	-0.13667728
21	0x3ceb6719	0.028735684
22	0x3cb4bbc1	0.022062184
23	0xbc83abfd	-0.016073221
24	0xbbd7ed3d	-0.0065895603
25	0x3aa64d1e	0.0012687778
26	0xbba98164	-0.0051728953
27	0xbcc329f3	-0.023823714
28	0x3c85220f	0.016251592
29	0xbe897e1f	-0.26854035
30	0xbbd72919	-0.0065661785
31	0xba2e53d2	-0.00066500634
32	0xbd15ed6d	-0.03660338
33	0x3cfd5dd8	0.030928537
34	0x39871cce	0.00025770668
35	0xbc375a99	-0.011191034
36	0xbc0fb682	-0.008771541
37	0x3a8a36d2	0.0010544902
38	0x3cdd2bdf	0.026998458
39	0xbc52432f	-0.012833401
40	0x3ab97a93	0.001415091
41	0x3bb82574	0.005619699
42	0xbbd7bbc6	-0.0065836636
43	0xbb9a1288	-0.004701916
44	0x3c0e12f6	0.008671513
45	0x3c7d59f0	0.015463337
46	0x3b4745a9	0.003040651
47	0xbb9ac582	-0.004723252
48	0x3c0ce9f4	0.008600701
49	0x3d204405	0.03912737
50	0x3ab2b71c	0.0013634893
51	0xbac07468	-0.0014683129
52	0x3d37db6a	0.044886984
53	0xbac41294	-0.001495915
54	0x3bad0ea1	0.005281285
55	0x3ca8c9a4	0.020603962
56	0x3b83771b	0.004012001
57	0xbccaf36e	-0.02477428
58	0x3c9867ef	0.018604247
59	0x3b85e1bb	0.004085747
60	0x3cbefd68	0.023314193
61	0x3d10da32	0.035364337
62	0xba054c40	-0.00050849095
63	0xbbaea1b8	-0.005329337
64	0xbc31de16	-0.010856172
65	0x3bdb465c	0.006691737
66	0xbbfeb54a	-0.007773076
67	0xbbc34d31	-0.0059601297
68	0xbc12cd2a	-0.008960048
69	0x3c6e5786	0.014547234
70	0xbe7b58a6	-0.24545535
71	0xbca72593	-0.020403659
72	0x3cc84c4f	0.02445045
73	0x39f0773d	0.00045865207
74	0xbcedcdd7	-0.029028816
75	0xbb5eb26d	-0.0033980862
76	0x3c86d6ba	0.016459811
77	0xbce25607	-0.027628912
78	0xbafd019b	-0.0019302847
79	0xbe0a4f2e	-0.13506767
80	0xbc75e9a1	-0.015009315
81	0x3bacaf1c	0.005269898
82	0xbcece0c9	-0.02891578
83	0x3c1fca64	0.0097528435
84	0x3bb1a178	0.00542086
85	0xbc169012	-0.0091896225
86	0x3c012c1d	0.007884053
87	0x3c475ef0	0.012168631
88	0xbc459b6a	-0.012060979
89	0xba30af2e	-0.0006739971
90	0x3c6145d8	0.013749562
91	0xbccc06df	-0.02490562
92	0xbc9687e2	-0.01837534
93	0x3b5bf97f	0.003356546
94	0x3d62b292	0.05534608
95	0x3c811ccd	0.015760804
96	0x399fc20f	0.00030471428
97	0xbc2d64d7	-0.010583124
98	0x3c16f375	0.009213318
99	0x3c872677	0.016497834
100	0xbd7bfd69	-0.061520968
101	0x3cdc8bc3	0.026922112
102	0x3e4e6f5d	0.20159669
103	0x3d0af89f	0.03392851
104	0xbc9bbb6f	-0.019010274
105	0xbcfd0e95	-0.030890742
106	0xbc829907	-0.01594211
107	0xbce84fe4	-0.028358407
108	0x3d1cf1ec	0.038316652
109	0x3ce99181	0.028511764
110	0x3c6f76f6	0.014615765
111	0x3e5d1813	0.21591215
112	0xbd0b2ab4	-0.03397627
113	0xbd656db7	-0.056012835
114	0xbd8c33b9	-0.06845803
115	0x3da16a86	0.07881646
116	0xbd26ff06	-0.040770553
117	0xbd269177	-0.04066607
118	0xbd784f22	-0.060622342
119	0x3d926eb3	0.071500205
120	0xbebfa5c0	-0.37431145
121	0x3ca5a381	0.020219566
122	0x3d99184f	0.074753396
123	0xbd167f9e	-0.0367428
124	0xbbc343b3	-0.005958998
125	0xbd2ec8d8	-0.04267201
126	0x3c8a2660	0.016864002
127	0xbd3232a2	-0.04350532
128	0x3d025466	0.03181877
129	0x3e504260	0.2033782
130	0x3d12da51	0.035852734
131	0x3ba0e31a	0.004909885
132	0xbde07b85	-0.109610595
133	0x3cac2abb	0.02101647
134	0xba5de533	-0.00084646343
135	0x3d291a3d	0.04128479
136	0xbd158478	-0.036503285
137	0x3d466b20	0.048442006
138	0xbb57a627	-0.003290543
139	0x3cd75df3	0.026289916
140	0xbd180534	-0.037114337
141	0x3d58277f	0.05277204
142	0xbbfa91fc	-0.007646797
143	0xbcb5e33d	-0.022203082
144	0x3e6807cf	0.22659229
145	0xbcebe012	-0.028793368
146	0xbba44b71	-0.005013876
147	0x3c83e522	0.01610047
148	0x3bb74791	0.005593248
149	0xb88035b3	-6.113518e-05
150	0xbcdd4edb	-0.02701514
151	0x3bc6097f	0.0060436125
152	0x3dda8d78	0.10671514
153	0x3d37b790	0.044852793
154	0x3cb82058	0.02247636
155	0xbd2f5867	-0.042808916
156	0xbd43e7b2	-0.047828384
157	0xbd258f40	-0.040419817
158	0x3d55a03c	0.052154765
159	0x3d0bbf40	0.034117937
160	0x3d27fbcb	0.041011613
161	0x3dd893cb	0.10575064
162	0xbd8ad183	-0.067782424
163	0xbd2d05f0	-0.04224199
164	0xbd8d65ed	-0.069042064
165	0x3c751716	0.014959117
166	0xbd1032a7	-0.035204556
167	0xbb998b89	-0.0046858233
168	0xbd1209f8	-0.03565404
169	0x3d49f76f	0.049308237
170	0xbedf2a98	-0.43587184
171	0xbb9f462e	-0.004860661
172	0x3d535a12	0.05159957
173	0xbce0f92e	-0.027462568
174	0x3d05f404	0.032703415
175	0xbc31154e	-0.010808302
176	0x3d86b6b4	0.065778166
177	0xbd9bce25	-0.07607678
178	0x3d02ff28	0.031981617
179	0x3c85dbee	0.016340222
180	0x3b7ab0f2	0.003825244
181	0xbcc062b8	-0.023484573
182	0xbda29aa5	-0.07939652
183	0xbd215daf	-0.039395984
184	0xbd1bc798	-0.038032144
185	0x3c561083	0.01306546
186	0xbc06aba0	-0.0082196295
187	0x3c4b8dfc	0.012423988
188	0xbcfcda96	-0.030865949
189	0x3d3945fb	0.045232754
190	0x3b2ff9a0	0.002685167
191	0x3d0e2258	0.03470072
192	0xbd27993b	-0.040917616
193	0x3c6569bb	0.014002259
194	0x3dd76dff	0.10519027
195	0x399db3ad	0.00030079242
196	0xbccd302f	-0.02504739
197	0xb924e73c	-0.000157264
198	0xbce9de63	-0.028548425
199	0xbc561065	-0.013065432
200	0xbd2e6fdf	-0.042587157
201	0xbc2d3347	-0.0105713075
202	0x3d742804	0.059608474
203	0x3bb1acf4	0.005422229
204	0xbb904762	-0.0044030407
205	0xbbfd8828	-0.0077371784
206	0x3c102a60	0.0087991655
207	0xbc5c8f05	-0.013461833
208	0xbaa1ecaf	-0.0012353862
209	0x3c80f528	0.0157419
210	0xba53fd2f	-0.00080867385
211	0x3d07a068	0.03311196
212	0xbb8b6f1d	-0.004255189
213	0xbce364f5	-0.027758101
214	0xbbbf570c	-0.005839234
215	0x3cd95da7	0.026533915
216	0xbc9ee7e4	-0.019397683
217	0xbccc6f5f	-0.02495545
218	0xbd1324a5	-0.03592362
219	0x3d573348	0.05253914
220	0xbe9a0753	-0.30083713
221	0x3cac9192	0.021065507
222	0x3cf14b35	0.029454807
223	0xbc52d26a	-0.012867549
224	0xbab24c27	-0.0013603017
225	0xbc858920	-0.016300738
226	0x3c1ea7fa	0.009683603
227	0xbd62d217	-0.05537614
228	0x3cb51dd9	0.022108959
229	0xbe03aeb7	-0.12859617
230	0xbc1241ab	-0.008926789
231	0xbc4ab4f6	-0.012372246
232	0xbd4c4241	-0.049867872
233	0x3b75bd72	0.0037496951
234	0x3b7ed377	0.0038883367
235	0x3ceab3e7	0.028650237
236	0xbc3c61ed	-0.011497957
237	0x3c0da765	0.008645867
238	0xbaa65990	-0.0012691487
239	0x3c5e7b35	0.0135791795
240	0xbb176266	-0.0023099422
241	0x3b9a6b91	0.00471253
242	0xbced20ca	-0.0289463
243	0x3a92c740	0.0011198297
244	0x3d4f54e1	0.050618056
245	0xbc50cc7c	-0.012744065
246	0x3b30e077	0.002698926
247	0x3ba8be8e	0.005149669
248	0x3c14791d	0.009062079
249	0x3ca33095	0.019920627
250	0xbd48aee6	-0.04899492
251	0x3bd3fd30	0.0064693913
252	0x3e19035a	0.14942685
253	0x3d4ab75b	0.049491268
254	0x3c8614dd	0.01636737
255	0xbd759ad0	-0.059962094

shared_encoder.gru.bias_ih_l0_reverse f4 [150]
0	0x3dd4805c	0.10376045
1	0x3e0406aa	0.12893167
2	0x3d28ebe8	0.041240603
3	0x3e30679f	0.17227028
4	0x3e0664fb	0.13124458
5	0x3e426f31	0.18987729
6	0x3e37a5d9	0.1793436
7	0x3ddf6448	0.10907799
8	0x3dee1ef8	0.116270006
9	0x3d98b1c2	0.074557796
10	0x3ddcc863	0.10780408
11	0x3e03d1c4	0.12872988
12	0x3de09483	0.10965826
13	0x3dbe8a24	0.09303692
14	0x3e196693	0.14980535
15	0x3d84086d	0.064469196
16	0x3dbf0899	0.09327812
17	0x3e17b227	0.14814053
18	0x3e1e2666	0.15444335
19	0x3e3b1395	0.18269189
20	0xbec70c36	-0.38876504
21	0x3dfb2f88	0.12264925
22	0x3e1f7ee6	0.15575752
23	0x3dbd9d1d	0.092584826
24	0x3e03aeee	0.12859699
25	0x3dd6e5d9	0.10493059
26	0x3dc40b47	0.095724635
27	0x3e158045	0.14599712
28	0x3e1cc41b	0.15309183
29	0xbe78faec	-0.24314469
30	0x3dd1f56f	0.10251891
31	0x3daa2b0e	0.08308993
32	0x3d9719e1	0.07377983
33	0x3e01cb2a	0.12675157
34	0x3dc128b1	0.094315894
35	0x3d98bfbc	0.074584454
36	0x3d87064c	0.06592998
37	0x3e007060	0.12542868
38	0x3de1bffe	0.11022948
39	0x3e1dcc54	0.15409976
40	0x3d8cc27e	0.06873034
41	0x3db4cdf1	0.08828343
42	0x3dc5e466	0.09662704
43	0x3dbba9f2	0.09163274
44	0x3d4f0245	0.050539274
45	0x3da2f7be	0.07957409
46	0x3de85ed6	0.113462135
47	0x3dcd3eae	0.10021721
48	0x3ddd4473	0.10804071
49	0x3e2c92c2	0.16852859
50	0xbd56b561	-0.05241907
51	0xbd3a0766	-0.045417212
52	0x3e2a177f	0.16610526
53	0xbc91ef7f	-0.017814396
54	0xbd09d7cd	-0.03365307
55	0x3a1c087e	0.0005952193
56	0xbcc72d4d	-0.024313593
57	0x3b586610	0.0033019818
58	0x3cbeff14	0.02331499
59	0x3d495672	0.049154706
60	0xbbca9aeb	-0.0061830184
61	0x3e21f047	0.15814315
62	0xbc54e681	-0.01299441
63	0xbd746f96	-0.05967673
64	0x3d7707cb	0.060310166
65	0xbd859bf6	-0.06523888
66	0xbd6ee098	-0.058319658
67	0xbd858118	-0.06518763
68	0xbd825e18	-0.06365603
69	0xbdbba863	-0.091629766
70	0x3fbc1eb4	1.469687
71	0xbd16cced	-0.036816526
72	0xbdadf0a5	-0.08493165
73	0xbd0fb924	-0.035088673
74	0xbce4780f	-0.02788928
75	0xbd3272e9	-0.043566618
76	0xbb9ebc60	-0.0048442334
77	0xbd8f2b81	-0.069907196
78	0xbd888e00	-0.06667709
79	0x3f8f29b1	1.1184598
80	0xbccacf5f	-0.024757085
81	0xbc61cdb6	-0.0137819555
82	0x3df909ec	0.121600956
83	0xbd3c1c74	-0.045925573
84	0xbc842229	-0.01612957
85	0xbc36a1a3	-0.011146936
86	0xbc90165e	-0.01758879
87	0xbd84708e	-0.064667806
88	0xbcba8c3e	-0.02277195
89	0x3a9a8362	0.0011788423
90	0xbcab5dca	-0.020918746
91	0xbd2fa2ae	-0.042879753
92	0xbbb3f448	-0.005491767
93	0xbca2f99e	-0.019894417
94	0x3e1a709a	0.15082017
95	0xbc65a072	-0.014015304
96	0x3ae0237a	0.0017100417
97	0xbcbca786	-0.0230291
98	0xbcfb9c7d	-0.030714268
99	0xbd26f26d	-0.04075854
100	0xb8d33ea6	-0.00010072933
101	0x3c13d717	0.009023449
102	0xbca63160	-0.020287216
103	0xbc942fa1	-0.018089117
104	0xbc3776c2	-0.011197748
105	0x3c9bc9b1	0.019017072
106	0x3ca03e86	0.019561063
107	0x3c58de57	0.013236604
108	0xbc8b1320	-0.016976893
109	0xbc878736	-0.016543966
110	0xbc58509b	-0.013202812
111	0xbcc12b0c	-0.023580097
112	0x3c924d95	0.01785926
113	0x3ba35806	0.0049848584
114	0x3c979f82	0.018508676
115	0xbc32fccd	-0.01092453
116	0x3babcf38	0.0052432083
117	0xbb683acf	-0.0035435443
118	0xbbad7b44	-0.0052942354
119	0x3b7d2855	0.0038628776
120	0x3d4b2ef4	0.049605325
121	0x3c181449	0.00928218
122	0x39ed167b	0.00045220912
123	0x3ad3eee5	0.0016169219
124	0xbc3e7616	-0.011624834
125	0xbb61f7d4	-0.0034479992
126	0xbc70d256	-0.0146985855
127	0xbb8ec233	-0.0043566464
128	0x3bcf1e8c	0.00632078
129	0xbd6c84a8	-0.0577437
130	0x3b8ee4f7	0.004360791
131	0x3bfa0be9	0.0076308143
132	0x3c85cc44	0.016332753
133	0x3c653b7b	0.013991232
134	0x3c540f5f	0.012943118
135	0xbb367d2c	-0.0027845604
136	0x3b1caea2	0.00239078
137	0x3a857fd2	0.0010185188
138	0x3c09850e	0.008393539
139	0xbc8ed35d	-0.01743477
140	0xb9500321	-0.00019837591
141	0xba080dbe	-0.0005190036
142	0x3c365b3d	0.011130151
143	0xbc0dbb33	-0.008650589
144	0xbcaf3370	-0.021386832
145	0xbb97a2af	-0.0046275477
146	0x3c721e9a	0.014777804
147	0x3bb7f20b	0.0056135706
148	0x3c16b6f8	0.009198897
149	0x3c53fc5e	0.012938587
