checkpoints/bestmodel_DO_8.pt (torch_old, 300239 bytes, 22 tensors)

shared_encoder.input_linear.weight f4 [50, 5]
0.057428062 -0.029149957 -0.0008387875 -0.050164197 -0.0130454935 0.048625704 0.009930914 -0.024905434
-0.05679395 0.010819373 -0.06031277 0.029949721 0.016633507 0.08019886 -0.0032458473 0.073112175
-0.031155659 0.00048854103 -0.069895476 0.01894977 0.04671763 -0.049824234 -0.0019443668 -0.052071884
-0.012379363 -0.079030626 0.03997333 0.028884087 0.063515574 0.0056965817 -0.01174931 0.030675896
-0.005135334 0.046164703 0.028180124 -0.10912053 0.028353034 0.0372728 0.08068665 0.012149012
0.060643613 -0.03437594 -0.008294228 -0.04969412 0.0060529537 0.070649646 -0.021912685 -0.016938917
-0.051976666 0.006275282 -0.0658083 0.021540672 0.016247615 0.053039186 -0.0039502485 0.024711369
-0.007543111 -0.029255997 -0.03558817 -0.00067676755 -0.037647527 0.019118521 0.030038917 0.04429406
-0.0070307683 -0.041968636 0.028560046 0.029938228 0.054761652 0.0009346601 0.08162279 -0.03307359
-0.008372697 -0.06334372 0.009684745 0.042578038 -0.013898255 -0.021547645 -0.038396172 -0.0014768715
0.002583038 -0.010575685 0.022176648 -0.012249205 -0.014929662 -0.051256474 0.03320034 0.023796044
0.053114638 0.014009864 0.021096438 -0.009582202 0.010118605 -0.030550301 -0.0025267263 0.09818485
-0.019110654 -0.019429466 -0.0796838 0.00039707008 -0.0165196 0.010048508 -0.007979962 0.037533607
-0.013011837 -0.05596499 0.0075888727 0.015166655 0.067263335 0.021296121 -0.000991784 0.0033965418
-0.0016624233 -0.001991945 -0.007755572 -0.033684082 0.020445673 0.007357735 0.026982592 -0.002747481
-0.05125243 0.0037642545 0.021223828 0.06310125 0.004310672 0.019118415 -0.018576182 0.0015867504
-0.012704787 -0.002429565 -0.024672301 0.008559932 0.010511907 0.05457162 -0.0115030175 -0.020435553
0.041009925 0.015209551 0.049564503 0.0035594238 0.027612537 -0.014581962 -0.018249542 -0.037126333
-0.011383541 -0.04587976 0.024213739 0.01722301 0.03359569 0.010164109 -0.030445397 0.023681963
5.4220436e-08 0.019516712 0.016923187 0.062034525 -0.030765712 -0.039817378 -0.04028901 -0.01271307
0.021644985 -0.021916106 -0.02459318 -0.019480223 -0.0067381347 0.012519645 -0.015176884 -0.013967027
-0.023066627 -0.0035981128 0.04672652 -0.0228229 -0.010534974 -0.037402935 0.0023457678 0.048492674
-0.04321116 -0.012924213 -0.049860425 0.010118747 -0.040666413 0.03117331 0.0061956653 0.06773624
0.018764118 0.040908467 -0.0077120746 -0.012938501 -0.056769907 0.0026864344 0.0564914 -0.010672194
-0.012666356 -0.03797002 -0.002535215 -0.096239716 0.024738712 0.043944284 0.058515593 -0.020187402
-0.026000101 0.033386067 0.02899811 0.049359057 0.00035145256 0.072445825 -0.028628023 -0.010658157
-0.051559266 -0.0021232953 -0.04968955 0.022398017 0.007627111 0.038895436 0.024825161 -0.051040526
0.024062395 0.01977012 0.050914317 -0.009383194 -0.022883538 0.0275687 0.0032828634 0.013487273
-0.004046016 0.008969663 0.012108387 -0.00036666857 -0.04718929 0.0002162214 -0.099031314 0.026545892
0.017470699 0.08467889 -0.00027996983 -0.027154045 0.02044093 0.0153366355 0.027874507 -0.009147599
-0.034069784 0.03153936 0.016607355 0.025815891 0.027303321 0.093719505 -0.022719648 -0.015110444
-0.0698691 0.005690768
00000000: b039 6b3d e4cb eebc 14e2 5bba f978 4dbd
00000010: c4bc 55bc bf2b 473d 46b5 223c 7b06 ccbc
00000020: c6a0 68bd bd43 313c 860a 77bd 1e59 f53c
00000030: fe42 883c 4d3f a43d 48b8 54bb d6bb 953d
00000040: 273a ffbc 6f11 003a 5c25 8fbd 8c3c 9b3c
00000050: fc5a 3f3d 7f14 4cbd 20da feba 5449 55bd
00000060: d0d2 4abc cfda a1bd 13bb 233d 529e ec3c
00000070: 7414 823d 64aa ba3b 2e80 40bc 044c fb3c
00000080: 4e46 a8bb 3317 3d3d 01da e63c 967a dfbd
00000090: 9f44 e83c 5dab 183d 0b3f a53d a60c 473c
000000a0: 7065 783d c9cd 0cbd 84e4 07bc 108c 4bbd
000000b0: db57 c63b c3b0 903d 3b82 b3bc 7cc3 8abc
000000c0: 7ce5 54bd e1a0 cd3b 81c6 86bd 1076 b03c
000000d0: b819 853c 9e3f 593d 1671 81bb 7f6f ca3c
000000e0: 342c f7bb 46aa efbc e7c4 11bd 1a69 31ba
000000f0: 4b34 1abd 729e 9c3c 2d14 f63c b06d 353d
00000100: 5c62 e6bb 4ee7 2bbd c2f6 e93c 0441 f53c
00000110: c14d 603d fa03 753a d929 a73d 2c78 07bd
00000120: a32d 09bc 5aba 81bd c4ac 1e3c 4f66 2e3d
00000130: 82b5 63bc b084 b0bc 4e45 1dbd 9693 c1ba
00000140: 3048 293b a345 2dbc cdab b53c e4b0 48bc
00000150: 8b9b 74bc 4ff2 51bd 14fd 073d ecef c23c
00000160: bc8e 593d a189 653c 70d2 ac3c abfe 1cbc
00000170: 81c8 253c a044 fabc 6f97 25bb 2315 c93d
00000180: f28d 9cbc 8b2a 9fbc 4331 a3bd d82d d039
00000190: 1d54 87bc 7fa2 243c 63be 02bc d7bc 193d
000001a0: 9a2f 55bc 8c3b 65bd 14ac f83b 907d 783c
000001b0: 5cc1 893d 3475 ae3c c0fe 81ba 8498 5e3b
000001c0: abe5 d9ba 4b8b 02bb 7422 febb 52f8 09bd
000001d0: af7d a73c 2819 f13b 990a dd3c 150f 34bb
000001e0: 11ee 51bd b6b1 763b 98dd ad3c 3a3b 813d
000001f0: 8a40 8d3b 399e 9c3c 142d 98bc 82fa cf3a
00000200: bd27 50bc 5639 1fbb 911d cabc f53e 0c3c
00000210: 223a 2c3c 7e86 5f3d 2777 3cbc 7668 a7bc
00000220: 06fa 273d 7b31 793c 2604 4b3d 3945 693b
00000230: b033 e23c 2ee9 6ebc 1080 95bc c811 18bd
00000240: 0882 3abc 6aec 3bbd e45b c63c 4517 8d3c
00000250: a29b 093d 5d87 263c a068 f9bc ad00 c23c
00000260: 00e0 6833 83e1 9f3c 7fa2 8a3c ea17 7e3d
00000270: 6008 fcbc 8c17 23bd 1706 25bd 7b4a 50bc
00000280: d350 b13c 6889 b3bc a377 c9bc fd94 9fbc
00000290: 92cb dcbb 321f 4d3c 77a8 78bc f5d5 64bc
000002a0: 39f6 bcbc 51ce 6bbb 4f64 3f3d 17f7 babc
000002b0: e29a 2cbc d233 19bd 74bb 193b 41a0 463d
000002c0: 2ffe 30bd 14c0 53bc 723a 4cbd 1ac9 253c
000002d0: d391 26bd 2b5f ff3c 0205 cb3b 4cb9 8a3d
000002e0: 35b7 993c a38f 273d 92b5 fcbb 02fc 53bc
000002f0: 9087 68bd e40e 303b 8763 673d 6dda 2ebc
00000300: 8c86 4fbc 7486 1bbd da25 26bb 5419 c5bd
00000310: d7a8 ca3c ecfe 333d 0cae 6f3d 0d60 a5bc
00000320: 2afe d4bc d4bf 083d 728d ed3c b92c 4a3d
00000330: 2a43 b839 7a5e 943d 5185 eabc 8d9f 2ebc
00000340: cf2f 53bd fc26 0bbb 4587 4bbd 0c7c b73c
00000350: d8ec f93b d250 1f3d 235e cb3c df0f 51bd
00000360: 801e c53c f2f4 a13c 888b 503d f8bb 19bc
00000370: 4276 bbbc c1d7 e13c 4f25 573b b9f9 5c3c
00000380: 7194 84bb 7ef5 123c 4262 463c 6c3d c0b9
00000390: 8f49 41bd 7db9 6239 eed0 cabd c576 d93c
000003a0: b61e 8f3c 206c ad3d eac8 92b9 2972 debc
000003b0: bd73 a73c 8346 7b3c 1459 e43c d0df 15bc
000003c0: c28c 0bbd 6a2f 013d 260c 883c d97b d33c
000003d0: 37ab df3c 03f0 bf3d 8e1e babc cc91 77bc
000003e0: 8817 8fbd 9f79 ba3b

shared_encoder.input_linear.bias f4 [50]
-0.0073296637 -0.0033283466 0.0072475825 -0.00040334408 -0.007260252 0.0027792188 0.008008742 0.00674872
-0.0019309184 -0.0019169335 0.00469892 -0.006681199 0.0034197175 0.008179815 -0.002277073 -0.003741555
0.0028631014 0.0075137713 0.001439803 -0.00010895694 -0.0021565207 0.007664225 -0.00019482056 -0.000104281964
0.007563272 -0.0038503725 0.00074560597 0.008089494 -0.0085623665 0.007621819 0.002093273 -0.0072990046
-0.006825652 -0.008660888 -0.005155774 -0.008875611 0.008634874 -0.006763018 -0.00393175 0.0036432857
0.0034951055 -0.0013595392 0.007691933 0.0036485158 -0.00020145717 -0.0036048272 0.00500037 0.0012874125
0.0074820872 -0.0061021256
00000000: ad2d f0bb 6420 5abb 217d ed3b ed77 d3b9
00000010: 68e7 edbb 8e23 363b 1937 033c 5e24 dd3b
00000020: df16 fdba 9d41 fbba 66f9 993b f6ed dabb
00000030: 571d 603b a104 063c f23a 15bb e034 75bb
00000040: dfa2 3b3b 1536 f63b c6b7 bc3a d07f e4b8
00000050: 6a54 0dbb 2e24 fb3b bf48 4cb9 f4b1 dab8
00000060: 53d5 f73b 8856 7cbb c574 433a cc89 043c
00000070: 2b49 0cbc 74c0 f93b 4b2f 093b 7d2c efbb
00000080: b8a9 dfbb 66e6 0dbc c4f1 a8bb 036b 11bc
00000090: 4979 0d3c 4f9c ddbb e9d5 80bb 31c4 6e3b
000000a0: 240e 653b 9132 b2ba 9c0c fc3b f01b 6f3b
000000b0: 3f3e 53b9 f73e 6cbb 25da a33b 65be a83a
000000c0: 4c2c f53b 57f4 c7bb

shared_encoder.gru.weight_ih_l0 f4 [150, 50]
-0.0071942005 -0.00036397448 -0.0061693094 -0.029020393 -0.0044557108 -0.011723992 -0.018991414 0.0056559932
-0.008156226 -0.014081693 0.013499025 0.020315869 -0.005245525 4.656535e-05 -0.033625457 0.008095374
0.01024791 0.011435915 0.0074447514 -0.009193244 0.0006988666 0.0053502163 0.012856783 -0.01490219
0.0026711056 0.013340372 -0.016102526 -0.02643205 0.016148673 -0.0062926705 0.012035808 -0.0075998767
0.014913597 0.007073075 0.019187968 0.0105669405 0.0012527676 0.0019053699 0.011071156 0.031042248
-0.0019374004 -0.010984937 0.00239723 -0.008811406 -0.008650764 0.011906625 0.0054448326 -0.0067162546
-0.017822355 -0.03324254 -0.0139120575 -0.003213987 -0.023190327 0.016193442 0.0045303255 0.011638148
-0.016384793 -0.01706089 0.0059608202 -0.028798105 0.009256288 0.008801395 -0.012589596 -0.004010745
-0.0298371 -0.013985623 0.015129255 -0.0073522204 -0.003892382 -0.005038208 -0.012843042 -0.005876905
0.0027415627 -0.027752468 0.00935675 0.015608925 -0.005980187 -0.017108778 0.007889101 -0.024211349
-0.007923036 -0.011089622 0.012795886 -0.0033347444 0.007291344 0.0015678131 -0.01295088 0.015589407
0.019349407 0.033682045 -0.017384317 0.007831167 -0.00065803545 -0.0075671575 -0.028568633 0.008842867
0.029604085 -0.0032009322 -0.012435162 -0.01285448 -0.001565126 -0.0010648416 0.012640249 -0.008767858
0.00436693 -0.0011028292 -0.013240431 0.02540312 -0.006139737 -0.030209428 -0.0104403095 0.013065419
-0.006331788 -0.0009452059 -0.026780779 -0.0103567485 -0.0045324974 -0.014325192 0.020007921 -0.025046721
-0.013287902 0.0003936766 0.017659355 -0.021543289 0.002430662 0.00872562 -0.0064591565 -0.012864455
0.006271728 0.002206598 -0.015897153 -0.009320182 0.0021418976 0.015672108 -0.004415897 0.00047940027
0.00078841794 0.007606438 0.006591075 0.040090036 -0.014190607 0.0017117065 0.004286259 0.003922451
-0.01885667 0.009212744 0.018779876 0.002456567 -0.016504824 -0.016613709 -0.0035862343 -0.007994802
0.005213787 -0.0038066688 -0.008665214 -0.0042094584 -0.009346817 0.010635571 0.024417896 -0.014492197
-0.0058656777 0.012540361 -0.0026646412 0.00015671588 -0.007961249 0.00879572 0.015284124 -0.0037746024
0.0007663942 -0.0060094516 -0.019376306 -0.013522014 0.025892489 -0.011007773 -0.016434407 0.0056851865
-0.004174423 -0.02864943 0.011532665 -0.0024417776 -0.011023046 -0.013396121 -0.005565046 0.010589226
0.021396594 -0.0011999441 -0.007439642 0.020377737 -0.0020843875 0.032824226 0.0013910009 0.007527107
0.00666371 0.010259852 -0.01238159 0.021707425 0.023185715 -0.0012801776 -0.011007337 -0.019439477
-0.0014858156 0.01276212 -0.007183142 -0.001415596 0.0019783564 0.01948071 -0.009095779 0.004391288
0.00013229951 -0.017528644 0.010023336 0.011412803 -0.007507032 -0.005085073 -0.011245769 -0.0033872125
0.01460922 0.0042493064 0.022055175 -0.028308267 -0.0042485003 -0.00022062389 0.024655983 -0.0010136496
-0.026038637 0.0060598473 -0.011459637 -0.0023528228 0.013900236 -0.014907173 0.0023486242 0.0014423905
0.021856705 0.0017048017 -0.009620739 0.0059130173 -0.008409385 0.0035132333 0.00010495866 0.013551053
0.00439667 0.0014769922 -0.025932956 -0.009397457 -0.021233281 0.014788988 0.014231411 -0.015061126
-0.01275496 -0.02508064 -0.0032844548 0.00067649997 0.012748464 -0.0133778285 -0.003126577 0.0017038636
00000000: 54bd ebbb d4d3 beb9 eb27 cabb 2dbc edbc
00000010: 3601 92bb fd15 40bc e293 9bbc e955 b93b
00000020: b1a1 05bc e7b6 66bc 042b 5d3c 776d a63c
00000030: a7e2 abbb 2a4f 4338 d9ba 09bd 76a2 043c
00000040: dae6 273c b45d 3b3c 1af3 f33b 439f 16bc
00000050: 2534 373a de50 af3b 42a5 523c 5128 74bc
00000060: b70d 2f3b 9391 5a3c 72e9 83bc 0788 d8bc
00000070: 394a 843c bf32 cebb d631 453c 6308 f9bb
00000080: 2958 743c 41c5 e73b 1630 9d3c f620 2d3c
00000090: e833 a43a 9bbd f93a cb63 353c 504c fe3c
000000a0: 5ff0 fdba 2afa 33bc d81a 1d3b b75d 10bc
000000b0: efbb 0dbc 0114 433c 916a b23b 0714 dcbb
000000c0: 3000 92bc 5429 08bd 66ef 63bc c1a1 52bb
000000d0: a4f9 bdbc 1ca8 843c 2073 943b eead 3e3c
000000e0: 6739 86bc 48c3 8bbc fc52 c33b 01ea ebbc
000000f0: b0a7 173c ba33 103c 9844 4ebc 916c 83bb
00000100: ef6c f4bc f423 65bc b2e0 773c e5ea f0bb
00000110: 5517 7fbb 8d17 a5bb 9f6b 52bc 0d93 c0bb
00000120: caab 333b 2559 e3bc 0e4d 193c 94bc 7f3c
00000130: 72f5 c3bb b527 8cbc 4a41 013c e156 c6bc
00000140: 9fcf 01bc 3fb1 35bc d6a5 513c ba8b 5abb
00000150: 3aec ee3b 147f cd3a ee2f 54bc b66a 7f3c
00000160: a682 9e3c 2ff6 093d 8e69 8ebc 4c4e 003c
00000170: 0380 2cba ebf5 f7bb c408 eabc ace1 103c
00000180: 4484 f23c bbc6 51bb dabc 4bbc 999b 52bc
00000190: ea24 cdba 2892 8bba 0c19 4f3c 10a7 0fbc
000001a0: 7718 8f3b cf8c 90ba 65ee 58bc 341a d03c
000001b0: d92f c9bb c379 f7bc d50d 2bbc 5710 563c
000001c0: e37a cfbb b2c7 77ba 5d63 dbbc 5aaf 29bc
000001d0: 5885 94bb 36b4 6abc a7e7 a33c c82e cdbc
000001e0: 80b5 59bc 6166 ce39 5aaa 903c 8d7b b0bc
000001f0: be4b 1f3b e7f5 0e3c 55a7 d3bb 6fc5 52bc
00000200: 1183 cd3b 929c 103b bf3a 82bc adb3 18bc
00000210: 145f 0c3b cb62 803c 3bb3 90bb 0458 fb39
00000220: d5ad 4e3a 6d3f f93b f2f9 d73b 7335 243d
00000230: b87f 68bc 575b e03a bf73 8c3b e787 803b
00000240: 4e79 9abc 0df1 163c 41d8 993c 5bfe 203b
00000250: 2035 87bc 7919 88bc 0707 6bbb a1fc 02bc
00000260: 6ad8 aa3b 4e79 79bb 8bf8 0dbc 7fef 89bb
00000270: 6423 19bc d140 2e3c 0a08 c83c ae70 6dbc
00000280: df34 c0bb 1676 4d3c 43a1 2ebb 1954 2439
00000290: e66f 02bc ec1b 103c 436a 7a3c 525f 77bb
000002a0: d8e7 483a efea c4bb 0fbb 9ebc 708b 5dbc
000002b0: 7c1c d43c f259 34bc 73a1 86bc cd4a ba3b
000002c0: 99c9 88bb 36b2 eabc 81f3 3c3c 3b06 20bb
000002d0: 029a 34bc 677b 5bbc fd5a b6bb 6f7e 2d3c
000002e0: e947 af3c 7147 9dba 3ec8 f3bb 36ef a63c
000002f0: 389a 08bb b272 063d 3f52 b63a f3a5 f63b
00000300: 405b da3b f018 283c 27dc 4abc c5d3 b13c
00000310: f8ef bd3c a2cb a7ba 1e58 34bc 8a3f 9fbc
00000320: b3bf c2ba 3618 513c 9060 ebbb 858b b9ba
00000330: 50a7 013b 0396 9f3c 7606 15bc cbe4 8f3b
00000340: e1b9 0a39 3b98 8fbc eb38 243c c4fc 3a3c
00000350: 8cfd f5bb afa0 a6bb 2d40 38bc fffb 5dbb
00000360: 835b 6f3c c43d 8b3b 0ead b43c bde6 e7bc
00000370: 0137 8bbb 4657 67b9 58fb c93c 70dc 84ba
00000380: fb4e d5bc af91 c63b 34c1 3bbc d131 1abb
00000390: d1bd 633c 373d 74bc 60eb 193b 980e bd3a
000003a0: d50c b33c a773 df3a 4ea0 1dbc fcc1 c13b
000003b0: 84c7 09bc 463e 663b 401d dc38 3c05 5e3c
000003c0: f111 903b a297 c13a 5a71 d4bc cbf7 19bc
000003d0: 6bf1 adbc 834d 723c dd2a 693c f1c2 76bc
000003e0: 2efa 50bc ea75 cdbc 0240 57bb 2557 313a
000003f0: efde 503c ae2e 5bbc 42e7 4cbb 2d54 df3a

shared_encoder.gru.weight_hh_l0 f4 [150, 50]
-0.016636245 -0.0068581346 -0.019180954 -0.014223552 0.030931998 -0.007907911 -0.014235131 -0.02026255
-0.0029041485 0.022698015 0.00071149826 -0.008239622 0.013354829 -0.0004871716 0.013441224 -0.014222866
0.013266492 0.021119691 -0.002809324 0.011470631 0.023752663 -0.01949432 0.0014934855 0.010723892
-0.026872788 0.014721275 0.034377597 -0.011168296 0.006129564 0.018947551 0.013872362 -0.01672801
-0.008702453 0.0016212064 0.0011997526 0.009034965 -0.03312534 -0.029246597 -0.018765805 -0.010067384
-0.02223322 -0.010792957 -0.021502437 0.019327438 -0.018320335 0.0033900687 -0.005293667 0.005639179
0.020046202 -0.0060235187 -0.012773636 -0.0213532 -0.010876765 0.007119031 0.0055291783 -0.0053327773
-0.012766489 -0.020259093 -0.022148708 0.017056175 0.00034043044 0.020892624 0.02730886 -0.01692606
0.021426545 -0.023808029 0.009918469 0.030832397 -0.028700467 0.018689252 0.014866386 -0.012994825
-0.017471561 0.0038472791 -0.010961684 0.03188729 -0.009295932 -0.019712612 0.022191217 0.016913537
-0.006819601 -0.015270482 -0.022013038 0.015752537 0.004407276 0.020873768 0.00060081104 0.00999397
-0.017730389 -0.023778459 -0.013047384 -0.0035208007 -0.026161462 0.0030654485 -0.034454316 0.024054378
-0.023685774 0.0146485865 0.022431701 -0.02856529 -0.01008258 -0.023953127 -0.01253393 -0.013557181
0.018090416 -0.009751756 0.001646271 -0.013685772 -0.027425997 0.016848225 -0.028886423 0.01656685
0.019392943 -0.040322904 0.0092106145 -0.023451148 0.018466512 0.017467076 -0.0136503475 0.004521339
0.005769474 -0.02233359 -0.015211565 0.02706151 -0.027943704 0.015712595 0.026234427 -0.016396746
0.0031394656 0.012013065 -0.021316579 -0.02057755 -0.01733928 0.012167903 0.007444708 -0.005978311
-0.03308868 -0.032484803 8.555528e-05 0.015675014 -0.015026901 -0.024518296 -0.025787767 0.024992509
-0.008848153 0.029414829 -0.018663598 -0.0010995145 0.0105371075 -0.014842006 -0.0097048115 -0.012586278
-0.012068072 -0.0031638527 0.0015434262 -0.00089225004 0.0014295317 0.0044085616 -9.1088245e-05 0.020541737
-0.019518152 0.011148538 0.027568463 -0.029417131 0.00851293 -0.014873475 0.028524816 0.010536434
-0.032371603 0.014249454 0.005384354 -0.0054640654 -0.029759945 0.00018756169 -0.024412869 0.00140579
0.008465741 -0.01063816 0.016916674 0.010470374 -0.019375825 -0.003754886 -0.013424438 0.01665327
0.029229043 0.018867267 -0.009132124 -0.0052311444 -0.016363477 -0.027556144 0.004530359 -0.025693035
-0.022846045 0.00102572 -0.002921832 0.00858156 -0.0064709065 0.0061289025 0.022688994 -0.022033883
-0.016470222 -0.026281165 -0.014986324 0.004275601 0.016217086 -0.006676564 -0.0043384493 -0.029136581
-0.010528229 0.010309886 0.004993042 0.016326627 0.01922623 -0.03238944 0.006881741 -0.010854837
0.015761642 0.0052221036 -0.015458671 0.018187257 0.008945326 0.001339239 -0.008546388 0.013006974
-0.017294709 -0.0058146915 -0.015783722 -0.0016906766 0.020227628 0.023496844 -0.019150097 -0.02472967
-0.00021192667 0.01830225 0.011494232 0.01723601 -0.010561114 -0.026203401 -0.015161277 -0.018263806
-0.014336794 -0.016500162 -0.011796084 0.0068578315 -0.014897921 0.03462713 -0.018012378 0.016598376
0.0066414624 -0.012487755 0.0021579093 -0.008146321 -0.0072094505 -0.011816318 0.011073415 -0.0148428045
00000000: bc48 88bc 34ba e0bb 6021 9dbc e709 69bc
00000010: 1a65 fd3c 2f90 01bc 783a 69bc a6fd a5bc
00000020: 8753 3ebb 30f1 b93c d783 3a3a 7bff 06bc
00000030: 36ce 5a3c 116b ffb9 9438 5c3c 0607 69bc
00000040: b35b 593c 3403 ad3c a31c 38bb 50ef 3b3c
00000050: f294 c23c 8db2 9fbc 0fc1 c33a 43b3 2f3c
00000060: 5224 dcbc 8131 713c 86cf 0c3d 3bfb 36bc
00000070: 82da c83b e537 9b3c e748 633c 2e09 89bc
00000080: bc94 0ebc a97e d43a 0441 9d3a 6407 143c
00000090: 70ae 07bd 8f96 efbc bfba 99bc abf1 24bc
000000a0: 7122 b6bc f1d4 30bc e125 b0bc 9354 9e3c
000000b0: 8714 96bc ea2b 5e3b 7f76 adbb ddc8 b83b
000000c0: ef37 a43c f060 c5bb 8348 51bc e8ec aebc
000000d0: 7534 32bc c346 e93b 1c2e b53b 94be aebb
000000e0: 892a 51bc 66f6 a5bc 3571 b5bc 64b9 8b3c
000000f0: cd7b b239 0227 ab3c d5b6 df3c 85a8 8abc
00000100: b986 af3c 0e09 c3bc 1381 223c 3994 fc3c
00000110: 3e1d ebbc 341a 993c 2492 733c 3fe8 54bc
00000120: 8520 8fbc a222 7c3b a398 33bc 3f9c 023d
00000130: f74d 18bc 587c a1bc 5bca b53c 428e 8a3c
00000140: f676 dfbb 0b31 7abc b054 b4bc 770b 813c
00000150: e96a 903b 77ff aa3c bf7f 1d3a c0bd 233c
00000160: 523f 91bc 0bcb c2bc b2c4 55bc 3cbd 66bb
00000170: 9050 d6bc b1e5 483b f81f 0dbd b00d c53c
00000180: ab08 c2bc a000 703c b0c2 b73c c101 eabc
00000190: 6831 25bc 5939 c4bc 1d5b 4dbc f01e 5ebc
000001a0: 5a32 943c d4c5 1fbc b0c7 d73a 4a3a 60bc
000001b0: 7cac e0bc 4a05 8a3c 38a3 ecbc 34b7 873c
000001c0: f3dd 9e3c a129 25bd 1ee8 163c 9f1c c0bc
000001d0: 1547 973c 1d17 8f3c b5a5 5fbc be27 943b
000001e0: db0d bd3b eff4 b6bc ee39 79bc 1ab0 dd3c
000001f0: 32ea e4bc b3b7 803c 95e9 d63c 7852 86bc
00000200: 7ebf 4d3b 72d2 443c 1ba0 aebc 4092 a8bc
00000210: 1b0b 8ebc e25b 473c bdf2 f33b b5e5 c3bb
00000220: ff87 07bd c90e 05bd 246c b338 e368 803c
00000230: 6433 76bc 98da c8bc de40 d3bc 17bd cc3c
00000240: d8f7 10bc 5ef7 f03c 67e4 98bc 961d 90ba
00000250: d5a3 2c3c e32b 73bc ee00 1fbc ad36 4ebc
00000260: 2ab9 45bc a458 4fbb ca4c ca3a e3e5 69ba
00000270: 205f bb3a b275 903b a106 bfb8 2547 a83c
00000280: 88e4 9fbc 5ca8 363c 42d7 e13c 32fc f0bc
00000290: d179 0b3c e0af 73bc e0ac e93c 02a1 2c3c
000002a0: 1698 04bd 8b76 693c 3c6f b03b e70b b3bb
000002b0: 21cb f3bc 35ac 4439 7ffd c7bc 7c42 b83a
000002c0: e4b3 0a3c ad4b 2ebc d694 8a3c ee8b 2b3c
000002d0: 0dba 9ebc 8914 76bb 2df2 5bbc 706c 883c
000002e0: bf71 ef3c 878f 9a3c e79e 15bc 056a abbb
000002f0: b30c 86bc 6cbd e1bc 6873 943b 337a d2bc
00000300: a127 bbbc 7471 863a 357c 3fbb ac99 0c3c
00000310: e609 d4bb f6d4 c83b 45de b93c 6780 b4bc
00000320: 8fec 86bc 994b d7bc 3389 75bc 571a 8c3b
00000330: b2d9 843c 14c7 dabb 8d29 8ebb d7af eebc
00000340: 987e 2cbc ccea 283c ac9c a33b 6bbf 853c
00000350: 5480 9d3c caaa 04bd 3a80 e13b 7cd8 31bc
00000360: 8f1e 813c 2e1e ab3b 5e46 7dbc 71fd 943c
00000370: 6b8f 123c 6789 af3a 2606 0cbc 341b 553c
00000380: a2ad 8dbc 2b89 bebb dd4c 81bc b199 ddba
00000390: 69b4 a53c 747c c03c aae0 9cbc e095 cabc
000003a0: a238 5eb9 9aee 953c 4e52 3c3c 8832 8d3c
000003b0: 8608 2dbc 84a8 d6bc 0167 78bc fa9d 95bc
000003c0: dfe4 6abc 592b 87bc 5d44 41bc a9b7 e03b
000003d0: 6916 74bc 2dd5 0d3d b28e 93bc 51f9 873c
000003e0: a0a0 d93b 7199 4cbc b66b 0d3b 2678 05bc
000003f0: 413d ecbb 3b99 41bc 456d 353c 3c2f 73bc

shared_encoder.gru.bias_ih_l0 f4 [150]
-0.004327483 -0.012901674 -0.006388238 -0.004418926 -0.006679165 -0.0040289336 -0.009189671 -0.005519209
-0.0049311826 -0.006523688 -0.0033868907 -0.0075184144 -0.0017831983 -0.0025251827 -0.006037831 -0.005767255
-0.0056105806 -0.0056950944 -0.0069584576 -0.0067966124 -0.0062104436 -0.0051055364 -0.009228004 -0.0071078585
-0.00520758 -0.005589535 -0.0021653962 -0.0071507744 -0.003618214 -0.004951943 -0.006091685 -0.0069235545
-0.0054746163 -0.0053449697 -0.006178555 -0.0047702417 -0.004950507 -0.004315863 -0.005328515 -0.0045784283
-0.005316078 -0.0038411603 -0.0056071384 -0.0058929957 -0.004579357 -0.004745725 -0.0047033434 -0.0065022185
-0.0053929365 -0.0072951675 -0.012067152 -0.0043150717 -0.013171251 -0.004822041 -0.0038649996 -0.013266921
-0.012993845 -0.010636097 -0.018013082 -0.010629006 -0.01986468 -0.0021596556 -0.015043596 -0.019617628
-0.009685658 -0.010514623 -0.013562876 -0.02080059 -0.008100845 -0.010943939 -0.015208322 -0.014400771
-0.004463842 -0.006340224 -0.009283566 -0.004700325 -0.014225467 -0.014543689 -0.010812192 -0.009591474
-0.009258066 -0.008804073 -0.011610475 -0.0011686762 -0.013291692 -0.017662229 -0.013263064 -0.011948909
-0.015096992 -0.013012228 -0.01614903 -0.01717731 -0.01189285 -0.008650057 -0.011740191 -0.005185036
-0.010425087 -0.0056601185 -0.016337827 -0.0066796285 0.019202087 0.009044375 0.020180378 0.016451888
-0.01363959 0.02211389 0.018768597 0.019766694 0.0210104 -0.015295008 0.023201955 -0.011394172
-0.024071904 0.024871 -0.01882178 0.016973207 -0.018452888 -0.023611672 0.014464133 -0.016992124
-0.020983187 0.019079197 0.012415131 -0.014581208 0.020681623 -0.016253218 -0.023406379 0.01851317
-0.020342445 -0.01967496 0.014800846 0.015481758 0.019276615 -0.0135357 -0.01800951 -0.021105513
0.020913145 0.020893252 0.020142939 0.018290356 0.020134378 0.021887897 0.018379055 -0.015926082
0.018222261 -0.017463814 0.018137144 -0.014797571 -0.020636491 0.014027131
00000000: 8fcd 8dbb 8b61 53bc 6d54 d1bb a3cc 90bb
00000010: e6dc dabb 2505 84bb 4690 16bc 7bda b4bb
00000020: c295 a1bb a9c4 d5bb 99f6 5dbb 085d f6bb
00000030: 35ba e9ba 897d 25bb ffd8 c5bb 3efb bcbb
00000040: f6d8 b7bb ea9d babb c603 e4bb 1eb6 debb
00000050: fa80 cbbb 584c a7bb 0e31 17bc 0ae9 e8bb
00000060: 59a4 aabb 6b28 b7bb 52e9 0dbb 0b51 eabb
00000070: 8f1f 6dbb e943 a2bb c29c c7bb fcde e2bb
00000080: 6964 b3bb db24 afbb 7a75 cabb b04f 9cbb
00000090: dd37 a2bb 156c 8dbb d39a aebb a406 96bb
000000a0: 7f32 aebb fabb 7bbb 16bc b7bb 081a c1bb
000000b0: 6e0e 96bb 0782 9bbb 811e 9abb 9010 d5bb
000000c0: 3bb7 b0bb 4d0c efbb 4eb5 45bc 7265 8dbb
000000d0: 3bcc 57bc 3602 9ebb ef4b 7dbb 805d 59bc
000000e0: 23e4 54bc 0643 2ebc 2c90 93bc 4825 2ebc
000000f0: 41bb a2bc 0289 0dbb 6a79 76bc 26b5 a0bc
00000100: 98b0 1ebc 8645 2cbc d336 5ebc 0066 aabc
00000110: 68b9 04bc 354e 33bc 532c 79bc 36f1 6bbc
00000120: 6c45 92bb a7c1 cfbb 191a 18bc 2f05 9abb
00000130: ef11 69bc a748 6ebc 9f25 31bc 8f25 1dbc
00000140: 25af 17bc f53e 10bc dd39 3ebc 442e 99ba
00000150: 66c5 59bc 61b0 90bc 534d 59bc 5bc5 43bc
00000160: 6059 77bc 3d31 55bc f84a 84bc 6eb7 8cbc
00000170: 3ada 42bc f8b8 0dbc ee59 40bc 3ce7 a9bb
00000180: fccd 2abc 8478 b9bb e8d6 85bc c9e0 dabb
00000190: b24d 9d3c dc2e 143c 5251 a53c 1cc6 863c
000001a0: 9678 5fbc 3028 b53c 9ac0 993c c3ed a13c
000001b0: 011e ac3c ea97 7abc 0712 be3c 9fae 3abc
000001c0: 7132 c5bc 44be cb3c 2230 9abc 650b 8b3c
000001d0: 832a 97bc 446d c1bc f9fa 6c3c 1133 8bbc
000001e0: efe4 abbc fa4b 9c3c d568 4b3c 05e6 6ebc
000001f0: 826c a93c 7825 85bc bcbe bfbc eea8 973c
00000200: 33a5 a6bc 622d a1bc 3f7f 723c 33a7 7d3c
00000210: fee9 9d3c d7c4 5dbc ae88 93bc 78e5 acbc
00000220: 0b52 ab3c 5328 ab3c ce02 a53c a8d5 953c
00000230: daf0 a43c 3f4e b33c ac8f 963c 6a77 82bc
00000240: da46 953c 4610 8fbc 5994 943c 8371 72bc
00000250: dc0d a9bc 0dd2 653c

shared_encoder.gru.bias_hh_l0 f4 [150]
-0.004327483 -0.012901674 -0.006388238 -0.004418926 -0.006679165 -0.0040289336 -0.009189671 -0.005519209
-0.0049311826 -0.006523688 -0.0033868907 -0.0075184144 -0.0017831983 -0.0025251827 -0.006037831 -0.005767255
-0.0056105806 -0.0056950944 -0.0069584576 -0.0067966124 -0.0062104436 -0.0051055364 -0.009228004 -0.0071078585
-0.00520758 -0.005589535 -0.0021653962 -0.0071507744 -0.003618214 -0.004951943 -0.006091685 -0.0069235545
-0.0054746163 -0.0053449697 -0.006178555 -0.0047702417 -0.004950507 -0.004315863 -0.005328515 -0.0045784283
-0.005316078 -0.0038411603 -0.0056071384 -0.0058929957 -0.004579357 -0.004745725 -0.0047033434 -0.0065022185
-0.0053929365 -0.0072951675 -0.012067152 -0.0043150717 -0.013171251 -0.004822041 -0.0038649996 -0.013266921
-0.012993845 -0.010636097 -0.018013082 -0.010629006 -0.01986468 -0.0021596556 -0.015043596 -0.019617628
-0.009685658 -0.010514623 -0.013562876 -0.02080059 -0.008100845 -0.010943939 -0.015208322 -0.014400771
-0.004463842 -0.006340224 -0.009283566 -0.004700325 -0.014225467 -0.014543689 -0.010812192 -0.009591474
-0.009258066 -0.008804073 -0.011610475 -0.0011686762 -0.013291692 -0.017662229 -0.013263064 -0.011948909
-0.015096992 -0.013012228 -0.01614903 -0.01717731 -0.01189285 -0.008650057 -0.011740191 -0.005185036
-0.010425087 -0.0056601185 -0.016337827 -0.0066796285 0.018740842 0.008814407 0.019782912 0.016078943
-0.013329112 0.021617496 0.018332563 0.019332824 0.020532992 -0.014841867 0.022669502 -0.011047388
-0.023596102 0.024337107 -0.018387042 0.016650742 -0.018046586 -0.023070566 0.014053379 -0.016498078
-0.02053703 0.018646277 0.01214139 -0.014233297 0.020188106 -0.01590901 -0.022900153 0.017974712
-0.019900592 -0.019227322 0.014452689 0.015061342 0.018784659 -0.013214031 -0.017538287 -0.020563632
0.020439932 0.020428378 0.019631054 0.017850468 0.01965524 0.021365738 0.017918931 -0.015557244
0.017827498 -0.017097251 0.017695887 -0.014395218 -0.02020751 0.013596584
00000000: 8fcd 8dbb 8b61 53bc 6d54 d1bb a3cc 90bb
00000010: e6dc dabb 2505 84bb 4690 16bc 7bda b4bb
00000020: c295 a1bb a9c4 d5bb 99f6 5dbb 085d f6bb
00000030: 35ba e9ba 897d 25bb ffd8 c5bb 3efb bcbb
00000040: f6d8 b7bb ea9d babb c603 e4bb 1eb6 debb
00000050: fa80 cbbb 584c a7bb 0e31 17bc 0ae9 e8bb
00000060: 59a4 aabb 6b28 b7bb 52e9 0dbb 0b51 eabb
00000070: 8f1f 6dbb e943 a2bb c29c c7bb fcde e2bb
00000080: 6964 b3bb db24 afbb 7a75 cabb b04f 9cbb
00000090: dd37 a2bb 156c 8dbb d39a aebb a406 96bb
000000a0: 7f32 aebb fabb 7bbb 16bc b7bb 081a c1bb
000000b0: 6e0e 96bb 0782 9bbb 811e 9abb 9010 d5bb
000000c0: 3bb7 b0bb 4d0c efbb 4eb5 45bc 7265 8dbb
000000d0: 3bcc 57bc 3602 9ebb ef4b 7dbb 805d 59bc
000000e0: 23e4 54bc 0643 2ebc 2c90 93bc 4825 2ebc
000000f0: 41bb a2bc 0289 0dbb 6a79 76bc 26b5 a0bc
00000100: 98b0 1ebc 8645 2cbc d336 5ebc 0066 aabc
00000110: 68b9 04bc 354e 33bc 532c 79bc 36f1 6bbc
00000120: 6c45 92bb a7c1 cfbb 191a 18bc 2f05 9abb
00000130: ef11 69bc a748 6ebc 9f25 31bc 8f25 1dbc
00000140: 25af 17bc f53e 10bc dd39 3ebc 442e 99ba
00000150: 66c5 59bc 61b0 90bc 534d 59bc 5bc5 43bc
00000160: 6059 77bc 3d31 55bc f84a 84bc 6eb7 8cbc
00000170: 3ada 42bc f8b8 0dbc ee59 40bc 3ce7 a9bb
00000180: fccd 2abc 8478 b9bb e8d6 85bc c9e0 dabb
00000190: 6586 993c 4d6a 103c c60f a23c fdb7 833c
000001a0: 5962 5abc 2d17 b13c 2c2e 963c df5f 9e3c
000001b0: ce34 a83c 4d2b 73bc 64b5 b93c 1b00 35bc
000001c0: 9d4c c1bc 9d5e c73c 6ca0 96bc 2367 883c
000001d0: 6fd6 93bc 7cfe bcbc 2540 663c fa26 87bc
000001e0: 463d a8bc 14c0 983c aeec 463c c632 69bc
000001f0: 8761 a53c 9d53 82bc 1a99 bbbc b43f 933c
00000200: 9106 a3bc 9e82 9dbc f9ca 6c3c d9c3 763c
00000210: 49e2 993c aa7f 58bc 74ac 8fbc 1075 a8bc
00000220: a571 a73c 6a59 a73c 4ed1 a03c 253b 923c
00000230: 0704 a13c 3307 af3c b9ca 923c d0e3 7ebc
00000240: f90a 923c 890f 8cbc f7f6 903c ecd9 6bbc
00000250: 388a a5bc 35c4 5e3c

shared_encoder.gru.weight_ih_l0_reverse f4 [150, 50]
-0.007468507 0.01925109 -0.0010737627 0.018414916 -0.0046312413 0.03342882 -0.026284313 0.024534082
-0.017773002 -0.026402814 0.00047656053 0.0043156305 -0.008867145 -0.0052845473 -0.011470177 -0.0134268785
0.010872692 -0.008722637 0.009660088 -0.003081217 0.003065153 -0.0039645736 0.010146633 0.0010498081
-0.023398463 0.007803656 -0.013197239 -0.012233528 0.002725574 0.0005778797 -0.0026928112 -0.009121018
-0.00012664817 0.012880029 -0.013021728 -0.008096501 0.006404744 0.0055490425 0.0005508893 0.03549706
-0.011081306 -0.008947005 0.004535363 -0.0126632005 -0.0145582715 0.021035384 0.007707827 -0.0064476724
-0.009660821 -0.012300942 0.009764618 0.00587043 0.0029987248 -0.010775901 -0.003444117 -0.0015430339
-0.01254723 0.011842312 -0.0029640743 -0.021694714 -0.0004244466 0.0061015347 -0.023489935 -0.012295624
-0.02545108 0.009111541 0.030033654 0.011420332 0.004027825 -0.0040187105 -0.027931588 -0.018188914
0.0021892434 -0.009844636 -0.013604554 0.0047834325 0.0046761315 -0.0063039945 0.0040291357 -0.006532748
-0.014282397 0.0018717009 0.0023104793 0.032133028 0.010492247 -0.00266113 0.016433593 -0.0034749014
-0.011413762 0.015732681 -0.0030071507 -0.012590603 -0.019308826 -0.011809467 -0.013558252 0.018197222
0.015772743 -0.0025893135 -0.012098629 -0.024744852 -0.0013496787 0.013125257 -0.0066037495 0.008330122
0.00028131172 0.007669401 -0.020114742 0.0017166635 0.0031347184 -0.010026074 -0.0057900934 0.015222554
-0.009591529 -0.01945858 -0.009717975 0.009154246 0.014654037 -0.0068744617 0.012764176 -0.0024243393
-0.020775564 -0.008164863 0.013357513 -0.015410177 -0.015133091 0.008127753 0.00774255 -0.008004325
0.0074515347 -0.011602216 -0.015562927 0.015483651 0.017695256 0.007673637 0.01732875 0.010074877
-0.008985934 0.016271008 0.015852 0.025667235 -0.0030952098 0.014173526 -0.003411961 -0.005227751
-0.009118394 0.009066277 -0.0061643035 -0.037082516 -0.012613687 -0.01770937 0.021288695 0.01063162
-0.016871225 0.00077514764 0.011623838 0.0074701603 -0.01750987 0.011702828 0.0032868914 -0.0025055
-0.0057699266 0.009298438 -0.010073762 0.0020419138 -0.017116027 0.012193206 0.020284908 -0.002008022
0.026690835 0.0008104249 -0.014515469 -0.003105585 0.0059431046 -0.015340736 -0.011106817 0.025082301
-0.004408068 0.0031265349 0.010205307 -0.010345032 -0.0055322745 0.0022931253 0.012596653 0.00506053
0.0066626486 0.012026831 -0.0016101971 0.0030772048 -0.012081361 0.013605715 -0.0031126318 0.0040550637
-0.0019177493 -0.004269105 -0.024913589 0.029613828 0.007526199 -0.04014369 -0.018719932 0.011727817
0.0037689689 0.010280653 0.0028128705 0.0011727368 0.008577375 0.00835408 -0.00396776 -0.0106830485
0.017461117 -0.018243125 -0.008899554 0.028860101 0.008481447 -0.0022891848 -0.011349162 0.007234534
0.029993137 0.0013667921 0.023456287 -0.010382624 -0.02009331 -0.00852274 0.0062750364 -0.015650032
-0.0022687386 0.007940353 0.00044562557 -0.022849385 0.008881138 -0.012060597 0.004107732 -0.002246564
-0.015471842 0.012039206 -0.025179787 0.014173873 -0.031848054 0.0144732315 0.010771068 0.026399976
-0.001022522 0.011928623 -0.0063143778 0.0028644137 -0.02317193 0.0016040681 0.032688573 -0.0060708346
-0.017843338 -0.04979408 0.002531251 0.008398458 0.0043532737 -0.003116147 0.0019255533 -0.01038074
00000000: 61ba f4bb 76b4 9d3c 7fbd 8cba e1da 963c
00000010: abc1 97bb a9ec 083d 3352 d7bc b3fb c83c
00000020: b098 91bc b74a d8bc dfda f939 226a 8d3b
00000030: 8047 11bc ff29 adbb 69ed 3bbc 69fc 5bbc
00000040: 6023 323c 64e9 0ebc 5945 1e3c 3eee 49bb
00000050: bce0 483b 41e9 81bb 103e 263c b799 893a
00000060: 22ae bfbc d0b5 ff3b 3b39 58bc 236f 48bc
00000070: 8b9f 323b da7c 173a e079 30bb 5370 15bc
00000080: dccc 04b9 c206 533c 1659 55bc 30a7 04bc
00000090: e3de d13b bed4 b53b 8e69 103a 5d65 113d
000000a0: 5e8e 35bc 7596 12bc 629d 943b 5079 4fbc
000000b0: d185 6ebc 6652 ac3c f091 fc3b ff46 d3bb
000000c0: 6c48 1ebc e489 49bc c7fb 1f3c bc5c c03b
000000d0: 4186 443b 688d 30bc b2b6 61bb a03f caba
000000e0: e692 4dbc 4206 423c ea40 42bb 1db9 b1bc
000000f0: 4288 deb9 62ef c73b f76d c0bc 9673 49bc
00000100: c97e d0bc 9348 153c 2309 f63c 581c 3b3c
00000110: d8fb 833b 63af 83bb c9d0 e4bc eb00 95bc
00000120: 6979 0f3b 654b 21bc a3e5 5ebc 57be 9c3b
00000130: 3c3a 993b bd91 cebb d706 843b aa10 d6bb
00000140: b700 6abc dc53 f53a 696b 173b ec9d 033d
00000150: ace7 2b3c 5a66 2ebb be9f 863c 2cbb 63bb
00000160: ca00 3bbc d3e1 803c 9e13 45bb d148 4ebc
00000170: 8b2d 9ebc 7f7c 41bc 6e23 5ebc 5712 953c
00000180: d735 813c 79b1 29bb 5439 46bc b7b5 cabc
00000190: b4e7 b0ba 510b 573c 4464 d8bb 107b 083c
000001a0: 057d 9339 994f fb3b acc7 a4bc ab01 e13a
000001b0: d96f 4d3b 6744 24bc d3ba bdbb 0568 793c
000001c0: ca25 1dbc 9a67 9fbc 2438 1fbc b1fb 153c
000001d0: 7c17 703c 2a43 e1bb d620 513c aae1 1ebb
000001e0: 8431 aabc ebc5 05bc 78d9 5a3c f87a 7cbc
000001f0: c9f0 77bc 442a 053c 38b5 fd3b 9324 03bc
00000200: 012c f43b 3917 3ebc a6fb 7ebc 24af 7d3c
00000210: a4f5 903c 2273 fb3b 06f5 8d3c 1911 253c
00000220: bd39 13bc c74a 853c 0edc 813c 1844 d23c
00000230: 01d9 4abb 1438 683c 359b 5fbb 8e4d abbb
00000240: 5165 15bc b98a 143c edfd c9bb d6e3 17bd
00000250: a3a9 4ebc 3e13 91bc a165 ae3c 3f30 2e3c
00000260: 8635 8abc 4733 4b3a e971 3e3c 3fc8 f43b
00000270: dc70 8fbc 38bd 3f3c e368 573b 5133 24bb
00000280: a711 bdbb 7a58 183c 6c0c 25bc a1d1 053b
00000290: e936 8cbc 03c6 473c 892c a63c 0599 03bb
000002a0: bda6 da3c b272 543a 4ad2 6dbc 1287 4bbb
000002b0: 60be c23b b657 7bbc 5ef9 35bc 6679 cd3c
000002c0: 8e71 90bb 8de6 4c3b 2934 273c 367e 29bc
000002d0: 1548 b5bb 4248 163b 3162 4e3c cdd2 a53b
000002e0: 5952 da3b 2f0c 453c 400d d3ba eeaa 493b
000002f0: e7f0 45bc 81ea 5e3c 4cfd 4bbb 57e0 843b
00000300: fd5c fbba d9e3 8bbb 9517 ccbc b398 f23c
00000310: 559e f63b b66d 24bd 8b5a 99bc 0826 403c
00000320: ce00 773b 2f70 283c 2358 383b 84b6 993a
00000330: 1e88 0c3c 8ddf 083c fc03 82bb f407 2fbc
00000340: 9e0a 8f3c 9b72 95bc 6fcf 11bc 056c ec3c
00000350: c4f5 0a3c 2606 16bb d6f1 39bc ab0f ed3b
00000360: 2bb4 f53c ef25 b33a 6627 c03c e21b 2abc
00000370: ba9a a4bc f6a2 0bbc d29e cd3b 7f34 80bc
00000380: 1eaf 14bb 4118 023c daa2 e939 a22e bbbc
00000390: 3182 113c cf99 45bc 279a 863b 173b 13bb
000003a0: 9c7d 7dbc 1740 453c d745 cebc 8839 683c
000003b0: 1b73 02bd 2221 6d3c 2279 303c c344 d83c
000003c0: 2506 86ba 4570 433c d7e8 cebb e3b8 3b3b
000003d0: 0fd3 bdbc 983f d23a 74e4 053d daed c6bb
000003e0: 312c 92bc e1f4 4bbd 58e3 253b b099 093c
000003f0: e8a5 8e3b 4538 4cbb d962 fc3a fb13 2abc

shared_encoder.gru.weight_hh_l0_reverse f4 [150, 50]
0.0039200922 0.019084834 -0.0013778049 -0.0046253214 -0.017605534 0.0073518734 0.005500208 0.020335563
-0.01564808 -0.016037252 -0.022359606 -0.02648626 0.0167998 -0.008055545 0.012591351 0.014753222
-0.004536615 -0.004238409 -0.021863494 0.019933784 -0.01212586 0.02583346 0.01219824 -0.020011462
-0.004900439 -0.002306733 -0.01781745 -0.012662917 0.011137267 -0.004525682 0.003912687 0.009552532
-0.0014044712 0.018524228 0.004654822 0.0002768804 -0.020919725 0.0010856069 0.033656128 -0.013465599
-0.009801945 0.009285011 0.003928174 -0.009610899 -0.019111808 0.004992987 0.011065949 0.0050564334
0.009075001 0.030773688 -0.002088289 0.0039260183 -0.014033285 -0.008535491 -0.0061509456 0.024080977
0.0076624593 -0.0013803265 -0.0048459307 -0.01609571 0.0071099144 -0.013738842 0.014243546 -0.010231307
0.016901938 0.017505134 -0.0141467415 -0.0030133547 -0.0056853737 -0.0013576327 -0.01443796 -0.013115767
0.013838742 -0.007602387 -0.03910014 -0.013578034 -0.012104315 -0.017114876 -0.0015091753 -0.00792386
0.0048268083 0.025734186 0.016205637 0.012259989 0.024339462 0.008000313 -0.010354113 0.01606228
0.0062963264 -0.009578639 -0.0045774807 -0.018262658 0.004798369 -0.011122036 -0.0019377553 -0.0045442944
0.018367317 0.0073196827 0.020430824 0.019474925 -0.024142288 0.013827484 -0.025292158 0.005572248
-0.019131372 0.010412609 0.013785977 0.013360806 -0.016781213 -0.015718818 -0.011326911 0.00015960562
-0.0012100515 -0.017592648 0.011378684 0.04970106 -0.001003106 -0.01070164 -0.036029812 0.009097387
-0.0028099588 0.011434723 0.020103626 -0.006378477 -0.019787136 -0.01951042 -0.012962867 0.003621677
-0.00038486725 0.00089831336 0.02785415 0.005149479 0.004903331 0.027420627 0.015498398 0.016389001
-0.016831174 0.019800894 -0.0025705295 -0.015319176 -0.02078206 0.017978208 0.0054241405 -0.020228151
-0.0031695103 -0.02383241 0.021250583 0.0054251608 -0.0048324084 0.0055827685 -0.011484263 0.018245026
-0.0121698 -0.015510055 -0.014788637 0.01031081 0.008022188 0.029940104 -0.021464877 -0.03106949
-0.01777038 -0.009740991 0.0076189744 -0.02868577 0.015823726 0.012892316 -0.020735446 0.008630045
-0.028046617 0.0056915316 -0.013624714 0.014275121 0.012141709 -0.019940713 -0.00978353 -0.012470785
-0.006752124 -0.043150514 0.028959788 -0.004239909 0.032078687 0.006029942 0.02193238 0.0022193682
0.022499522 0.017616356 -0.018498985 0.004538406 0.003414603 -0.010364763 -0.009855634 0.023417115
0.010367972 -0.0153244855 -0.013757746 -0.024238288 0.033763725 0.023102155 -0.0066350168 0.018717
-0.03049242 -0.0077063786 -0.008827111 -0.0077038053 -0.018208072 -0.0021561699 0.01816173 0.01487513
-0.028295647 -0.006338963 -0.021360885 -0.023755098 0.01836941 -0.012628459 0.024907975 0.016857173
-0.006700111 -0.012255773 -0.024468988 0.021410057 -0.019852845 0.02783536 0.0012347299 -0.0056920676
-0.015736332 -0.015031909 -0.025025224 -0.029555703 0.016164744 -0.012786584 0.007889681 0.0038132207
-0.0025445751 0.011251293 0.028093256 0.031096723 -0.016285678 0.00012344899 0.015515005 0.00043477968
-0.00822921 -0.003937972 -0.0025324167 -0.012892807 -0.022541516 -0.026949875 0.024579598 0.01941383
0.019672275 0.026822679 -0.021406403 0.012862896 -0.0070677153 -0.018656269 -0.016317947 0.017720588
00000000: 1e74 803b cc57 9c3c 7697 b4ba 0290 97bb
00000010: 7b39 90bc fce7 f03b 173b b43b c496 a63c
00000020: 6730 80bc 8e60 83bc 7e2b b7bc b7f9 d8bc
00000030: bc9f 893c 68fb 03bc f44b 4e3c 80b7 713c
00000040: e3a7 94bb 5ae2 8abb 121b b3bc 2d4c a33c
00000050: 8bab 46bc b1a0 d33c 20db 473c 14ef a3bc
00000060: dd93 a0bb 8f2c 17bb e7f5 91bc 2078 4fbc
00000070: 1579 363c 2c4c 94bb ff35 803b 3982 1c3c
00000080: 3c16 b8ba 1fc0 973c 7a87 983b 422a 9139
00000090: d85f abbc ec4a 8e3a 02db 093d d19e 5cbc
000000a0: 5698 20bc 2920 183c e9b7 803b 0877 1dbc
000000b0: 5e90 9cbc 369c a33b f44d 353c 70b0 a53b
000000c0: 50af 143c 1a19 fc3c addb 08bb d4a5 803b
000000d0: ddeb 65bc 72d8 0bbc df8d c9bb 7845 c53c
000000e0: 5e15 fb3b 12ec b4ba 9dca 9ebb 27db 83bc
000000f0: 49fa e83b e118 61bc c35d 693c 36a1 27bc
00000100: ef75 8a3c ed66 8f3c bcc7 67bc b47b 45bb
00000110: 5f4c babb 98f2 b1ba 328d 6cbc 84e3 56bc
00000120: e4bb 623c 721d f9bb 7827 20bd 6776 5ebc
00000130: 2d51 46bc 7f34 8cbc 85cf c5ba 14d3 01bc
00000140: 342a 9e3b 80d0 d23c afc1 843c 1fde 483c
00000150: 8d63 c73c bf13 033c 4ca4 29bc 0b95 833c
00000160: 6a51 ce3b b9ef 1cbc b1fe 95bb 929b 95bc
00000170: a33b 9d3b 3339 36bc 47fc fdba 4ee8 94bb
00000180: 0e77 963c f3d9 ef3b 8b5e a73c e189 9f3c
00000190: 0cc6 c5bc ac8c 623c 8031 cfbc 6797 b63b
000001a0: 65b9 9cbc a699 2a3c 94de 613c 48e7 5a3c
000001b0: c178 89bc c0c4 80bc 8294 39bc cf5b 2739
000001c0: 979a 9eba 751e 90bc a96d 3a3c 5793 4b3d
000001d0: a77a 83ba ee55 2fbc ff93 13bd 350d 153c
000001e0: 4927 38bb b458 3b3c 5cb0 a43c 8b02 d1bb
000001f0: a218 a2bc 51d4 9fbc 3462 54bc a859 6d3b
00000200: 02c8 c9b9 ca7c 6b3a 632e e43c f6bc a83b
00000210: 1fac a03b 39a1 e03c feec 7d3c 3a42 863c
00000220: 88e1 89bc 7c35 a23c 5476 28bb 48fd 7abc
00000230: 243f aabc 0947 933c fdbc b13b 82b5 a5bc
00000240: 8fb7 4fbb 303c c3bc b415 ae3c 8cc5 b13b
00000250: 2e59 9ebb a8ef b63b 7e28 3cbc 9876 953c
00000260: d763 47bc e31d 7ebc 0a4c 72bc acee 283c
00000270: 7f6f 033c f344 f53c 1cd7 afbc 7185 febc
00000280: 3093 91bc ad98 1fbc 97a8 f93b 6cfe eabc
00000290: c2a0 813c 4b3a 533c 62dd a9bc 0865 0d3c
000002a0: 05c2 e5bc 0780 ba3b 313a 5fbc 32e2 693c
000002b0: 05ee 463c b55a a3bc 194b 20bc 4352 4cbc
000002c0: ec40 ddbb 98be 30bd 143d ed3c efee 8abb
000002d0: f164 033d d296 c53b 89ab b33c d272 113b
000002e0: eb50 b83c 2d50 903c 2f8b 97bc e9b6 943b
000002f0: 88c7 5f3b f8d0 29bc 8679 21bc 40d5 bf3c
00000300: 6dde 293c 8d13 7bbc 2b68 61bc 608f c6bc
00000310: d54b 0a3d bb40 bd3c 8e6a d9bb 6554 993c
00000320: 3dcb f9bc ca85 fcbb 969f 10bc 3470 fcbb
00000330: 1829 95bc 874e 0dbb e9c7 943c d1b6 733c
00000340: 46cc e7bc 13b7 cfbb 06fd aebc 0d9a c2bc
00000350: 727b 963c 99e7 4ebc cf0b cc3c 0e18 8a3c
00000360: 9b8c dbbb 70cc 48bc 3073 c8bc 2564 af3c
00000370: 6fa2 a2bc fb06 e43c a9d6 a13a 8684 babb
00000380: 7be9 80bc 6548 76bc b301 cdbc cd1e f2bc
00000390: ed6b 843c d27e 51bc b843 013c 3ae7 793b
000003a0: e3c2 26bb 5857 383c d423 e63c 8ebe fe3c
000003b0: 8b69 85bc 1672 0139 a632 7e3c 24f3 e339
000003c0: cfd3 06bc 1a0a 81bb e7f6 25bb 5a3c 53bc
000003d0: fca8 b8bc fcc5 dcbc 275b c93c c109 9f3c
000003e0: c027 a13c 3cbb db3c 7b5c afbc e5be 523c
000003f0: 4b98 e7bb 08d5 98bc 37ad 85bc c42a 913c

shared_encoder.gru.bias_ih_l0_reverse f4 [150]
0.0005150739 -0.0011191788 -0.009944093 -0.0061950427 -0.002330618 -0.004909694 -0.0033044296 -0.0032003217
-0.0047378936 -0.0053907563 -0.0034316778 -0.014244353 -0.0025100347 0.0027743794 -0.006005544 0.0010478417
-4.549713e-05 -0.0011979148 -0.0024127075 -5.5877666e-05 -0.014845805 -0.0011676063 -0.0011098734 0.0017488333
-0.0026868584 0.0009077931 -0.002277761 9.9811165e-05 -0.0012335683 -0.04063845 0.00040636986 -0.0002665105
-0.0046796435 -0.0027975058 -0.0011169736 0.0025886002 0.0016239256 -0.00024740663 -0.0017204011 -0.004172359
0.00168395 0.00206089 -0.0014764227 -0.00038950276 -0.004320202 0.00022493236 -0.0026407414 0.000106440355
-0.00064221065 -0.0033352843 -0.004216264 0.0003486969 0.010300137 0.006189679 0.0055618593 0.009429453
0.008641896 0.0072664013 0.007323323 0.009216561 0.0042439997 0.012000851 0.009814542 -0.00077953597
0.009013645 -0.005766899 -0.0053115333 -0.0011861441 -0.0014241447 0.0039589196 0.01547701 0.0011565285
0.0014953864 -0.0046697175 0.001543223 -0.0017230669 0.006202528 -0.0021700272 0.0064497064 0.03840193
-0.00019266224 -0.0007370256 0.01085128 0.005706958 0.005459319 -0.00021767998 -0.0038473394 -0.004053974
-5.554108e-05 0.007928205 -0.004002692 -0.0038439007 0.0037694215 0.0013239416 0.014562138 -0.002511401
0.008421085 0.002314634 0.0031199441 0.0038946308 0.027249856 -0.023635136 0.00816393 0.019417092
0.024035582 -0.018325955 -0.019935198 -0.02146945 0.018276975 0.015472224 0.020798132 0.008295249
-0.018440533 0.028340396 -0.016868988 -0.028872054 0.028133528 0.026368022 0.025830364 -0.026800347
0.0025268963 -0.02347195 -0.027154984 0.027784057 0.021226078 0.026662866 0.022356434 0.02659021
-0.02607292 0.001096043 -0.025650183 -0.024705075 -0.015344902 -0.020849971 -0.021518426 -0.027518356
0.027648112 -0.027076317 -0.025010835 0.019947112 0.027478892 -0.026993653 -0.023509258 0.023644943
0.012147344 0.025606135 -0.021341924 -0.025402745 -0.02357841 -0.021925775
00000000: 0606 073a 69b1 92ba 8dec 22bc c9ff cabb
00000010: 48bd 18bb 80e1 a0bb 218f 58bb 7dbc 51bb
00000020: 5540 9bbb f1a4 b0bb 00e6 60bb 2661 69bc
00000030: 657f 24bb 5dd2 353b 28ca c4bb bc57 893a
00000040: 2cd4 3eb8 5a03 9dba 841e 1ebb 305e 6ab8
00000050: d23b 73bc 5e0a 99ba 2c79 91ba 1c39 e53a
00000060: 0116 30bb f7f8 6d3a 7d46 15bb b651 d138
00000070: afaf a1ba 8174 26bd 0a0e d539 6fba 8bb9
00000080: b257 99bb 5c56 37bb 6a67 92ba 81a5 293b
00000090: e7d9 d43a 5bb6 81b9 157f e1ba 49b8 88bb
000000a0: fcb7 dc3a ff0f 073b 8684 c1ba 2d36 ccb9
000000b0: 7b90 8dbb d2db 6b39 4a10 2dbb bb38 df38
000000c0: 075a 28ba c994 5abb 9628 8abb 4ed1 b639
000000d0: e8c1 283c cad2 ca3b 4240 b63b fe7d 1a3c
000000e0: bd96 0d3c fe1a ee3b 7cf8 ef3b 0f01 173c
000000f0: 4011 8b3b 389f 443c 2ccd 203c c659 4cba
00000100: f8ad 133c 41f8 bcbb 5f0c aebb 6478 9bba
00000110: 5eaa baba d3b9 813b 4993 7d3c a896 973a
00000120: d700 c43a 6e04 99bb f945 ca3a 88d8 e1ba
00000130: 933e cb3b 0437 0ebb 0f58 d33b 584b 1d3d
00000140: 6005 4ab9 f334 41ba 91c9 313c 6f01 bb3b
00000150: 16e4 b23b 0641 64b9 a523 7cbb 33d7 84bb
00000160: c8f4 68b8 4de5 013c 0429 83bb f4e9 7bbb
00000170: 6608 773b 1c88 ad3a 0996 6e3c 5196 24bb
00000180: 97f8 093c 1db1 173b fa77 4c3b 103d 7f3b
00000190: 173b df3c 799e c1bc 01c2 053c 9810 9f3c
000001a0: 45e6 c43c 5020 96bc 244f a3bc b3e0 afbc
000001b0: 98b9 953c 367f 7d3c d860 aa3c cce8 073c
000001c0: 9a10 97bc 1e2a e83c d530 8abc 1685 ecbc
000001d0: 4978 e63c c001 d83c 339a d33c 678c dbbc
000001e0: 499a 253b 3f48 c0bc 2174 debc 649b e33c
000001f0: 50e2 ad3c 156c da3c d724 b73c b6d3 d93c
00000200: e096 d5bc 1aa9 8f3a 5520 d2bc 4c62 cabc
00000210: 2f69 7bbc 8fcd aabc 6947 b0bc 2d6e e1bc
00000220: 4b7e e23c 27cf ddbc 86e3 ccbc 2068 a33c
00000230: 6a1b e13c cb21 ddbc 7d96 c0bc 0ab3 c13c
00000240: a705 473c f5c3 d13c 42d5 aebc 6b19 d0bc
00000250: 8227 c1bc af9d b3bc

shared_encoder.gru.bias_hh_l0_reverse f4 [150]
0.0005150739 -0.0011191788 -0.009944093 -0.0061950427 -0.002330618 -0.004909694 -0.0033044296 -0.0032003217
-0.0047378936 -0.0053907563 -0.0034316778 -0.014244353 -0.0025100347 0.0027743794 -0.006005544 0.0010478417
-4.549713e-05 -0.0011979148 -0.0024127075 -5.5877666e-05 -0.014845805 -0.0011676063 -0.0011098734 0.0017488333
-0.0026868584 0.0009077931 -0.002277761 9.9811165e-05 -0.0012335683 -0.04063845 0.00040636986 -0.0002665105
-0.0046796435 -0.0027975058 -0.0011169736 0.0025886002 0.0016239256 -0.00024740663 -0.0017204011 -0.004172359
0.00168395 0.00206089 -0.0014764227 -0.00038950276 -0.004320202 0.00022493236 -0.0026407414 0.000106440355
-0.00064221065 -0.0033352843 -0.004216264 0.0003486969 0.010300137 0.006189679 0.0055618593 0.009429453
0.008641896 0.0072664013 0.007323323 0.009216561 0.0042439997 0.012000851 0.009814542 -0.00077953597
0.009013645 -0.005766899 -0.0053115333 -0.0011861441 -0.0014241447 0.0039589196 0.01547701 0.0011565285
0.0014953864 -0.0046697175 0.001543223 -0.0017230669 0.006202528 -0.0021700272 0.0064497064 0.03840193
-0.00019266224 -0.0007370256 0.01085128 0.005706958 0.005459319 -0.00021767998 -0.0038473394 -0.004053974
-5.554108e-05 0.007928205 -0.004002692 -0.0038439007 0.0037694215 0.0013239416 0.014562138 -0.002511401
0.008421085 0.002314634 0.0031199441 0.0038946308 0.026634064 -0.023016108 0.007882204 0.018951895
0.023511242 -0.017910702 -0.019435266 -0.020905692 0.017746417 0.015008336 0.020210788 0.008063741
-0.017950851 0.027753422 -0.01644797 -0.02823981 0.027500406 0.025673231 0.025203174 -0.026211934
0.002216531 -0.022882333 -0.026566623 0.027080849 0.020642933 0.026025187 0.021845758 0.025958361
-0.025496654 0.0007314749 -0.025014574 -0.024071509 -0.014939788 -0.020313287 -0.020953834 -0.026877003
0.026963016 -0.02644052 -0.024384258 0.019467311 0.026801093 -0.026322326 -0.022935992 0.02302678
0.011821205 0.024896545 -0.020852037 -0.024770401 -0.023044348 -0.021348368
00000000: 0606 073a 69b1 92ba 8dec 22bc c9ff cabb
00000010: 48bd 18bb 80e1 a0bb 218f 58bb 7dbc 51bb
00000020: 5540 9bbb f1a4 b0bb 00e6 60bb 2661 69bc
00000030: 657f 24bb 5dd2 353b 28ca c4bb bc57 893a
00000040: 2cd4 3eb8 5a03 9dba 841e 1ebb 305e 6ab8
00000050: d23b 73bc 5e0a 99ba 2c79 91ba 1c39 e53a
00000060: 0116 30bb f7f8 6d3a 7d46 15bb b651 d138
00000070: afaf a1ba 8174 26bd 0a0e d539 6fba 8bb9
00000080: b257 99bb 5c56 37bb 6a67 92ba 81a5 293b
00000090: e7d9 d43a 5bb6 81b9 157f e1ba 49b8 88bb
000000a0: fcb7 dc3a ff0f 073b 8684 c1ba 2d36 ccb9
000000b0: 7b90 8dbb d2db 6b39 4a10 2dbb bb38 df38
000000c0: 075a 28ba c994 5abb 9628 8abb 4ed1 b639
000000d0: e8c1 283c cad2 ca3b 4240 b63b fe7d 1a3c
000000e0: bd96 0d3c fe1a ee3b 7cf8 ef3b 0f01 173c
000000f0: 4011 8b3b 389f 443c 2ccd 203c c659 4cba
00000100: f8ad 133c 41f8 bcbb 5f0c aebb 6478 9bba
00000110: 5eaa baba d3b9 813b 4993 7d3c a896 973a
00000120: d700 c43a 6e04 99bb f945 ca3a 88d8 e1ba
00000130: 933e cb3b 0437 0ebb 0f58 d33b 584b 1d3d
00000140: 6005 4ab9 f334 41ba 91c9 313c 6f01 bb3b
00000150: 16e4 b23b 0641 64b9 a523 7cbb 33d7 84bb
00000160: c8f4 68b8 4de5 013c 0429 83bb f4e9 7bbb
00000170: 6608 773b 1c88 ad3a 0996 6e3c 5196 24bb
00000180: 97f8 093c 1db1 173b fa77 4c3b 103d 7f3b
00000190: ae2f da3c 478c bcbc 5c24 013c 0141 9b3c
000001a0: a69a c03c 77b9 92bc b536 9fbc 6a42 abbc
000001b0: ef60 913c 86e5 753c 1891 a53c c81d 043c
000001c0: aa0d 93bc 255b e33c e5bd 86bc 2d57 e7bc
000001d0: 8848 e13c ab50 d23c e376 ce3c 69ba d6bc
000001e0: 3843 113b bb73 bbbc 3fa2 d9bc a8d8 dd3c
000001f0: 5e1b a93c c632 d53c e0f5 b23c a1a6 d43c
00000200: 5cde d0bc 73c0 3f3a 5deb ccbc 9d31 c5bc
00000210: 03c6 74bc 0d68 a6bc 60a7 abbc 292d dcbc
00000220: 8be1 dc3c ca99 d8bc 7fc1 c7bc e979 9f3c
00000230: f78d db3c eba1 d7bc 43e4 bbbc a8a2 bc3c
00000240: baad 413c d7f3 cb3c e4d1 aabc 4ceb cabc
00000250: 80c7 bcbc c6e2 aebc
