checkpoints/bestmodel_DO.pt (torch_old, 300239 bytes, 22 tensors)

shared_encoder.input_linear.weight f4 [50, 5]
000000 98 e1 b6 bb d8 39 33 3c ed 8a aa 3b 8d f7 9e be
       -0.005581092 0.010939084 0.0052045495 -0.3104824
000010 56 bf e7 ba ff 56 a0 3b 7a 9d 85 3c 7b 6a 95 3b
       -0.0017680924 0.0048931832 0.016310442 0.0045598126
000020 01 ac 93 be c6 51 18 bc 82 99 cd bc d7 ae 47 3c
       -0.28842166 -0.00929684 -0.025097612 0.012187681
000030 e1 2c 9a 3b 2d 8a 9d 3e 34 84 c9 ba 78 ac 87 bd
       0.004705057 0.30769482 -0.0015374483 -0.06624693
000040 98 37 16 3d df 24 85 3c b9 6c b5 be e6 e1 63 3c
       0.036674112 0.016252933 -0.3543451 0.013908839
000050 46 b3 e0 3c 72 68 d5 bc 15 6a 57 3b 47 34 89 be
       0.027429234 -0.02605078 0.0032869626 -0.26797697
000060 3e 11 b6 bb d2 a3 20 bd 3e 51 9f 3c 18 5d 9a 3c
       -0.0055562546 -0.03921873 0.019447919 0.018843219
000070 c9 a8 94 3e 51 00 6d 3b f6 c2 ef bb 5f c1 c1 3c
       0.29035023 0.0036163519 -0.0073169423 0.023651777
000080 bb 49 08 bc 69 9f 67 3e 90 c1 98 3c 09 d3 87 bd
       -0.00831836 0.22619404 0.018646985 -0.06632049
000090 9b cc 8a 3c 42 ee 8b 3c 1c 58 9c 3e e1 76 80 3c
       0.016943267 0.017081384 0.30535972 0.015681686
0000a0 88 59 89 3c 09 f5 d8 bb 43 77 b2 b9 9b 52 90 be
       0.016766325 -0.0066210073 -0.00034039663 -0.28188023
0000b0 d6 df 94 3b bb b1 38 bd 42 f0 ff 3c f8 1b 6a 3c
       0.004543285 -0.045091372 0.031242494 0.014288895
0000c0 4b cd a7 be 43 50 21 3c b2 db bd bc b4 45 14 3a
       -0.32773814 0.009845796 -0.023176048 0.00056561385
0000d0 08 8a c3 3a 11 de 97 3e ba f6 8a 39 64 08 8d 3c
       0.0014918456 0.2966161 0.00026505237 0.017215915
0000e0 a6 1c 7c bb 2f 16 ee bb fe f0 68 be df 17 24 bc
       -0.0038469224 -0.007265828 -0.22748181 -0.010015457
0000f0 7c 7b 25 bc d6 cf 40 3c b4 10 44 3c 3b 01 89 3e
       -0.010100242 0.011768302 0.011966873 0.2675875
000100 d8 3c 89 bb f9 bf bc bc 27 86 7f 3c 60 63 3e 3c
       -0.0041881613 -0.023040758 0.015595949 0.0116203725
000110 ea 10 8a 3e ab e4 71 bb ad c3 0e be 10 b7 57 bb
       0.2696603 -0.0036909978 -0.13941832 -0.003291551
000120 43 fc 2b 3d e3 00 b3 bd d7 5d fe 3b a1 c3 2b 3c
       0.041988622 -0.087404035 0.0077626514 0.010483653
000130 43 f2 9e bb a7 1c 87 ba aa f9 89 be c8 5c 34 bb
       -0.004850657 -0.0010308222 -0.2694829 -0.0027521122
000140 20 fd 9d bd e1 36 8f 3c f8 cb ac bb b3 9c 23 be
       -0.077142954 0.017482223 -0.0052733384 -0.15977745
000150 17 44 fd 3b be 7f 09 bd 38 ab b8 3c da cc b5 ba
       0.007729064 -0.03356909 0.022542581 -0.0013870255
000160 2f 26 89 3e 3a 05 5e 3c 94 88 2c bd f9 e7 3f 3c
       0.26786944 0.013551051 -0.04212244 0.011713021
000170 02 78 b6 3a 1d 8c 90 be 73 2f 05 3c bd 15 13 3d
       0.0013921263 -0.28231898 0.008128989 0.035909403
000180 54 42 98 bb cf 30 d5 3b 64 72 a7 be 47 06 2f bb
       -0.004646579 0.0065060626 -0.3270446 -0.0026706622
000190 a3 a5 9b 3d f6 c7 bf bc f9 09 43 bc dd 7d 8d 3e
       0.07599952 -0.023410778 -0.011904233 0.2763509
0001a0 5c fc 12 bc cb 40 b9 bc 41 b8 cd bb b5 cd 94 3b
       -0.0089713 -0.022613904 -0.0062780683 0.0045411238
0001b0 e1 2d 98 3e 44 96 6f 3b 0b 80 00 3c fb bd c1 ba
       0.29722503 0.003655807 0.007843028 -0.001478135
0001c0 ee c1 01 bb c7 de 0f bc f1 46 4b bc 61 f3 d5 3c
       -0.001979943 -0.008781142 -0.0124070505 0.026117029
0001d0 a7 d0 4f 3b a0 76 45 bc 38 b8 6c 3e 6a 7a 8d 3b
       0.003171006 -0.012052208 0.23117149 0.0043175714
0001e0 72 98 83 bc ae 62 9c bb 2f fd b8 ba ed 9a 98 3e
       -0.016063903 -0.0047725057 -0.001411354 0.298057
0001f0 ab 9e a3 39 3b fe 61 bc a7 d3 65 3b bc 2b 44 3c
       0.00031208 -0.013793523 0.0035068782 0.011973318
000200 4f fb f0 bd 27 fb cf bc aa 0b 28 3c 57 8e 9d bb
       -0.11766683 -0.025388313 0.010256687 -0.004808228
000210 9c 9d e3 bb 19 7d 95 3e 2b 12 bb bb f4 e7 59 bc
       -0.0069462787 0.29197004 -0.005708953 -0.013299931
000220 8a 78 e0 3c 96 e9 60 3b d3 c1 80 3e 7e 61 c7 39
       0.027401228 0.0034318916 0.25147876 0.00038028875
000230 f9 2e 27 3c 8e 74 da bb 62 18 38 bb 38 9f 63 be
       0.01020407 -0.0066667264 -0.0028090705 -0.22228706
000240 14 5d 52 bc c8 f0 c6 bc 90 39 92 3c cf 1d 15 3b
       -0.012839574 -0.024284735 0.017849714 0.0022753363
000250 d6 34 76 3e 84 45 24 3c 21 5e cc bb 05 d0 6c 3c
       0.24043593 0.010026339 -0.006236807 0.014453893
000260 94 82 d0 3b 57 ea 4e 3e 8e 4d bb 3a b5 07 2e 3d
       0.0063632224 0.20206581 0.0014290081 0.04248782
000270 1b 04 e4 bc 78 ca 91 bc 5a f3 6c be ba 7e 13 bc
       -0.027833989 -0.01779674 -0.23139706 -0.009002382
000280 e0 3c 14 bc 9b 4f 0a bd b1 34 8a bc da 07 2e be
       -0.009047717 -0.033767324 -0.016870828 -0.16995183
000290 61 4a 6d 3b 8e 39 48 bc c2 f9 fa bb 49 8f 10 3b
       0.0036207663 -0.012220753 -0.007659168 0.002205806
0002a0 d4 99 24 be 5c 1e 45 3c 08 5c d4 3b 71 f6 15 bc
       -0.16074306 0.012031164 0.0064806975 -0.0091529945
0002b0 1f 82 a3 3a 0b f7 8b be a8 e2 df ba 77 fe 8b 3c
       0.0012474692 -0.27336916 -0.0017081099 0.017089112
0002c0 40 d8 b4 bc 5f 1d 2f bb 48 cf 86 be f2 67 3a 3b
       -0.022075772 -0.0026720387 -0.26330018 0.0028443304
0002d0 e8 13 a0 bc 37 1e 42 3c cd b4 1b bb a6 d9 92 3e
       -0.019540742 0.011848024 -0.0023758889 0.28681678
0002e0 aa 85 2c 3c c9 7c 00 3c 72 6f fc 3b ab 2f 8b 3b
       0.010529915 0.007842251 0.007703715 0.004247626
0002f0 cb 88 95 be d2 9b f6 3b bf 21 b5 bc 3f 80 99 3c
       -0.29205927 0.0075258994 -0.022110818 0.01873791
000300 36 d1 85 ba c0 ce 8e be 54 76 f2 3b de 7e 34 bd
       -0.0010209444 -0.27892113 0.0073993597 -0.044066302
000310 08 fd 7e 3c ae 53 85 3c e6 63 8e 3e 5e 91 13 3c
       0.015563257 0.016275253 0.2781059 0.009006826
000320 c3 78 3c bc f9 bc d5 3c 70 ce be 3b cb 90 84 3e
       -0.011503401 0.026091086 0.005822949 0.25891718
000330 27 8d 9e 3b c8 14 dc 3c 38 97 e2 bb e2 c7 a9 bb
       0.004838604 0.026865378 -0.0069149993 -0.0051812986
000340 49 f5 94 be 7a ce 39 bc c1 c2 ec bc b9 76 0b 3b
       -0.29093388 -0.011340732 -0.02890146 0.002128048
000350 e8 fc 28 3b 84 a3 75 3e 32 a8 95 3c ca d6 8a bc
       0.002578551 0.23988158 0.018268678 -0.016948123
000360 49 f1 5e 3c dc 1d 97 bb 2c 80 94 3e e9 4b 79 3b
       0.013607332 -0.004611714 0.29004037 0.003803963
000370 0d 96 00 3d cf 25 a4 3c be e0 25 3b 0f dd 32 3e
       0.0313931 0.02003756 0.0025310959 0.1746714
000380 d2 30 96 bb 42 bc e8 bc fc a6 f8 3c f1 fd bd 3c
       -0.0045834566 -0.02841008 0.030353062 0.023192378
000390 bd c5 91 be 9b 8c f8 3b a5 e2 4c bd 38 50 95 3b
       -0.28471175 0.007585121 -0.050020833 0.004556682
0003a0 d8 4c 04 3c 8b b9 a4 3e 03 85 4c 3b 42 00 9c 3c
       0.008074962 0.32172808 0.003120721 0.019043092
0003b0 a9 ab 1f b9 b0 de 3f 3c 26 d0 71 3e 40 4b 1d bc
       -0.0001522737 0.011710808 0.23614559 -0.0096004605
0003c0 55 a7 da bc fd 5b ed 3c 9f 7c 8f 3b 03 9e 4a 3e
       -0.026691118 0.028974527 0.0043788697 0.19786839
0003d0 35 42 d9 3c b7 8d 7a bd 49 3c 41 3d 8f 64 a8 3c
       0.026520828 -0.061170306 0.047176633 0.020555763
0003e0 fc 4b ad be 62 59 2f 3c
       -0.33847034 0.010702463

shared_encoder.input_linear.bias f4 [50]
000000 a7 3c 21 3e a3 ed 0d 3e b8 3d 16 be 75 ce 49 3e
       0.15745793 0.13860182 -0.14671981 0.19707663
000010 46 13 0e 3e bc 35 13 be 3f 75 00 be b7 3a 0a be
       0.1387454 -0.14375967 -0.12544726 -0.1349896
000020 33 2f 0f 3e e0 cb 31 3e c4 0a 15 be e1 05 f9 3d
       0.13982849 0.17362928 -0.14554888 0.121593244
000030 96 ae 13 be d4 d4 0e be cf ea 0a 3e 83 2f 08 3e
       -0.14422068 -0.13948375 0.13566135 0.13299374
000040 0d 00 0d 3e c9 84 08 be d4 5a 28 3e 89 c3 12 3e
       0.1376955 -0.13331904 0.16440898 0.14332403
000050 f8 c0 2f be 5b c5 0f be 84 08 09 3c 30 5b 12 be
       -0.17163455 -0.14040129 0.008363847 -0.14292598
000060 5e 0f 0f be 70 74 82 3d 8d cf 20 be 34 a4 10 be
       -0.13970706 0.06369865 -0.15704174 -0.14125139
000070 c1 9d f2 3d ea 01 02 be 8e 33 e0 bd eb 36 f6 3d
       0.118464954 -0.12696043 -0.10947333 0.120221935
000080 e9 0a f5 3d 53 c0 bb 3d df 0f 19 3e b9 85 0f 3e
       0.119649716 0.09167542 0.1494746 0.14015855
000090 a3 fe 09 be 6c 1e 10 3e 3b 6f 1b 3e 50 47 02 be
       -0.13476042 0.14074105 0.1517915 -0.12722516
0000a0 92 a7 16 be 2e df 10 3e f7 b3 f1 bd 6a 0c 0d be
       -0.1471236 0.14147636 -0.11801904 -0.13774267
0000b0 cd 25 f8 bd ba 77 13 3e 0e 70 0f be 25 e7 07 be
       -0.12116585 0.14401141 -0.14007589 -0.13271768
0000c0 6b cf e2 bd b4 87 3b 3e
       -0.11074718 0.18313485

shared_encoder.gru.weight_ih_l0 f4 [150, 50]
000000 00 58 20 3d 6a 3a 01 3d b0 ee 4f bd 91 0b af bd
       0.039146423 0.03154985 -0.05076474 -0.08547128
000010 8a 6e 70 3d 33 80 4d bd 8d a7 92 bd d7 11 e0 bd
       0.05869917 -0.05017109 -0.07160864 -0.10940903
000020 0d a0 58 3d 0c a2 42 bd 2c e1 61 bd 2b e2 a0 3d
       0.05288701 -0.04751782 -0.05514638 0.07855638
000030 43 2c 74 bc 0e f0 d0 bc 16 df 22 be 32 51 28 3d
       -0.014903131 -0.025505092 -0.15905413 0.04109306
000040 22 b2 14 bd 16 f1 11 bd 1d 52 2d bc 6b fe fe 3d
       -0.036302693 -0.035630308 -0.010578659 0.1245087
000050 13 90 b5 3d 8a ed 8d bd 1e 8c 3a 3d 64 c3 22 bd
       0.088653706 -0.069300726 0.045543782 -0.03973712
000060 1b 4e 19 bd 07 69 b1 3c 33 17 86 bc 83 d1 42 bd
       -0.037428003 0.021656526 -0.016368484 -0.047563087
000070 7f ca 4a 3d 94 1e af bd c9 b8 b3 bd 72 b2 3f 3d
       0.04950952 -0.08550754 -0.08775479 0.046801038
000080 72 c3 2d 3d fa 3f be 3c 01 19 24 3d 9a c7 1d 3d
       0.04242272 0.023223866 0.040062908 0.038520433
000090 a8 f6 7d bd 50 f5 38 3d 7a fb ea 3c 08 db 3e bd
       -0.062002808 0.045155823 0.028684366 -0.046595603
0000a0 59 c7 14 bd 0f d3 9f 3d 99 3c ae bd c9 31 47 bd
       -0.036322925 0.07803928 -0.08507652 -0.048631463
0000b0 e8 22 d6 bc 4a 25 11 3d 10 83 cd bd a3 e9 b4 3c
       -0.026139691 0.035435952 -0.10034764 0.022084063
0000c0 c3 c1 d4 bd 25 01 e4 bd 2d 99 a1 3e 6c a0 99 3e
       -0.103885196 -0.11133031 0.31562176 0.30005205
0000d0 73 9e 8f be 9d 06 bc 3e 07 66 f3 3d 7c f8 39 be
       -0.28050575 0.36723796 0.118846945 -0.18161196
0000e0 af ac fe bd ba 47 6f be ae 1e 68 3e f9 86 9f 3e
       -0.124352805 -0.23367205 0.22667953 0.31157663
0000f0 be 8b 84 be ee c4 4b 3e f3 26 b1 bd e4 9b 16 be
       -0.25887865 0.19899341 -0.08650007 -0.14707905
000100 e3 1a db be 0b 77 39 3e 4a bd e1 3d fa af 0f be
       -0.4279395 0.18111818 0.11022432 -0.14031973
000110 29 83 8c 3e 8e ed f8 3e f8 32 50 be 75 68 d8 be
       0.27443817 0.4861874 -0.20331943 -0.42267194
000120 58 78 36 3e e1 cb 18 be 9c 16 3f be 03 15 90 3d
       0.17819345 -0.14921524 -0.18660969 0.07035258
000130 63 67 64 be 0f e3 73 bd c0 45 48 3e 8e 95 5f be
       -0.22305064 -0.05954271 0.19557858 -0.21834394
000140 b5 f4 e6 bd 8f 69 30 bd 3b 00 47 bd 64 9c ec bb
       -0.11277143 -0.04306942 -0.048584204 -0.0072207917
000150 4b b8 29 3e 7c b7 18 be cf ee 9c be 0d e7 dd 3e
       0.16574208 -0.14913744 -0.30650946 0.4334034
000160 ba 79 84 3e e9 59 dd bd 39 35 2d be d4 40 03 3e
       0.2587412 -0.108081646 -0.16914834 0.12817699
000170 ab 78 9c be b2 01 47 be d6 6e 09 3e 2b 39 cc 3e
       -0.30560812 -0.1943424 0.13421187 0.39887366
000180 b2 fa 93 be 02 a1 9b 3d ce 82 16 bd 6b bb 8c 3e
       -0.28902203 0.07599069 -0.03674584 0.2748674
000190 70 10 b3 3c d6 27 cb 3c b8 f5 92 bc 1a 32 8d bd
       0.021858424 0.024799269 -0.017939433 -0.06894322
0001a0 43 a6 76 3d 38 1d 00 bd a1 d3 54 bd b0 4b 8e bd
       0.060217153 -0.031277865 -0.051959638 -0.0694803
0001b0 1e 17 20 3d 79 19 9b bd 38 b0 86 bd 55 6d 8d 3d
       0.039084546 -0.07573218 -0.0657658 0.06905619
0001c0 05 7c e1 bc be 10 03 bd 8f 55 e7 bd ea 4d 96 3c
       -0.027524957 -0.03199839 -0.11295616 0.0183477
0001d0 68 86 25 bd ec 29 3f bd 91 c3 1c bc 21 33 8a 3d
       -0.040411383 -0.04667084 -0.009568111 0.06748033
0001e0 f1 31 92 3d 6c 31 6e bd 99 35 19 3d fe 28 2b bd
       0.07138432 -0.0581526 0.03740463 -0.04178714
0001f0 68 db 07 bd 12 91 de 3b 39 bc 97 bc 5e 63 12 bd
       -0.033168226 0.006792196 -0.018522369 -0.035739295
000200 4b a1 09 3d 44 85 83 bd 74 0a dc bd 11 c1 20 3d
       0.033601087 -0.06421903 -0.10744181 0.039246622
000210 d3 61 1f 3d 66 a6 07 3d 39 f2 f2 3b ca 83 0a 3d
       0.03891165 0.033117674 0.007414129 0.03381709
000220 aa 2c 43 bd 65 8a 42 3d 8d 28 ab 3c 1f cc e4 bc
       -0.047650017 0.047495265 0.02089336 -0.027929364
000230 e1 df 3f bd 25 cd 90 3d 60 52 8b bd e0 ba 0f bd
       -0.046844367 0.07070378 -0.06802821 -0.035090327
000240 c3 0c 44 bd 08 80 18 3d 8d d7 8a bd cc ce e5 3c
       -0.047863733 0.037231475 -0.06779394 0.02805271
000250 87 86 b6 bd 36 ec c2 bd a9 80 50 3d 2a 0c 1a 3d
       -0.08912378 -0.0951771 0.05090395 0.037609257
000260 25 4b 2c 3c 37 e9 39 3d e1 ac 73 3c 0c 7c 38 bd
       0.010515963 0.045388427 0.0148727605 -0.045040175
000270 d6 d6 2f bd f6 c2 8c 3c 79 e3 7e 3d 62 84 fe 3c
       -0.042929493 0.017182808 0.062228654 0.031068984
000280 75 c5 58 bd 68 5b 6a 3d 8c 8b 09 bd 94 4b 05 bd
       -0.052922685 0.057216078 -0.033580348 -0.03254278
000290 c4 6e b9 3c 60 c6 f8 3c 20 84 45 3d 70 c6 00 bd
       0.022635825 0.03036803 0.048221707 -0.031439245
0002a0 c5 de 00 3d 45 b5 0c 3b d0 60 f3 bc 03 2e 77 bd
       0.03146245 0.002147035 -0.02970925 -0.060346615
0002b0 fd a0 d7 3c 17 5a 47 bd fd 0a 49 bd b0 8a e8 3c
       0.026321882 -0.0486699 -0.049082745 0.028386444
0002c0 c2 16 65 bd df 88 5f bd 14 4b 72 3d db 28 50 bd
       -0.055929907 -0.05457389 0.05915363 -0.050820213
0002d0 63 48 3d bd e5 ea 48 bb 4b 63 ad 3c 6c c1 a6 3c
       -0.04621161 -0.0030657586 0.02116551 0.020355903
0002e0 7a af 3a 3d ce b0 b4 bb e3 be 06 bd cb 8e 92 3d
       0.045577504 -0.005514241 -0.032896888 0.07156142
0002f0 75 3e 3b 3d 2f 22 82 3c 5c 79 32 bd d9 45 46 3c
       0.04571386 0.01588544 -0.04357277 0.012101614
000300 77 9e 0e bd 2b e9 cf bc 8d ee d2 bc 0f cf cf 3d
       -0.034819093 -0.025379738 -0.025748516 0.10146915
000310 66 6d e4 3a 33 26 ab bc 91 0d 54 bd ab 2d a5 3b
       0.0017427623 -0.020892238 -0.05177075 0.0050408444
000320 73 c4 1e 3e bc be 13 3e 9a 24 35 3d ea 7e c6 3c
       0.15504627 0.14428228 0.04422436 0.02423044
000330 30 a0 5c 3c 6d 0b 5d bd 3d 86 68 bd 56 02 3e 3b
       0.013465926 -0.053965975 -0.056768645 0.0028993092
000340 ae 79 7b 3d 26 d1 c8 3d bc 32 91 bd 4c 39 d2 3d
       0.06139534 0.09805517 -0.07089755 0.10264835
000350 84 0b 2d bd 09 82 6c bd e5 b9 5b be 90 47 16 3d
       -0.04224731 -0.0577412 -0.21457632 0.03668934
000360 ef 53 ee 3d 13 dc ed bc 9d 0b 9b 3d db a0 60 bc
       0.11637103 -0.029035604 0.075705744 -0.013710226
000370 ef 66 96 3c 8c 71 0b be 3f f1 58 3d 50 99 f5 bc
       0.01835963 -0.13617533 0.052964445 -0.029980332
000380 01 32 b6 bd c6 6f 33 3d b1 dc d7 bd f7 f7 4e bc
       -0.08896256 0.043807767 -0.105401404 -0.012632362
000390 d7 9f c2 3d a6 66 fc bd 17 0a 92 bd 50 91 2d bd
       0.09503143 -0.12324266 -0.07130831 -0.04237491
0003a0 3a f5 e4 3c e0 9e b0 bb e8 6e b5 bc 07 43 fd bd
       0.027948964 -0.005390033 -0.02214761 -0.123663
0003b0 c8 8e 40 bd 6f ef 0e 3e 7d 93 bb 3d 7b 25 23 3d
       -0.047011167 0.13958524 0.091589905 0.039830666
0003c0 e6 32 68 bd dd 55 5a bd 94 34 23 be c6 c8 59 bd
       -0.056689166 -0.05330454 -0.15938026 -0.053169988
0003d0 20 30 c3 3b 2e f8 4d 3e 08 c6 69 bd b3 d3 bf 3c
       0.0059566647 0.20114204 -0.057073623 0.023416376
0003e0 ae 24 3c bd c7 25 01 3d b2 74 5b 3d 1d 87 fd 3c
       -0.045933418 0.031530168 0.053578086 0.030948216
0003f0 d6 d0 89 bd 80 47 fe bc b8 c1 cb 3c 07 5d f0 bd
       -0.067292854 -0.031039953 0.024872646 -0.117364936

shared_encoder.gru.weight_hh_l0 f4 [150, 50]
000000 d0 66 e6 bd 69 a4 b2 3d 13 46 f1 bd 22 18 b8 bd
       -0.11250079 0.08722765 -0.11780944 -0.08988978
000010 8c 62 b9 3d b3 fc 54 be 24 12 ab bd 23 02 fc bd
       0.090519994 -0.20799522 -0.083530694 -0.12305095
000020 16 1a 04 be 56 2f af 3d d7 1c 14 be 37 d7 98 3d
       -0.12900576 0.085539505 -0.14464127 0.07462924
000030 3c 9f 89 3e 81 ee 5e be 82 1e 95 3d 6e b5 a6 bd
       0.268793 -0.2177067 0.072812095 -0.08140074
000040 8c 20 c7 3d 72 df 25 3e 6f 9e ae bd 8f f5 94 3d
       0.09723005 0.16198519 -0.085263126 0.07273399
000050 e4 88 06 3e bd 24 ea bd 98 a8 15 bd d3 7d ae 3d
       0.13138157 -0.114327885 -0.036537737 0.08520093
000060 f8 69 34 be 10 11 c0 3d 85 3f 82 3e 01 a7 a9 bd
       -0.17618549 0.093782544 0.25439087 -0.082838066
000070 50 67 07 3e c4 55 e2 3d 4e 0d 74 bd fc 1e bd bd
       0.13223004 0.11051515 -0.059583 -0.092344254
000080 e6 0b c9 bd ad 89 45 3c 7b 7a a2 3d 3c b7 0b 3e
       -0.098167226 0.01205675 0.079335175 0.13644117
000090 e9 14 35 be 3b 6b 1f be 32 3c f4 bd eb bf c8 bd
       -0.17683758 -0.15568249 -0.11925544 -0.098022304
0000a0 be 4d f8 bd 7a 4c 1d be 10 9e b7 bd 3d 4e c0 3d
       -0.12124203 -0.15361205 -0.08965695 0.09389923
0000b0 5c 17 ca bd 84 84 82 3d 36 3a e5 bd b5 94 75 3d
       -0.09867737 0.063729316 -0.111927435 0.05995627
0000c0 28 67 01 3e 3e 48 ad bd b5 e1 30 3e 50 9d 4e be
       0.12637007 -0.08461045 0.172736 -0.20177197
0000d0 e9 6d 78 3e 83 f4 35 3f 85 35 20 bf 5f 12 a8 3e
       0.24260677 0.7107622 -0.62581664 0.32826516
0000e0 62 2b f9 3e 2b 6d 6c 3e 8a 73 74 3e 31 0d b2 be
       0.4866591 0.2308852 0.238722 -0.3477569
0000f0 a9 ae 77 3e 34 11 39 bf e8 c6 af be b5 9c 9c 3e
       0.24187721 -0.72291875 -0.3433144 0.30588308
000100 b8 3d 6b be b6 e6 d6 3e af c0 80 be a1 ef 56 be
       -0.22972763 0.41972893 -0.25147006 -0.20989849
000110 7e 4e 34 3f 4e a7 b2 be 9f de 24 be 83 8f 89 3e
       0.7043227 -0.34893268 -0.16100548 0.26867303
000120 20 6b 06 3f 4c 0d f9 be 1d 1f 8f 3e f4 d5 01 bf
       0.5250721 -0.48642957 0.27953425 -0.5071709
000130 ad 16 b6 be 6e 07 79 3e e4 f3 75 be 52 db 95 be
       -0.35564175 0.2431924 -0.24018818 -0.2926889
000140 ab ad d0 3e 88 51 14 3f c9 e4 93 3e 7b 1a 0e 3f
       0.40757498 0.57936907 0.28885487 0.55509156
000150 72 bc 8a be 55 e9 53 be 47 fd 5a 3e 3b 24 66 3e
       -0.27096897 -0.20694478 0.2138568 0.22474758
000160 30 61 6b 3e c4 2e 5a 3e 96 ad 5d 3e 05 16 81 3e
       0.22986293 0.21306902 0.21648249 0.25212112
000170 38 b4 28 3e 81 78 04 bf 6e fd 44 3e 33 1c 94 be
       0.16474998 -0.51746374 0.19237301 -0.28927764
000180 d8 e5 97 3e 63 cc 45 be 07 f9 5f be 30 73 14 3f
       0.29667544 -0.19316249 -0.2187234 0.5798826
000190 38 b1 e8 bd 34 04 3b 3e 6a 0a dd bd 22 0d 88 bd
       -0.11361927 0.18263322 -0.10793002 -0.0664313
0001a0 32 c3 bb 3c 2f f2 77 be 64 9d 28 bd c0 6c ef bd
       0.022920225 -0.2421348 -0.041165724 -0.11690664
0001b0 4a a8 1f be d6 b2 81 3d c3 1f 3e be 94 7f 88 3d
       -0.15591541 0.063329384 -0.18566804 0.066649586
0001c0 e9 5f a9 3e 6e 41 94 be ad d7 64 3d 3c f4 90 bd
       0.33080986 -0.2895617 0.055869747 -0.07077834
0001d0 a5 74 c3 3d 1e 3d 2b 3e 00 b0 83 bd e1 43 2d 3d
       0.095437326 0.16722533 -0.06430054 0.042301062
0001e0 3a 5d fc 3d 37 c9 e2 bd a3 48 80 3b 6e 34 a9 3d
       0.12322469 -0.11073535 0.003914909 0.08261953
0001f0 9f fd 42 be f9 3b 93 3d d9 a4 91 3e ae 8e 9f bd
       -0.19042061 0.07189173 0.2844608 -0.07790886
000200 0e 37 0d 3e 7e 95 be 3d b8 bf 9d bd 02 b8 97 bd
       0.13790533 0.09305857 -0.07702583 -0.074081436
000210 88 d4 c5 bd bc 24 20 3d 69 8f 98 3d 3e 92 05 3e
       -0.09659678 0.039097533 0.07449228 0.13044068
000220 2a a5 4d be 40 c9 32 be 0d af cb bd 34 1c 8e bd
       -0.20082536 -0.17459583 -0.09945498 -0.06938973
000230 9f 9e ea bd 99 d9 33 be f2 41 b4 bd 6e 6b a1 3d
       -0.11456036 -0.17563476 -0.088016406 0.07881819
000240 82 bd ae bd 9c dc 99 3d 5f 10 fb bd 12 31 17 3d
       -0.085322395 0.07512781 -0.12258982 0.03691203
000250 27 6a ef 3d 35 c6 7e bd 07 98 a5 bd 6d 27 ab 3d
       0.11690169 -0.062200744 -0.080856375 0.08357129
000260 9d c1 91 bd d8 18 32 bc e9 33 3e 3c b9 33 f5 bd
       -0.07117007 -0.010870181 0.011609056 -0.11972756
000270 9e 1b 85 bc c9 43 41 bd 03 57 a8 bd 05 92 0e 3d
       -0.01624852 -0.047183786 -0.08219721 0.034807224
000280 25 ed 07 be b1 7b e4 3c f5 2d 38 3e 44 b6 35 be
       -0.13274057 0.027891012 0.17986281 -0.1774531
000290 3f 29 08 3d f1 5b f9 bc e9 83 93 3d f5 ca fa 3d
       0.03324246 -0.030439349 0.07202894 0.12245742
0002a0 13 7f 40 bd ab c0 fc 3c ed ff ce 3d 75 dc 62 bd
       -0.046996187 0.03085359 0.10107408 -0.055386025
0002b0 57 24 14 bd de 85 65 3c 59 2a d2 bd 3b 73 76 3c
       -0.03616747 0.014008967 -0.102619834 0.0150421215
0002c0 17 6c 13 3e 50 90 54 bd e9 bf ae 3d b3 ab 2c 3d
       0.14396702 -0.05189544 0.08532698 0.042155933
0002d0 a1 03 09 bd 9e 7a 8d bc 89 84 3f bd b0 e1 f5 3d
       -0.033450726 -0.017270382 -0.046757255 0.12005937
0002e0 8e af 89 3d e9 6e e9 3d c4 04 fb bd 8e dd c5 bd
       0.067229375 0.113981076 -0.12256768 -0.09661399
0002f0 28 ea a3 bd 25 8a a4 bd 12 4a 86 bd 68 a0 fc bd
       -0.08003646 -0.080341615 -0.065570965 -0.123352826
000300 b6 8b 75 bd 7c 0a 7d 3c f2 5b 46 bd 6e fd a4 3c
       -0.05994769 0.015444394 -0.04842753 0.020140376
000310 34 27 2a bd 62 7e 69 3c 4a ba c3 3d 7c eb 1e bd
       -0.041541293 0.014251323 0.09557016 -0.038798794
000320 28 f2 62 bd 8d 7e da 3d 91 63 0b bc b5 2d 03 3e
       -0.05540672 0.10668669 -0.008507625 0.12810405
000330 e8 ff 06 be 90 56 de bc 92 d2 b6 3d f6 af 8f bc
       -0.13183558 -0.027140886 0.08926882 -0.01753996
000340 f0 8f 9a bc 59 37 6d bd dc b5 0c bd a5 56 a0 bd
       -0.018867463 -0.05791411 -0.034353122 -0.07829026
000350 1b f0 59 3d 05 c3 88 bd 26 c9 12 bd d3 7e 8d 3d
       0.053207498 -0.06677822 -0.03583636 0.069089554
000360 37 24 00 bc 7d 84 2a 3d 01 46 c0 3d 08 96 59 bd
       -0.007821134 0.041630257 0.09388352 -0.053121597
000370 74 08 96 3d 69 0c ce 3c 28 79 0f 3e d5 58 69 bd
       0.07325831 0.025152402 0.14011061 -0.056969482
000380 f5 24 91 bc f5 ed ba bd fc 40 2c 3c 08 9b b7 3c
       -0.017717818 -0.09127418 0.01051354 0.022412792
000390 fe e1 b7 3c 69 eb eb bc b6 88 94 3d 0d e3 85 3d
       0.022446629 -0.028798776 0.07252638 0.06537447
0003a0 8d 24 50 3d 8c 7b 9d 3e 47 91 bb bc 8d e2 5b 3d
       0.050816108 0.3075832 -0.022896422 0.053682853
0003b0 99 22 98 bd 4d a8 8e bd 8d 49 93 bc 69 ce 58 bc
       -0.07428474 -0.069656946 -0.017979408 -0.013232806
0003c0 ec da f7 bc 04 92 21 bd 6d 03 91 ba 41 d5 9a bd
       -0.030255757 -0.039445892 -0.0011063643 -0.07560206
0003d0 3d 36 9a bb 11 72 13 bd 27 28 ff 3c 60 f5 28 bd
       -0.0047061727 -0.035997454 0.031147076 -0.041249633
0003e0 6c c3 8d 3c f3 f0 95 3d cf 99 02 bb 85 be 77 3d
       0.017305098 0.07321348 -0.0019928103 0.060484428
0003f0 f8 e6 48 3c ba 74 ad 3d dc dd 32 be 57 ba 15 bd
       0.0122620985 0.084695294 -0.17467445 -0.03655466

shared_encoder.gru.bias_ih_l0 f4 [150]
000000 58 e0 4f be 46 f6 2d be a9 44 7a be 30 75 42 be
       -0.20300424 -0.16988477 -0.24440254 -0.18990016
000010 68 29 93 be 5f 51 4c be 66 76 92 be 1a 09 9d be
       -0.28742528 -0.19952916 -0.28605956 -0.30671006
000020 fa 10 35 be 31 98 22 be fb 8e be bd 57 d7 13 be
       -0.17682257 -0.15878369 -0.09304615 -0.14437614
000030 f6 30 8a bd be 79 0e bd 08 16 4b be 98 92 46 be
       -0.0674762 -0.03478407 -0.19832623 -0.19391859
000040 ac a0 64 be 81 9b d1 bd 86 28 2e be a3 59 34 be
       -0.22326916 -0.10234738 -0.17007646 -0.17612319
000050 a8 2d 27 be 8b 52 5a be 29 93 bc be b3 c0 04 be
       -0.1632601 -0.2132055 -0.36831024 -0.12964134
000060 e4 ed 94 be 5d d6 0f be 1e 65 00 be f7 ab 6c be
       -0.29087746 -0.14046617 -0.12538573 -0.23112474
000070 fd 9e 91 be ba 00 8e be b6 47 45 be ae 4a 2c be
       -0.2844161 -0.2773493 -0.19265637 -0.16825363
000080 27 26 77 be 10 47 bf be 11 98 7c be a6 bb 0c be
       -0.24135648 -0.37358904 -0.24667384 -0.13743457
000090 7e 29 2e be 55 1a 5c be be 72 42 be 81 47 4d be
       -0.17008016 -0.2149442 -0.18989083 -0.20046808
0000a0 9f 2d 3f be e3 3c 1d be 6f 2c 5e be c2 fe 1f be
       -0.18669747 -0.15355258 -0.21696638 -0.15624526
0000b0 7b 4b 68 be 56 49 14 be e7 75 8e be 39 11 0b be
       -0.22685044 -0.144811 -0.27824327 -0.13580789
0000c0 1b 12 30 be 3a d1 2a be 99 91 5c 3e d1 04 06 3f
       -0.17194407 -0.16681376 0.21539916 0.523511
0000d0 0f 18 79 3e 16 0b 85 3e 75 b3 b9 3e 32 15 81 3e
       0.24325584 0.2598502 0.36269727 0.25211483
0000e0 59 2d 97 3e f5 53 89 3e f7 cf 52 3e fc 89 6a 3e
       0.29526785 0.26821867 0.20587145 0.229042
0000f0 48 10 23 3e 86 93 8f 3e 01 59 67 3e 0d d9 31 3e
       0.1592418 0.2804224 0.22592546 0.17367955
000100 1e 2c 73 3e 0f a9 84 3e df 30 6e 3e 72 7e 2b 3e
       0.23747298 0.2591023 0.2326083 0.16747454
000110 52 b0 97 3e c6 99 76 3e f4 e0 4d 3e f4 10 64 3e
       0.2962671 0.24082097 0.20105344 0.22272092
000120 c6 cf bd 3e 6e 81 7b 3e a6 b9 92 3e d2 8d 8b 3e
       0.3707258 0.24561092 0.28657264 0.27256638
000130 81 38 67 3e 82 b9 64 3e db af 84 3e 78 18 95 3e
       0.22580148 0.2233639 0.25915417 0.2912023
000140 1a 92 87 3e 79 d2 82 3e e8 d8 86 3e 9f 8b a1 3e
       0.26478654 0.25551203 0.2633736 0.31551835
000150 25 15 7b 3e 3b 73 39 3e 36 d4 67 3e b8 72 67 3e
       0.24519785 0.18110363 0.22639546 0.22602355
000160 02 74 51 3e 71 0f 56 3e 36 1b 48 3e 68 f8 56 3e
       0.2045441 0.20904328 0.1954163 0.20993197
000170 7e 13 66 3e ed 71 83 3e fc 02 71 3e 54 8c 7e 3e
       0.22468373 0.25672856 0.23536295 0.24858218
000180 35 50 95 3e 2c a6 67 3e cf a1 4a 3e 7f c0 9a 3e
       0.29162756 0.22621983 0.19788288 0.30224988
000190 ab e2 61 3d 85 fd 25 3d 51 2e 39 3d ec 82 fe bb
       0.055147808 0.04052498 0.045210186 -0.007767072
0001a0 3c 87 8c 3c 4b ac a0 3d 7e 0a c8 3b 80 35 0f 3d
       0.017154329 0.07845362 0.0061047664 0.03496313
0001b0 a2 93 8a 3d a9 35 ea bb 64 82 cc 3d e4 81 93 3c
       0.0676644 -0.00714751 0.099858075 0.018006273
0001c0 e0 a6 d8 bd b7 b7 ee 3d 96 bb aa bc fd 10 95 3b
       -0.10578704 0.116561346 -0.020841401 0.0045491443
0001d0 25 2e 08 bd 03 42 cd bd 21 e8 39 bc 2b ab 31 bc
       -0.03324713 -0.10022356 -0.011346848 -0.010844032
0001e0 d0 d3 98 bd 63 70 26 3d b9 8e 84 bc 07 e7 ee 3b
       -0.07462275 0.040634524 -0.016181337 0.007290724
0001f0 3b ff 56 3d f4 cf d6 3b 0b 01 c3 bd 94 02 05 3d
       0.0524895 0.0065555517 -0.09521683 0.03247316
000200 32 32 49 bd f9 a0 aa bc a9 72 01 3c f1 5a b7 bb
       -0.049120136 -0.02082871 0.007900872 -0.005595558
000210 4a 08 d3 3c 5d 64 28 bd 1c 54 eb bc e2 cb a8 bd
       0.025760788 -0.04111134 -0.02872663 -0.082420126
000220 4b 95 ad 3d 53 08 8b 3d 02 b8 60 3d 3e f8 34 3d
       0.08475741 0.06788697 0.054862984 0.044182055
000230 93 19 7c 3d 46 7a 9f 3d 8a 7c d6 3c bc 27 73 3b
       0.061547827 0.07786994 0.026182432 0.003710254
000240 6f 42 06 3d 91 ea af bb c3 0a bb 3c ae ca 8b bb
       0.0327782 -0.0053685387 0.02283228 -0.0042661047
000250 6e 84 78 bd f5 78 01 bc
       -0.06067317 -0.007902374

shared_encoder.gru.bias_hh_l0 f4 [150]
000000 58 e0 4f be 46 f6 2d be a9 44 7a be 30 75 42 be
       -0.20300424 -0.16988477 -0.24440254 -0.18990016
000010 68 29 93 be 5f 51 4c be 66 76 92 be 1a 09 9d be
       -0.28742528 -0.19952916 -0.28605956 -0.30671006
000020 fa 10 35 be 31 98 22 be fb 8e be bd 57 d7 13 be
       -0.17682257 -0.15878369 -0.09304615 -0.14437614
000030 f6 30 8a bd be 79 0e bd 08 16 4b be 98 92 46 be
       -0.0674762 -0.03478407 -0.19832623 -0.19391859
000040 ac a0 64 be 81 9b d1 bd 86 28 2e be a3 59 34 be
       -0.22326916 -0.10234738 -0.17007646 -0.17612319
000050 a8 2d 27 be 8b 52 5a be 29 93 bc be b3 c0 04 be
       -0.1632601 -0.2132055 -0.36831024 -0.12964134
000060 e4 ed 94 be 5d d6 0f be 1e 65 00 be f7 ab 6c be
       -0.29087746 -0.14046617 -0.12538573 -0.23112474
000070 fd 9e 91 be ba 00 8e be b6 47 45 be ae 4a 2c be
       -0.2844161 -0.2773493 -0.19265637 -0.16825363
000080 27 26 77 be 10 47 bf be 11 98 7c be a6 bb 0c be
       -0.24135648 -0.37358904 -0.24667384 -0.13743457
000090 7e 29 2e be 55 1a 5c be be 72 42 be 81 47 4d be
       -0.17008016 -0.2149442 -0.18989083 -0.20046808
0000a0 9f 2d 3f be e3 3c 1d be 6f 2c 5e be c2 fe 1f be
       -0.18669747 -0.15355258 -0.21696638 -0.15624526
0000b0 7b 4b 68 be 56 49 14 be e7 75 8e be 39 11 0b be
       -0.22685044 -0.144811 -0.27824327 -0.13580789
0000c0 1b 12 30 be 3a d1 2a be 99 91 5c 3e d1 04 06 3f
       -0.17194407 -0.16681376 0.21539916 0.523511
0000d0 0f 18 79 3e 16 0b 85 3e 75 b3 b9 3e 32 15 81 3e
       0.24325584 0.2598502 0.36269727 0.25211483
0000e0 59 2d 97 3e f5 53 89 3e f7 cf 52 3e fc 89 6a 3e
       0.29526785 0.26821867 0.20587145 0.229042
0000f0 48 10 23 3e 86 93 8f 3e 01 59 67 3e 0d d9 31 3e
       0.1592418 0.2804224 0.22592546 0.17367955
000100 1e 2c 73 3e 0f a9 84 3e df 30 6e 3e 72 7e 2b 3e
       0.23747298 0.2591023 0.2326083 0.16747454
000110 52 b0 97 3e c6 99 76 3e f4 e0 4d 3e f4 10 64 3e
       0.2962671 0.24082097 0.20105344 0.22272092
000120 c6 cf bd 3e 6e 81 7b 3e a6 b9 92 3e d2 8d 8b 3e
       0.3707258 0.24561092 0.28657264 0.27256638
000130 81 38 67 3e 82 b9 64 3e db af 84 3e 78 18 95 3e
       0.22580148 0.2233639 0.25915417 0.2912023
000140 1a 92 87 3e 79 d2 82 3e e8 d8 86 3e 9f 8b a1 3e
       0.26478654 0.25551203 0.2633736 0.31551835
000150 25 15 7b 3e 3b 73 39 3e 36 d4 67 3e b8 72 67 3e
       0.24519785 0.18110363 0.22639546 0.22602355
000160 02 74 51 3e 71 0f 56 3e 36 1b 48 3e 68 f8 56 3e
       0.2045441 0.20904328 0.1954163 0.20993197
000170 7e 13 66 3e ed 71 83 3e fc 02 71 3e 54 8c 7e 3e
       0.22468373 0.25672856 0.23536295 0.24858218
000180 35 50 95 3e 2c a6 67 3e cf a1 4a 3e 7f c0 9a 3e
       0.29162756 0.22621983 0.19788288 0.30224988
000190 3e 9e 43 3d 60 5f 6c 3d b9 eb 18 3d e2 c5 f1 bb
       0.047758333 0.057708144 0.037334178 -0.007378326
0001a0 e7 ac 82 3a 88 50 80 3d c5 12 75 3c 2d d5 e3 3c
       0.0009969742 0.0626536 0.014958088 0.027811611
0001b0 71 cd 5f 3d 34 7b 27 bc 71 5b ac 3d bb a7 78 3c
       0.054639284 -0.010222245 0.084158786 0.015176709
0001c0 93 f4 b6 bd 25 c7 ca 3d 6d 97 bc bc fe e4 1c 3c
       -0.089333676 0.09901265 -0.023021424 0.00957608
0001d0 72 99 f3 bc 17 b6 aa bd 06 22 ba bb 2c b1 92 bc
       -0.029736254 -0.08335512 -0.0056803254 -0.017906748
0001e0 4a 5d 83 bd 1a 20 0e 3d 2c 40 03 3c a6 5a b4 3b
       -0.06414278 0.034698583 0.008010905 0.00550397
0001f0 d3 e8 23 3d 5d 75 68 3b 6d a5 a0 bd f5 e9 fe 3c
       0.04001696 0.0035470345 -0.078440525 0.031117419
000200 24 bc 1e bd b9 a3 8b bc ef d4 16 3c be 76 05 bb
       -0.038753644 -0.017045842 0.009206041 -0.0020364965
000210 6b 3c b4 3c 18 99 12 bd e7 84 d8 bc 2b 93 8d bd
       0.022001466 -0.035790533 -0.02643056 -0.06912836
000220 4e 1a 8f 3d 54 16 63 3d 75 5d 3e 3d b9 97 20 3d
       0.06987439 0.055441216 0.046475846 0.039207194
000230 d9 08 55 3d 7e ba 7f 3d d8 c4 d7 3c 6a e3 06 39
       0.05201039 0.062433712 0.02633898 0.00012863954
000240 ee 2f f6 3c 7a 0e e1 bb a2 a1 8f 3c 7a 8a fd bb
       0.030052152 -0.006868181 0.017533127 -0.007737455
000250 73 62 54 bd 86 27 40 3a
       -0.0518517 0.0007330108

shared_encoder.gru.weight_ih_l0_reverse f4 [150, 50]
000000 15 d1 02 bd d4 4a fc 3c 28 3d 22 3d b7 ae 0a bd
       -0.031937677 0.0307974 0.039609104 -0.033858027
000010 af c7 52 3a 95 ef 40 3d 9f 0c e6 3b 95 ce fa 3c
       0.00080406194 0.047103483 0.0070205475 0.030616084
000020 7c 8a 05 bd fa fc ad bd 37 18 29 3d 28 19 ce 3c
       -0.032602772 -0.08495517 0.04128286 0.02515848
000030 92 77 91 bc f5 78 a2 b9 18 36 fe 3c e1 cb 84 bc
       -0.01775721 -0.00030989168 0.031031653 -0.016210498
000040 60 b7 df 3b 33 e1 c0 3b e4 0e ce bc ef f2 5c bd
       0.00682728 0.005886221 -0.025153585 -0.053942617
000050 b6 c2 ef 3c a9 db 83 3c cc b5 6f 3a e6 21 57 3c
       0.02926765 0.016095953 0.00091442163 0.013130641
000060 a2 f3 02 bc 5f 84 99 bb 04 dd 80 bc 79 6d cf bc
       -0.007992657 -0.0046849693 -0.015730388 -0.025320755
000070 24 ee e0 bb fd 71 93 3c 7f 6d 29 3c 6c e9 30 bc
       -0.006864326 0.01799869 0.010341047 -0.01079784
000080 5b d1 aa bb bd 2b 7b 3c 7a ef 4b bc 8d 79 02 bd
       -0.0052129454 0.015330252 -0.012447232 -0.0318542
000090 3f e7 8a 3c fe e7 1c bb 0c 17 84 bb 68 12 c8 3c
       0.01695597 -0.002394199 -0.0040310677 0.02442284
0000a0 bf 8f 10 bc 94 33 3f bd b4 93 b9 3c 59 7c 93 bc
       -0.008823334 -0.046680048 0.022653438 -0.01800363
0000b0 c1 98 44 bd f6 fd 0f 3b f4 94 00 3d f2 4c 90 bc
       -0.04799724 0.002197144 0.031392053 -0.017614815
0000c0 d7 e7 65 3c cd af 03 bd f4 3d b5 bc 75 27 27 3c
       0.014032326 -0.03215008 -0.022124268 0.010202278
0000d0 5f a6 25 3d 2a 6e 37 bd 9e 3b 39 bc 85 b3 b1 3c
       0.040441867 -0.044782795 -0.011305718 0.021692047
0000e0 bb 74 da 3c bd b7 05 3d c1 13 9e bc 77 91 9c bd
       0.02666699 0.03264593 -0.019296529 -0.07644933
0000f0 5a 58 3b 3d 13 2a 20 3c 64 fd e2 bc fc fa 31 ba
       0.045738555 0.009775656 -0.027708717 -0.0006789414
000100 77 00 11 3b c8 22 28 bb 9f c0 b7 3c 51 07 f8 3c
       0.0022125521 -0.0025655497 0.022430716 0.030276926
000110 70 1a 81 bc 29 d1 4d bd 1b 3c 64 bc 2a c3 23 3c
       -0.015759677 -0.0502483 -0.013930346 0.009995261
000120 14 94 0a bc 08 1e 4d 3b c7 72 dc 3b 20 5e 14 bc
       -0.008458156 0.0031298418 0.0067275497 -0.009055644
000130 55 35 51 3c 97 e1 cc bb 36 e7 3a bc 76 b1 af 3c
       0.012769063 -0.0062524783 -0.011407664 0.021446925
000140 9d 89 13 3c fd 2c 3d bc d9 fc 10 bc ae 92 f8 3c
       0.0090049775 -0.011546371 -0.008849346 0.03034338
000150 77 57 05 bb 8e ee f1 bc 29 f9 22 3d 99 b9 b7 bc
       -0.0020346323 -0.029532697 0.0397884 -0.022427367
000160 fc 34 9a bc 86 04 92 3c 21 a2 1c 3b 09 21 71 bd
       -0.018824093 0.017824423 0.0023900347 -0.058869395
000170 68 64 39 3c a6 c3 4c bc b6 dc 0b bd 8e 45 8f ba
       0.011315443 -0.012497818 -0.034146033 -0.0010930763
000180 ec a3 35 3d dc e7 60 bc 34 2f 91 3c 83 0f 26 bd
       0.04434578 -0.013727155 0.017722704 -0.040542137
000190 f7 c2 3a 3e cc fc 49 3e cd 4e d1 bd 0b 3a 0e 3e
       0.18238436 0.1972534 -0.10220108 0.13889329
0001a0 6f e6 13 3e 90 aa bd bd 32 43 e4 bd ff 31 16 be
       0.14443372 -0.09261048 -0.11145629 -0.1466751
0001b0 29 9e 54 3e c9 c2 2a 3e 29 cf 07 be 9f bb 13 3e
       0.20763458 0.16675867 -0.13262619 0.1442704
0001c0 0a 69 16 be 72 17 0d be 44 5d a9 3d ac 7d 3b 3e
       -0.14688507 -0.13778475 0.08269742 0.18309659
0001d0 75 9b ed 3d 8d be 2b be 67 46 39 3e 14 fc 0e 3e
       0.11601917 -0.16771908 0.18093263 0.13963348
0001e0 d4 b0 71 be 6b ae 07 be ee 65 94 3d f7 c5 29 be
       -0.23602611 -0.13250129 0.07246004 -0.16579424
0001f0 03 28 d5 bd 0b 6b 32 3e 90 37 3f be 35 2c 13 be
       -0.10408022 0.17423646 -0.18673539 -0.14372332
000200 4f 6d f6 3d 67 c3 03 be f2 96 82 be 5c 21 fd 3d
       0.12032568 -0.12867509 -0.25505787 0.123598784
000210 c8 5c 90 3d 89 f6 b9 3d 18 f4 85 3e 12 af df 3d
       0.070489466 0.09080226 0.2616279 0.10922064
000220 fc 6a 01 be 57 0e f9 3d c9 53 73 3e 4c 27 0a be
       -0.12638468 0.12160938 0.2376243 -0.13491553
000230 76 4c 0f be a8 a0 1c 3e f1 54 06 be 70 59 59 be
       -0.13994011 0.1529566 -0.1311834 -0.21225524
000240 b7 fb 0a be ab 15 15 3e 2f 76 1e be 8d 59 4d be
       -0.13572584 0.14559047 -0.15474771 -0.20053692
000250 8c 8b 34 be 8d 19 3c 3e 50 73 89 3d e2 3b 73 3d
       -0.17631358 0.18369122 0.06711447 0.05938328
000260 13 18 6a bc 90 05 41 3d 25 04 6a 3d 85 b1 a1 bc
       -0.014287966 0.047124445 0.05713286 -0.019737968
000270 46 90 05 bd 11 e7 36 3c 14 24 18 3d dd bf 8d 3c
       -0.032608293 0.011163489 0.03714378 0.017303402
000280 c1 1b c9 bc d8 f0 76 3d 3b 4e 3f bd 13 f8 4c bc
       -0.024549367 0.06028828 -0.046705466 -0.012510317
000290 e6 61 db 3c 50 ce 75 3d bc 70 82 3d 2d ba 4d bd
       0.02678008 0.060011208 0.063691586 -0.05022638
0002a0 7c 61 c9 3d 74 a6 5a 3b a2 9d 99 bd 02 ee 27 bd
       0.09833047 0.0033363374 -0.07500769 -0.040998466
0002b0 82 d4 f5 3b 6a 13 ad bd f0 b6 1a bd e4 21 85 3d
       0.0075021395 -0.084509686 -0.03777212 0.06500605
0002c0 95 f6 82 bd d5 33 0d bd f3 b0 29 3d 77 7c 29 bd
       -0.06394688 -0.03447326 0.041428518 -0.041378465
0002d0 d6 40 58 bd 59 6b 84 3c d6 9a 8c 3c cf 43 23 3d
       -0.052796207 0.016164469 0.017163675 0.03985959
0002e0 db c9 98 3d 48 c4 f1 3c 77 db ea bc 46 6e 75 3c
       0.07460376 0.02951254 -0.028669102 0.0149799045
0002f0 33 28 f4 3d a1 a0 80 bc 0b 2a 00 bd cf 29 cc 3c
       0.1192173 -0.015701594 -0.031290095 0.02492228
000300 20 af 0f bd 32 7c a4 bd 2b 4c 94 bd 42 fb 6c 3d
       -0.03507912 -0.08031501 -0.072410904 0.057856806
000310 81 60 cb bc 1c 5c d1 bd 0e 53 41 bd b5 08 c8 3d
       -0.02482629 -0.102226466 -0.047198348 0.09767286
000320 65 bc 22 3d d9 f6 5d 3d 43 cb 89 3c a8 03 87 3c
       0.03973045 0.05419049 0.016820556 0.016481236
000330 16 e5 44 3d 9d 03 32 bc ad 3d 17 bc 20 00 94 bc
       0.048070036 -0.010865119 -0.009231013 -0.018066466
000340 83 a4 29 3d ad e8 7c bc d1 bc 6e bc b3 d8 9c 3d
       0.041416656 -0.015436334 -0.0145713845 0.076585196
000350 bb 06 a4 bc 6f ca 7e bc 51 e4 08 3d c9 44 3a 3d
       -0.02002274 -0.015551194 0.033420864 0.045475755
000360 c9 32 4f 3d 58 d1 15 bd 29 fc 7a 3d f6 cd 72 bc
       0.050585542 -0.0365766 0.061275635 -0.014819613
000370 8a 82 5e bd a7 77 0d bd b9 58 0e 3c 8d 75 69 bd
       -0.05432371 -0.034537937 0.008688145 -0.05699687
000380 e0 37 77 bc 1e a2 0c 3d 53 b6 44 bd a5 57 71 bd
       -0.015089005 0.034334294 -0.04802544 -0.058921475
000390 fe 84 f6 3c 1c 3b fc bc 2a f7 2f bd e0 db 7c 3c
       0.030092712 -0.030789904 -0.042960323 0.015433282
0003a0 2a 18 26 bc 60 5a 1a 3d da 7e 07 3d c2 a2 be 3c
       -0.010137597 0.037683845 0.03307996 0.023270968
0003b0 c0 15 59 bd ad a7 c7 3c 47 ad ea 3d a7 21 67 b9
       -0.052999258 0.024371946 0.11458831 -0.00022042413
0003c0 55 a3 b2 bc 00 a1 b1 3c c6 fb fa bc 3d f5 62 bd
       -0.021806398 0.021683216 -0.030637633 -0.05540966
0003d0 b5 f7 95 bd 56 72 22 3c 6a 78 1c 3c f9 57 74 bd
       -0.07322637 0.009914955 0.009550193 -0.05965421
0003e0 3a 53 1f bd 19 f8 54 3c 28 21 50 3e e3 e2 36 3e
       -0.03889773 0.012998604 0.20325148 0.17859988
0003f0 62 79 82 bd d7 6e 43 3e 16 48 2f 3e a3 19 fb bd
       -0.06370808 0.19085251 0.17117342 -0.12260749

shared_encoder.gru.weight_hh_l0_reverse f4 [150, 50]
000000 a9 65 00 3c a4 11 db 3c fe eb 81 3d 89 70 3e 3a
       0.007836738 0.02674181 0.0634384 0.0007264694
000010 04 d5 9c bb 05 55 8d bc d6 49 68 bc eb 9e d5 3c
       -0.0047861356 -0.017252455 -0.01417776 0.026076755
000020 49 a7 0d bc d6 21 d1 bc 9d 63 e5 bc df b4 a0 3c
       -0.008645841 -0.02552883 -0.0280016 0.019617496
000030 88 9f 90 3c ba 2d af 3a a9 fc cf bc 30 c5 9f 3a
       0.017654195 0.0013365068 -0.025389032 0.0012189504
000040 8e 8c 90 3b 0b b5 c2 bb f9 f3 c8 bc 1a 17 b7 3c
       0.0044112867 -0.005941992 -0.024530398 0.022349883
000050 da 12 3b 3d bb 6b 06 3d c8 5f 3a 3c 36 72 6f bc
       0.045672275 0.032817584 0.011375375 -0.014614632
000060 26 a1 59 bc 22 0d 06 bb 6f 97 4f bc 87 63 14 bc
       -0.01328305 -0.0020454605 -0.012670382 -0.009056932
000070 2d f6 ee ba f9 d7 4e be 16 be 24 3c 94 66 41 3c
       -0.0018231325 -0.20199575 0.010055086 0.011804242
000080 b9 3a c0 bc 74 96 ca 3c 04 8c 4d 3c 9e ec 64 bb
       -0.023465501 0.024729945 0.012545589 -0.0034931074
000090 5e 2f 9c bc 7c ea 86 3a ea 5c 0c 3d 48 60 91 3a
       -0.019065555 0.001029327 0.034268297 0.0011091316
0000a0 f0 10 d4 bb 3b df 2f 3c 61 a8 60 39 fa ee 56 bc
       -0.0064717457 0.010734375 0.0002142503 -0.0131185
0000b0 ed a5 cb 3c d8 f7 9c 3b 7a bb 32 3c 6a c7 f7 3b
       0.024859393 0.0047902875 0.010908956 0.007561614
0000c0 61 5e 88 3c 5b d5 db 3c 18 f7 5f 3c f5 06 e8 ba
       0.016646566 0.026835134 0.013669752 -0.0017702269
0000d0 d7 fd ce 3d a5 54 a2 3c e0 41 02 3d 6d 31 09 bd
       0.1010701 0.019815752 0.031801105 -0.0334944
0000e0 0b f0 28 bd e8 d0 a9 bb 3a bc ed 3c 54 4c 5f bc
       -0.041244548 -0.0051823743 0.029020417 -0.013629038
0000f0 0c 44 9e 3c 75 a6 97 3d d2 08 1d bc f5 9f 48 3c
       0.019319557 0.07404796 -0.009584622 0.012245168
000100 c0 14 6c bd 76 45 de bb 66 0b cf 3b 14 8f ec 3b
       -0.057636976 -0.0067831827 0.0063184975 0.0072192047
000110 f7 7a 9a 3b 37 59 3d bc c5 65 a0 3d d2 07 b5 bc
       0.0047143656 -0.011556915 0.07831911 -0.022098456
000120 21 27 92 3b 70 cb 0f 3c 11 e1 07 bd cb 53 25 ba
       0.004460231 0.008776531 -0.033173624 -0.00063067366
000130 06 f4 82 3c a9 f1 21 3b bf 18 1e bd 75 1e 95 be
       0.0159855 0.002471069 -0.03859782 -0.291248
000140 cd 45 91 3a 95 3d 3e 3c 84 36 11 bd 3c 46 d5 3a
       0.0011083424 0.011611362 -0.03545238 0.0016271542
000150 89 83 ae 3c ee ff 04 bc 10 fa 42 3b ac 07 ab 3a
       0.021302955 -0.008117659 0.00297511 0.0013048551
000160 67 8b 11 bc d6 54 0b 3d 3f 80 4f 3c cb 71 e4 bc
       -0.008883334 0.034016453 0.012664854 -0.027886292
000170 3b a1 a2 bc 15 02 66 3b 43 81 a4 3d 2a 5c 35 3c
       -0.019852271 0.0035096456 0.08032467 0.011069337
000180 91 be 26 ba a4 e1 9e bb ff 2f 80 3c e7 a3 0c bc
       -0.0006360794 -0.004848676 0.015647886 -0.008583999
000190 1a 73 06 be 19 c8 32 3d 64 2e a5 be 3c b4 e7 bd
       -0.13129845 0.04364786 -0.32261956 -0.11313674
0001a0 19 5c 38 be 93 74 51 3e 81 02 4f 3e d7 0d ab 3d
       -0.18003882 0.20454626 0.20215799 0.08352249
0001b0 75 3b ef bd 26 7b 93 bd 60 be 99 bd 9a 12 53 be
       -0.116812624 -0.07201223 -0.07507014 -0.20612565
0001c0 8f 34 cc 3c d9 26 12 be 88 59 72 3e 95 f3 2c 3e
       0.024927406 -0.14272632 0.23666966 0.16889794
0001d0 38 12 e8 bd fc 60 af bd 4a b4 f5 bd 62 57 92 3d
       -0.113316 -0.0856342 -0.11997278 0.07145573
0001e0 23 02 a2 be c2 73 9e 3d 28 46 d5 3d af 83 d0 bd
       -0.31642255 0.07736923 0.10413772 -0.10181367
0001f0 8d f4 86 bd 8d b0 ef bd 86 07 10 be 4e de e8 bd
       -0.06589613 -0.11703596 -0.1406537 -0.11370526
000200 30 cd 17 3e 41 f0 d5 3e dd 25 99 3d 69 b8 dd 3d
       0.14824367 0.41784862 0.07477925 0.10826189
000210 92 8c 33 3e 56 a9 ad 3d c8 fe aa 3d 5c f2 cc 3d
       0.17534092 0.08479564 0.08349377 0.10007164
000220 6b 5b d0 bd 07 c1 c6 3d 5f a9 e5 3d 85 f7 1f be
       -0.101736866 0.09704786 0.112139456 -0.15621765
000230 18 0b dd bd 4b f6 bf 3d fd 21 0a 3e 3b cf e4 bd
       -0.107931316 0.093731485 0.13489528 -0.111723386
000240 cd 46 88 be 37 a1 e8 bd 82 10 06 3e 58 5b aa 3d
       -0.26616517 -0.11358874 0.13092235 0.08318204
000250 13 4a 67 3d 5a ea e1 3d 75 96 c8 bc 59 91 99 3c
       0.056467127 0.11031027 -0.024485806 0.018746065
000260 3a e3 1a 3d 7b d6 c4 3b 48 4d 9e b9 55 83 8c bc
       0.037814356 0.0060070134 -0.00030193687 -0.017152468
000270 4b ab 75 bc 23 bb 02 3d 44 f5 32 3c a8 6f c3 bc
       -0.014994453 0.03191675 0.010922734 -0.023856953
000280 34 ab 8c bb 62 46 58 3d 14 4f e3 bc de cb 19 bd
       -0.00429287 0.052801497 -0.027747668 -0.03754794
000290 f0 4c 17 bc dd 44 ce 3c 42 b0 04 bd af d8 22 ba
       -0.009234652 0.025179321 -0.032394655 -0.0006212098
0002a0 61 f0 00 bd 70 2b 06 3c 95 e3 09 3d 0c ff 9b 3b
       -0.031479243 0.008189067 0.033664305 0.0047606286
0002b0 61 38 02 3d 3a ef 00 bd 6b 96 7b bb e4 9b b5 bc
       0.03179205 -0.031478144 -0.0038389217 -0.022169061
0002c0 f1 d2 50 3c d3 09 31 bd fe 36 6b 3c 72 43 43 be
       0.012745605 -0.04322226 0.014356373 -0.19068697
0002d0 97 92 25 3d c2 86 75 3b 87 c2 74 bc 23 21 50 bc
       0.040423002 0.0037464355 -0.014938957 -0.012703213
0002e0 57 00 e2 3c 4e 0e dd 3c 66 08 e9 bc c4 af a0 3b
       0.027588053 0.02698436 -0.028446387 0.0049037654
0002f0 00 61 39 3b fd ba a9 3c ff 7f 6e bc a6 35 0d 3d
       0.0028286576 0.020719046 -0.014556884 0.03447499
000300 d2 e1 80 ba a0 a4 92 bb 73 7c e9 3c 36 b9 b7 bc
       -0.0009832925 -0.0044751912 0.028501725 -0.022427183
000310 f9 17 8c 3c 9d f6 bf 3c a1 6d 21 bb e9 b3 98 ba
       0.017101275 0.023433024 -0.0024631994 -0.0011650297
000320 62 62 50 bd 83 97 da b9 e9 3f eb bc 5c 31 1d bc
       -0.050875075 -0.00041693085 -0.028716998 -0.009594288
000330 40 3c ee bc d0 c4 f4 3b 91 04 e5 3c 0a b2 dc 3c
       -0.029081464 0.007469751 0.027956279 0.026940364
000340 00 b0 bd bc f0 a6 41 bc 75 5f c6 bc b8 05 8a bc
       -0.023155212 -0.011819586 -0.02421544 -0.01684843
000350 1c 41 b3 3b 15 29 03 bd 30 ac 25 3d a4 84 13 3d
       0.005470408 -0.0320216 0.040447414 0.036015168
000360 75 6e d4 bc 97 0b e5 bc 8d 53 1d bd f1 d7 03 3d
       -0.025931576 -0.027959628 -0.03840976 0.03218836
000370 c2 ed 17 bd 17 fa 03 3d b9 14 c8 3c 84 2b be bc
       -0.037091978 0.032220926 0.024423944 -0.02321411
000380 4a 78 ad bc 2d 28 0a bd d6 48 f2 bc 1b dd 34 bd
       -0.021175522 -0.03372972 -0.029575747 -0.044156175
000390 e1 de ca 3c 0d 68 a9 bc 2a b1 b3 3c f8 14 8c 3c
       0.02476448 -0.020679498 0.021935064 0.017099842
0003a0 3e a4 5b bb fb f1 48 3c 49 aa 2e 3d d6 08 40 3d
       -0.0033514644 0.012264724 0.042642865 0.046883427
0003b0 49 1b 0a bd 96 4f 35 3c c8 92 f9 3c 36 c5 94 3a
       -0.033717427 0.011066338 0.030465499 0.0011350277
0003c0 2e b6 b2 bc a8 1e 57 3c 9f 0e fc 3b 9f 1a a3 bc
       -0.021815386 0.013129868 0.0076921727 -0.019910155
0003d0 a6 17 0d bd 27 d7 1c bd b5 f7 ed 3c 10 bb fb 3c
       -0.03444638 -0.038291123 0.02904878 0.030728847
0003e0 e3 7c 04 3d 59 54 ee 3c 78 11 48 bd f6 1e 18 3b
       0.032345664 0.029092954 -0.048844784 0.0023211814
0003f0 56 ee 32 bb f6 68 1b 3c b3 32 4e bc fd bb 97 3c
       -0.0027302704 0.009485474 -0.01258533 0.018522257

shared_encoder.gru.bias_ih_l0_reverse f4 [150]
000000 02 be 9a 3b d3 d9 1a 3c 26 23 1d be 1a a4 4b bd
       0.0047223577 0.009451347 -0.1534544 -0.049717046
000010 02 9c 6a bd aa 18 c2 bc fb fb 89 bd 3c 84 82 bb
       -0.057277687 -0.023693401 -0.067375146 -0.0039830487
000020 08 a2 d1 bc 74 12 1c bd 62 5e ca bc 92 d9 e7 bc
       -0.025589958 -0.038103536 -0.024703208 -0.028301988
000030 46 22 1a bd d2 ed ab bb bf e0 18 bc 80 61 2f bc
       -0.037630342 -0.0052468562 -0.009330927 -0.010704398
000040 cf 75 04 bc 6c e0 b9 3c 05 29 03 3c 9b 18 6c 3c
       -0.008084728 0.02269002 0.008005385 0.014410163
000050 25 c9 6c be 52 b3 c4 bc ad 50 da 3c c2 78 e5 3b
       -0.23123606 -0.024011288 0.026649797 0.007002921
000060 17 18 b0 bb 86 6b a3 3b 67 ca 47 bd 6e 74 53 bc
       -0.0053739655 0.004987183 -0.04877701 -0.012906177
000070 fd 73 28 bd 16 a5 4c 3e 36 77 00 3c 42 a5 7a bc
       -0.04112624 0.1998485 0.007840922 -0.01529819
000080 19 cf 24 bd 0a c9 fc bc 01 09 9c bb eb f7 e3 3b
       -0.040236566 -0.030857582 -0.0047618155 0.0069570444
000090 6d 76 b4 bb 64 8b 0b ba a3 9e 87 bc 67 ab c1 bc
       -0.0055072815 -0.00053232 -0.016555136 -0.023641301
0000a0 2b 80 c4 b9 03 d0 c2 3a f2 5b 43 bd 40 f6 ef bc
       -0.00037479526 0.0014863018 -0.047695108 -0.029292226
0000b0 2b 35 97 bd 78 e3 59 bc 23 a6 5a bd 2e dd 5c 3b
       -0.07383188 -0.013298862 -0.053381097 0.003370117
0000c0 90 0e 19 37 a6 19 cd bc e1 69 91 bd e5 22 95 3c
       9.122901e-06 -0.025036644 -0.07100273 0.018205116
0000d0 35 b4 f3 3e de 4a ef 3e 23 cb ca 3e 61 c2 0d 3f
       0.47598425 0.46736807 0.39608106 0.55374724
0000e0 36 78 05 3f e3 a1 23 bc 96 65 01 3f 85 8b 0d 3e
       0.5213655 -0.009987327 0.5054563 0.13822754
0000f0 9e e1 38 3e 9b 7f 28 3f 6e c5 04 3f 01 ea 39 bd
       0.18054816 0.6581971 0.51863754 -0.04538918
000100 86 86 08 3f b4 6f a3 bd 00 bc 8b bd 4a b2 58 bd
       0.53330266 -0.0798029 -0.068229675 -0.052904405
000110 b4 21 6f bc 4c ba a2 bb 6a 53 06 3f 19 96 19 3e
       -0.014595438 -0.004966056 0.5247103 0.14998664
000120 6f ed da bd 91 ba a6 bd 02 0f 65 3d 25 ab 88 bd
       -0.10689818 -0.081410535 0.055922516 -0.06673268
000130 a1 3c cf 3e 88 f7 23 3d 3c 7b a8 3e 44 ed b1 3e
       0.40475944 0.040030986 0.3290652 0.34751332
000140 ef d0 62 bd d9 ec 1c 3d c0 9f 1e 3f cf 06 39 3e
       -0.055375036 0.038311813 0.6196251 0.18069004
000150 ba 80 69 bb 9c 7f 79 bd a6 5e 7c bd 9c 7d 60 3c
       -0.0035629706 -0.060912713 -0.0616137 0.013701823
000160 99 0a 7e 3d 53 51 02 3f 41 6f e3 bc 10 2f 5f bd
       0.062021825 0.5090534 -0.027763011 -0.05448824
000170 68 9e 93 3e b1 27 31 3e 1a 8e 1d 3f f2 01 1c 3d
       0.28831792 0.17300297 0.61544955 0.038087793
000180 a8 91 b7 3e 66 75 8c 3c 5b 45 ae 3a 1e 0a d2 3e
       0.35853314 0.017145824 0.0013295816 0.41023344
000190 2f b0 ea 3c 01 e2 87 bc 88 c1 09 bc bc b1 cb 3b
       0.028648464 -0.01658726 -0.008407958 0.006216256
0001a0 9d a9 47 3c da 60 22 3b 08 b8 ae 38 ba 63 5e bc
       0.012186435 0.0024776966 8.331245e-05 -0.013573581
0001b0 4e d2 76 3b 3a 60 bb 3b 29 57 2d 3c 98 a8 bd bb
       0.0037661972 0.005718258 0.010579863 -0.00578792
0001c0 7d a8 c9 bb 82 ed 0a 3d 7d 42 15 3b 7c fc 23 bd
       -0.0061541186 0.03391791 0.0022775226 -0.04003571
0001d0 7d 65 0e 3d 2e 88 cb 3c f4 75 af 3c a2 ff c2 bc
       0.034764756 0.024845209 0.02141855 -0.023803536
0001e0 63 72 ba ba 74 a0 2a bc 02 ee fe bc 2b 3d 02 3d
       -0.0014224764 -0.010414232 -0.03111935 0.031796616
0001f0 cc 05 40 3c f1 8e d2 3c 30 be 00 3c a3 65 b6 3c
       0.011720132 0.025702925 0.007857844 0.022265261
000200 76 95 9a bc 0e e7 33 3d 71 a7 ad bc 4b 31 88 bc
       -0.018870097 0.043921523 -0.021198006 -0.016625067
000210 ac 15 4e 3b 4d 71 1b bc 0c 8f 4e bc 5d 03 07 bd
       0.0031446023 -0.009487462 -0.012607347 -0.03296219
000220 1a 25 e7 3c 71 24 c4 bc b6 6d 90 bc 7e b4 b5 3a
       0.028215934 -0.023943158 -0.01763044 0.0013862995
000230 13 bc e2 3c 87 30 cc bc 38 4f 4a bc b4 f2 4a 3c
       0.027677571 -0.024925483 -0.012347989 0.0123869665
000240 9d cc f4 bb 1c 73 a7 3c 3b b4 fb bb 04 4c b1 bc
       -0.007470681 0.02044063 -0.0076813973 -0.021642692
000250 71 30 7d bc 0c 2b 20 bc
       -0.015453444 -0.009775888
