checkpoints/level.pt (torch_old, 150722 bytes, 52 tensors)

shared_encoder.input_linear.weight f4 [20, 6]
000000 0e 11 ce bd ae 7a d1 3b 88 8b 6c bc c5 4c c0 3b
       -0.10061847 0.0063927984 -0.014437564 0.0058685266
000010 4e c4 3b 3d ec dd 81 3e 18 ba 67 be 18 c1 72 bd
       0.045841508 0.25364625 -0.22629583 -0.05926618
000020 e8 01 c7 bb f6 ea 1b b9 a4 fb 2b b9 d4 67 2a 3e
       -0.0060732253 -0.00014869482 -0.00016401574 0.1664117
000030 13 1a 34 3e 1d 04 96 bd 4c 3d 14 bc e9 a6 60 bc
       0.17588072 -0.07325003 -0.009047817 -0.0137116695
000040 4a c8 e5 3c fb 2d 4e be 03 01 0f 3e 0f 2c 62 bc
       0.028049607 -0.20134728 0.1396523 -0.01380445
000050 7f 2d 87 3c 2c 47 8b bb fd b7 21 bc b4 f3 59 be
       0.016501186 -0.0042504277 -0.009870526 -0.21284372
000060 09 3d 00 be 82 e7 cc 3c d9 82 80 bc 6a c4 43 3b
       -0.12523283 0.025012735 -0.015687393 0.002987171
000070 3e 3f 12 3d e8 7a 7c 3e 83 9a 1c be da d7 41 3d
       0.035704844 0.2465626 -0.15293317 0.047324993
000080 b0 f1 22 bc d7 e2 94 bc f5 99 a6 3c 36 26 60 3e
       -0.009945318 -0.018174572 0.020337084 0.21889576
000090 f9 13 3e be 1b 57 a4 bc ed f4 1f bc b8 69 a8 3b
       -0.18562306 -0.020061066 -0.009762985 0.005139556
0000a0 a3 b6 7c 3b f0 73 4c 3e 73 5a f2 bd 93 b5 cc 3c
       0.0038561008 0.19966102 -0.11833658 0.024988925
0000b0 4a bb 37 3a 42 52 0f 3c c2 43 07 3d a6 8f 87 3e
       0.0007008804 0.008747639 0.033023603 0.26476783
0000c0 7e 8c 90 be 58 0d 98 bd 57 b9 08 bd ee 46 0b 3d
       -0.28232187 -0.0742442 -0.03337988 0.03400319
0000d0 03 1d 84 3d f4 df ad 3d 37 9e 9b 3e cd d5 97 bc
       0.06450846 0.08489981 0.30394146 -0.018534565
0000e0 31 78 4c bb 2b 4f 86 3c e3 48 9b 3d 22 f9 8c bd
       -0.003119957 0.016395172 0.075822614 -0.06883456
0000f0 52 56 53 be c2 be 8b 3b d0 af 8f 3c 8d 4d 1d 3c
       -0.20638397 0.0042646835 0.017539889 0.009601009
000100 54 a9 31 3d c7 d3 3b 3e f4 44 3e 3c 64 ab 4a 3d
       0.043374375 0.18342505 0.011613119 0.049479857
000110 4b d8 5b 3c 4c eb f7 bc e0 70 9b bd b4 dd 93 be
       0.0134182675 -0.030263565 -0.075898886 -0.28880084
000120 e6 8a ee bd c3 f5 61 3c e9 bd 73 bc 95 d4 c1 bc
       -0.116475865 0.013791504 -0.014876821 -0.023660937
000130 b1 52 03 3d 0b cf 78 3e 67 a9 a9 3d b8 af 4a bc
       0.032061283 0.2429773 0.08284264 -0.012370996
000140 81 28 7d bb f9 82 58 3b 28 fc 95 bc 3e 2a 87 be
       -0.0038628879 0.003303705 -0.018308714 -0.26399416
000150 63 d4 b8 3d 72 76 0b bd 08 5d 12 bb d5 e4 2c bc
       0.090248846 -0.034048505 -0.0022333283 -0.010552605
000160 aa 5a 3a bb 8d 86 88 be be 33 2a be 82 fe ba bc
       -0.0028435388 -0.26665154 -0.166213 -0.022826437
000170 84 4f 1a bc 97 c7 7c bc 1a 60 77 3d 0b a5 4c 3e
       -0.009418372 -0.015428445 0.060394384 0.19984834
000180 ea bd 9f 3e f3 1e 66 bd cb 6e 0e bc 04 7b 24 bb
       0.3119958 -0.05618186 -0.008693407 -0.0025097737
000190 ff f2 34 3d e3 55 00 bd 09 81 8c be 6a 61 9c 3d
       0.04417705 -0.031331908 -0.27442196 0.07635768
0001a0 3d c5 1f 3c df 5f c3 bb c0 77 a0 3b a8 78 61 3d
       0.009751615 -0.0059623565 0.004897088 0.055046707
0001b0 5b b5 e7 3d e5 d6 57 bd a9 ef ce 3b 11 ad 96 3c
       0.11313888 -0.052695174 0.006315191 0.018393071
0001c0 af ca 8a bd 9f a4 7e be 4d 40 a3 3d 7a 0c 5a bc
       -0.0677694 -0.24867485 0.07971249 -0.013308639
0001d0 19 b2 23 bc f4 87 2a b9 5d f9 de bd 85 a7 8c be
       -0.009991192 -0.0001626311 -0.10887406 -0.27471557

shared_encoder.input_linear.bias f4 [20]
000000 de ad 52 bd 91 e2 9e 3c 2e db 74 3c c1 ae 06 3d
       -0.051435344 0.019395145 0.014944835 0.032881502
000010 c9 87 09 bd 83 22 40 bc 94 cc 22 bc 34 ee bc bc
       -0.03357676 -0.011726978 -0.009936471 -0.023062803
000020 80 c3 5e 3d d3 a7 74 bd 73 d7 97 bc cc 3b ca 3d
       0.054385662 -0.059730362 -0.018535351 0.098746866
000030 fb 49 4b bd eb 42 85 3d e0 29 98 3d 44 23 fb bb
       -0.0496311 0.06506904 0.07429862 -0.007664116
000040 7b 47 8b bd 97 91 39 3d 03 de 55 3d aa 1e 9d 3d
       -0.06800743 0.04530486 0.05221368 0.07671864

shared_encoder.gru_left.weight_ih_l0 f4 [60, 20]
000000 bf 4c 1f be 4d 74 80 be c5 60 72 3e 19 ed 4b 3e
       -0.1555662 -0.2508873 0.23669727 0.19914664
000010 b1 24 e2 bd eb b1 1f be 69 83 9a be 44 4d 10 be
       -0.110421546 -0.15595214 -0.30178383 -0.14091974
000020 e3 a6 5a be 54 75 91 3e 24 aa 8b be ea 83 1e 3e
       -0.21352725 0.28409827 -0.27278244 0.15480009
000030 d5 39 33 be 9f 0f e6 3d 3f c7 b9 3d 87 77 f2 bd
       -0.1750253 0.11233448 0.09071206 -0.11839204
000040 09 8b 8c 3e e6 61 3b be b8 00 0a 3e 0b ad 34 3e
       0.27449825 -0.18299064 0.13476837 0.17644136
000050 44 eb 9d bd d7 20 65 be a6 97 5f 3e be 5f f1 3d
       -0.07710889 -0.22375809 0.21835193 0.117858395
000060 0f 32 5f bd ff 24 3a be 98 92 a4 be 3f 1d e6 bd
       -0.0544911 -0.18178175 -0.32143092 -0.11236047
000070 e9 4e 92 be 4d 8e d7 3e ec 77 92 be b6 b2 f1 bb
       -0.2857583 0.42100754 -0.28607118 -0.0073760403
000080 97 75 e4 bd f9 b4 13 bc 18 36 42 3c 8d b4 bc bd
       -0.11155241 -0.009015315 0.011853717 -0.09214125
000090 c7 c6 de 3e 15 1d a2 be 79 1f 8e 3d 9e fe 61 3d
       0.4351103 -0.31662813 0.06939597 0.055174462
0000a0 7e 94 ab bd 1e 69 6c be 9f 00 62 3e 38 21 d8 3d
       -0.08377932 -0.23086974 0.2207055 0.10553211
0000b0 1c f9 47 bd 98 f2 3d be a0 5b ac be d3 16 e7 bd
       -0.048821554 -0.18549573 -0.33663654 -0.1128365
0000c0 ac cf 98 be 4c 07 e7 3e 8a 9a 95 be 01 b2 90 bc
       -0.2984594 0.45122755 -0.29219466 -0.017663004
0000d0 af e4 d4 bd 39 b7 f8 3b d6 8e 36 3c 97 ec b0 bd
       -0.103951804 0.007590201 0.011142453 -0.08638876
0000e0 8f c9 e5 3e b0 4a a2 be fc 50 c7 3d 88 62 9b 3d
       0.4488034 -0.31697607 0.097322434 0.07587153
0000f0 36 e6 14 bd e5 d0 21 be 2b a5 06 3e d3 39 85 3d
       -0.03635236 -0.15802343 0.13148944 0.0650517
000100 4c 93 09 bc 27 38 15 be 75 85 a5 be d3 6d 87 bd
       -0.008396935 -0.14572202 -0.32328382 -0.06612744
000110 f6 ee 96 be 5e 85 d3 3e b0 7e 61 be 92 dd 85 bd
       -0.29479188 0.4131269 -0.22020984 -0.06536402
000120 51 97 a9 bd 13 f1 33 bd c3 04 ff bc eb 66 c5 bd
       -0.082808144 -0.04393108 -0.0311302 -0.09638771
000130 59 9a d2 3e e5 16 77 be 8e 04 42 3d ab fe 10 3c
       0.41133383 -0.24129827 0.047367625 0.00884978
000140 d6 ef 92 bd f4 37 34 be ee c1 2e 3e a3 d8 c4 3d
       -0.07174651 -0.1759947 0.17066166 0.09611633
000150 67 b7 41 bd d4 ab 28 be fd af ab be 60 49 9f bd
       -0.047294047 -0.16471797 -0.33532706 -0.07777667
000160 5e ee 99 be e2 7c e1 3e 4d 0c 80 be 47 27 88 3c
       -0.30064672 0.4404059 -0.25009385 0.016620291
000170 31 00 d6 bd 2a 33 bb bb 93 dc f8 3a 03 65 bc bd
       -0.10449255 -0.0057128863 0.0018986635 -0.09198954
000180 b6 09 df 3e d4 58 90 be e4 ce aa 3d 3f 79 72 3d
       0.43562096 -0.2819277 0.083402425 0.05919766
000190 00 4e f0 bd c1 0f 70 be 89 25 6d 3e f4 0e 12 3e
       -0.11733627 -0.2344351 0.2315885 0.14263517
0001a0 77 87 9e bd 50 d2 39 be 42 73 ad be de df f7 bd
       -0.077406816 -0.18146634 -0.33876997 -0.12103246
0001b0 91 ae 8b be 0c 29 c6 3e 04 63 99 be 65 b5 8a 3d
       -0.2728162 0.3870319 -0.29958355 0.067728795
0001c0 c2 fa 14 be b1 63 09 3d 22 82 0f 3d 87 5d 09 be
       -0.14548782 0.03354234 0.035036214 -0.13414584
0001d0 8f 76 ca 3e 67 ce 80 be ff 7a d4 3d fa 83 fc 3d
       0.39543578 -0.25157472 0.10375022 0.1232986
0001e0 b4 66 0e be b3 9b 96 be 7b a9 83 3e 4d 71 44 3e
       -0.13906366 -0.29415664 0.2571524 0.19183846
0001f0 ec 8a ed bd 05 92 34 be 89 36 9f be 97 c1 15 be
       -0.11598763 -0.17633827 -0.31096295 -0.1462463
000200 2e 13 76 be 05 1d a7 3e 20 55 94 be 52 f8 02 3e
       -0.24030754 0.32639328 -0.28971195 0.12790039
000210 10 4b 38 be c2 c9 b7 3d 79 6a dd 3d 79 a7 04 be
       -0.17997384 0.08974029 0.10811324 -0.12954511
000220 f5 2c 9b 3e 52 e0 64 be 07 4e 1e 3e 5d 2a 28 3e
       0.30307737 -0.22351196 0.15459453 0.1642241
000230 46 4c 0e be fc d6 83 be a5 ec 70 3e a8 e2 1b 3e
       -0.13896284 -0.25749958 0.23527773 0.15223181
000240 84 49 c9 bd 9a e7 31 be 65 cb 9e be 7b 54 0d be
       -0.09828475 -0.17373505 -0.31014553 -0.13801758
000250 d5 f5 92 be 0e ea bb 3e c8 aa a2 be 16 52 95 3d
       -0.2870318 0.36702007 -0.3177092 0.07291047
000260 fd 8e 32 be 92 b7 7b 3d 40 f8 89 3d 28 6a 16 be
       -0.17437358 0.061454363 0.06736803 -0.14688933
000270 3f 35 b6 3e f5 52 7f be 2b 49 d7 3d 0b ad e9 3d
       0.355875 -0.2493399 0.105120026 0.114099585
000280 dd 07 eb bd 82 f4 65 be 6e 3a 64 3e df 7b 15 3e
       -0.11476109 -0.22456554 0.22287914 0.14598034
000290 44 d8 a2 bd 26 17 2c be 80 ad af be 0b 5e f9 bd
       -0.07951406 -0.16805705 -0.34312057 -0.121761404
0002a0 3e ca 89 be fd 15 bd 3e f8 1a 9b be 85 19 60 3d
       -0.2691211 0.36930838 -0.30294013 0.054711837
0002b0 2f 8c ff bd b6 04 70 3d 0c f9 ab 3d 1a cf fd bd
       -0.1247791 0.058598243 0.08397111 -0.12393017
0002c0 39 7c b7 3e bd 1a 78 be e0 46 e7 3d ea 6d f5 3d
       0.35836962 -0.2422895 0.11292815 0.11983855
0002d0 4e 21 79 bd 81 26 4c be f3 dd 3d 3e 95 1a ac 3d
       -0.060822777 -0.19936563 0.18541698 0.084035076
0002e0 0f 0b 68 bc 6f 5c 2a be a0 8f ac be 85 23 fa bd
       -0.014162793 -0.16636823 -0.33703327 -0.12213806
0002f0 48 11 90 be 01 24 d6 3e f0 04 8e be b5 19 df bc
       -0.28138185 0.41824344 -0.27738142 -0.027233938
000300 9f cb ec bd 30 ec d0 bc 2d 7a dd bc 37 cd 02 be
       -0.11562275 -0.025503248 -0.027035797 -0.12773596
000310 ab 01 d7 3e 2a 7e 9b be 54 13 88 3d 4a d7 98 3d
       0.4199346 -0.30369693 0.066443115 0.07462938
000320 ef 30 d8 bd 24 a1 6f be ac 7a 5e 3e 6a 3e 09 3e
       -0.10556208 -0.23401314 0.21726483 0.13402715
000330 36 98 9c bd 92 b0 36 be 8b e4 ab be a7 95 10 be
       -0.076462194 -0.17840794 -0.33572802 -0.14119588
000340 ec fa 8b be 92 53 d0 3e d1 2f 96 be 28 9f 46 3d
       -0.27339876 0.4068876 -0.29333356 0.048491627
000350 db 18 19 be e7 38 08 3d 21 33 0e 3d a7 14 09 be
       -0.14950888 0.03325739 0.03471673 -0.13386784
000360 bc 51 d0 3e b8 69 88 be 39 60 c2 3d c0 25 07 3e
       0.40687358 -0.26643157 0.09491009 0.13197994
000370 01 fb b1 bd 9c d2 70 be 1e 9a 6b 3e 0e 0b e5 3d
       -0.08690453 -0.23517841 0.2300801 0.11183749
000380 16 c6 89 bd 38 d5 37 be 9f 5e a8 be 84 08 dd bd
       -0.06727235 -0.1795243 -0.3288469 -0.1079264
000390 43 fd 93 be b4 ba d2 3e e0 b5 88 be 70 b2 17 3c
       -0.2890416 0.41158068 -0.2670126 0.009258851
0003a0 a4 c1 03 be e7 0f c1 ba c9 0c 92 3c 0d 8d da bd
       -0.12866837 -0.0014729471 0.017828362 -0.106714346
0003b0 ac 6a d6 3e 9a df 8d be 5a ad a1 3d 5d 4a 88 3d
       0.4187826 -0.27709657 0.07894392 0.06654809
0003c0 52 17 7e bd a9 ed 44 be 7b c9 4e 3e 43 99 39 3d
       -0.06203396 -0.19231285 0.20194046 0.045312177
0003d0 d4 b6 6b bc c8 5c 36 be 96 d7 b6 be dd 7b 8a bd
       -0.014386851 -0.1780883 -0.35711354 -0.06761906
0003e0 6e e8 91 be 0b 3b e0 3e 62 51 84 be 38 aa 2b bd
       -0.28497642 0.43795046 -0.2584334 -0.04191038
0003f0 41 5c ab bd 0d 47 e9 bc 76 8b 33 bd 54 56 cf bd
       -0.083672054 -0.028476262 -0.043834172 -0.10123888

shared_encoder.gru_left.weight_hh_l0 f4 [60, 20]
000000 a3 8c 1c 3e 1c e1 32 3e 84 10 2e 3e db bc 1a 3e
       0.15288024 0.17468685 0.16998488 0.15111105
000010 0e 26 2d 3e d6 df 25 be 02 5c 27 be 10 a7 16 be
       0.16909048 -0.16198668 -0.16343692 -0.14712167
000020 a3 82 1f 3e a9 bc 34 3e 81 07 3d be cd 74 24 be
       0.15577178 0.17650093 -0.18459894 -0.16060181
000030 8d 56 29 be 78 76 2a 3e 73 93 26 be 62 51 1a 3e
       -0.16536923 0.16646755 -0.16267185 0.15070108
000040 0a e6 22 be 49 12 26 be 6d 89 41 3e e3 5d 0f be
       -0.15908065 -0.16217913 0.1890008 -0.14000659
000050 f5 0d 1c 3e 9b 9f 1a 3e 19 3c 13 3e 85 19 02 3e
       0.15239699 0.15099947 0.14378394 0.12705047
000060 d3 e9 23 3e b9 9e 25 be 45 a3 1c be 77 dc 17 be
       0.16007166 -0.16173829 -0.15296657 -0.14830194
000070 fd 62 1e 3e cd 95 1a 3e 10 68 1c be d5 c3 2c be
       0.15467449 0.15096207 -0.15274072 -0.16871579
000080 bc 10 24 be 33 9d 1e 3e e1 be 18 be a1 34 23 3e
       -0.16022009 0.15489654 -0.14916565 0.15938045
000090 93 84 17 be cb 0f 1f be e3 c7 1d 3e 88 b7 20 be
       -0.14796667 -0.15533368 0.15408282 -0.15695012
0000a0 b0 91 0f 3e 7b b6 0b 3e f1 ce fd 3d 68 8a f0 3d
       0.14020419 0.1364383 0.123929866 0.11745149
0000b0 08 8d f3 3d 41 aa 0f be 52 2b 0b be 1a e1 0a be
       0.11892134 -0.1402979 -0.13590744 -0.13562432
0000c0 89 fb 1c 3e b1 d0 01 3e 4a a4 11 be 03 d9 0f be
       0.15330328 0.12677266 -0.14222828 -0.14047627
0000d0 a2 59 0c be 96 00 0c 3e 32 85 f4 bd 61 69 19 3e
       -0.13706067 0.13672099 -0.119394675 0.14981605
0000e0 c1 e1 e0 bd c3 51 07 be 63 da 13 3e 01 88 11 be
       -0.10980559 -0.13214783 0.14438777 -0.14212038
0000f0 d7 7f 52 3e 44 cf 54 3e c2 51 71 3e 68 3c 39 3e
       0.2055658 0.2078219 0.23566344 0.1808945
000100 84 f0 56 3e d6 54 72 be 3d f0 6d be af 49 6e be
       0.20990187 -0.23665175 -0.23236175 -0.23270296
000110 d7 50 69 3e f1 ee 4b 3e 1b 50 6a be b7 b1 5a be
       0.22784744 0.19915368 -0.2288212 -0.21356855
000120 c1 2c 51 be 41 c9 59 3e d1 25 59 be 61 0d 4b 3e
       -0.20427229 0.21268179 -0.21205832 0.19829322
000130 70 b6 5c be 30 91 60 be 6f 4e 6c 3e a5 ef 66 be
       -0.2155397 -0.21930385 0.23076795 -0.22552355
000140 91 fd fa 3d 13 b9 0b 3e b8 9b 08 3e 71 c9 ca 3d
       0.12255395 0.13644819 0.13340652 0.09901703
000150 7e 55 e9 3d 25 b1 0d be 6f ee 0a be 84 b2 e6 bd
       0.113932595 -0.13837107 -0.13567518 -0.11264518
000160 7e 64 0e 3e b3 4a 05 3e 2c bb 07 be ef e7 17 be
       0.13905522 0.13016777 -0.13254994 -0.1483457
000170 b8 e0 03 be 3a ca 04 3e 7e be 07 be 19 1e 01 3e
       -0.12878692 0.12967768 -0.13256261 0.12609138
000180 59 96 03 be 37 18 07 be cc 0f 14 3e 25 4e 0b be
       -0.12850322 -0.13192831 0.14459151 -0.13604029
000190 c0 14 10 3e 87 65 21 3e 12 7e 24 3e 8b 9b 06 3e
       0.14070415 0.15761386 0.16063717 0.13145272
0001a0 e4 02 06 3e 23 f5 07 be aa 26 f8 bd 8c ae 15 be
       0.1308704 -0.13277106 -0.121167496 -0.14617366
0001b0 ec 5f 0f 3e 65 70 1d 3e 6a 7f 12 be 48 6e 06 be
       0.14001435 0.15374906 -0.14306417 -0.13128006
0001c0 40 3b 0f be e5 8d 10 3e 77 01 12 be 40 d7 05 3e
       -0.13987446 0.14116628 -0.14258371 0.13070393
0001d0 13 67 10 be de 56 15 be d9 7a 02 3e bb 8a 22 be
       -0.1410182 -0.14583918 0.12742175 -0.15873234
0001e0 47 10 12 3e f5 58 2d 3e c4 ed 1e 3e e8 59 27 3e
       0.14264022 0.16928466 0.15520388 0.1634289
0001f0 8f 59 29 3e a6 eb 27 be 7f 54 18 be 7f b5 16 be
       0.1653807 -0.16398486 -0.14875983 -0.14717673
000200 5c 98 27 3e 10 88 35 3e 2c fa 2e be 1b 58 37 be
       0.16366714 0.17727685 -0.1708762 -0.17904703
000210 7a c4 41 be ba 0d 38 3e e2 73 1f be 2e 30 20 3e
       -0.18922606 0.17973986 -0.1557155 0.15643379
000220 86 63 06 be 8c 98 2f be ed 33 11 3e 70 7e 27 be
       -0.13123903 -0.17148036 0.14179964 -0.16356826
000230 d5 ae 08 3e 20 f6 1b 3e ee 23 1d 3e c1 fa 03 3e
       0.13347943 0.15230608 0.15345737 0.12888624
000240 b0 10 22 3e e0 ed 30 be 9e 05 10 be be c2 13 be
       0.15826678 -0.17278242 -0.14064643 -0.14429757
000250 f5 72 17 3e 23 62 1f 3e 31 39 1e be 41 6b 15 be
       0.14789946 0.1556478 -0.15451504 -0.14591695
000260 eb d0 2e be 01 83 24 3e c4 4c 0f be a8 19 19 3e
       -0.17071883 0.16065599 -0.13994128 0.14951193
000270 36 c8 09 be c9 b0 30 be 46 10 13 3e 13 f6 19 be
       -0.1345528 -0.17254938 0.14361677 -0.15035276
000280 fe 93 0e 3e e1 69 23 3e c1 15 21 3e 69 4d 13 3e
       0.13923642 0.15958358 0.15730955 0.14384998
000290 5d b6 09 3e ec d3 10 be b7 19 03 be 60 87 18 be
       0.13448472 -0.14143342 -0.12802778 -0.14895391
0002a0 f0 b3 10 3e 29 b1 1d 3e 35 52 09 be 52 56 1b be
       0.1413114 0.15399612 -0.13410266 -0.15169647
0002b0 c0 15 13 be fc e1 16 3e 4f d4 0b be ae 02 0e 3e
       -0.14363766 0.14734644 -0.13655208 0.1386821
0002c0 83 0e 13 be 37 ac 28 be f9 41 24 3e 7a bd 0b be
       -0.14361005 -0.16471945 0.16040792 -0.13646498
0002d0 8b 82 45 3e d9 3d 3b 3e 09 1c 34 3e ff 55 24 3e
       0.1928808 0.18285312 0.1758882 0.1604843
0002e0 6e 1b 2d 3e 4f e8 43 be 2a 59 41 be f8 c6 35 be
       0.16904995 -0.19131587 -0.1888167 -0.17751682
0002f0 74 fc 44 3e 52 d9 33 3e 27 e1 3b be b7 19 39 be
       0.19236928 0.1756337 -0.18347608 -0.18076216
000300 8e 2d 3a be 29 7f 32 3e f5 05 48 be 9f 4f 21 3e
       -0.1818144 0.1743132 -0.19533522 0.1575303
000310 26 a9 4b be 11 90 2d be 20 d4 35 3e 13 54 44 be
       -0.19888744 -0.16949488 0.177567 -0.19172697
000320 7d 47 04 3e f1 bc 21 3e c5 67 00 3e d7 4d f7 3d
       0.12917896 0.15794732 0.12539585 0.12075394
000330 60 82 02 3e 53 9f 04 be 1e 18 08 be ea a6 03 be
       0.12745047 -0.12951402 -0.1329045 -0.12856641
000340 f0 57 fb 3d 7e 1c 19 3e 0a 21 1b be f6 a8 1d be
       0.12272632 0.14952275 -0.15149322 -0.15396485
000350 2e 29 14 be 29 df 01 3e 7e b0 13 be 6c ee f4 3d
       -0.14468834 0.12682785 -0.14422795 0.11959538
000360 07 d7 f8 bd 18 12 0c be 5a 53 ef 3d 04 ae 10 be
       -0.12150388 -0.13678777 0.1168582 -0.14128882
000370 a2 de 18 3e f9 2f 33 3e ed c7 33 3e 6d 31 03 3e
       0.14928678 0.17498769 0.17556734 0.12811823
000380 33 fb 1c 3e 47 19 37 be 3c 4f 1e be a7 f3 21 be
       0.153302 -0.17880736 -0.15459913 -0.15815602
000390 3b 56 23 3e ed 28 23 3e 59 de 23 be 56 c5 2e be
       0.15950863 0.1593358 -0.16002788 -0.17067465
0003a0 83 63 29 be 35 94 24 3e 88 f0 2b be db aa 1a 3e
       -0.16541867 0.16072161 -0.16790974 0.15104239
0003b0 15 45 2c be b7 e2 2d be a1 4c 28 3e 49 81 27 be
       -0.16823228 -0.16981016 0.16435482 -0.16357912
0003c0 9e 9f 1c 3e 06 b1 18 3e 72 06 2d 3e 50 ea 02 3e
       0.15295264 0.14911279 0.1689699 0.12784696
0003d0 26 b8 1c 3e ef dd 1c be 20 a6 20 be 3e 8f 2b be
       0.15304622 -0.15319036 -0.15688372 -0.16753861
0003e0 72 59 21 3e 7a 56 07 3e 05 ec 18 be 53 e0 1d be
       0.15756777 0.13216582 -0.14933784 -0.15417604
0003f0 dd 57 11 be 19 30 15 3e 02 4e 1c be f3 dd 15 3e
       -0.14193673 0.14569129 -0.15264133 0.14635448

shared_encoder.gru_left.bias_ih_l0 f4 [60]
000000 91 4e e6 bd 19 aa a2 bd 00 e5 91 bd a6 9f c0 bd
       -0.11245454 -0.079426 -0.071237564 -0.094054505
000010 a5 c4 86 bd a5 41 c9 bd af 61 e0 bd 06 d6 c1 bd
       -0.06580476 -0.09826974 -0.10956132 -0.0946465
000020 ff 0f bf bd 90 47 a4 bd 47 d9 ae bd 5a a9 bc bd
       -0.09329223 -0.08021462 -0.08537536 -0.09211989
000030 0b 5c 6f bd f1 65 94 bd b4 84 a4 bd e5 15 a2 bd
       -0.05843739 -0.07246006 -0.080331236 -0.07914332
000040 38 8e de bd 05 5b ae bd b6 43 c8 bd 28 98 d8 bd
       -0.1086697 -0.08513454 -0.0977854 -0.105758965
000050 f9 12 41 be ac 87 58 be b2 b9 44 be 5c 2b 3d be
       -0.18854894 -0.21145505 -0.19211462 -0.18473572
000060 92 31 4c be c8 dc 4b be 5e bd 42 be ca d2 51 be
       -0.19940785 -0.1990844 -0.1901755 -0.20490566
000070 84 23 51 be 53 28 63 be d7 a1 4c be 1f f6 57 be
       -0.20423704 -0.22183351 -0.19983612 -0.21089981
000080 72 c3 5e be c4 3e 41 be b9 95 4a be 37 64 3c be
       -0.21754244 -0.188716 -0.19783677 -0.18397604
000090 36 9d 47 be a6 f3 4b be 0d a6 4e be 67 a6 3e be
       -0.19493565 -0.19917163 -0.20180531 -0.18618165
0000a0 18 2d 53 bb 64 53 3e bb 5f be 42 bb 96 50 e2 3b
       -0.0032222923 -0.0029041404 -0.002971552 0.0069065792
0000b0 6e 52 75 ba 4e 35 3b 3b 78 c3 8c 3b 7c 4a 52 3b
       -0.0009358291 0.0028565708 0.0042957626 0.0032087853
0000c0 b3 b4 5b bb 20 8d 3d 37 6d 53 72 3b a0 bc 6f 39
       -0.0033524453 1.1298136e-05 0.0036975995 0.00022863084
0000d0 60 3f 88 39 94 01 83 39 9b d8 62 3b 8a 65 e9 ba
       0.0002598716 0.00024987443 0.003461397 -0.001780675
0000e0 53 70 49 3b fb 8f 60 3b 88 e4 7c bb 6b 78 6f 3b
       0.0030737116 0.0034265507 -0.0038588364 0.003654028

shared_encoder.gru_left.bias_hh_l0 f4 [60]
000000 91 4e e6 bd 19 aa a2 bd 00 e5 91 bd a6 9f c0 bd
       -0.11245454 -0.079426 -0.071237564 -0.094054505
000010 a5 c4 86 bd a5 41 c9 bd af 61 e0 bd 06 d6 c1 bd
       -0.06580476 -0.09826974 -0.10956132 -0.0946465
000020 ff 0f bf bd 90 47 a4 bd 47 d9 ae bd 5a a9 bc bd
       -0.09329223 -0.08021462 -0.08537536 -0.09211989
000030 0b 5c 6f bd f1 65 94 bd b4 84 a4 bd e5 15 a2 bd
       -0.05843739 -0.07246006 -0.080331236 -0.07914332
000040 38 8e de bd 05 5b ae bd b6 43 c8 bd 28 98 d8 bd
       -0.1086697 -0.08513454 -0.0977854 -0.105758965
000050 f9 12 41 be ac 87 58 be b2 b9 44 be 5c 2b 3d be
       -0.18854894 -0.21145505 -0.19211462 -0.18473572
000060 92 31 4c be c8 dc 4b be 5e bd 42 be ca d2 51 be
       -0.19940785 -0.1990844 -0.1901755 -0.20490566
000070 84 23 51 be 53 28 63 be d7 a1 4c be 1f f6 57 be
       -0.20423704 -0.22183351 -0.19983612 -0.21089981
000080 72 c3 5e be c4 3e 41 be b9 95 4a be 37 64 3c be
       -0.21754244 -0.188716 -0.19783677 -0.18397604
000090 36 9d 47 be a6 f3 4b be 0d a6 4e be 67 a6 3e be
       -0.19493565 -0.19917163 -0.20180531 -0.18618165
0000a0 48 a4 70 bc e9 e4 99 bc 3f 3c 94 bc d5 63 1b bc
       -0.014687605 -0.01878591 -0.018095134 -0.009484251
0000b0 fd 45 86 bc 64 a5 86 3c dd 38 83 3c dd 15 8c 3c
       -0.016390795 0.016436286 0.016018325 0.017100269
0000c0 0e 11 8c bc 96 7a 90 bc d3 8e 91 3c 61 8e 7a 3c
       -0.017097976 -0.017636579 0.0177683 0.015292735
0000d0 a8 3c 93 3c 63 d4 70 bc 5f b9 92 3c 44 0c 7e bc
       0.01797326 -0.014699074 0.017910657 -0.015505854
0000e0 b2 27 7f 3c fc 7c 91 3c 63 23 8e bc 5a a5 80 3c
       0.015573429 0.017759793 -0.017350858 0.015703846

shared_encoder.gru_left.weight_ih_l0_reverse f4 [60, 20]
000000 cd d5 ac be 90 41 9d be 00 00 cc 3e f0 95 9e 3e
       -0.33756867 -0.30714083 0.3984375 0.30973768
000010 73 66 ac be 19 0d ca be 46 39 93 be b2 d2 d3 be
       -0.33671913 -0.39463118 -0.28754634 -0.41371685
000020 ac e1 b3 bd c8 f6 67 3e 95 ca b1 be bb 3f 55 3e
       -0.08783278 0.22652733 -0.3472487 0.20825092
000030 9f fe d3 be 0e 97 a1 3e 0c fd fc 3e d0 c6 82 be
       -0.41405198 0.31560558 0.4941181 -0.25542307
000040 d4 99 97 3e 4f 62 7d be f6 e4 c9 3e cc d4 d0 3e
       0.2960955 -0.24744533 0.39432496 0.4078735
000050 1a d0 b3 be ad 20 a3 be 6e 29 d0 3e 34 61 a1 3e
       -0.35119706 -0.31860867 0.40656608 0.31519473
000060 36 b8 bc be 54 1a cc be 20 db 88 be 2a 85 da be
       -0.36859292 -0.39863837 -0.2672968 -0.4267972
000070 c2 5d d8 bd 4c 17 81 3e f4 1c b9 be bb 67 72 3e
       -0.10564758 0.25213087 -0.36154902 0.23672383
000080 ff 64 d8 be a3 93 9d 3e 5c bd ff 3e 6e 60 7f be
       -0.42264554 0.307767 0.49949157 -0.24939129
000090 d1 e0 91 3e 03 b5 83 be 87 08 d3 3e 53 50 d7 3e
       0.28491834 -0.25724038 0.41217443 0.4205347
0000a0 41 38 ab be f6 32 a8 be 30 f6 cf 3e 7a 9d a5 3e
       -0.33441356 -0.3285138 0.40617514 0.32346708
0000b0 0c 41 b8 be d1 35 d2 be 6b 64 8a be af 85 d2 be
       -0.35987127 -0.41056684 -0.27029738 -0.41117617
0000c0 5c 7e c9 bd fa 48 6c 3e 1d 43 c0 be 37 8c 6f 3e
       -0.09838554 0.23074713 -0.37551203 0.23393331
0000d0 86 a0 e6 be 8b 73 aa 3e 8d e8 00 3f 25 1b 8f be
       -0.45044345 0.33291277 0.50354844 -0.27950397
0000e0 6d e3 91 3e 21 34 7e be 34 61 c9 3e b3 01 e4 3e
       0.28493825 -0.24824573 0.39331973 0.44532546
0000f0 15 cc 97 be d1 7f 98 be 9a 14 c3 3e cd ab 93 3e
       -0.2964789 -0.29785016 0.38101655 0.2884201
000100 ce 40 aa be 67 78 b4 be e9 4d 87 be 3a bb bf be
       -0.33252567 -0.3524811 -0.26426628 -0.3744753
000110 b2 55 b2 bd 51 66 67 3e c3 1a af be 0f 44 7e 3e
       -0.08707751 0.22597624 -0.34200105 0.2483065
000120 60 f6 d5 be e6 3a 98 3e bc 39 f2 3e 81 1d 68 be
       -0.41789532 0.29732436 0.47309673 -0.22667505
000130 9b 89 8d 3e fb 53 71 be 19 b4 b4 3e 0a 2e c6 3e
       0.27644047 -0.23567192 0.35293654 0.38707
000140 5c 0a b6 be 5f 7c 97 be 14 3d dc 3e 1e a3 a7 3e
       -0.3555478 -0.29587075 0.4301535 0.32741636
000150 40 a7 cd be 7d a8 d2 be 8b a3 76 be ec 82 cc be
       -0.40166664 -0.4114417 -0.24085824 -0.39943635
000160 60 e7 a0 bd 79 d2 75 3e 63 c9 b4 be ca a4 56 3e
       -0.07856631 0.2400607 -0.35309896 0.209613
000170 24 f7 dd be c3 b0 99 3e 6b 03 06 3f d0 ef 72 be
       -0.43352616 0.3001767 0.52348965 -0.23724294
000180 76 55 a5 3e 18 a9 87 be 2f 75 d6 3e 01 f2 d1 3e
       0.32291764 -0.26496196 0.4188628 0.41004947
000190 b1 5c ba be ff 0d a5 be e4 e3 d1 3e 31 48 9e 3e
       -0.36398843 -0.3223724 0.4099418 0.30914453
0001a0 61 90 ae be 51 37 cd be 0f 6e 9b be 00 f0 c5 be
       -0.34094527 -0.40081266 -0.30357406 -0.38659668
0001b0 89 71 cb bd 77 ae 77 3e 89 97 c7 be c8 21 77 3e
       -0.099337645 0.24187647 -0.389828 0.2413398
0001c0 80 ce e1 be 33 18 a6 3e 9e 31 f8 3e 49 d3 86 be
       -0.4410286 0.32440338 0.48475355 -0.26333073
0001d0 67 64 98 3e 82 1a 86 be 1c ee c6 3e 44 2a d0 3e
       0.297641 -0.261921 0.38853538 0.40657246
0001e0 c2 83 98 be 88 cf 96 be bc 66 b8 3e 96 67 8e 3e
       -0.29788023 -0.2945521 0.3601588 0.27813405
0001f0 7b 23 a4 be 1a d3 b6 be fb ac 80 be d5 dc bc be
       -0.3205832 -0.35707933 -0.25131974 -0.3688723
000200 73 c1 7c bd b4 60 4d 3e 96 f5 a6 be 5c aa 56 3e
       -0.061707925 0.2005642 -0.32609242 0.20963424
000210 d0 a5 c1 be 05 b9 96 3e 78 5a e8 3e 67 a1 77 be
       -0.37821817 0.29438034 0.45381522 -0.24182664
000220 02 12 95 3e 09 6c 79 be ed 90 b8 3e d7 37 b4 3e
       0.291153 -0.24357618 0.3604807 0.35198852
000230 b2 56 b4 be 3d d1 a6 be 98 cd d9 3e ae c4 9d 3e
       -0.35222393 -0.3258151 0.42539668 0.30814117
000240 d6 bd d2 be f2 b1 d3 be 06 c9 7e be 25 58 d8 be
       -0.41160458 -0.413467 -0.24881372 -0.4225475
000250 e0 80 dc bd c4 f4 6f 3e ed e0 b4 be 33 15 52 3e
       -0.107667685 0.23433214 -0.35327855 0.205159
000260 7e 61 dd be 76 9e a3 3e 15 0a 10 3f fe 52 8b be
       -0.43238443 0.31956834 0.56265384 -0.27211756
000270 c7 ff 9d 3e 6c 09 88 be d9 f8 e5 3e dd 35 d4 3e
       0.30859205 -0.26569688 0.44916418 0.41447344
000280 db c8 a6 be f6 51 95 be 19 8b c2 3e 69 0a 98 3e
       -0.32575116 -0.29164094 0.37996748 0.29695442
000290 60 30 aa be 3d 6e bc be 2c 33 89 be 34 0d c8 be
       -0.33240032 -0.36802855 -0.26796854 -0.39072573
0002a0 c1 ea ba bd 32 73 6f 3e 8f da b0 be 69 49 72 3e
       -0.09126807 0.23383787 -0.34541747 0.23660816
0002b0 ea ee cf be a2 b3 9b 3e ac a2 ee 3e 8e ef 82 be
       -0.40611964 0.30410486 0.46608484 -0.2557339
0002c0 87 b9 a5 3e 18 ae 6d be ae 4a bc 3e aa f9 cb 3e
       0.3236811 -0.23210943 0.36775726 0.39838916
0002d0 d7 59 bb be 77 6a a0 be 56 a6 dc 3e 65 7b a4 3e
       -0.3659198 -0.31331226 0.43095654 0.32125393
0002e0 8a 69 c9 be ec c3 d9 be 51 ec 94 be d0 c3 dc be
       -0.39338332 -0.4253229 -0.29086545 -0.43118143
0002f0 cc bd ab bd 59 ba 82 3e de 5a bc be 65 41 80 3e
       -0.0838581 0.25532797 -0.36788076 0.25049892
000300 95 43 eb be 89 f2 b6 3e 44 f7 08 3f 74 ed 89 be
       -0.45949998 0.35731915 0.535023 -0.26938975
000310 a2 1a 93 3e 90 a6 8b be 36 f7 d8 3e 62 b6 e7 3e
       0.28731257 -0.27275515 0.42376107 0.45256335
000320 cd a1 b0 be 89 68 9b be 01 f1 c6 3e a8 91 96 3e
       -0.34498444 -0.30353191 0.38855746 0.29408002
000330 c7 3d b2 be 90 4c c5 be e8 0d 85 be e8 71 cf be
       -0.34812757 -0.38534975 -0.25987172 -0.4051659
000340 f3 4d ad bd be fa 61 3e 9d 93 ba be b2 56 68 3e
       -0.08462133 0.22068307 -0.36440745 0.22689322
000350 3a 2d d8 be e7 e7 9d 3e 02 3e fa 3e 38 48 85 be
       -0.42222005 0.3084099 0.48875433 -0.2603166
000360 1d 9c 95 3e 46 31 86 be 29 2b ce 3e ca 24 cb 3e
       0.29220667 -0.26209468 0.40267304 0.39676505
000370 4d 39 aa be 6a d4 9d be 43 b9 ca 3e 6d e3 9a 3e
       -0.33246842 -0.30826122 0.39594468 0.30251637
000380 1e 5b ae be 67 75 cb be 26 76 74 be 80 a5 c2 be
       -0.34053892 -0.39738008 -0.23873195 -0.3801689
000390 22 e1 b3 bd 03 49 70 3e 4a 9b b5 be f7 75 62 3e
       -0.08783175 0.23465352 -0.3547004 0.22115313
0003a0 84 6d d5 be 32 bd 9c 3e 1f ba f6 3e 35 0b 71 be
       -0.41685116 0.30613095 0.48188874 -0.23539431
0003b0 8a 2a a5 3e 51 a7 82 be e4 41 cc 3e a0 24 ca 3e
       0.32259017 -0.25518277 0.3989402 0.39481068
0003c0 1d bf b6 be a5 52 af be aa 1a d8 3e 95 dc a3 3e
       -0.35692683 -0.3424274 0.42207843 0.32004228
0003d0 01 98 c7 be 5e ea d8 be 40 e8 93 be 5f ff dd be
       -0.38983157 -0.42366308 -0.2888813 -0.43358895
0003e0 d1 62 c4 bd 60 2b 84 3e ab 61 c7 be 7f 82 74 3e
       -0.0958916 0.25814342 -0.38941702 0.23877905
0003f0 e7 8b ed be 83 cd b6 3e eb c5 02 3f c5 a8 84 be
       -0.463958 0.35703668 0.5108325 -0.2591001

shared_encoder.gru_left.weight_hh_l0_reverse f4 [60, 20]
000000 18 9b 93 be 96 b4 9c 3e d2 a6 97 be e6 a1 9e be
       -0.28829265 0.30606526 -0.2961946 -0.30982894
000010 b9 ea af be fd 0f 98 be 2a 80 99 be 3a 4f a7 be
       -0.34358767 -0.29699698 -0.29980594 -0.32677633
000020 f3 ec a0 be 61 bf 9b be d6 0d a2 be 1b 8a a8 be
       -0.31430778 -0.30419448 -0.3165118 -0.32917866
000030 f2 95 98 be 72 54 a5 be 72 79 99 be 43 fe 8e be
       -0.298019 -0.3229099 -0.29975468 -0.2792836
000040 df d2 af be f7 68 97 3e 45 98 a1 be a6 91 98 be
       -0.3434057 0.2957227 -0.31561485 -0.2979862
000050 06 f5 a5 be 70 be a0 3e af dd a7 be 67 f7 9e be
       -0.324135 0.31395292 -0.3278632 -0.31048128
000060 cc 8f af be d0 d9 92 be 5c c9 96 be be 1b a7 be
       -0.34289396 -0.28681803 -0.294505 -0.32638353
000070 de 9f a3 be ea f6 97 be e2 f7 a7 be 6c b8 b3 be
       -0.31957906 -0.29680568 -0.32806307 -0.3510164
000080 78 bf a5 be 21 a0 a4 be 6c 91 a2 be 3c fc 95 be
       -0.32372642 -0.3215342 -0.31751573 -0.29294002
000090 30 8a bb be 75 75 a0 3e b0 e6 a7 be 6a 41 97 be
       -0.36628866 0.31339613 -0.32793188 -0.29542094
0000a0 14 c1 a6 be a5 c7 a7 3e c1 21 9f be 39 84 9b be
       -0.32569182 0.32769504 -0.3108044 -0.30374315
0000b0 40 6e b5 be b1 08 a2 be fa 88 a1 be ef b8 ac be
       -0.35435677 -0.31647256 -0.31549817 -0.33734843
0000c0 42 b3 a7 be dc 9b 9d be ff 78 a9 be 35 44 a6 be
       -0.3275395 -0.30782974 -0.33100125 -0.32473913
0000d0 81 51 a1 be c1 c0 ad be 35 7e a4 be a6 33 94 be
       -0.31507495 -0.33936122 -0.32127538 -0.28945655
0000e0 36 d9 ba be 00 79 a0 3e 46 60 a1 be 76 45 9b be
       -0.36493844 0.31342316 -0.31518763 -0.30326432
0000f0 01 e8 99 be 30 59 95 3e ff 63 96 be 5c 2b 95 be
       -0.30059817 0.29169607 -0.29373166 -0.29134643
000100 e8 12 9f be c4 01 8a be 69 ee 96 be dc 38 9c be
       -0.31069112 -0.26954472 -0.29478768 -0.3051213
000110 66 5c 8c be 58 a4 8e be 1e 17 9d be d5 57 a3 be
       -0.27414244 -0.2785976 -0.306817 -0.31902948
000120 9f e0 98 be 2d 50 99 be 75 2b a0 be 8f f3 87 be
       -0.29858872 -0.29943982 -0.31283155 -0.26553008
000130 9a 8d a3 be 3d cc 99 3e 7a 7c 91 be e5 ae 94 be
       -0.3194397 0.30038634 -0.2841528 -0.29039684
000140 df 51 a0 be fc ab 98 3e 90 2b 9c be a4 fd 94 be
       -0.31312463 0.29818714 -0.30501986 -0.29099762
000150 02 e7 a0 be 0d 35 90 be 22 88 97 be 81 69 9a be
       -0.31426245 -0.28165475 -0.2959605 -0.30158618
000160 43 4a 98 be ec c7 8f be 07 05 9a be 96 41 9d be
       -0.29744157 -0.28082216 -0.3008196 -0.307141
000170 d4 f2 99 be 99 ce 9e be b4 82 9b be 8e 80 95 be
       -0.30068076 -0.31016997 -0.30373156 -0.29199642
000180 dc 19 ab be 6e 52 8d 3e 6c ae 98 be 99 b3 92 be
       -0.33418167 0.2760195 -0.29820573 -0.28652647
000190 cb e8 99 be d6 e2 a5 3e 25 05 9a be fa ea 9a be
       -0.3006042 0.32399625 -0.3008205 -0.30257398
0001a0 2b 11 a8 be 0e 47 9f be 7c a9 a6 be 6f b6 af be
       -0.32825598 -0.31108898 -0.3255118 -0.34318873
0001b0 5b 81 a2 be e9 fc a5 be 07 c9 a7 be 57 97 a1 be
       -0.31739315 -0.32419518 -0.3277056 -0.31560776
0001c0 ec 28 aa be 0a 87 a2 be b4 ad 9d be 0a f4 9e be
       -0.33234346 -0.31743652 -0.30796587 -0.31045562
0001d0 c9 3d b7 be f5 e3 9e 3e f7 98 9e be fa 7f a6 be
       -0.35789326 0.31033292 -0.30976078 -0.32519513
0001e0 da 63 95 be 27 25 93 3e 0d 15 8a be eb fd 92 be
       -0.29177743 0.28739282 -0.26969185 -0.2870935
0001f0 35 f4 9c be 4a 3d 96 be 4a 65 9d be d2 75 a3 be
       -0.30655065 -0.29343635 -0.3074134 -0.31925827
000200 32 d2 92 be 91 f9 93 be 25 7d 99 be 03 01 a7 be
       -0.2867599 -0.28901342 -0.2997829 -0.3261796
000210 1f 7a 9a be e2 a4 a0 be 8f 09 99 be ca 28 99 be
       -0.30171296 -0.31375796 -0.29890105 -0.29913932
000220 64 2a ad be 54 c1 96 3e 92 86 9d be 55 25 9a be
       -0.33821404 0.29444373 -0.30766732 -0.30106607
000230 49 fc 9d be 0c 07 98 3e 0a b4 a4 be 36 d6 9b be
       -0.3085654 0.29692876 -0.3216861 -0.30436867
000240 86 b4 ae be ad e2 93 be b6 ff 9b be f5 90 aa be
       -0.34122103 -0.28883877 -0.3046853 -0.33313718
000250 a3 04 9e be b2 b8 a2 be e7 ad a1 be 16 ba a0 be
       -0.30862913 -0.31781536 -0.3157799 -0.31391972
000260 fc 06 a8 be 1f 38 a7 be 00 f4 9c be d2 75 9c be
       -0.3281783 -0.32660004 -0.30654907 -0.3055864
000270 a7 45 ab be aa 9b a5 3e 17 2f 9c be df 17 9f be
       -0.33451578 0.32345325 -0.30504677 -0.310729
000280 7e 9c 92 be 37 dc 9a 3e dc cc 90 be 41 9e 9d be
       -0.2863502 0.30246136 -0.28281295 -0.307848
000290 4c f5 a2 be 73 ca 98 be a9 f8 9e be 9e 52 96 be
       -0.31827772 -0.29841956 -0.31049088 -0.29359907
0002a0 3a d7 97 be b7 54 95 be 21 86 a3 be 73 e7 9b be
       -0.29656392 -0.29166195 -0.3193827 -0.3045002
0002b0 3b 58 9e be 1b 33 9f be 97 b3 90 be 2c 91 9e be
       -0.3092669 -0.31093678 -0.28262016 -0.30970132
0002c0 99 cd b7 be 9c 71 96 3e 3d 7e 98 be e3 56 98 be
       -0.35899046 0.29383552 -0.29783812 -0.2975379
0002d0 64 64 a8 be 57 95 9e 3e e5 ab a0 be bc 19 9f be
       -0.32889092 0.30973312 -0.31381145 -0.3107432
0002e0 51 5b af be 83 33 a0 be ec 43 a3 be e4 82 b2 be
       -0.34249356 -0.312893 -0.31887758 -0.34865487
0002f0 73 b5 ac be f7 2d a2 be e2 3d b4 be 46 7e 9e be
       -0.33732185 -0.31675693 -0.35203463 -0.30955714
000300 58 2b b4 be 84 e9 ac be 1e 47 a9 be 6b 99 a1 be
       -0.3518932 -0.33771908 -0.3306207 -0.3156236
000310 46 99 ba be ba b7 ac 3e 3b 17 a6 be 4b fb 97 be
       -0.36445063 0.33733922 -0.32439598 -0.2968391
000320 e1 14 97 be 3b 6a 98 3e 5a 93 98 be 10 30 99 be
       -0.29508117 0.29768547 -0.2979992 -0.2991948
000330 57 9a a6 be dc 2b 99 be ec ee 99 be 08 10 a3 be
       -0.32539627 -0.29916275 -0.30065095 -0.31848168
000340 79 3a 94 be cb 0e 91 be 75 e1 9d be 7b 73 a7 be
       -0.2895086 -0.283316 -0.30836073 -0.32705292
000350 a0 3a a0 be 67 d3 9e be 46 90 a0 be e1 06 94 be
       -0.31294727 -0.31020662 -0.31360072 -0.28911498
000360 e8 4a b6 be 4f 61 99 3e c5 77 9b be 53 9c 9a be
       -0.35604024 0.29957053 -0.30364814 -0.3019739
000370 9a c2 9f be 94 32 9c 3e 04 da 95 be f5 d9 93 be
       -0.31203157 0.30507338 -0.29267895 -0.28877226
000380 88 be a3 be 4e 66 97 be c1 c6 94 be 32 dd a1 be
       -0.319813 -0.2957024 -0.29057887 -0.3161407
000390 8c 71 96 be 93 bc 9b be d5 e3 9f be 57 d7 94 be
       -0.29383504 -0.30417308 -0.3122851 -0.2907054
0003a0 2e 03 99 be e6 74 9a be 29 33 9f be 96 54 96 be
       -0.29885238 -0.3016731 -0.3109372 -0.2936141
0003b0 fd 8b af be 94 9a 9c 3e ce 34 97 be 41 17 96 be
       -0.3428649 0.30586684 -0.29532474 -0.29314616
0003c0 6b 61 a1 be 81 44 a2 3e 88 b5 a0 be 32 85 9b be
       -0.31519637 0.3169289 -0.31388497 -0.30375057
0003d0 ab 85 ab be 71 02 9f be a8 1b a4 be ee 72 a9 be
       -0.33500418 -0.3105655 -0.3205235 -0.33095497
0003e0 7c 7a 98 be 2a 7f a5 be da 3e a5 be b8 a6 ae be
       -0.29780948 -0.3232358 -0.32274514 -0.3411157
0003f0 1a e5 a9 be 43 2b aa be 17 27 a8 be a2 23 9c be
       -0.33182603 -0.3323613 -0.32842323 -0.30495936

shared_encoder.gru_left.bias_ih_l0_reverse f4 [60]
000000 30 7b 11 be 89 ae 13 be 92 cf 0c be 47 00 0b be
       -0.14207149 -0.14422049 -0.13751057 -0.13574325
000010 bc 76 22 be 57 a7 05 be eb f0 19 be 26 81 1f be
       -0.15865606 -0.13052116 -0.15033309 -0.1557661
000020 47 02 0c be 28 0a 08 be ef 1d 15 be 78 71 1e be
       -0.13672744 -0.13285124 -0.145622 -0.15472972
000030 b3 9d 11 be 6e 12 18 be 65 c6 18 be f9 f8 0b be
       -0.14220314 -0.1485078 -0.14919432 -0.13669194
000040 da ec 41 be 5f 3f 13 be 58 75 12 be 4f 5f 13 be
       -0.18938008 -0.14379643 -0.14302576 -0.14391826
000050 04 21 e2 bd c3 38 dc bd 1f a3 f8 bd 82 75 d0 bd
       -0.110414535 -0.10753014 -0.12140488 -0.10178663
000060 2c bb a0 bd ce ef ee bd 0a 2e 0a be ca ba ae bd
       -0.078482 -0.11666833 -0.13494125 -0.08531721
000070 8b 2a bc bd f7 05 dc bd a0 1e 02 be 8d 4c f3 bd
       -0.09187802 -0.10743325 -0.12706995 -0.11879835
000080 dc 5e 0c be 93 d9 07 be b5 e7 fd bd c7 eb f6 bd
       -0.13708061 -0.13266592 -0.1239771 -0.1205669
000090 56 78 f9 bd b6 5a e1 bd ab 79 01 be 33 7e fa bd
       -0.121811554 -0.1100363 -0.12644069 -0.12231102
0000a0 37 cf 12 3c 0a fc 01 bc f4 0b 20 3c ea 0b f6 3b
       0.008960537 -0.007933626 0.009768475 0.0075087445
0000b0 0d 0d a0 3b 08 61 07 3c e0 16 cf 3b 36 8f ac 3b
       0.0048843683 0.00826288 0.0063198656 0.0052660955
0000c0 b4 0b c3 3b 6c 6b 30 3c 02 00 20 3c 81 6b 11 3c
       0.005952323 0.010767799 0.009765627 0.008875729
0000d0 6d aa 37 3c 2d fe 26 3c 21 be 0c 3c c8 88 02 3c
       0.011210066 0.010192436 0.008590252 0.0079671815
0000e0 9f 98 31 3c 1a 0f 0c bc fc bb 23 3c 88 ed 1c 3c
       0.01083961 -0.008548522 0.009993549 0.009578116

shared_encoder.gru_left.bias_hh_l0_reverse f4 [60]
000000 30 7b 11 be 89 ae 13 be 92 cf 0c be 47 00 0b be
       -0.14207149 -0.14422049 -0.13751057 -0.13574325
000010 bc 76 22 be 57 a7 05 be eb f0 19 be 26 81 1f be
       -0.15865606 -0.13052116 -0.15033309 -0.1557661
000020 47 02 0c be 28 0a 08 be ef 1d 15 be 78 71 1e be
       -0.13672744 -0.13285124 -0.145622 -0.15472972
000030 b3 9d 11 be 6e 12 18 be 65 c6 18 be f9 f8 0b be
       -0.14220314 -0.1485078 -0.14919432 -0.13669194
000040 da ec 41 be 5f 3f 13 be 58 75 12 be 4f 5f 13 be
       -0.18938008 -0.14379643 -0.14302576 -0.14391826
000050 04 21 e2 bd c3 38 dc bd 1f a3 f8 bd 82 75 d0 bd
       -0.110414535 -0.10753014 -0.12140488 -0.10178663
000060 2c bb a0 bd ce ef ee bd 0a 2e 0a be ca ba ae bd
       -0.078482 -0.11666833 -0.13494125 -0.08531721
000070 8b 2a bc bd f7 05 dc bd a0 1e 02 be 8d 4c f3 bd
       -0.09187802 -0.10743325 -0.12706995 -0.11879835
000080 dc 5e 0c be 93 d9 07 be b5 e7 fd bd c7 eb f6 bd
       -0.13708061 -0.13266592 -0.1239771 -0.1205669
000090 56 78 f9 bd b6 5a e1 bd ab 79 01 be 33 7e fa bd
       -0.121811554 -0.1100363 -0.12644069 -0.12231102
0000a0 6c 40 00 3d 56 87 02 bd e8 2f 05 3d f2 63 f3 3c
       0.031311437 -0.031867348 0.03251639 0.029710744
0000b0 8b e8 ef 3c 88 8a 00 3d 1e a0 ed 3c 51 8a f2 3c
       0.02928569 0.031382114 0.029007014 0.02960697
0000c0 f0 8c f4 3c f3 43 0c 3d e1 6b ff 3c 6e 36 01 3d
       0.02985236 0.03424449 0.03117937 0.03154605
0000d0 50 d1 06 3d 2b 9c 03 3d 9b d1 f7 3c aa 09 00 3d
       0.03291446 0.032131355 0.030251315 0.031259216
0000e0 88 94 fc 3c 87 64 02 bd aa cb 06 3d ef 61 f0 3c
       0.030832544 -0.03183415 0.032909073 0.029343573

shared_encoder.gru_left.weight_ih_l1 f4 [60, 40]
000000 3b 2a df 3c e6 d0 47 3d cb df 37 3d 64 8c 70 3d
       0.027241817 0.048783205 0.04489116 0.058727637
000010 6e ac 87 3d f1 8c 58 bd 09 23 2b bd 10 58 38 bd
       0.06624685 -0.052868787 -0.04178146 -0.045005858
000020 79 62 25 3d dd f8 81 3d af f9 2e bd ed fa 63 bd
       0.040377114 0.06346295 -0.042718586 -0.055659223
000030 72 8a 98 bd 42 e6 3b 3d 51 a7 77 bd 84 6f 09 3d
       -0.07448281 0.045873888 -0.0604623 0.033553615
000040 81 c7 08 bd 53 55 1b bd 13 22 3f 3d 36 5f 2f bd
       -0.033393387 -0.03792317 0.046663355 -0.04281541
000050 9f b9 a1 3d 2d a4 8b bd 6e 5b 8f 3d 1d 40 99 3d
       0.078967325 -0.068184234 0.06999861 0.07482932
000060 bf ac be 3d 40 09 9f 3d c8 46 bc 3d 74 c3 99 3d
       0.093102925 0.07765436 0.09193188 0.07507983
000070 25 dc c1 3d b8 0a 9e 3d ea d2 99 3d e5 a7 98 3d
       0.09465817 0.07716888 0.07510932 0.07453898
000080 67 4b a3 3d d0 13 a7 3d aa 15 90 3d 01 55 9a 3d
       0.07973366 0.08158076 0.07035382 0.075357445
000090 c1 00 9c 3d cd 4e a6 bd 02 41 b5 3d e0 a3 b2 3d
       0.07617331 -0.08120499 0.0885029 0.08722663
0000a0 76 41 34 bd 9f 63 39 bd 4b 34 8b bd 7c af 81 bd
       -0.04400774 -0.04526102 -0.067970835 -0.06332299
0000b0 2f b6 91 bd 07 9b 11 3d 60 18 6e 3d ac a4 42 3d
       -0.07114827 0.035548236 0.058128715 0.047520325
0000c0 c7 6f 05 bd 99 06 52 bd 0c ab 7d 3d 1f eb 83 3d
       -0.032577302 -0.051275823 0.0619307 0.0644133
0000d0 6c 20 49 3d 6a 96 42 bd 7d 95 9b 3d 5b 0d 65 bd
       0.049103186 -0.047506727 0.07596872 -0.05592094
0000e0 d6 da 2d 3d 02 6d 86 3d de bd 23 bd 73 f6 45 3d
       0.042445026 0.0656376 -0.039975993 0.048330735
0000f0 25 91 4b 3e e6 86 4e be 20 7c 3e 3e 03 b7 48 3e
       0.19879587 -0.20168647 0.18602037 0.19601063
000100 54 8c 78 3e 16 35 47 3e d4 6a 42 3e 4d cc 74 3e
       0.24272281 0.19453844 0.18986064 0.2390606
000110 df 03 53 3e 31 c4 4e 3e b5 1d 59 3e 94 e7 66 3e
       0.20606945 0.20192029 0.21202739 0.22549278
000120 d4 be 4c 3e e2 f9 61 3e 85 c6 5d 3e f6 c6 64 3e
       0.1999467 0.22067979 0.2165776 0.22341523
000130 20 8a 6d 3e c7 16 4d be e7 ab 4c 3e b0 aa 3a 3e
       0.23197222 -0.2002822 0.1998745 0.18229175
000140 2c ef 84 3d bf a3 1d 3d a2 cd 5c 3d 36 bb 29 3d
       0.06490931 0.03848624 0.053907044 0.041438304
000150 37 66 2c 3d 90 fe 29 bd 14 12 8f bd bc 8f 67 bd
       0.042089667 -0.041502535 -0.0698587 -0.05653356
000160 e1 2e 64 3d 60 1b 73 3d 4c 8e 17 bd 24 8b 5f bd
       0.05570877 0.05935228 -0.03700094 -0.054576054
000170 86 d9 8f bc a5 0e e0 3c f3 72 41 bd 89 f8 f7 3c
       -0.017559778 0.027350733 -0.047228765 0.030269878
000180 e0 21 3e bd 41 15 37 bd bc 6f 66 3d 66 d2 45 bd
       -0.046419024 -0.044698004 0.056258902 -0.048296355
000190 df 0c e0 3d 85 5f ff bd 9f 36 e3 3d f0 2b c6 3d
       0.10939955 -0.12469391 0.110944025 0.09676349
0001a0 82 de 04 3e e2 40 d9 3d 6e 0c c5 3d da 00 01 3e
       0.12975505 0.106080785 0.096215114 0.12597981
0001b0 de 85 eb 3d 48 56 d8 3d 54 3f 9f 3d 55 fc f3 3d
       0.115001425 0.10563332 0.07775751 0.11913363
0001c0 f5 d1 f4 3d c8 b5 c1 3d f1 f1 de 3d 5e 4c d4 3d
       0.119541086 0.094585 0.108859904 0.103661284
0001d0 3d c0 c2 3d f6 9e da bd 9f 29 db 3d d1 9d d8 3d
       0.09509323 -0.10674851 0.10701298 0.10576976
0001e0 19 48 8f 3d 77 3c c6 3d 5a 2a a0 3d ef e3 d3 3d
       0.069961734 0.096795015 0.07820578 0.10346209
0001f0 00 c0 b9 3d 6f 0e a0 bd 85 fc 9a bd 74 5a 95 bd
       0.09069824 -0.07815253 -0.075676955 -0.07292643
000200 76 34 ab 3d ee ae dc 3d 66 c0 c5 bd ac f2 af bd
       0.083596155 0.10775553 -0.09655838 -0.08591208
000210 ba 33 e9 bd 6d a8 de 3d 94 92 9b bd de 0e a3 3d
       -0.11386819 0.108719684 -0.07596317 0.0796182
000220 ae 2c 8b bd 62 a0 aa bd b6 a9 ae 3d 19 2c 91 bd
       -0.06795631 -0.08331372 0.085284635 -0.07088489
000230 26 e4 53 3c 17 0c ad bc d4 b9 02 3d db 42 52 3d
       0.012932813 -0.021123929 0.0319155 0.05133329
000240 4a e6 59 3c 89 cd 0f 3d 93 b2 52 3c 1a d2 c4 3c
       0.013299534 0.035108123 0.012859958 0.024025965
000250 a3 ac 59 3c 8e 1c bc 3c 13 67 91 3c 21 85 30 3c
       0.013285789 0.022962835 0.017749345 0.010773928
000260 ef b7 1e 3c 05 56 02 3d 03 e9 dc 3c 18 80 ac 3c
       0.009687408 0.031820316 0.026966577 0.021057174
000270 8f 21 b4 3c fb a4 11 bd 98 72 16 3d 67 dd 26 3d
       0.021988658 -0.03555773 0.03673038 0.04073849
000280 44 a0 f9 3d b1 8a 14 3e d2 d8 e1 3d 6b ab 29 3e
       0.12188771 0.14506032 0.11027683 0.16569297
000290 5b 0d f7 3d 90 ad f7 bd 0b 0d 01 be 0b c8 db bd
       0.12063094 -0.12093651 -0.12602632 -0.107315145
0002a0 5b 53 fa 3d d1 6d 18 3e a7 57 0d be 1c 2b 0c be
       0.1222293 0.14885642 -0.13802968 -0.1368832
0002b0 6c 23 23 be e9 42 0f 3e c4 7a eb bd 2b fa 02 3e
       -0.15931481 0.13990368 -0.11498025 0.12790744
0002c0 bc 42 09 be 44 b3 03 be 58 13 12 3e d3 77 07 be
       -0.13404363 -0.12861353 0.14265192 -0.13229303
0002d0 fe 0d 95 bb 40 19 96 3b 2c ca 15 3b fc c8 2d 3b
       -0.004548787 0.0045806468 0.00228561 0.00265175
0002e0 a0 23 80 bb b4 0d 65 3c 67 b9 5a bc 2d 5b 66 3c
       -0.003910497 0.013980318 -0.013349867 0.014059824
0002f0 2b 9a 18 bc 88 8e 09 3c e7 a4 2c bc f4 ae 49 bc
       -0.0093141 0.0083957985 -0.010537363 -0.0123097785
000300 72 dd 90 bc 3d 3f 22 bc 6a 00 6b 3c 07 7f 2c bc
       -0.017683718 -0.0099027725 0.01434336 -0.010528333
000310 7a 35 a0 bc 5a 30 c0 bb f1 f7 e3 3b 68 68 f6 ba
       -0.01955675 -0.005865139 0.006957047 -0.0018799426
000320 08 c7 c7 3d 1c 1c c9 3d f9 ce c6 3d be 8f dd 3d
       0.09754759 0.098198146 0.09707446 0.10818432
000330 90 79 d0 3d 1c b6 ec bd 52 b8 db bd 82 75 e3 bd
       0.10179436 -0.11558172 -0.10728516 -0.11106397
000340 4e 2c b2 3d 0e 8f 0d 3e dc da d4 bd 83 ac e5 bd
       0.08699857 0.13824102 -0.103933066 -0.112145446
000350 77 42 ef bd 7f 5a cf 3d 77 55 d0 bd b7 a7 c1 3d
       -0.11682599 0.10124683 -0.10172551 0.09455817
000360 c3 a9 e6 bd 49 2b b9 bd 02 9a b7 3d 26 9f bb bd
       -0.11262848 -0.09041459 0.089649215 -0.091612145
000370 50 3e 1f 3d 3a 51 02 bd c5 2b 23 3d 3d 76 4b 3d
       0.038877785 -0.031815745 0.039836664 0.049673308
000380 e4 56 64 3d e0 5d 1b 3d 88 b8 1d 3d 7e 7f 5f 3d
       0.055746928 0.037931323 0.03850606 0.054564945
000390 b1 a7 59 3d 82 c6 30 3d 0a c1 dd 3c 3b e4 25 3d
       0.05313844 0.04315806 0.027069587 0.04050086
0003a0 5f 46 47 3c 86 6f 08 3d 17 02 2a 3d 8d 9d eb 3c
       0.012162774 0.033309482 0.0415059 0.02876165
0003b0 dd f9 1a 3d 25 98 0a bd 32 68 0d 3d f2 56 bf 3c
       0.037835944 -0.033836503 0.034523197 0.023356888
0003c0 55 fb c5 3d 2c e8 08 3e d9 76 dd 3d e2 2d 11 3e
       0.096670784 0.13369817 0.10813684 0.14177659
0003d0 86 57 e2 3d d3 f9 c9 bd 0e e0 ea bd e4 b0 f4 bd
       0.1105185 -0.09862103 -0.11468516 -0.11947802
0003e0 f5 d8 b8 3d cf 5e f8 3d 6e 62 01 be 85 ec de bd
       0.09025756 0.12127458 -0.12635204 -0.10884956
0003f0 42 16 0e be a4 8a d5 3d dd 73 0a be ee 4f e8 3d
       -0.13875678 0.10426834 -0.13520761 0.113433704
