checkpoints/Level6_0103.pt (torch_old, 444769 bytes, 32 tensors)

shared_encoder.input_linear.weight f4 [50, 6]
000000 44 19 07 3d 88 b1 95 3c 40 2d e9 3a 07 22 97 bc
       0.03298308 0.01827313 0.0017789975 -0.018448843
000010 37 f2 5c be 29 28 53 be 15 f5 5b bd 4e ae 1a bd
       -0.21576773 -0.20620789 -0.053700525 -0.037763886
000020 ce 2c 3f bc fb bd 82 3b a6 d6 b2 bd 8f b2 38 3e
       -0.011668397 0.0039899326 -0.08732347 0.18036865
000030 62 ba 08 3e 51 7e 01 3d 9a 47 8c bc 78 15 b7 3c
       0.1335235 0.031614605 -0.017123986 0.022349104
000040 c9 a9 7c be 49 a0 2f be dd 4a 81 3c ad 7d 8d bc
       -0.24674143 -0.17150988 0.015782768 -0.017271841
000050 75 1a 82 bb ac fc ba bc 83 f4 0a 3e 6a 97 48 be
       -0.003970439 -0.022825561 0.13569836 -0.1958901
000060 35 4f 29 be 49 7e 0e bd 30 41 7a bc ab 31 7e 3c
       -0.16534121 -0.034788404 -0.015274331 0.015514771
000070 b4 f7 e0 bd 3b 11 2d 3e f1 3b 08 bd 53 ad 92 3c
       -0.109847456 0.16901104 -0.03326029 0.017904913
000080 4a e4 bd bc fe ce d3 3a 85 cb 9c bd 34 90 3f be
       -0.023180146 0.0016159711 -0.07656006 -0.18707353
000090 7d 2a 2c bc 7d ae 9c bb 86 6a 5b bc 04 72 01 bd
       -0.010508177 -0.004781543 -0.013392096 -0.031602874
0000a0 40 03 0b 3d ea 29 4c 3e 2f fa 87 3e 80 34 ac bc
       0.033938646 0.19937864 0.26558062 -0.021021128
0000b0 0f 73 66 bc e5 16 91 3b ec 05 18 3e 62 76 65 bc
       -0.014065518 0.004427778 0.14846009 -0.014005275
0000c0 36 cc 39 bd 86 74 30 bc c6 b7 3f bc ee af 8d 3c
       -0.045360766 -0.010769969 -0.01170153 0.017295804
0000d0 e1 09 4d ba 45 c2 5a 3e 31 e1 f8 3a 8e 16 b8 3c
       -0.00078216015 0.2136317 0.0018988011 0.022471692
0000e0 ec cc 4e bb d2 ac b9 bb f3 df 93 3d e4 fb 52 be
       -0.0031555248 -0.0056663537 0.07220449 -0.20603901
0000f0 a7 bc a0 bd 3b 1e 20 3c 4b 48 9d 3a cb c0 6d bb
       -0.078484826 0.0097728325 0.0011999694 -0.0036278244
000100 c9 c4 ec 3d d6 da 5d 3e a5 ec a1 3c 2a 9a 4c bd
       0.11560971 0.2166551 0.019766161 -0.04995171
000110 11 a7 e0 ba 14 59 97 3c 86 25 d2 bd 21 24 58 be
       -0.0017139633 0.018475093 -0.10261063 -0.21107532
000120 c4 c6 45 3e 1e 8e 9c bc ec 9f 84 3c 58 ce 83 bb
       0.19314104 -0.019110736 0.016189538 -0.004022401
000130 4b 50 a9 3d fa 47 1e be 27 83 8a 3e 54 29 ac 3c
       0.08267268 -0.15457144 0.27053186 0.0210158
000140 0a be 9d 3c 09 ad cf bb 8b 09 26 3e c6 d2 8c bd
       0.019255657 -0.006337766 0.16214578 -0.06876139
000150 1b a7 db 3c 38 5d 97 bd 24 a9 82 b8 4f bf 92 3c
       0.02681308 -0.07390827 -6.230388e-05 0.017913489
000160 be 79 89 3d a5 84 53 be dc 1b 87 3e 8a 7d 39 3e
       0.067126736 -0.20656069 0.26388443 0.18114296
000170 34 45 d3 3b c7 d1 70 bd 1a 57 9c 3d 37 e8 d3 bd
       0.0064474586 -0.05879381 0.07633801 -0.10347026
000180 df 6b 1a be 83 7a 3f bd 98 53 07 bd 96 b1 5d bc
       -0.15080212 -0.046747696 -0.033038706 -0.013531109
000190 14 fc 38 be 04 0e 47 3e 95 fb 63 3d 18 af 7b bc
       -0.1806491 0.1943894 0.05565985 -0.01536157
0001a0 c8 1c 8d 3a 2f 00 48 3c b9 ca 4a bd 10 24 4c be
       0.0010766024 0.012207075 -0.049509738 -0.19935632
0001b0 27 1f 52 3b a2 41 5e bc c7 d4 d4 3c 22 59 0d 3c
       0.0032062025 -0.013565453 0.025980366 0.008627208
0001c0 90 0e 50 bd 34 d5 52 3e 98 b2 0f 3c 5c 9e 5d 3d
       -0.050795138 0.20589143 0.008770607 0.0541061
0001d0 e7 64 67 bc 0e 01 96 3c 93 da ad bc ea a1 5b be
       -0.014123178 0.01831105 -0.021222388 -0.21448484
0001e0 36 2e f0 bc a9 53 bb 3c f0 01 84 b7 97 6c 79 3b
       -0.02931891 0.02286704 -1.5736528e-05 0.003805911
0001f0 0c b0 c3 bc f5 19 45 3e 4f ba 3b 3e 8b 9a 11 bc
       -0.023887657 0.19248183 0.1833279 -0.008886944
000200 89 c9 e8 3c 37 c5 fa 3a 7b ef 31 be 9b d4 24 be
       0.028416412 0.0019132261 -0.17376511 -0.16096728
000210 91 4b 8d 3d a3 29 98 bb dc 3f 87 3c 5a 48 d4 bc
       0.06899179 -0.0046436354 0.016509943 -0.025913406
000220 7a 7b 0d 3e dc ed 4e be 48 7f e6 3d 66 dd 1f bd
       0.13816634 -0.20207924 0.11254746 -0.0390295
000230 dc 67 f0 3b 30 5f 7b 3a 52 18 7e be 8e 23 4e be
       0.0073365998 0.0009589074 -0.24813965 -0.2013075
000240 16 34 6d 3e 5b 0a 4b be 4c cc 86 bd 17 69 14 bd
       0.231644 -0.19828169 -0.06581935 -0.036233034
000250 94 f1 34 3d e3 36 a2 3c 3f 5f 2d be f5 95 35 3d
       0.0441757 0.019801563 -0.16930865 0.044332463
000260 a8 f4 5b bc 6d ef b6 bc 09 a4 17 3c 7c 90 29 3e
       -0.01342503 -0.022330964 0.009255418 0.16559023
000270 3d 88 11 be f8 9f cb 3c 8d 60 bd bc 25 b6 b7 bb
       -0.14212127 0.024856552 -0.023117328 -0.00560643
000280 02 1b 90 bc 39 8d 53 3e ff c9 8b be b4 29 ce bd
       -0.017591003 0.20659341 -0.27302548 -0.10066548
000290 a8 70 59 bc f0 57 8d 3d 20 53 3a bc fb 46 28 bd
       -0.013271488 0.06901538 -0.011372358 -0.041083317
0002a0 9b 1b 6e be 62 d0 02 bd 59 a1 55 3c 1a 71 ac bc
       -0.23252718 -0.03193701 0.013038957 -0.021050025
0002b0 6a e4 93 3b b5 b8 f3 bc 41 70 a4 bd b2 3c 20 ba
       0.004513313 -0.029751161 -0.08029223 -0.000611256
0002c0 b2 5e 74 b9 a6 97 9c 3c d3 06 94 bd c6 56 49 3e
       -0.0002330493 0.01911528 -0.07227864 0.19662008
0002d0 50 d4 8c 3d 21 e6 b2 ba f8 25 e2 bb 7e 08 13 3d
       0.06876433 -0.0013648906 -0.006901499 0.03589677
0002e0 31 f5 9b bd 64 cd 45 be 3f 14 10 be 8b 9a 9b 3d
       -0.07615126 -0.19316632 -0.14070223 0.07597836
0002f0 72 d4 cc 3b fa 83 f0 ba 5d 38 1b be 34 8c 40 3e
       0.0062509114 -0.0018349879 -0.1515822 0.18803483
000300 55 8a 81 bc 49 57 05 bd ff e7 94 bc 5c 01 c3 3c
       -0.015813032 -0.032553945 -0.01817703 0.02380436
000310 d2 70 a5 bd a1 84 4c 3e 7d 1a a1 bc e7 23 bf 3c
       -0.080781594 0.19972469 -0.01966595 0.02333255
000320 eb 33 33 3c b3 66 cd 3c 2d 79 fc 3d c5 a2 51 3e
       0.010937671 0.025073385 0.123278 0.20472248
000330 59 2d 82 3e 32 03 9a 3c 1c c8 a4 bc 4c 7b 14 3d
       0.25425223 0.018800352 -0.02011495 0.036250398
000340 b2 11 61 3e f8 65 c3 bd ec 42 ce bb 8e ed 98 3b
       0.21979406 -0.09540933 -0.006294599 0.0046669906
000350 cc ef 9a 3c b1 32 b6 bc a9 8c 01 3e ca e3 42 3e
       0.018913172 -0.022240968 0.12651314 0.19032207
000360 b8 1c 8b bd 1a 12 57 3c 42 8f 80 bb 8b 67 78 bc
       -0.06792587 0.013126874 -0.0039233277 -0.015161405
000370 a6 c7 89 3e cb 39 3c be b5 84 5d 3d 76 f8 83 bd
       0.26910132 -0.18381421 0.054081637 -0.064438745
000380 24 05 9d 3c 9f 48 c1 3c 96 cb d6 3d f7 9f 5e be
       0.01916749 0.023594199 0.1048805 -0.21740709
000390 f4 70 07 3e 90 db 9a 3c 9b a1 3d bc c4 db 00 3c
       0.13226682 0.018903524 -0.011574174 0.007864896
0003a0 1f 75 35 be e2 62 37 be 7a 3f 63 bd 82 c5 8b 3c
       -0.1772046 -0.17908815 -0.055480458 0.017061953
0003b0 48 52 e8 3b 9e 26 2a bc 5f 14 48 3e b7 17 52 be
       0.007089887 -0.010385184 0.19539021 -0.20516859
0003c0 64 51 76 be eb 66 39 bd 27 fc 26 3c 61 a1 94 bc
       -0.24054486 -0.045264166 0.010191954 -0.018143358
0003d0 4c f5 57 bc 86 f7 20 3e 47 0f 2f be 31 91 5c 3d
       -0.013181042 0.15719423 -0.17095672 0.053849403
0003e0 d8 20 33 3a f0 e8 3d 3b 16 57 1a 3e ef 44 e3 bd
       0.0006833202 0.0028977953 0.15072283 -0.110971324
0003f0 27 72 07 bd 16 fc 0e bd 2d 7e 92 bc 66 90 78 3c
       -0.03306785 -0.034908377 -0.01788243 0.015171146

shared_encoder.input_linear.bias f4 [50]
000000 2d 70 7a 3d d6 2c 45 bd ec b9 84 3c 02 33 6f 3d
       0.061142135 -0.048138462 0.016201936 0.058398254
000010 c4 15 54 bc e0 24 87 3d a0 64 92 bd 8d 8d 8e bd
       -0.012944642 0.0659883 -0.07148099 -0.069605924
000020 b2 d5 81 bd 0c 0d 9c 3d ac 87 38 bd 61 32 7a 3d
       -0.06339587 0.07619676 -0.04505126 0.0610832
000030 05 37 c7 ba 61 19 80 bd 9a 2d 74 3d 82 ca 01 bd
       -0.0015198892 -0.06254841 0.0596138 -0.031687267
000040 53 9a 5a bc cc f8 81 3d 6b e7 8d bd 5c ff 6e 3d
       -0.013342458 0.06346282 -0.06928905 0.058349
000050 8b 24 59 bd 09 3a d3 ba 6f 20 16 3d a5 bc db 3c
       -0.053013366 -0.0016115318 0.036652025 0.026823351
000060 f7 52 51 bd 62 a0 20 3b c3 d8 52 bc ca 6c b9 3d
       -0.051104512 0.0024509658 -0.012869063 0.09053953
000070 33 c6 c5 3d 69 73 38 bd 5c 51 0d 3d a4 3c 94 bc
       0.09656944 -0.04503194 0.03450142 -0.018095322
000080 2f eb 7d bd 9b ea 8e bd e2 1b 59 bd d8 42 6a bd
       -0.061991867 -0.06978341 -0.053005107 -0.057192653
000090 92 21 c9 3d da 5e 5f 3d ac e2 cb 3c 24 05 bb 3d
       0.09820856 0.054533817 0.024888359 0.0913184
0000a0 0e fc 4c 3c e4 fc b8 3d b6 50 77 bd 3e 80 c9 3d
       0.012511266 0.0903261 -0.060379706 0.098389134
0000b0 bc e3 ca bb d4 ec be bd 8c 35 22 3d 41 93 c5 bd
       -0.006191699 -0.09322515 0.039601848 -0.09647227
0000c0 6b b8 89 bd 64 01 47 39
       -0.06724628 0.00018978637

shared_encoder.gru_left.weight_ih_l0 f4 [150, 50]
000000 d7 a6 0e bd f4 50 47 be 77 ca 98 3e 05 d4 7c 3d
       -0.03482708 -0.19464475 0.29841968 0.061725635
000010 61 96 45 be c2 20 06 3e 6a 68 7a bd c0 77 fb 3d
       -0.19295646 0.13098434 -0.061134733 0.122787
000020 fc 34 80 bc 5a ff e8 3c ee cd 06 bc eb e3 13 3d
       -0.015650265 0.028442074 -0.008227808 0.03610603
000030 f7 06 80 3c 30 b3 ca 3b fa 3a cf 3d 66 74 af bd
       0.015628321 0.0061859116 0.10118671 -0.08567123
000040 33 04 cf bd 08 c9 1c bd 72 df c0 bd 6c 00 a9 3d
       -0.10108223 -0.038277656 -0.09417619 0.082520336
000050 51 81 5f bd b7 45 94 3e 84 21 cf bd 3b 69 17 3d
       -0.054566685 0.28959438 -0.101138145 0.03696559
000060 3b c1 55 3d d6 96 97 be 8b ea 04 3d f9 36 ac 3d
       0.052186232 -0.29607266 0.03245024 0.08408923
000070 75 af 2c be 45 0c 95 bb 8b 70 8f 3e 76 d9 7f bc
       -0.16863807 -0.004548582 0.2801555 -0.015615812
000080 78 89 2d 3c 86 9e e7 bd 90 25 6b 3e bc aa 9e be
       0.010591857 -0.11309533 0.22963548 -0.30989635
000090 37 88 f1 bd 07 e8 a6 bd 5f 39 1f 3e c3 11 6b be
       -0.11793559 -0.081497245 0.15549229 -0.22955994
0000a0 2c 4e 12 be 8a 76 fb bd d9 e2 21 3d 22 ad 6e be
       -0.14287633 -0.12278469 0.03952298 -0.23308232
0000b0 d3 e5 c0 3d 35 20 84 bb c6 41 cf 3d 73 7d 56 3e
       0.094188355 -0.0040321597 0.10119967 0.20946293
0000c0 3d 9a c8 bb 23 3d 87 bd d2 c1 3c be 73 ac 5e 3d
       -0.0061219023 -0.06603458 -0.18433312 0.05436368
0000d0 63 7f 90 bc 54 13 c9 bd 16 d9 4c 3c fd e9 0d be
       -0.017638868 -0.0981814 0.012502929 -0.1385879
0000e0 58 40 ac 3d f5 85 70 3e 02 6f 49 3d d2 35 f4 bd
       0.0841071 0.234886 0.04917813 -0.11924328
0000f0 8c 0e db 3c 79 c8 83 bd 72 d8 d9 3d d7 5f 7d 3e
       0.026740335 -0.064347215 0.10636987 0.24743591
000100 04 d1 44 bd 15 42 db 3c 19 cb 8c 3c b6 b7 29 bc
       -0.048050895 0.026764909 0.017186688 -0.0103587415
000110 f3 41 56 3e 36 e2 1c be e9 ce 01 3e 8c ad 21 3d
       0.20923595 -0.15320668 0.12676586 0.039472148
000120 50 00 d1 bd ce 5f 28 bd 5a 93 90 3e 0d c9 ec bd
       -0.10205138 -0.04110699 0.2823742 -0.11561785
000130 18 65 11 3c 82 69 c1 bd 34 b5 bf be b5 18 86 3d
       0.0088742 -0.09443952 -0.37442935 0.06547681
000140 df 14 ce b9 ac 34 68 bd 84 82 be 3d ad 4a da 3d
       -0.00039306932 -0.056690857 0.09302238 0.106587745
000150 bb eb fd 3d 65 f1 2e 3e aa e4 1b bd 96 fe eb 3b
       0.12398478 0.17084272 -0.038059868 0.00720198
000160 fc e4 bd bc 98 b9 ec bd 83 3e e2 bd f7 8b 8d be
       -0.023180477 -0.11558837 -0.110470794 -0.27645847
000170 9e 9a d0 3d cc c2 89 be 72 b0 4c bc d5 70 af 3d
       0.10185741 -0.2690643 -0.01249324 0.08566443
000180 fb a5 03 bd f6 4d e5 3d a2 00 96 3e e6 bc 0d bd
       -0.032140713 0.111965105 0.29297358 -0.034603976
000190 4b 01 26 3d fe 2b 52 be de 0e 9d 3e ab 43 6a 3e
       0.040528577 -0.20524594 0.30675405 0.22877376
0001a0 7e a6 91 be fd 4f c5 3e de 31 80 be 24 c6 3f 3f
       -0.28447336 0.3853759 -0.25038046 0.74911714
0001b0 2e 18 64 be d0 1c 8b 3e f7 b3 84 be c0 4b 9e 3e
       -0.22274849 0.2717042 -0.25918552 0.30917168
0001c0 48 d9 d8 3e 6d cd 09 3f d9 2f 9d 3e 3b 2b 4a 3e
       0.42353272 0.5382908 0.30700567 0.19743054
0001d0 7a 7d ae be 1c 39 7d 3e 6b 19 68 be 6b d1 18 3e
       -0.34080106 0.24728817 -0.22665946 0.14923637
0001e0 45 f8 96 be 0f 25 26 3e 05 73 f6 3d e2 1d 1e 3e
       -0.2948629 0.16225074 0.12033657 0.15441087
0001f0 27 da f8 3e 11 a7 03 bf 29 f5 4e be 8e d8 1d be
       0.48603937 -0.514268 -0.20210709 -0.1541464
000200 e1 52 55 bf 44 d5 1b be e6 f7 81 3e 54 08 c7 be
       -0.8332959 -0.15218073 0.25384444 -0.3887354
000210 79 d1 88 be d3 5f 21 be b9 bc 42 3f 31 75 84 be
       -0.26722315 -0.1575921 0.7606922 -0.2587066
000220 30 96 c2 3e 28 27 a2 3e ab 77 58 3e 13 76 7a 3e
       0.3800521 0.316705 0.211394 0.24459104
000230 0c 89 02 bf 61 87 a4 be b3 1d 2e be 37 28 d3 be
       -0.50990367 -0.32134536 -0.17003517 -0.4124162
000240 5c 8b 2a 3e 72 ed 04 be 96 6e 99 3e c5 9f 89 3e
       0.16654724 -0.12981203 0.29967183 0.26879707
000250 36 ed 16 3f a2 92 e5 be ac 5f 74 bd b7 90 8e bd
       0.58955705 -0.44838434 -0.059661552 -0.06961196
000260 cb d6 3e 3e 30 e6 24 3c d3 a1 62 be cf 69 7e ba
       0.18636625 0.010064647 -0.22132044 -0.0009705098
000270 0d cf 32 bc 07 04 1d 3f d8 6a 8a bd 23 a8 7a 3d
       -0.010913623 0.6133427 -0.0675866 0.061195504
000280 ca b6 f3 bd 83 2f c2 3d d8 9e c0 3e df d0 04 3f
       -0.119000986 0.094817184 0.37621188 0.5188121
000290 2b 20 81 3d 5c 39 a8 3e 0b b6 67 be 79 a2 f4 3d
       0.06304964 0.32856262 -0.22628038 0.11945052
0002a0 22 0a 5b 3d d7 ed 0b 3c ab b3 18 3d d2 4f 7d 3e
       0.05347646 0.008540592 0.03728072 0.2473748
0002b0 47 ea ed ba 1e 4d 08 3d a0 b0 fc 3e 1c 33 c1 be
       -0.0018151485 0.03327667 0.49353504 -0.37734306
0002c0 12 9e 3b be 96 79 82 be 4a 20 30 bf 62 e7 56 bd
       -0.18322018 -0.25483388 -0.6879927 -0.052466758
0002d0 cd 0e 3c 3e 7d 45 98 be 0b 1c 27 bc e9 34 29 bd
       0.18365021 -0.29740515 -0.010199557 -0.041310225
0002e0 0c 93 27 3f 40 08 f1 bc 27 48 c7 ba b3 2d 20 3e
       0.6545875 -0.02942288 -0.0015203998 0.15642433
0002f0 bf 2f 3c 3e cf 56 76 bd 16 72 ee be 09 11 d9 be
       0.18377589 -0.06014138 -0.46571416 -0.4239581
000300 d4 fa 1b bc 32 5a f7 be d6 0b 85 3e a6 ad 07 3e
       -0.009520251 -0.48311 0.25985593 0.13249835
000310 9b ed 35 3e 4e 51 a2 3e ba 13 19 3f fd 64 81 be
       0.1776642 0.31702656 0.59795725 -0.2527236
000320 11 08 08 be 99 b1 ec 3c 87 06 c8 3d 37 fc b5 bd
       -0.13284327 0.028893279 0.0976687 -0.08885997
000330 e0 92 01 be e9 b3 f8 bd 87 bb e3 3d 76 d6 db 3e
       -0.12653685 -0.1214369 0.111197524 0.42937058
000340 79 88 b3 3c a8 3c b7 bd 3a fe 12 3c 2d df b1 bc
       0.021915661 -0.08947116 0.008971745 -0.021712864
000350 0e 16 44 3e 9c d1 cd 3e ae 43 d3 bd 58 3f 9d 3e
       0.19149038 0.40198982 -0.10315643 0.3071239
000360 2e 6f c4 bd 51 96 b9 bc 25 bd 1d 3e f8 82 68 bd
       -0.09591518 -0.022654684 0.15404184 -0.056765527
000370 76 1c f9 3d 13 c4 22 3e c0 e7 b0 bd b0 b4 3c bd
       0.121636316 0.15895109 -0.08637953 -0.046070755
000380 27 d2 ab 3e 46 90 40 be 58 19 a9 bd cb b6 a7 be
       0.3355877 -0.18805036 -0.08256787 -0.32756647
000390 7f 2a 14 bf 1a 2d 8e b8 1c 6e 73 3d 07 07 ef bd
       -0.57877344 -6.7794885e-05 0.05943118 -0.11671262
0003a0 c4 5b c1 3d 86 74 96 3d 31 5e d3 3e 7e 99 0c 3e
       0.09441331 0.07346444 0.412828 0.13730428
0003b0 45 15 d8 bd ab 43 9c 3c b6 9d 83 3d 26 32 24 be
       -0.10550932 0.019075235 0.06426565 -0.16034755
0003c0 e8 c7 97 be 65 e0 c7 be 3b 24 a6 3d ff fd dc be
       -0.29644704 -0.39038387 0.08112379 -0.43162534
0003d0 4d 01 26 3e b7 ea 54 3e d7 5b ab 3c a6 e2 96 3e
       0.16211434 0.20792662 0.020917816 0.29469794
0003e0 6b 15 e5 3e bf ac db bd ad 97 ec bd a5 d3 3a bd
       0.44742903 -0.10726308 -0.11552367 -0.045611996
0003f0 42 30 49 3e 62 29 a1 bd 7d c6 c7 bd 48 e2 fb bc
       0.19647315 -0.07869221 -0.097546555 -0.030747548

shared_encoder.gru_left.weight_hh_l0 f4 [150, 50]
000000 1a 7a 7b 3d 95 63 48 3e e7 1b 06 be de 1b 82 3d
       0.061395742 0.19569238 -0.13096581 0.063529715
000010 64 1e 3a 3e 91 19 a9 3d 92 09 98 bd d7 74 75 3e
       0.18175656 0.082568295 -0.074237004 0.23970352
000020 94 c4 16 be 4f 25 29 3e a5 25 c2 3d f8 b3 ae 3d
       -0.14723426 0.16518138 0.094798364 0.0853042
000030 6b 16 b2 be 54 72 64 3e 1d 72 6a 3d fa 21 a8 3c
       -0.3478273 0.22309238 0.057237733 0.020524014
000040 56 03 c0 bd bf b4 b2 3d 5c cf 97 3e 64 84 8e be
       -0.09375636 0.08725881 0.2965039 -0.2783538
000050 0b 31 87 3e df 0b 96 3e 99 25 9d 3d 97 dd 4c be
       0.26404604 0.29305932 0.07673187 -0.20006405
000060 55 df 07 3e c6 cf c8 bd 9b a2 02 3e 1b 80 a5 bd
       0.13268788 -0.09805255 0.12757342 -0.08081075
000070 78 3e 01 3e a9 5e b3 bc bc 1e 63 be ae 06 a9 3e
       0.12621486 -0.021895723 -0.22179693 0.3301291
000080 38 83 4c be e3 03 a7 bb b9 71 dd 3d f5 e7 40 3d
       -0.19971931 -0.005096899 0.108127065 0.04709621
000090 8d 79 59 3e 3d 9f 9a 3e bd e9 73 be 38 bf 13 3c
       0.21237774 0.30199614 -0.23819633 0.009017758
0000a0 f5 69 e6 3c 9b 6c 58 be dc f7 45 ba e5 5d 41 be
       0.028126696 -0.2113518 -0.00075518875 -0.18883474
0000b0 47 c5 a5 3d 69 02 c5 bd 65 15 76 3e 1f ca 60 3d
       0.08094268 -0.096196 0.24031599 0.054880258
0000c0 c8 c4 23 be b4 db 5e be d4 74 83 3d 19 86 d8 bb
       -0.15993035 -0.21763498 0.064187676 -0.0066077826
0000d0 e2 83 1d be fe 44 ed bb da 5c f5 bd 15 35 e8 3d
       -0.1538234 -0.0072408905 -0.11980601 0.113382496
0000e0 e1 18 47 3e 49 a8 92 3d de 4c 61 bd 45 d5 72 3d
       0.19443084 0.07161004 -0.055004947 0.05928542
0000f0 8f 68 92 3c 93 6f 6f 3d f4 55 d0 bd 73 20 32 bd
       0.017872123 0.058456015 -0.10172644 -0.043487977
000100 26 48 4e 3d 7c 4e 88 3d ed f0 ef bd b8 a8 a8 3d
       0.050361775 0.06655595 -0.11715875 0.082353055
000110 24 90 68 3d 76 86 70 3c ea 6b c6 3d 93 6e e6 3d
       0.05677809 0.0146804955 0.09688552 0.11251559
000120 45 9d 1e 3e 22 78 55 bd 89 26 02 3e 57 ec ad 3d
       0.15489681 -0.05211652 0.12710012 0.08492344
000130 72 51 35 bb 24 b4 e2 bc 4e 8f 84 3d bc 5e 36 3e
       -0.0027666953 -0.027673788 0.06472646 0.17809576
000140 f2 49 e6 bd 93 ae b0 bc 70 94 43 bd ff ab 69 bd
       -0.11244573 -0.021567618 -0.047748983 -0.057048794
000150 d9 83 3f 3d cb 49 1a 3e af 7e 02 be 5c 5b ac 3d
       0.0467566 0.15067212 -0.12743638 0.08415863
000160 06 5a 1a bc 52 89 9f bd 8b aa 2d 3d ff 98 2e 3d
       -0.009420877 -0.07789864 0.04239897 0.042626377
000170 fa ab 0e bd 01 56 b5 3c d0 6b ad be 93 2d 9c 3d
       -0.03483198 0.022135736 -0.33871317 0.0762588
000180 72 79 99 ba 2b d8 17 3e d4 66 69 bc 56 8c f4 bc
       -0.0011709167 0.14828555 -0.014245708 -0.029852074
000190 3c 6f f1 be 5b d5 78 be ed 91 d1 3e d4 3a 9b 3d
       -0.47155178 -0.24300139 0.40931645 0.0757958
0001a0 1c 07 8b bc a4 d2 fa be 79 89 13 bd ce 31 9d be
       -0.016971163 -0.4898883 -0.036019776 -0.3070206
0001b0 ce f1 86 3e c7 a2 f5 bd 1b 5c 36 3e f8 11 09 bf
       0.26356357 -0.11993938 0.17808573 -0.53543043
0001c0 d8 8f e7 3e 54 48 3d be 15 95 82 be 8e 9c a5 be
       0.45226932 -0.18484622 -0.25504366 -0.32346004
0001d0 9e aa 9b 3e e4 82 9b be 7c c4 7e be 4a fa 1c 3e
       0.30403608 -0.303733 -0.2487964 0.15329853
0001e0 7f c1 ac be e7 09 a1 be 6f 31 12 bf 12 c3 8f 3e
       -0.33741376 -0.31452867 -0.5710668 0.28078514
0001f0 a3 dc d2 be 23 41 e5 3d 5c 83 83 bc 99 23 5c 3e
       -0.41183957 0.111940645 -0.016053848 0.21497954
000200 c7 60 d8 bd 48 51 2e 3d 68 3a 37 3e 1f bb a0 be
       -0.10565334 0.042557985 0.17893374 -0.31392762
000210 a0 6a 7c 3e 09 a3 ed bc eb 1d 7d be d1 7e 8c be
       0.24650049 -0.029008405 -0.24718444 -0.27440503
000220 75 63 8f bd 9e 9d 40 bf 07 42 25 3e e3 85 8d 3e
       -0.07001392 -0.75240505 0.16138469 0.2764121
000230 9b a8 96 be 79 37 52 3f e5 5b 78 3e 05 d2 e1 3d
       -0.2942551 0.82115895 0.24253805 0.11026386
000240 d5 80 28 3e e7 7d e0 3e 5e ed 69 be 5b 49 01 bf
       0.16455396 0.43846056 -0.22844455 -0.50502557
000250 12 c8 b3 3d d4 05 03 3f 4b b3 05 be 2b 23 d1 3d
       0.08778395 0.5118077 -0.13056676 0.10211786
000260 01 a2 c7 bd ba 40 96 3e 31 dd 91 3e bf dc de bd
       -0.09747697 0.29346257 0.28489068 -0.10881948
000270 7a 24 3d bd aa e8 e9 3d 54 31 ad bd aa fd 92 3e
       -0.046177365 0.1142133 -0.08456674 0.28709155
000280 39 74 54 3e cd 12 7e be e1 fa 31 be bf 27 88 3e
       0.2074746 -0.2481186 -0.17380859 0.26592824
000290 06 7c 62 3c b8 de a0 bd 4d b2 ae bd a9 29 e9 bc
       0.013823515 -0.0785498 -0.08530102 -0.028462248
0002a0 33 f9 13 3e 43 78 1f be ba a4 1a 3e e2 f9 4d 3e
       0.1445053 -0.1557322 0.151019 0.20114854
0002b0 2a c3 90 bd df 6c f0 bd 2d c7 20 3d 8e 10 3e 3d
       -0.070684746 -0.117395155 0.03925245 0.046402507
0002c0 4f 83 a8 3e 02 86 1a bc 49 b7 73 3e 67 64 e8 bc
       0.3291268 -0.009431364 0.23800386 -0.028368188
0002d0 5b 7d 9d bd f8 30 34 3e 3d 80 f8 bd c1 20 25 bd
       -0.07689925 0.17596805 -0.121338345 -0.04031444
0002e0 ca e3 e9 3c c3 7c e7 3d 0e ab 31 3e eb 42 09 3e
       0.028551001 0.11303093 0.17350408 0.13404433
0002f0 4e bb 00 be 65 e4 48 bc ef 44 af 3b c0 f5 ce 3d
       -0.12571451 -0.012261485 0.0053487937 0.10105467
000300 81 37 5b 3c 3a b4 18 be a0 41 e4 3d e9 42 96 3e
       0.013379932 -0.14912501 0.111453295 0.29347923
000310 a7 db 3e 3e 36 b5 d0 bd 12 13 1d bd 9b 25 fd 3c
       0.18638478 -0.10190813 -0.038348265 0.03090172
000320 fd 82 a5 3d cd 22 b0 3d ef 8d 12 be 22 23 f9 3d
       0.08081625 0.08600388 -0.14311956 0.12164904
000330 64 07 fa 3d f3 54 bb 3d 76 0d ac 3d 14 2e 32 3e
       0.12208441 0.09147062 0.08401005 0.1740039
000340 17 bb 1e be 36 a3 28 3e 6f 4d 6d 3e 1d e4 df bc
       -0.15501057 0.1646851 0.2317407 -0.027330453
000350 99 89 82 be aa 29 48 3e 23 36 e8 3d 9b 2d 9a 3d
       -0.25495604 0.19547144 0.11338451 0.0752823
000360 17 63 51 be 39 3b cd 3d e9 5a 26 3e 17 cf de bd
       -0.20447956 0.100210615 0.16245617 -0.10879343
000370 54 db 40 3e 7b 4b 78 3e 8a dc f5 3d 1e 52 13 be
       0.18833667 0.24247544 0.12004955 -0.14386794
000380 14 b0 36 3e 25 4c de 3d 3c 07 3f 3e 2b cd 77 bd
       0.17840606 0.10854367 0.18655103 -0.060498398
000390 1c 75 23 3e 4e 77 47 ba a0 04 f1 bd ad 69 53 3e
       0.15962642 -0.00076090253 -0.1176846 0.20645781
0003a0 8c 36 a4 bd 76 1c 7c bd d8 9f 34 3e 39 44 15 3e
       -0.080182165 -0.06155058 0.176391 0.14576806
0003b0 a2 b4 77 3d 8f 2e 70 3e 59 88 05 be 3c e0 de bd
       0.060475 0.2345526 -0.13040294 -0.10882613
0003c0 05 b3 d4 3d 53 49 27 3b 9d d2 90 bd a5 32 c8 bd
       0.10385708 0.0025525882 -0.07071421 -0.09775285
0003d0 1a 75 22 be 69 03 d3 3d f7 bc 09 3e 70 ea ac 3d
       -0.15864983 0.10303385 0.1345099 0.08443153
0003e0 3c 0d 4e bd d6 af 8f bd 87 bc 4a 3e e2 99 39 3e
       -0.05030559 -0.0701596 0.1979848 0.18125108
0003f0 be 0e 32 be 71 7e ff 3b ae dd 01 3e 90 60 4b 3e
       -0.17388436 0.0077970554 0.1268222 0.19861054

shared_encoder.gru_left.bias_ih_l0 f4 [150]
000000 fb cf db bd 15 ee 40 3d d3 d9 ae 3e a5 96 c8 3d
       -0.107330285 0.047102053 0.34150562 0.09794358
000010 d9 4e 15 3d 32 27 13 be 15 38 21 bd ab 84 2c bb
       0.036452148 -0.1437042 -0.039360125 -0.0026324193
000020 09 2d 7d bd 9c da 9a 3d cd 32 f0 3c 31 91 ff bb
       -0.061810527 0.07561228 0.029321099 -0.0077992906
000030 5e 5f f3 3b 52 08 bb 3c 07 6e ab bc 93 33 18 be
       0.00742714 0.022831116 -0.020926489 -0.14863424
000040 76 35 42 be b6 a9 59 be 78 f0 72 3c 44 6b 3b bc
       -0.18965706 -0.21256146 0.01482784 -0.011439148
000050 60 3a 7b 3c 1d 57 2a 3d a6 69 22 be 29 a6 c7 3c
       0.015333742 0.041586984 -0.15860614 0.024371224
000060 2a 1a ca bd 53 dd d5 bb 97 90 c7 3d 7d 09 18 be
       -0.09868272 -0.006526628 0.09744375 -0.1484737
000070 3d 06 ce 3d aa 00 3a 3d 09 34 4c bd c5 77 7f bc
       0.100597836 0.04541079 -0.049854312 -0.01559252
000080 3d f9 7a 3d 9f 5e 40 3d f6 2c 81 bd 5a ea ef 3d
       0.06127285 0.046965238 -0.06307404 0.11714621
000090 41 19 0e 3d bb f7 cf 3c e1 d2 fc bc 91 41 19 bd
       0.034692053 0.025386682 -0.030862274 -0.037416045
0000a0 30 87 02 bd c6 d8 f9 bd 3b e9 cd bd c3 89 7a 3d
       -0.031867206 -0.121995494 -0.10054251 0.061166536
0000b0 42 0a 1b 3d 0d b3 21 3d 3b 82 03 3d c2 d7 47 be
       0.03785158 0.039477397 0.03210662 -0.19515899
0000c0 2a 34 43 bd be 6b 1a bd 7c b8 1e be 53 59 96 bd
       -0.04765717 -0.037700407 -0.15500063 -0.07341256
0000d0 50 c5 2c bf 47 f4 78 bd 91 a7 91 3c db d3 d0 bd
       -0.67488575 -0.060779836 0.017780097 -0.10196658
0000e0 d6 65 92 3d 58 28 8a bc 2b 60 ad 3d 02 bc b9 bd
       0.0714833 -0.01686494 0.08465608 -0.09069063
0000f0 d4 2f e5 bd 33 08 1e bd 3e 93 0d 3d 78 f6 4f 3c
       -0.11190763 -0.038582038 0.03456425 0.01269304
000100 ef 00 84 bd 33 5d 8f bd 98 13 3d 3d 07 7a c2 3d
       -0.064454906 -0.07000198 0.046161264 0.09495931
000110 18 63 0e 3c 57 de cf 3d ff ef c0 bc 71 b6 9d bd
       0.008690618 0.1014983 -0.023551939 -0.077008136
000120 b5 f5 f5 bd 7b 7c a9 bd 77 c2 3a 3c 82 99 be 3d
       -0.120097555 -0.08275696 0.011398903 0.09306623
000130 19 c4 9c bd 9e 0b 8f 3e 34 b9 11 be f2 fd 2d be
       -0.0765459 0.2793855 -0.14230806 -0.16991404
000140 31 99 11 3e 81 28 a4 3d de e4 31 be ce 08 b4 bd
       0.14218594 0.08015538 -0.17372462 -0.08790742
000150 47 ca ec 3c 16 40 36 bf 67 15 9d 3b 27 72 93 3b
       0.028905047 -0.7119154 0.004793811 0.004499692
000160 bb e2 bc 3d 7c 90 19 be ac 11 94 bd e8 5d 8a 3e
       0.09222933 -0.14996523 -0.07229933 0.2702477
000170 7a a1 a0 3d 26 9f 86 bd cd 1d 53 be 6b fa e3 bc
       0.07843299 -0.06573324 -0.20616837 -0.02782937
000180 04 36 48 bb f9 42 bf bc 3e f9 0a 3e 89 c2 e3 3d
       -0.0030549774 -0.023347365 0.13571641 0.11121089
000190 3a c3 d0 bc 9b c9 0a 3c d1 c7 54 3d 49 ac 95 bb
       -0.025483716 0.008470918 0.051948372 -0.004567657
0001a0 45 2d 54 3c 3f 87 f5 bc 76 35 92 bc 1d a4 7b 3b
       0.012950246 -0.029971717 -0.017847758 0.003839738
0001b0 e6 7c 54 bc cc 58 30 bc c6 e6 4a bc 14 0c 50 bd
       -0.012969231 -0.010763358 -0.012384122 -0.05079277
0001c0 00 b9 38 3c 4a 4b 9e 3b 22 70 8a 3c 5f 97 be 3c
       0.011274576 0.0048307525 0.016899172 0.023265539
0001d0 2e 63 b7 b9 9f 4d 14 3c 3f 17 81 3a 2e 72 32 bc
       -0.00034978375 0.009051709 0.0009848847 -0.01089148
0001e0 55 fb 34 bb 02 38 51 bb a4 8d 6b bd 9a 42 ad bb
       -0.0027615626 -0.0031924252 -0.057508126 -0.0052874805
0001f0 43 a2 04 3c fd 6d bb bb ed d2 cc bb 60 a4 1b bc
       0.008095327 -0.0057198987 -0.0062507303 -0.009499639
000200 8e a4 4b 3b 00 b1 02 bd a9 5d 82 bb 02 48 14 3c
       0.0031073424 -0.03190708 -0.0039784503 0.009050371
000210 c1 e3 b2 39 4e f3 ee 3c 9f 3e 93 3c 35 74 4f 3d
       0.00034120496 0.029168751 0.017974196 0.050647933
000220 47 a9 60 3c a9 f1 28 bd 94 55 21 bc a4 26 47 bc
       0.013712234 -0.04124609 -0.009847064 -0.012155209
000230 dc 35 96 3c 8d 76 a9 3c b6 8a b5 bc d0 61 83 bb
       0.018336229 0.020686412 -0.02216087 -0.004009463
000240 55 86 fd 3c db 48 7c 3c 8c 0e 3f 3a 7b 70 8a bb
       0.030947844 0.0153982295 0.00072882394 -0.0042248345
000250 f2 fb 84 bc 60 05 6b 3c
       -0.016233418 0.014344543

shared_encoder.gru_left.bias_hh_l0 f4 [150]
000000 ea cf db bd 22 ee 40 3d d2 d9 ae 3e a4 96 c8 3d
       -0.10733016 0.0471021 0.3415056 0.097943574
000010 d6 4e 15 3d 32 27 13 be 0c 38 21 bd d2 84 2c bb
       0.036452137 -0.1437042 -0.03936009 -0.0026324284
000020 05 2d 7d bd a4 da 9a 3d d1 32 f0 3c 2f 91 ff bb
       -0.061810512 0.07561234 0.029321106 -0.0077992897
000030 33 5f f3 3b 49 08 bb 3c 0f 6e ab bc 97 33 18 be
       0.00742712 0.0228311 -0.020926503 -0.1486343
000040 76 35 42 be ae a9 59 be 56 f0 72 3c 48 6b 3b bc
       -0.18965706 -0.21256134 0.014827808 -0.011439152
000050 76 3a 7b 3c 1a 57 2a 3d a7 69 22 be 41 a6 c7 3c
       0.015333762 0.041586973 -0.15860616 0.024371268
000060 2f 1a ca bd d7 dd d5 bb 95 90 c7 3d 73 09 18 be
       -0.098682754 -0.0065266895 0.09744374 -0.14847355
000070 3f 06 ce 3d b6 00 3a 3d 08 34 4c bd 11 78 7f bc
       0.10059785 0.045410834 -0.04985431 -0.015592591
000080 2c f9 7a 3d a9 5e 40 3d f4 2c 81 bd 54 ea ef 3d
       0.061272785 0.046965275 -0.06307402 0.117146164
000090 49 19 0e 3d b1 f7 cf 3c dc d2 fc bc 93 41 19 bd
       0.034692083 0.025386663 -0.030862264 -0.037416052
0000a0 27 87 02 bd d2 d8 f9 bd 3f e9 cd bd cb 89 7a 3d
       -0.031867173 -0.12199558 -0.10054254 0.061166566
0000b0 53 0a 1b 3d 0e b3 21 3d 5a 82 03 3d c7 d7 47 be
       0.037851643 0.0394774 0.032106735 -0.19515906
0000c0 37 34 43 bd c0 6b 1a bd 78 b8 1e be 53 59 96 bd
       -0.047657218 -0.037700415 -0.15500057 -0.07341256
0000d0 55 c5 2c bf 3b f4 78 bd 62 a7 91 3c df d3 d0 bd
       -0.67488605 -0.06077979 0.01778001 -0.10196661
0000e0 e1 65 92 3d 58 28 8a bc 35 60 ad 3d 04 bc b9 bd
       0.07148338 -0.01686494 0.08465616 -0.09069064
0000f0 cd 2f e5 bd 46 08 1e bd 3e 93 0d 3d 80 f6 4f 3c
       -0.11190758 -0.03858211 0.03456425 0.0126930475
000100 e8 00 84 bd 43 5d 8f bd a1 13 3d 3d 08 7a c2 3d
       -0.06445485 -0.0700021 0.046161298 0.09495932
000110 1d 63 0e 3c 4f de cf 3d d2 ef c0 bc 77 b6 9d bd
       0.008690623 0.10149824 -0.023551855 -0.07700818
000120 b7 f5 f5 bd 74 7c a9 bd 3f c2 3a 3c 86 99 be 3d
       -0.12009757 -0.08275691 0.011398851 0.09306626
000130 1c c4 9c bd 9f 0b 8f 3e 27 b9 11 be ff fd 2d be
       -0.076545924 0.27938554 -0.14230786 -0.16991423
000140 2e 99 11 3e 81 28 a4 3d ed e4 31 be c8 08 b4 bd
       0.1421859 0.08015538 -0.17372485 -0.087907374
000150 70 ca ec 3c 10 40 36 bf 00 16 9d 3b d4 70 93 3b
       0.028905123 -0.711915 0.0047938824 0.004499534
000160 b7 e2 bc 3d 80 90 19 be ba 11 94 bd e9 5d 8a 3e
       0.0922293 -0.14996529 -0.072299436 0.27024773
000170 84 a1 a0 3d 1a 9f 86 bd ca 1d 53 be 6f fa e3 bc
       0.07843307 -0.06573315 -0.20616832 -0.027829377
000180 75 38 48 bb ed 42 bf bc 3c f9 0a 3e 8e c2 e3 3d
       -0.003055123 -0.023347342 0.13571638 0.11121093
000190 ed f6 84 bc 88 c4 10 3c 90 4a 34 3d 66 ca f3 bb
       -0.016231025 0.008835919 0.04401642 -0.0074398993
0001a0 36 f4 6b 3c 75 47 f7 bc db 26 65 bc 07 89 4c 3c
       0.014401486 -0.03018544 -0.013986315 0.012483842
0001b0 2b cc 09 bc 55 01 4b 3b 87 71 ad bb e9 47 69 bd
       -0.008410494 0.0030976136 -0.0052930745 -0.056953344
0001c0 8f bf 92 3b 62 30 2e 3c dc 8c 5c 3c a4 dc af 3c
       0.004478402 0.010631653 0.013461318 0.021467514
0001d0 c7 a0 dd bb be df e6 3b a0 ce de 3b a5 6d c5 bb
       -0.006763551 0.007045715 0.006799534 -0.0060250335
0001e0 36 cb f5 3b b1 5e 93 3c e1 01 81 bd c0 b6 f6 bb
       0.0075010313 0.017989488 -0.062991865 -0.0075291097
0001f0 01 41 fe 3b 70 29 41 b8 fd 90 d1 3b 80 c9 cc bb
       0.007759214 -4.6053377e-05 0.006395458 -0.0062496066
000200 2e 25 bc 3b 17 a5 c3 bc 15 af 93 ba ca 78 94 3b
       0.005741737 -0.023882432 -0.0011267388 0.0045310007
000210 a5 69 69 bb bc f6 7f 3c d3 85 fa 3b a7 ac 75 3d
       -0.0035615948 0.015622791 0.0076453476 0.059979107
000220 5f c1 1e 3c 15 71 d4 bc b3 18 9a bb a9 d5 13 bc
       0.009689658 -0.025932828 -0.0047026514 -0.0090231085
000230 84 b0 88 3c 0f 7f ab 3c b0 74 a5 bc c8 87 44 bc
       0.016685732 0.02093461 -0.020197242 -0.011995263
000240 f5 db 85 3c 1c d2 c6 3c 1f 42 3b 3c 50 a4 a6 bb
       0.016340235 0.02427011 0.011429339 -0.0050855055
000250 dd f5 2d 3a e7 6b 41 3c
       0.0006636063 0.011805511

shared_encoder.gru_left.weight_ih_l0_reverse f4 [150, 50]
000000 f4 76 c8 3d f1 80 9a bd dd 45 f5 bd 60 bf 7c 3d
       0.097883135 -0.07544125 -0.11976216 0.061705947
000010 48 10 2b 3d 30 26 92 3d e5 07 a1 bd 9b 39 36 bd
       0.041763574 0.0713619 -0.07862834 -0.04448853
000020 c1 6e 25 bd 5f 5f dd 3c 30 77 24 bc 93 cd da 3d
       -0.040388826 0.027023016 -0.010038182 0.106837414
000030 bb a7 d5 bd e0 fa 24 be e5 d3 0f 3e 25 1d 99 be
       -0.10432383 -0.16111326 0.14045675 -0.29905048
000040 81 37 ab 3d e7 8b 04 3d 4b 28 c3 bd 98 3e a5 3c
       0.08360196 0.032359984 -0.0952917 0.020171449
000050 6e 6c d4 bd d7 51 d3 bd c0 82 52 3c 0e b3 ce bb
       -0.10372244 -0.10318344 0.012848556 -0.006307966
000060 fa 6f f2 3d 0e f5 00 bc 4c dc 9f 3d 07 b2 4a 3e
       0.11837764 -0.007870926 0.0780569 0.19794475
000070 5f 33 fc 3d 09 11 62 bd 20 6b b5 bb 9c da 0f bc
       0.12314486 -0.055192027 -0.005536452 -0.008780148
000080 73 67 b4 bd 88 2c e8 bd 2d 68 0d be 6b ca 9a bd
       -0.08808794 -0.11336619 -0.13809271 -0.075581394
000090 3b 4f 90 3d 4f 8b 74 3d 5d 07 45 bd 04 92 1e 3e
       0.07046362 0.059703168 -0.048102725 0.15485388
0000a0 d1 df 17 3e c3 98 3a bd f8 dc 8d bc 5c 58 1f 3d
       0.14831473 -0.04555584 -0.01731728 0.038902625
0000b0 aa 1b 98 bd d3 16 b5 bd 6d 15 b6 3d ee 77 89 bd
       -0.074271515 -0.08842244 0.088908054 -0.06712328
0000c0 2d 61 9d bd 4c de b6 3c 00 30 8c 3d a0 1f c9 bc
       -0.076845504 0.022322796 0.06845093 -0.024551213
0000d0 7e 15 9d 3a db 6b 8d 3d c6 67 05 bd e0 e2 67 3d
       0.0011984555 0.069053374 -0.03256967 0.05661285
0000e0 00 3d 7e bd 39 f8 e9 3d db d7 02 bd 77 7d 1c bc
       -0.062069893 0.11424298 -0.031944137 -0.0095513975
0000f0 58 9a 28 3d 54 a5 15 3d a7 58 1a ba d7 70 2b 3e
       0.04116282 0.036534622 -0.0005887844 0.16742264
000100 20 53 16 3d 28 d4 48 3d 13 72 52 3b db 37 44 3c
       0.036700368 0.049030453 0.003211145 0.011976208
000110 26 64 42 bc 84 6a 7a 3c 7e 11 65 bd 3e e6 b0 3d
       -0.011864698 0.015284184 -0.055924885 0.08637665
000120 6b 74 e1 3b f3 4c 56 bb 1d 67 ac 3d 2c 02 98 bc
       0.006880333 -0.0032699674 0.08418105 -0.018555723
000130 a9 9d 80 bc 79 89 ca bd 4d 8c 2a be d0 70 e5 bb
       -0.015700178 -0.09889502 -0.16655083 -0.0070019737
000140 e6 40 12 3d 41 1e 69 3d 2e e5 35 bd bb 89 a1 bd
       0.035706423 0.056913618 -0.044408016 -0.07887598
000150 eb 31 17 3e 5f d0 8a bd f6 2e 56 3c 31 bc fb 3c
       0.14765136 -0.06778025 0.01307272 0.030729385
000160 7a b0 05 3b 23 78 91 3d 44 e1 1e bd 85 6f 0f be
       0.0020399378 0.071029924 -0.03878905 -0.14007385
000170 51 29 87 bc 0b 59 e6 bd 1c bb 9e 3c 5d 99 3b 3d
       -0.016499193 -0.11247452 0.01937633 0.045800555
000180 39 55 0f 3d 80 34 9b 3d 5c f7 be 3d 1e 7b 05 bd
       0.034993384 0.07578373 0.09324524 -0.032588117
000190 c0 66 17 3e eb 4c 21 be bf 3e cf bd 13 9e ea 3d
       0.1478529 -0.15751998 -0.1011939 0.114559315
0001a0 61 31 73 3d f8 9c 43 3e 43 c3 16 be 44 16 0c be
       0.059373263 0.19102848 -0.14722924 -0.13680369
0001b0 be 0e 4c bd 38 a5 c0 3d d5 62 18 bd 0d ba ee 3d
       -0.049818747 0.09406513 -0.03720363 0.1165658
0001c0 4f 15 20 be 9b 39 81 be 91 07 32 3e aa f6 cb be
       -0.15633129 -0.25239262 0.17385699 -0.39836627
0001d0 50 2f 7a 3d 9a 46 d1 3d 35 a0 23 be f7 e7 88 3d
       0.061080277 0.10218544 -0.15979083 0.06684869
0001e0 42 35 17 be 9e 35 f4 bd e2 1a df 3c 74 1c 96 3b
       -0.1476641 -0.11924289 0.027234498 0.0045810286
0001f0 21 99 1d 3d 52 4b 5a 3c cc 8d 27 3d 9d ae a8 3e
       0.038476113 0.013323622 0.040906712 0.3294572
000200 18 e2 54 3e 4c 42 78 bd 98 bc 9f 3d 0e d4 21 bd
       0.20789373 -0.0606101 0.07799643 -0.03950887
000210 76 49 17 be 6b 49 28 be 42 d5 38 be 5f a8 51 be
       -0.14774117 -0.16434257 -0.18050101 -0.20474385
000220 84 5e 3e 3e 18 91 f0 3d 98 67 ff bc fa ae 5d 3e
       0.18590742 0.117464244 -0.031177327 0.2164878
000230 49 ad 6b 3e 23 a2 50 3d 2c 61 b4 bd b9 6a f6 3d
       0.23015322 0.050935876 -0.088075966 0.120320745
000240 ad c2 80 bd 76 e4 35 be a7 73 06 3e c8 fd 22 be
       -0.062871315 -0.17762932 0.13130055 -0.15917122
000250 a7 fb 3e be 13 56 9b 3c 3e 4d 52 3c 32 89 85 3d
       -0.18650685 0.018961942 0.012835799 0.065203086
000260 5d 58 2d be 0a 1f 3e bb 67 94 db 3d b4 c4 5c bd
       -0.16928239 -0.00290102 0.10721665 -0.05389853
000270 a3 b6 a3 3d 2b dc ec 3c fd d0 88 3d ad 0d 99 bd
       0.079938196 0.028913578 0.06680486 -0.074733116
000280 77 e5 bb 3d 61 d2 84 bd 9a 4f b9 bd 76 84 8b bd
       0.09174626 -0.06485439 -0.09048386 -0.06812374
000290 dc f4 1f 3d c6 bd 84 be f7 8a 05 3e b7 fb d7 bd
       0.039051875 -0.25926036 0.13041292 -0.10546058
0002a0 a8 29 83 3d b2 57 9f bd de fd d8 bc 98 d5 ff bd
       0.0640443 -0.077803984 -0.02648824 -0.12491912
0002b0 f9 5e bb bd a1 63 bc bd be 25 24 3e 87 88 14 3d
       -0.09148974 -0.0919869 0.16030023 0.036263015
0002c0 cf 9c 14 3e fd 25 f2 3c 76 68 c4 3b 01 5b 1f 3d
       0.14512943 0.02955913 0.005993898 0.038905147
0002d0 e0 d2 c5 bd 46 19 1c 3d c9 f7 57 3c bd 55 f0 bc
       -0.09659362 0.03811004 0.013181635 -0.029337758
0002e0 0b b3 0b be c3 e4 1b 3d 34 ed 74 bd cd 1d 1b bd
       -0.13642518 0.03805996 -0.059796527 -0.037870217
0002f0 eb e6 e2 bd 09 26 05 3c 30 9d 34 3e 67 24 19 be
       -0.110792 0.008126744 0.17638087 -0.14955293
000300 7a 04 54 3d 41 58 98 bd ca a2 fe bd df dd 44 3d
       0.05176208 -0.07438708 -0.12433393 0.048063155
000310 03 ff 89 bc 6c 33 5a 3d 2f a0 94 bc 49 7d db 3d
       -0.016845232 0.053271696 -0.018142788 0.107172556
000320 db b8 9a 3d 48 43 d4 bd 62 d7 00 be c9 54 00 3d
       0.0755479 -0.103643954 -0.12582162 0.031330857
000330 ca ee 4f 3d 71 9f b4 3d a5 d9 7b bd 86 53 bb bd
       0.050764836 0.088194735 -0.06148686 -0.0914679
000340 7c 6b e9 bc c0 68 f1 3c 5d 32 02 3d 3b 8e 8a 3d
       -0.028493635 0.029468894 0.03178631 0.067654096
000350 13 a0 21 be 40 d3 1f be 4b 5d e4 3d f9 b6 a5 be
       -0.1578372 -0.15607929 0.11150607 -0.3236616
000360 5c d9 6e 3d de 8c be 3c 99 b4 8b bd 7a f2 e5 3b
       0.05831276 0.02326053 -0.06821556 0.007017431
000370 46 a1 f9 bd 25 41 f7 bd 70 49 10 bd 30 7e 84 bc
       -0.121889636 -0.12072972 -0.035226285 -0.016173452
000380 fc b7 1d 3c 34 8d 02 3d c4 70 9d 3d 4f 02 36 3e
       0.009626385 0.031872943 0.07687524 0.17774318
000390 cf 95 ec 3d b3 76 03 bd 84 f6 30 3c f7 72 91 3c
       0.11552011 -0.032095622 0.010800961 0.017755015
0003a0 a0 e3 ba bd 61 76 b2 bd 4a 6b 18 be d0 34 d8 bd
       -0.09125447 -0.08713985 -0.14884678 -0.10556948
0003b0 fa 6a 42 3d c0 12 19 3d d3 00 57 bd af 15 ff 3d
       0.047465302 0.037371397 -0.05249102 0.12455308
0003c0 30 b9 51 3e 3f 23 55 b9 97 96 01 bd d0 43 6d 3d
       0.204808 -0.00020326393 -0.031637754 0.057926
0003d0 e1 d6 ee bd 85 7b 58 bd e8 49 8f 3d d3 01 93 bd
       -0.11662079 -0.052852172 0.069965184 -0.07178082
0003e0 26 6e 2f be 34 33 a8 3c 69 d7 ee bc a2 10 cb bc
       -0.17131862 0.020532228 -0.02915545 -0.024788205
0003f0 cd ce 1a be a7 d6 29 bd cf 88 4b 3e 04 91 3e 3c
       -0.1511795 -0.041464474 0.19876407 0.011631254

shared_encoder.gru_left.weight_hh_l0_reverse f4 [150, 50]
000000 52 d7 95 bd e3 ff d3 3d a2 35 cd 3d 49 ef fa bd
       -0.0731646 0.10351541 0.10019995 -0.12252671
000010 52 e0 af bc e0 7a 39 3d 79 cc 61 bd 88 aa 06 be
       -0.021469269 0.0452832 -0.05512664 -0.1315099
000020 e5 3b c3 bd 2a 8e 52 bd cb 45 b6 3d b3 e5 26 3e
       -0.09532908 -0.05140511 0.08900031 0.16298561
000030 d8 44 d3 3d 6c d4 e7 3d 7c 19 f1 bd 23 73 dd bd
       0.10315865 0.11319813 -0.11772439 -0.10812976
000040 1c 7f 9f 3d 74 c8 d0 bd 21 c1 b7 bd ef 11 de 3d
       0.07787916 -0.101944834 -0.08972383 0.10843264
000050 5f a6 c3 3d 24 38 be 3d 9c 82 84 3d a5 68 0f bc
       0.09553217 0.09288052 0.06470224 -0.008752977
000060 56 e7 60 bd 7c 98 82 bd a2 96 79 3d b0 27 d6 bc
       -0.05490812 -0.0637674 0.06093467 -0.026141971
000070 4f 43 10 bd d0 90 35 3e 08 b4 1f 3e a0 dc e7 3d
       -0.03522044 0.17731023 0.1559602 0.11321378
000080 d8 9f 5c bd a0 b9 b4 3d 46 8b 74 3d 97 c3 1c bd
       -0.053863376 0.08824468 0.059703134 -0.038272467
000090 6b df 29 be 75 35 50 3e 71 8e 2d 3e 55 5b 09 be
       -0.16589133 0.20332892 0.16948868 -0.13413747
0000a0 3b 1a 5b 3d 50 05 eb bd f3 b3 fe 3c 67 be 0f bc
       0.053491812 -0.11475623 0.031091666 -0.008773423
0000b0 68 aa 4d bd 89 fa 64 bd 57 9e d2 bc 29 1d aa bc
       -0.05021134 -0.05590299 -0.025710268 -0.020765858
0000c0 bc d5 ec 3c 63 69 dc 3d 14 5b 7e bd af 0b 78 bc
       0.02891051 0.107622884 -0.062098578 -0.015139504
0000d0 14 b3 cb 3c 02 c8 a3 bd e5 08 14 bd 40 14 28 bc
       0.024865665 -0.07997133 -0.036141295 -0.010258734
0000e0 10 af 09 be e8 55 a1 bc 5b 6e c0 bc 97 d9 d1 bc
       -0.13445687 -0.019694284 -0.023490122 -0.02561645
0000f0 64 0c c7 3c 07 5b 98 bd 60 f7 05 3c fe 69 6e 3d
       0.0242979 -0.07439237 0.008176655 0.05820655
000100 c4 6e c7 bc 4e 5c 41 bd f1 56 91 bc bf 9f 1b bd
       -0.02434481 -0.04720717 -0.017741652 -0.037994143
000110 b0 07 9d bd 5e d3 65 bd 6b c5 41 3d 5f d3 9f 3d
       -0.07667482 -0.05610978 0.047307413 0.07803988
000120 bc fa 53 bd 8e a6 d0 3d 55 36 83 bb 06 f8 91 bd
       -0.05175279 0.10188018 -0.0040042796 -0.07127385
000130 42 9e 2e bd bf 29 bf 3c 10 02 e1 bb e4 cf 38 bc
       -0.042631395 0.023335336 -0.006866701 -0.011280034
000140 24 65 71 3d 85 d7 9b bc ec db b4 bd 06 fb 4e bd
       0.058934346 -0.019023666 -0.08831009 -0.050532363
000150 ea f1 dc bd 70 43 45 bd 04 49 94 3d 3a e6 13 3c
       -0.10788329 -0.048160017 0.07240489 0.009027058
000160 a5 64 66 3d 46 15 1c bd c1 cf e7 3c d6 e9 23 bd
       0.056248326 -0.038106225 0.028297307 -0.040017925
000170 02 7e 06 3c 4e b6 54 3d 66 e7 09 3d 4b 5d d6 bd
       0.008208754 0.05193167 0.033667944 -0.10467013
000180 37 2d 0c bc 1b bd 72 3c 54 dc a0 3b a9 2b b2 3d
       -0.008555702 0.014815594 0.0049090777 0.08699734
000190 26 e3 bb bd 16 46 cc 3d c6 18 74 3e 25 e0 fb bd
       -0.091741845 0.09974305 0.23837575 -0.122986116
0001a0 a0 c4 6a bd be 10 11 bc ed 24 81 bd 4b 90 21 bd
       -0.057316422 -0.008854089 -0.06305871 -0.03944425
0001b0 33 90 be bd 34 8a 92 bd b1 9b 89 3d 41 fe 0c 3e
       -0.093048476 -0.071552664 0.06719149 0.13768865
0001c0 c2 b7 92 3d ed 84 f5 3d 9a 87 93 bd 76 37 ae bd
       0.07163955 0.11988244 -0.07203598 -0.08506672
0001d0 2f 97 4e 3e 01 ed bd bd a5 14 b6 bd d6 32 29 bd
       0.2017486 -0.092737205 -0.088906564 -0.041308247
0001e0 41 42 53 3d 2f 65 96 3d 74 7d 22 3e c8 f2 72 3a
       0.051576857 0.07343518 0.15868169 0.00092677446
0001f0 a2 e2 d0 bd 91 ae 80 bd 7b 79 dd 3d 32 86 5e 3c
       -0.10199477 -0.06283296 0.10814186 0.013581799
000200 9b d3 30 bd bd ba 9f 3d 07 7a 2c bd d6 dd 33 3e
       -0.043170553 0.077992894 -0.04210856 0.17565092
000210 94 b3 33 bd c7 ef 20 3e 01 4e 1a bd 45 a6 98 3c
       -0.04387243 0.15716468 -0.037672047 0.018633971
000220 39 39 0e bd 34 4e 03 3d 68 32 20 3e e1 b7 1a be
       -0.03472254 0.032057002 0.15644228 -0.15109207
000230 6e fa 83 3d dd 45 d4 bd 62 79 b7 3d 71 71 d9 bd
       0.0644425 -0.10364888 0.08958699 -0.1061734
000240 65 14 5a bd 31 8c cd bd ed ed db 3d a4 42 08 be
       -0.053242106 -0.10036505 0.1073874 -0.13306671
000250 30 34 be bb ed d1 ec 3d 44 0f af bd fd d3 2a 3e
       -0.005804561 0.11563478 -0.085478336 0.1668243
000260 cc 8d 99 ba 04 29 00 be 31 43 e2 bc a0 e8 d1 3b
       -0.0011715232 -0.12515646 -0.02761993 0.006405905
000270 d2 5e 80 bd ef 91 25 be c2 66 10 be 75 73 1b be
       -0.062680855 -0.1616895 -0.14101699 -0.15180762
000280 52 58 0d 3e 66 6d 98 3b 98 7f 23 3e 8a 95 10 3e
       0.13803223 0.004651713 0.15966642 0.14119545
000290 b7 06 2d be bd 67 0e be 92 95 26 3c bb f3 0c be
       -0.16897093 -0.1390676 0.010167496 -0.13764851
0002a0 ac 61 e9 bd 55 33 2e 3e a2 c2 d8 3d 29 fd f9 3d
       -0.113955826 0.17011769 0.10583998 0.122064896
0002b0 c5 20 05 3d f5 d3 03 3d e6 fa 89 bd d2 43 04 be
       0.032501955 0.03218456 -0.06737308 -0.12916496
0002c0 10 f6 36 bd e0 85 12 be 2f 58 0b be b4 11 3f 3e
       -0.044668257 -0.14308882 -0.13607858 0.18659097
0002d0 c8 c3 82 3e bd b9 af 3d c8 01 95 3b 28 6b ac 3d
       0.25539994 0.08580349 0.0045473315 0.08418876
0002e0 fb dd ca 3d cf b1 3b bc 61 d1 46 be d2 aa 6e 3e
       0.09905621 -0.011455967 -0.19415809 0.2330735
0002f0 58 65 97 3c 59 df 12 be 66 27 25 3d 9f 94 4b be
       0.018480942 -0.14343013 0.040320776 -0.19880913
000300 4d 0f c9 3d 59 35 bc bc 67 ea 5a 3b 33 ba df bd
       0.098173715 -0.022974657 0.0033403875 -0.109241866
000310 1f b0 90 bd 08 c3 20 bd a9 a3 13 bd c2 d8 c1 3d
       -0.070648424 -0.039248496 -0.03604475 0.094651714
000320 fa ae 6a bd 66 ad 0a 3e cf a9 60 3d f5 f6 f0 bd
       -0.057295777 0.13542709 0.054849442 -0.11765853
000330 b1 e8 b5 bd 37 fc 5d 3c 9e 24 24 bd 74 c6 0e be
       -0.08882273 0.013548902 -0.040073983 -0.13942891
000340 51 32 f7 bd 59 e7 dd bd 15 fb dd 3d b0 d5 69 3d
       -0.12070144 -0.10835142 0.10838906 0.057088554
000350 7e 26 e2 3d b4 ee f6 3d 8d bc d6 bd a4 c0 dc bd
       0.11042498 0.12057248 -0.10485182 -0.10778931
000360 ab 6c 00 3e ba 7b 0e be 6e 4b a2 bd 38 ee 09 3e
       0.12541454 -0.13914385 -0.07924543 0.1346978
000370 bb 92 90 3d 9a bd c4 3d 54 65 d7 3d bf 33 9e 3d
       0.070592366 0.09606476 0.10517374 0.077247135
000380 ff 99 bc bd fd 7b 98 bd d1 cd 34 bd 00 f2 e9 bd
       -0.0920906 -0.07445524 -0.044141594 -0.11423111
000390 cb ac fb bd d7 69 28 3e ff 48 0d 3e dc 0b eb 3d
       -0.12288817 0.16446625 0.13797377 0.11476871
0003a0 09 e9 8f bb 56 e6 d0 3d 6a 88 6c 3d d6 ce 17 3c
       -0.0043917936 0.10200183 0.057747282 0.009265622
0003b0 98 22 46 be dc 3c 24 3e a9 0d 89 bb 6e 5a 07 be
       -0.19349134 0.16038841 -0.0041825366 -0.1321809
0003c0 81 73 8a 3d 18 29 18 be 49 f6 c2 3d ee 84 3c bd
       0.06760312 -0.14859426 0.095196314 -0.04602521
0003d0 1a 56 d9 bc 89 4b 8d bd 8a 2c 10 3d c3 59 af bd
       -0.026530314 -0.06899173 0.035198726 -0.085620426
0003e0 7e 7d 15 bd c5 e5 ad 3d a6 9c 94 3d 25 a6 ec 3d
       -0.03649663 0.08491091 0.07256441 0.11555127
0003f0 a9 c0 29 be ac c3 55 bc 31 18 78 3d b4 b5 34 be
       -0.165774 -0.01304714 0.060569946 -0.17647439

shared_encoder.gru_left.bias_ih_l0_reverse f4 [150]
000000 85 f5 b1 3b ab 8e e1 bc 1e 53 d6 3c 1a e6 9a 3d
       0.0054308795 -0.02753385 0.02616268 0.0756342
000010 af 2a 28 3d 5c 1c 92 3a 99 96 71 bc 05 d2 88 3c
       0.04105633 0.0011147368 -0.014745378 0.016701708
000020 a7 8e e5 3c 5f de 1e bc 61 20 48 bd 34 9e 25 bc
       0.028022124 -0.009696572 -0.048859004 -0.010108519
000030 38 8e 9c bc 03 1f 68 3c c2 fa ee bc 79 5a 3a bd
       -0.019110784 0.01416755 -0.029172305 -0.045496438
000040 23 e7 20 3d d2 19 f1 3a de 7f c6 3b 3f c9 68 bb
       0.03928293 0.0018394536 0.0060577234 -0.0035520343
000050 ce 36 3d bd 6c 8e d5 3b 45 11 db bb 29 9a a0 3c
       -0.046194844 0.006517222 -0.0066854083 0.01960476
000060 bf 13 16 3d 05 df 1c bd a0 55 26 bd c0 79 4d ba
       0.036639925 -0.038298625 -0.040609002 -0.00078382716
000070 eb 26 d6 bb 83 95 04 be d7 47 8b bd 56 e7 ec 3c
       -0.006535401 -0.12947659 -0.06800812 0.028918903
000080 10 9d 2b 3d 80 a5 d2 3c f5 13 41 3d 2c 4d 91 bc
       0.041897833 0.025713682 0.047138173 -0.017736994
000090 1c 11 97 bb 62 9b ea bd d0 5e cb be fd 23 a3 3d
       -0.004610194 -0.11455418 -0.39720774 0.079658486
0000a0 24 94 f4 3c 51 b0 1b bd 3d a4 71 bc c7 b7 03 bd
       0.029855795 -0.038009945 -0.01474863 -0.032157686
0000b0 99 1c 1f 3b df e9 80 bd 1d ea ad 3c 52 1d 01 bb
       0.002427852 -0.06294607 0.021229798 -0.0019701314
0000c0 b6 78 58 bb 54 18 01 3d e3 29 aa 3e 2f a9 b9 3d
       -0.0033030934 0.03151734 0.33235082 0.09065472
0000d0 75 04 da 3e 56 a0 3c 3e ae 49 ba 3e 93 95 a1 3e
       0.42581525 0.18420538 0.36384338 0.3155943
0000e0 88 58 66 3e 82 66 cc 3d bd 65 6a 3e 2e 31 30 3e
       0.2249471 0.09980489 0.22890373 0.1720626
0000f0 53 2a 55 3d 4c 24 93 3e 3d 23 0c 3d 88 3a 36 3e
       0.052042317 0.2873863 0.034213293 0.17795765
000100 5f 92 95 3e 22 35 8c 3e 08 d4 df 3e c4 20 54 3e
       0.29213235 0.27384287 0.43716455 0.20715624
000110 3f 3b ae 3e be a9 99 3e 5b b6 ef 3e 8b 71 83 3e
       0.34029576 0.30012316 0.46818814 0.25672564
000120 30 ad 05 3f 18 f5 ca 3e fb a0 b9 3e ce 3e bf 3d
       0.5221739 0.39640117 0.3625563 0.09338151
000130 40 24 6c 3e ae 6e 3d 3d f3 fc 05 3e 87 ae 1a 3e
       0.23060703 0.04624813 0.13084774 0.1510564
000140 2f fe a9 3e 42 ae d3 3e de d8 a6 3e 7c 60 09 3f
       0.3320174 0.41343886 0.32587332 0.5366285
000150 21 68 9d 3e 62 ac d8 3e 8c f6 be 3d e7 d8 90 3e
       0.30743507 0.42319018 0.09324369 0.28290483
000160 51 6d 36 3f 04 73 5f 3e 49 d6 9e 3e 69 bb e2 3d
       0.71260554 0.21821219 0.31022862 0.11070902
000170 48 43 94 3e 19 1b d0 3e 6a 4d 51 3e 54 c3 68 3d
       0.28957582 0.40645674 0.20439687 0.056826904
000180 39 9b d7 3e b4 d6 d9 3e 5c 3c 0f 3f 84 8c 98 3e
       0.42110613 0.42546618 0.55951476 0.29794705
000190 59 2d db bc f0 6b 89 3d 8e 0c 85 3c 68 f6 41 bd
       -0.026755022 0.067100406 0.016241338 -0.047354132
0001a0 f6 02 c8 bc a5 df ab bc e2 ca 58 bd ae ee f2 bc
       -0.024415474 -0.020980665 -0.05292786 -0.029654827
0001b0 79 99 ec bc ee ef 25 bd 07 4f ba 3d 86 d1 8c bc
       -0.028881775 -0.040512018 0.090971045 -0.017189752
0001c0 52 3a cf 3d 8e 0b 58 3d bf 44 de bc c4 57 29 bd
       0.101185456 0.052745394 -0.02713239 -0.041343465
0001d0 2b 92 b2 3c 3a 53 29 bd 08 e7 cf bc 91 5d 05 bc
       0.021798214 -0.041339137 -0.025378719 -0.008139984
0001e0 de e3 aa 3c 14 50 18 3d a3 0f a8 3c 8a 02 aa 3c
       0.020860609 0.037185743 0.020515269 0.020753164
0001f0 fa da c6 bc df cd 81 bd bb f0 9b bc 66 bc 11 bd
       -0.024274338 -0.06338095 -0.019035688 -0.03558006
000200 4a 76 15 bd bd f6 02 bc 5e 02 12 bb d1 6a b0 3c
       -0.036489762 -0.007993397 -0.0022279243 0.021535309
000210 b7 1d b7 bc 5d a1 c4 3c f5 25 8c bc ee 2e 94 3c
       -0.022353036 0.024002725 -0.017107943 0.018088784
000220 27 dd 24 bc ea 96 46 bb 00 ec f1 b4 8c 58 25 bd
       -0.010062492 -0.0030302354 -4.506146e-07 -0.040367648
000230 3c 4c d0 3c 4a 64 90 bd f0 f8 ec 3c 65 24 ba bc
       0.025426976 -0.070503786 0.028927296 -0.022722432
000240 70 9b b2 3c af 3b 93 bd 45 83 94 3c 87 ec c0 bc
       0.021802634 -0.07189118 0.018129 -0.023550285
000250 a3 1b 98 bc 29 3c 02 3d
       -0.018567866 0.031795654
