checkpoints/level3_1012.pt (torch_old, 444769 bytes, 32 tensors)

shared_encoder.input_linear.weight f4 [50, 6]
00000000: 6485 3dbd 6882 c1bc 946a 14bc ec80 84b9
00000010: 07a5 023d 9fab 153e aa0f 4dbe 165c c93d
00000020: 39be 4ebc c3c1 17bb bfa6 743d a86c 0dbc
00000030: cadb 263d f850 d83c 64b6 19bc b15d bf3a
00000040: e4ec d1bd e870 fa3d fb2f 9d3d c63e 183c
00000050: 2614 17bc a6cf e4bb f71c 29bd 25dd d03d
00000060: afc5 35be 24cc 933d 4e54 08bd c3cc 893b
00000070: 31c5 10bd 2740 3fbd 555c 6bbd 28c8 883d
00000080: 9001 05bd c091 d53a 000f 2d3c cbf1 0f3e
00000090: 0b75 6fbc 137e cabc 47a8 fa3a 3ba9 5fbc
000000a0: 96c4 5dbd f7e6 07be 6630 443d 575e 72bd
000000b0: 6f21 a83a 0b87 81bb e984 133d e0da 053e
000000c0: 8eca b8bd d644 8d3c 5c47 7abc 0699 4dbb
000000d0: 8b15 edbd f9bf d6bd 96df 59bd df20 993c
000000e0: 595a 7d3b 4dd2 b63b b1e1 993d 3327 1d3e
000000f0: dcac 023c cf9c e6bc 3089 3e3b 616d febb
00000100: f01b 98bc c006 0cbe 9863 a8bd 17f6 7fbc
00000110: cf0a 73bb b4c5 533b 1767 d73c ea67 1b3e
00000120: bd6b 893c 4465 74bb 123c 403b 0e02 85bb
00000130: 48b0 863d df7f 053e 7270 8f3c 038c 9b3a
00000140: 9d5f 9b3b 92e5 edba 37ac 283d 8575 113e
00000150: 55d9 e7bc d7a5 9e3c d66a d5bc 2f90 5d3c
00000160: f487 023d 6330 0c3e 420e 493b cd2b 8d3d
00000170: c278 da3c eeb1 14bc 5981 0e3d dda9 183e
00000180: 2746 37be 2b8e 953d 474b 15bd ef80 f2b9
00000190: 777f 18be 50ff 34bd 9a90 9fbc 242d 3abc
000001a0: f1e0 243c 9351 213c f313 903c 30d3 0e3e
000001b0: 641e f33c afe1 cdbb 034c 7fba 05af 43bc
000001c0: 9e61 58bd f672 13be bf2f 27bd 198e 663d
000001d0: c945 ee3b 7e2d ff3b 139e 50bc c93a 183e
000001e0: 7125 5e3c 34f6 b2bb ef53 5d3b 73eb afbb
000001f0: 7123 803b d772 0ebe b135 073c a0cc 07bd
00000200: a1d0 e2ba 2a81 5ebc 78db acbd 2efc 093e
00000210: 1042 bd3d ccbc df3c 1958 713c ef51 19bc
00000220: 5610 a23d 7474 c93d 065c 983d 3acf ae3c
00000230: d848 623a b9f7 40bb de9a a43d 05df e43d
00000240: 9f02 1abd eaec a43c 371a 2abc cec0 e0b8
00000250: 2ebd eb3c 502c 1a3e 24fb b23c 7127 4dbd
00000260: dbad 043d cf80 ad3b 40bd b83d 4382 0abe
00000270: fd4e 58bc ca48 78bc c680 dfbb 3ab7 6abb
00000280: 9e1a 21bd a1c4 10be 008c 96bb dfeb 203d
00000290: 3878 613b 7cfa 513c 0b9b 5b3d 98c6 02be
000002a0: 5627 af3c 12df 473d ab2e c23b 6d8a fe3b
000002b0: 8dc0 e03d f876 04be f619 3abd 7f10 58bd
000002c0: abf0 20bc 4adb d53b f753 acbc f35a 03be
000002d0: 7125 d7bc 4ddf 31bc 2060 6bb6 4443 8abc
000002e0: 78f2 aebd d54f 013e 3d69 1f3a 9980 70bc
000002f0: 25eb 833c 22da ab3a 7061 23bd d8a0 05be
00000300: ef84 7d3b f019 52bc e70a caba 73fa a1bb
00000310: 7b0d d1bc 2698 09be 0b86 70bc 72f5 38bc
00000320: f84f 2cbc 1ac0 14bc b4b7 eabc 37e7 05be
00000330: 4e67 303d 352a 303c 7a96 833b d45e ae3b
00000340: d69c 833d 591f 033e 02b3 7c3d d4d6 523b
00000350: b57e 703c 8d4c ee39 a1c4 ee3d f3eb 11be
00000360: 5ac2 10be 0e06 d63c e78e 1a3b e7ea c13b
00000370: dcc3 a1bc 55c7 113e 5d7d 81bd 545f 2abc
00000380: b0d7 493b d8d6 9fbb 8bf8 6f3d b54d 1a3e
00000390: 77c3 83bc 6eb5 13bd 2cf3 f2bc 26cc 453c
000003a0: cc5c 9ebd 3566 0b3e 9708 afbd d96b 34bc
000003b0: 121f 4bbb 4fa4 d9bb 0614 44bd 94b6 193e
000003c0: aa26 503d c8d9 033d 91e5 23bb b4b0 8dbb
000003d0: d449 4d3d 68de 12be 3787 8c3d eb57 cd3c
000003e0: 0cef 8939 f991 2e3c e16d cf3c 9725 15be
000003f0: 55c4 c93b 70a7 51bc 2d7e cabc 306f 3dbc
-0.04626979 -0.023621753 -0.009058613 -0.00025273056 0.031895664 0.1461625 -0.20025507 0.09832017
-0.012618595 -0.0023156262 0.059729334 -0.008631863 0.04073695 0.026405796 -0.009381864 0.0014600066
-0.102502614 0.122285664 0.07675167 0.00929231 -0.009221112 -0.0069827614 -0.04128739 0.1019843
-0.17751192 0.07216671 -0.033283524 0.0042053177 -0.035344306 -0.04669204 -0.0574611 0.06678802
-0.032472193 0.0016294047 0.010562658 0.1405708 -0.014615308 -0.02471832 0.0019123637 -0.0136511875
-0.054142557 -0.132717 0.04789772 -0.059172 0.0012827347 -0.003952866 0.036015425 0.13071775
-0.09023009 0.017244738 -0.015275802 -0.0031371727 -0.115763746 -0.10485835 -0.053191744 0.018692432
0.0038658588 0.005579269 0.0751375 0.15346985 0.007975783 -0.028150944 0.002907347 -0.007764504
-0.01856801 -0.1367445 -0.08222121 -0.015622637 -0.00370853 0.0032313885 0.026294274 0.15176359
0.016775006 -0.0037291804 0.002933268 -0.004059083 0.06576592 0.1303706 0.017509673 0.0011867288
0.0047416226 -0.0018150082 0.041179862 0.14204986 -0.028301874 0.019366188 -0.02605192 0.013523146
0.031867936 0.13690333 0.0030678664 0.0689312 0.02666891 -0.009075625 0.034791324 0.14908548
-0.17897855 0.07302507 -0.036448743 -0.000462539 -0.14892374 -0.044188797 -0.019478131 -0.011363301
0.010063396 0.009846109 0.017587638 0.13947749 0.029677577 -0.006283007 -0.00097388047 -0.011943583
-0.05282747 -0.14399323 -0.04081702 0.05628786 0.0072715026 0.0077874055 -0.012733 0.14866175
0.013558731 -0.0054614786 0.0033771952 -0.005368644 0.003910475 -0.13910995 0.008252547 -0.03315413
-0.0017304608 -0.0135806 -0.08440298 0.13475105 0.09241116 0.027311705 0.014730477 -0.009357913
0.07913272 0.09836665 0.07439427 0.021339048 0.00086320704 -0.002944453 0.08037351 0.1117535
-0.037600156 0.0201325 -0.010382227 -0.00010717065 0.028776731 0.15055966 0.021848269 -0.050086442
0.032392364 0.005294896 0.090204716 -0.13526253 -0.013202426 -0.015154073 -0.006820771 -0.0035814778
-0.039332025 -0.14137508 -0.004594326 0.039287444 0.0034403931 0.012816068 0.053614657 -0.1277107
0.021381062 0.04879672 0.0059259734 0.0077679665 0.10974226 -0.12936008 -0.045434915 -0.052750107
-0.009823005 0.0065263854 -0.021036131 -0.12827663 -0.02626297 -0.010856462 -3.507368e-06 -0.016877778
-0.08542341 0.1262811 0.00060810504 -0.014679098 0.016103337 0.0013111273 -0.039887846 -0.13049638
0.003868397 -0.012823567 -0.0015414626 -0.004943186 -0.025519123 -0.13436946 -0.014680396 -0.0112889875
-0.010517113 -0.009079004 -0.02865205 -0.13076483 0.04306727 0.01075225 0.004015741 0.005321363
0.064263985 0.12804927 0.061694153 0.0032171505 0.014678647 0.00045451932 0.11658598 -0.14250164
-0.14136639 0.026125934 0.0023583712 0.005917895 -0.019746713 0.14236195 -0.06322739 -0.010398705
0.0030798726 -0.0048779063 0.05858664 0.15068705 -0.016084416 -0.036061697 -0.029656969 0.012072599
-0.07732543 0.13613208 -0.0854656 -0.011012041 -0.003099386 -0.0066419016 -0.04787066 0.15011054
0.050818123 0.032190114 -0.0025008658 -0.004324043 0.050119236 -0.14342654 0.06861728 0.025066337
0.0002630878 0.01065492 0.025320949 -0.1456512 0.006157438 -0.012796268 -0.024718368 -0.011562154

shared_encoder.input_linear.bias f4 [50]
00000000: 3bca 3fbd f2e4 923d a020 6bbd f16c 84bd
00000010: 7930 993d 24b8 27bd 729e 7e3d 6f5c 8bbd
00000020: 0ec1 943d 30f3 3bbd ac28 6f3d 695f 17bd
00000030: ad09 78bd 1301 71bd 2d00 4dbd 0c08 63bd
00000040: 31d8 b13d e274 78bd 1948 4b3d 03fb 4ebd
00000050: e20f 643d 7b58 5dbd c82b 98bd 6f4c 8ebd
00000060: a447 49bd 7633 243d 0ef5 7e3d b1da 6f3d
00000070: 5442 213d 8ce7 883d 192e 34bd 386b 673d
00000080: 686d 6a3d 77cb 763d b794 85bd 5fb5 0f3d
00000090: 81ff 83bc 3449 1cbd cba3 40bd 75bc 0fbd
000000a0: f546 383d a123 173d 8c71 753d 61a0 2a3d
000000b0: 8dbf 97bd 2b09 37bc c908 9ebd 6d42 fdbc
000000c0: 1055 56bd 7dbe 043d
-0.04682372 0.07172574 -0.05740416 -0.064660914 0.074799486 -0.040947095 0.062162824 -0.0680474
0.07263385 -0.04588622 0.058388397 -0.036956225 -0.060556103 -0.058838915 -0.050048996 -0.055427596
0.08683813 -0.060658343 0.049629305 -0.050532352 0.05567921 -0.05403946 -0.074302256 -0.06948172
-0.049140587 0.04008814 0.06224542 0.05855817 0.039369896 0.06684789 -0.043989275 0.056498736
0.057233244 0.060252633 -0.06522506 0.03508508 -0.016113045 -0.03815575 -0.047031205 -0.035091836
0.044989545 0.036899213 0.05992274 0.041656855 -0.07409582 -0.011171619 -0.077165194 -0.030915463
-0.052327216 0.032408226

shared_encoder.gru_left.weight_ih_l0 f4 [150, 50]
00000000: 200a 833e 8abb 8bbd 9059 d53e 37b8 c93e
00000010: a10c d1bd 17bd 833e e45e 1bbe 7d3e 6c3e
00000020: 0395 36be 559a 393e 35e2 11be f951 763e
00000030: e298 513e 4d8d 503e e081 303e 9f16 633e
00000040: a346 f8bd e86a 4b3e bd97 18be 0536 813e
00000050: 1ced aabe 284a ee3e e77d 083e 94ae 403e
00000060: e574 6f3e 94d6 dfbe 35e9 41be 56d3 d9be
00000070: 2d24 e0be 2669 4ebe 1346 e43e 47aa 0fbe
00000080: 8af3 88be c907 79be 3d40 2c3e 04f0 cabe
00000090: 26c9 973e 33fb 133e 5e14 e63e 7673 4b3e
000000a0: 5167 b6be 3f24 eebe fbff 41be 9e7d 88be
000000b0: 5947 0e3e cf0c 203e a182 1b3e 471e 5d3e
000000c0: ab03 853e 3a3c dabd dfb7 7dbe 637e 81be
000000d0: 36ec 03be 2f79 67bc bc84 67be e885 66be
000000e0: 2f44 473d 57a5 323c b192 cebd 1641 57be
000000f0: f708 933d 38aa 87be 815e 02be 951e 6dbd
00000100: efea e3bd 0e76 9fbd 7c86 b3be c135 d6bd
00000110: 27a5 093e 95b5 2ebe 6b54 6a3e 166e 47be
00000120: 5d41 db3d 5678 c93d 179e 22be 7e8e 843e
00000130: 0a17 503d d0a1 583e db38 433e 29fa f8bc
00000140: cfd5 86be 9b97 973d bfd6 023e 9036 983d
00000150: 4756 323d 6f55 a23e 7def dfbe 5e1a 2ebe
00000160: cc24 8fbe 25d0 9abe 225d 7c3e 42f7 973e
00000170: bed8 623d 79ec 6d3e 5e99 423e 2ddd b2be
00000180: f6cc 443e 21c3 98be ec54 04be f831 7b3e
00000190: 7ac7 20bd ee5d 2cbe d7bc a03b 531a f03d
000001a0: 2717 2fbe 410a a0bd 1484 503c 8065 903d
000001b0: 7247 25bd 37c1 253d 280e e4b8 376b 94bd
000001c0: fefc 4a3d 6859 7abc fcd8 b9bc be10 833d
000001d0: e775 f1bd dc82 89bd 6dfa d6bc 67b8 7bbc
000001e0: e353 443c 7b37 e23c e56e c93d ba6c 963d
000001f0: fb40 8f3c a306 99bc 61d4 51bc ed3e 7cbd
00000200: 94be 0d3c 8b66 1dbd ac8c c13c a7b9 05bc
00000210: e29b c23d 36e5 043c 50ae 3b3d 77bd 293d
00000220: 4853 28bd 6a0b 04bd a485 71bd 4d1b e73c
00000230: 86a6 dd3c 5674 f3bd afbf 42bc b6fb c9bb
00000240: 2593 933d 90df d23d 4abe 423c f05c 6dbb
00000250: 0ca4 043d 1ff2 f0bc 0aed 843e 654c babc
00000260: 6831 cd3e 9157 923e 46fc 0dbd 2ba0 853e
00000270: 2351 64be 02d4 743e 4a49 b9bd f344 823e
00000280: 4e25 6ebe 8be0 843e 43dd 873e e5f3 863e
00000290: 8e15 4c3e 444c 5c3e 84cc 15bd d920 233e
000002a0: d262 2ebe 725e 8d3e 4b61 a1be 2296 b53e
000002b0: 71f4 263e be36 5d3e fd46 6a3e 8f90 dabe
000002c0: a4cd 6abe 8eff d0be 8e31 dcbe a430 6ebe
000002d0: ca06 e93e 1167 4ebe c470 92be 1576 66be
000002e0: 0b40 423e d192 c7be 0eb0 803e 29b4 503e
000002f0: 5a4d cf3e cf9e 4a3e 73c2 aebe 2593 d7be
00000300: c54f 50be fa98 86be 15f1 c33d 5200 693e
00000310: 9eae 953d a5fa 553e f736 7d3e 05e4 46be
00000320: 9205 e83d c190 8bbe f807 963e f34d 8d3e
00000330: 3b44 8ebe 6b7c 0d3d 92f3 d1bd 8933 483e
00000340: b906 5bbe 7534 2f3d b2c4 b6bd 724f c03d
00000350: 95c1 b63d f181 193e 79fd 463d 19a0 043e
00000360: 49e0 9bbe 2e8b 863d 14f4 24bd 90c6 eb3d
00000370: d873 0bbe b338 823e 3a8e 5c3e 156c 5f3e
00000380: baa3 a73d 643e 34be fd1e fcbd e6b5 3abe
00000390: 8de3 78be a0e5 5bbe 4ff4 943e 6770 d8bd
000003a0: b35b e7bd b556 06be 405e 383e 70a7 00be
000003b0: b8a0 243d 0b69 c43d 3d72 3b3e 2cd2 713d
000003c0: 63eb 0bbe 60c5 5bbe 3ef7 efbd ee7c b2bd
000003d0: 99e5 6d3e 29f2 8f3c b951 3f3e 6987 193d
000003e0: c47b 2c3e a93f 2abd d76b b93e b616 04be
000003f0: fba4 123f a4dd f63e a6dd 23be bb42 b63e
0.25593662 -0.068228796 0.41669893 0.39398357 -0.10207487 0.25730202 -0.15172917 0.23070712
-0.17830281 0.18125279 -0.14246447 0.24054708 0.20468476 0.20366402 0.17237043 0.22176598
-0.12122848 0.19865 -0.14901634 0.25236526 -0.33384025 0.46540952 0.13329278 0.18816596
0.23384435 -0.43718398 -0.18936618 -0.4254405 -0.437776 -0.20157298 0.44584712 -0.140298
-0.26748306 -0.24319376 0.1682138 -0.39636242 0.29645652 0.14451294 0.44937414 0.19868264
-0.356257 -0.4651203 -0.18945305 -0.26658338 0.13894404 0.15629886 0.1518655 0.21593581
0.2597936 -0.106560186 -0.24777173 -0.25291738 -0.12883076 -0.0141280135 -0.22609228 -0.22512019
0.04864901 0.010903678 -0.10086573 -0.21020922 0.07179444 -0.26497054 -0.12731363 -0.057890493
-0.111287944 -0.07786189 -0.3506354 -0.104594715 0.13441907 -0.17061456 0.22883765 -0.19475588
0.107058264 0.098374054 -0.15880619 0.25889963 0.05080322 0.21155477 0.19064657 -0.030392723
-0.26334998 0.07401963 0.12777232 0.07432282 0.04353931 0.31705806 -0.43737403 -0.17002246
-0.2795776 -0.30236927 0.24644902 0.2968083 0.055382483 0.23234738 0.19003817 -0.3493437
0.19218811 -0.29836372 -0.1292302 0.2453078 -0.039252736 -0.16832706 0.004905324 0.11723771
-0.17098676 -0.07814456 0.012726802 0.070506096 -0.04035134 0.040467467 -0.00010874524 -0.07247012
0.04955768 -0.015280105 -0.022686474 0.06399678 -0.11790066 -0.067144126 -0.02624246 -0.015363789
0.011982891 0.027614346 0.098356046 0.07344957 0.01748704 -0.018679922 -0.012806983 -0.06158345
0.008651394 -0.03842787 0.023626648 -0.008161939 0.095023885 0.008111289 0.045820534 0.041440453
-0.04109505 -0.032237448 -0.05896534 0.02821126 0.027056944 -0.11887424 -0.011886521 -0.0061640395
0.072058 0.102965474 0.011886189 -0.0036218725 0.03238301 -0.029412327 0.25962096 -0.022741506
0.40076756 0.28582433 -0.034664415 0.2609876 -0.22296576 0.23909 -0.09047182 0.2544323
-0.23256418 0.25952563 0.26535997 0.26357952 0.19930097 0.21513468 -0.036571994 0.15930499
-0.17029884 0.2761112 -0.3151954 0.35466105 0.16304184 0.21602914 0.22878642 -0.42688414
-0.22930008 -0.40819973 -0.43006557 -0.23260742 0.45512992 -0.20156504 -0.28601658 -0.22505982
0.18969743 -0.389792 0.2513432 0.20381226 0.40488702 0.19787143 -0.34132728 -0.4210445
-0.2034293 -0.26288587 0.09567467 0.22754028 0.07308696 0.20896395 0.24727999 -0.1942292
0.113291875 -0.27258876 0.29302955 0.27598533 -0.2778643 0.034542482 -0.102515355 0.19550909
-0.21389283 0.042774636 -0.089242354 0.09390153 0.089236416 0.14990975 0.048581574 0.12951697
-0.30444553 0.06569515 -0.040271834 0.11512482 -0.1361841 0.25433883 0.2153863 0.21818574
0.08185525 -0.17601925 -0.12310598 -0.18233451 -0.24305554 -0.21474314 0.29092643 -0.10568314
-0.11296787 -0.13119014 0.18004704 -0.12563872 0.040192336 0.09590348 0.18305297 0.059038326
-0.13664012 -0.21462011 -0.117170796 -0.08715235 0.23232116 0.017571526 0.18683518 0.037482653
0.16844088 -0.041564617 0.36215088 -0.12899289 0.5728299 0.48215973 -0.16002521 0.35597786

shared_encoder.gru_left.weight_hh_l0 f4 [150, 50]
00000000: 77a3 413e 0731 2b3e 309c a1be f4ff 963e
00000010: 4781 353e 23c9 123e 6cc7 68be 76f9 323e
00000020: 6a21 29be dc23 823e 6f38 2abe fa0e 8a3e
00000030: 688f 82be 61c9 2f3e c2fd 6f3e ef24 263e
00000040: 37ea 84be 34ac 8f3e ea93 2a3e b16c 75be
00000050: 395e 593e c931 233e 7012 2c3e e300 8ebe
00000060: 746c 553e 6aa7 89be a0c7 5a3e 6f24 5cbe
00000070: 50c2 223e 1b85 3fbe 3063 35be 490e 293e
00000080: fb40 56be ddab a03d 0735 1c3e 3b47 b1bc
00000090: 35ab 243e 3733 623e 2782 32be 5cc9 41be
000000a0: dd2b 243e 35c3 81be 4d00 85be 4543 4abe
000000b0: 5f36 853e 221a 94be 3be3 373e 3ced 853e
000000c0: 911b 91be 8153 19be b70b f33e 6679 923d
000000d0: a28c 09be 10da 833e 5346 a93d 951b fc3e
000000e0: 04e2 17be 49eb 693d ccf4 88bd 7fed 293e
000000f0: 2da9 aebd 4fef 813e 157e 44be 48c4 d03d
00000100: 4722 023f 657e 9e3d aca2 74be 29fc 4e3e
00000110: caed 7c3d 71cc 22be ac84 1a3e 78a7 7c3d
00000120: 88a6 fd3e 26dd 8abe b96a f23e 1713 87be
00000130: 9d10 f23d 033e 11be a467 393d a7ac 02be
00000140: 8179 f5bd 85d5 5f3d b00b f1be c32b e03e
00000150: efe8 273d 8433 c3be f7f8 c23d ee78 233e
00000160: 8554 c0bd 5e52 16be 4a05 803d 88a4 67be
00000170: 5007 75be f832 08be a235 da3e 1d5e a9be
00000180: dd4b ed3d a2b1 ce3e a438 bebe 950e c6bc
00000190: ba2b 87be 582c 52bd 8b5c c23d efc6 06be
000001a0: ba03 87bd 8053 91be 7433 b33d 5e95 38bd
000001b0: b48b 9b3d 82e7 ffbd 510d 603d c8c8 1bbe
000001c0: 41ad f63d e6db 41bd 47cb 5dbe d141 63bd
000001d0: 2ad5 043e 241a ecbd 9c87 61bd da95 e33d
000001e0: bb2c e9bd b91d a2bd 2856 8dbe 6c94 1a3e
000001f0: c883 6fbe 407a 233e 0568 c0bd 6a60 e13d
00000200: 54e5 35bd d96e d33d b897 6f3d 64d1 87bd
00000210: f91b 643e 9d2c a1be 6142 51bd 64ee 993e
00000220: 3755 76bd 312e 10be e75b 4a3d 9178 bb3d
00000230: ed3c 03bd 1afd 143e 940b 143e 34f9 bc3d
00000240: 5c8b 42be befa 2e3e 515a 89bd e20b 52be
00000250: ba8b 3f3e 4d76 6e3d dada 4ebd 5396 a73d
00000260: 3af3 34be 5983 dd3d aca9 393e a8e3 5ebd
00000270: a7a2 0fbe e2c5 a83d 4322 9ebd 8252 993d
00000280: dc07 38be 7d4d b13d ddf4 8fbd 6b56 143e
00000290: 3d07 cfba 954f 0f3e fc8b c4bd 068c 813d
000002a0: d9b2 893d e220 1dbe 4c04 ad3d 2b59 b03d
000002b0: 0e04 c0bc 48c9 43bd 9d8f 8abc bfbc 53bd
000002c0: a017 c63d 02cd c0bd fa74 ce3d b224 f6bd
000002d0: 3fe1 18be 9935 073e 1db8 9b3c 3f26 9ebd
000002e0: c631 093d 56ee 053e 6b2b 023e 5f78 9c3d
000002f0: 3792 4ebe 0062 a7bd 44c4 353e 83cf 99bd
00000300: d7cd 3ebd f9b6 d2bd 2f68 7fbb 4aa5 cbbc
00000310: 8638 253e d385 ac3b c747 1fbd 2101 5fbd
00000320: 5d4c b03e 4c3c 513e 64bc 6fbe 2423 9b3e
00000330: 9e6f 553e dc5f 943e b962 8abe ae0a 6a3e
00000340: 05ef 60be db95 803e 84eb 3bbe 4487 963e
00000350: 7382 97be 42fc 673e a151 b23e fdd7 4c3e
00000360: 250e 98be ab0e 863e 2a06 613e 527d 78be
00000370: eb3b 7e3e 435c 5c3e 8619 a23e 536a 9bbe
00000380: 5c81 ab3e daad 9abe f8a6 8b3e 3a74 84be
00000390: 86aa 513e 2b02 73be 40c5 6fbe a678 633e
000003a0: 0c6f a3be 574d 3f3e 3171 493e 9715 05be
000003b0: de57 5b3e 474c 7b3e 2bc0 57be 44f4 59be
000003c0: a85b 453e f125 8abe 1b78 91be 1bb9 76be
000003d0: b727 ab3e bb5f a0be 8054 5c3e c890 aa3e
000003e0: 5f47 a3be b345 55be fd2c 253e 8392 043e
000003f0: 9cd2 9cbe 60f3 893e 5b7e 293e 840b de3d
0.18910013 0.16717921 -0.31564474 0.29492152 0.17725097 0.1433454 -0.22732323 0.17477974
-0.16516653 0.25417984 -0.1662309 0.2696455 -0.25500035 0.17166664 0.23436645 0.16225027
-0.25959942 0.28061068 0.16657987 -0.23967244 0.2122735 0.1593696 0.16803908 -0.27735052
0.20842153 -0.2688554 0.21365213 -0.21498273 0.15894437 -0.1870312 -0.17713618 0.16509356
-0.20923226 0.0784528 0.15254603 -0.02164041 0.16080935 0.2208985 -0.17432462 -0.18924469
0.16032358 -0.25344244 -0.25976792 -0.19752224 0.26018044 -0.28926188 0.17957775 0.26157558
-0.28341344 -0.1497326 0.47469875 0.07152061 -0.13432553 0.25752306 0.082653664 0.49239793
-0.14832312 0.05710915 -0.06687316 0.16594504 -0.085283615 0.2537789 -0.19188721 0.10193688
0.50833553 0.077389516 -0.2389018 0.20213379 0.06175021 -0.158983 0.15089673 0.06168315
0.49541116 -0.27121848 0.47347048 -0.26381752 0.11819575 -0.14183812 0.045264855 -0.12761174
-0.11986066 0.054646987 -0.4707923 0.43783388 0.040993627 -0.3812524 0.095201425 0.159641
-0.09391121 -0.14679858 0.06251009 -0.22621357 -0.23928571 -0.13300693 0.42619044 -0.33079615
0.115867354 0.40369898 -0.37152588 -0.024176875 -0.26400548 -0.05131182 0.094903074 -0.13161825
-0.06592508 -0.28384018 0.08750048 -0.045064323 0.07595006 -0.124953285 0.0547002 -0.1521331
0.12044764 -0.047328852 -0.21659575 -0.05548269 0.1297194 -0.115284234 -0.055060968 0.11112566
-0.11385485 -0.079158254 -0.27604795 0.15095681 -0.23390114 0.15964603 -0.0939484 0.11004718
-0.044408157 0.10323877 0.0584943 -0.06631735 0.22276296 -0.3147935 -0.051088694 0.3006469
-0.06013986 -0.1408012 0.04940405 0.091538556 -0.032040525 0.14549676 0.14457542 0.09227219
-0.18998474 0.17087838 -0.067066796 -0.20512345 0.18705645 0.05821829 -0.050501682 0.08182969
-0.17670909 0.10816068 0.18131131 -0.05441633 -0.1402689 0.08240868 -0.07721379 0.0748644
-0.17971748 0.08657358 -0.07029126 0.14486091 -0.0015795004 0.13995202 -0.095970124 0.063255355
0.067235656 -0.15344575 0.08448085 0.086107574 -0.023439433 -0.04779938 -0.016914183 -0.051693674
0.09672475 -0.09414102 0.10080905 -0.12018718 -0.14929675 0.1320404 0.01900869 -0.077221386
0.033494733 0.13079199 0.12711875 0.076401465 -0.20172964 -0.08172989 0.1775065 -0.07510283
-0.046583023 -0.102888055 -0.003897201 -0.02485909 0.16134843 0.0052649765 -0.03888681 -0.054444436
0.3443326 0.20433158 -0.23411709 0.30300248 0.2084336 0.28979385 -0.27028444 0.22855636
-0.21966179 0.2511433 -0.18351561 0.29400074 -0.29591712 0.22654822 0.34827903 0.20004268
-0.2969829 0.26183066 0.21975008 -0.24266556 0.24827544 0.2151957 0.31660098 -0.30354556
0.3349713 -0.30210763 0.27275825 -0.25869924 0.20475206 -0.23731296 -0.23415089 0.22213992
-0.3192066 0.18681847 0.19672085 -0.12996517 0.21420237 0.24540816 -0.210694 -0.21284586
0.19273245 -0.26982072 -0.28411946 -0.2409405 0.33428738 -0.31323037 0.21516609 0.33313584
-0.3189039 -0.2082737 0.16130443 0.12946515 -0.30629432 0.26943493 0.16552107 0.1084204

shared_encoder.gru_left.bias_ih_l0 f4 [150]
00000000: 9fd1 15be 0ccb f2bc 31cc 933d c7c6 abbd
00000010: 978e afbd c04e 12be af91 a1bd 50ba 60bb
00000020: f838 f5bb 1a68 85bd fb60 e4bd 1ff5 d7bd
00000030: d26b 97bd 1405 c7bc 9a4f ecbd c5ce 9ebd
00000040: d3e8 05be d8f7 d5bd c867 ff3b 006d d0bd
00000050: 4ad8 38bd aaff 9bbc 95aa cdbd 2194 eabd
00000060: bca6 debd 9e64 f6bd a69c 65bd 8455 4dbd
00000070: 5fbf a0bc 5dcd c4bd ec7e 26bd 9f6f 67bd
00000080: b702 03be 2a57 60be 9837 d4bb b19f a9be
00000090: f2b7 68bd e120 81bd 9b57 83bc eaaa 23bd
000000a0: 52d4 0abd f20c aabd 39c5 a7bd 6eb2 b4bd
000000b0: 3429 17be 8c64 0cbe 7c9d 11bd 6a6e dcbd
000000c0: 4764 c2bd bd48 c63b baee 91bd 870b 19be
000000d0: 42f4 9e3c da5a 73bd c019 13be f728 3bbd
000000e0: 0409 02be ac8d 1ebe d891 1bbe e81c 08be
000000f0: 21dd ffbd 9ef4 86bd 1d0a f8bd 5357 09be
00000100: 2e13 09bd 6cf4 02be 018f aabd 262f 99bd
00000110: 7a0d 2abe c6ba ccbd d7c6 23be 62d7 08be
00000120: 3a38 febd 73ce aebd c041 b5bd 416e a2bd
00000130: eb07 15be ae54 10be d83c 21be cf07 17be
00000140: ba18 0cbe 8c08 26be f762 7ebd c06d f7bd
00000150: 3722 04be 6df1 25be 6574 11be ff42 0abe
00000160: 98bf 01be 7131 d0bd b3f1 2dbe 59c3 e5bd
00000170: 63be b4bd 041f 09be e7e2 4fbd ebb5 35bd
00000180: 74d5 10be 9a28 94bd ab1a 6dbd 0744 2abe
00000190: 132f 5dbd 8c5d c6bd d053 a43d bda7 e8bd
000001a0: 8dcd c0bd d2e8 1cbd b472 fd3d 4857 b6bd
000001b0: c851 a33d 28be 92bd 7e9e b13d 4bbb bfbd
000001c0: e7b8 983d d509 ebbd 6110 7bbd eab8 b2bd
000001d0: 9129 ba3d 6703 8bbd 6cbf c2bd be63 dd3d
000001e0: dc02 92bd 0455 9cbd db5c 31bd a22c 9c3d
000001f0: 9f9e 5ebd 3554 b93d 4f8a 97bd 4127 803d
00000200: 01fb 9cbd 4eb0 c23d 32aa d73d 4900 a0bd
00000210: 5c36 743d 1a01 c0bc 823e 8cbd 7273 c73a
00000220: 841a bbbd 25ca 7fbd 2e28 003e b8f9 6f3d
00000230: de4a e5bd 1f4e a63d 9020 873d 6ee7 c53d
00000240: 34a9 9ebd 211e 9a3d 247e edbd 4286 88bd
00000250: ccff b13d b5c2 b13d
-0.14630745 -0.029637836 0.07216681 -0.08387523 -0.08572119 -0.14287853 -0.07889115 -0.0034290738
-0.007483598 -0.065139964 -0.1115131 -0.105448 -0.07393612 -0.024294414 -0.1153862 -0.07754282
-0.13077097 -0.10447663 0.007794354 -0.1017704 -0.045128144 -0.019042809 -0.100423016 -0.114540346
-0.10871646 -0.1203091 -0.056057595 -0.050130382 -0.019622503 -0.096094824 -0.040648386 -0.056502935
-0.12794004 -0.2190825 -0.006476354 -0.33129647 -0.05681605 -0.06305099 -0.016032984 -0.03995792
-0.03389389 -0.0830325 -0.08191914 -0.08823095 -0.14761811 -0.1371023 -0.03555058 -0.10763247
-0.09491783 0.0060511515 -0.071256116 -0.14945804 0.01940358 -0.059412815 -0.14365292 -0.045693364
-0.12698752 -0.15483731 -0.15192354 -0.13292277 -0.12493349 -0.06589626 -0.12111304 -0.13412218
-0.033465557 -0.12788552 -0.08328057 -0.07479696 -0.16606703 -0.09996562 -0.1599382 -0.13363412
-0.12413068 -0.08535471 -0.088504314 -0.079311855 -0.14553802 -0.14094803 -0.15745866 -0.14749072
-0.13681307 -0.16214198 -0.0621061 -0.1208148 -0.12903677 -0.16205378 -0.14204557 -0.1350212
-0.12670743 -0.1016568 -0.16986732 -0.112189 -0.08825376 -0.13390738 -0.0507535 -0.044362944
-0.14143926 -0.07234307 -0.05788676 -0.16627513 -0.05399997 -0.096858114 0.080237985 -0.113601185
-0.09414206 -0.038307972 0.123753935 -0.08903366 0.07974583 -0.07165176 0.08672808 -0.09361895
0.07457142 -0.11476485 -0.061294917 -0.08726676 0.090899594 -0.06787758 -0.09509167 0.1081004
-0.07129452 -0.07633403 -0.043301445 0.076257005 -0.05435049 0.09049264 -0.07399427 0.06257487
-0.07665063 0.09506284 0.10530509 -0.078125544 0.059622154 -0.023438025 -0.0684786 0.00152169
-0.09135917 -0.06244864 0.12515327 0.05858776 -0.111959204 0.08120369 0.06598008 0.09663282
-0.07747117 0.07525278 -0.11596325 -0.06666233 0.086913675 0.086797155

shared_encoder.gru_left.bias_hh_l0 f4 [150]
00000000: 9fd1 15be 33cb f2bc 2bcc 933d c8c6 abbd
00000010: ad8e afbd be4e 12be b691 a1bd bcba 60bb
00000020: ed38 f5bb 1068 85bd f760 e4bd 28f5 d7bd
00000030: d66b 97bd f404 c7bc 9a4f ecbd c2ce 9ebd
00000040: d5e8 05be d9f7 d5bd d667 ff3b ff6c d0bd
00000050: 42d8 38bd a3ff 9bbc 93aa cdbd 1e94 eabd
00000060: bca6 debd a064 f6bd a29c 65bd 9455 4dbd
00000070: 5fbf a0bc 6bcd c4bd ee7e 26bd a26f 67bd
00000080: b502 03be 2b57 60be ed37 d4bb af9f a9be
00000090: eab7 68bd d320 81bd a357 83bc faaa 23bd
000000a0: 4cd4 0abd ee0c aabd 3ac5 a7bd 63b2 b4bd
000000b0: 3b29 17be 8a64 0cbe 789d 11bd 676e dcbd
000000c0: 3764 c2bd 7c48 c63b b5ee 91bd 870b 19be
000000d0: 30f4 9e3c d85a 73bd c119 13be ec28 3bbd
000000e0: 0409 02be b18d 1ebe da91 1bbe eb1c 08be
000000f0: 1bdd ffbd 9bf4 86bd 1c0a f8bd 5257 09be
00000100: 5613 09bd 69f4 02be fb8e aabd 182f 99bd
00000110: 800d 2abe ceba ccbd d8c6 23be 62d7 08be
00000120: 3038 febd 85ce aebd c241 b5bd 536e a2bd
00000130: e807 15be ae54 10be da3c 21be d707 17be
00000140: be18 0cbe 8808 26be 1163 7ebd c86d f7bd
00000150: 3422 04be 6df1 25be 6d74 11be 0443 0abe
00000160: 9abf 01be 4f31 d0bd adf1 2dbe 42c3 e5bd
00000170: 58be b4bd 021f 09be 01e3 4fbd fcb5 35bd
00000180: 72d5 10be 9028 94bd a11a 6dbd ff43 2abe
00000190: 85bb 93bd db91 05be 4438 a03d 031a debd
000001a0: d842 00be 7551 72bd 5118 093e 65d3 00be
000001b0: 1684 fd3d 0c2f e4bd fd45 fe3d 1eac cfbd
000001c0: 9df0 d73d 2ede 06be 5164 8bbd ee66 f0bd
000001d0: 1781 e63d f1ce d9bd a556 0cbe cecd 013e
000001e0: b197 dabd c77e e9bd 5b8b 7dbd c176 df3d
000001f0: a706 8ebd 67e1 d43d 97c8 e2bd f05d d43d
00000200: f543 f2bd 0f9a 023e 791b 053e 38f0 edbd
00000210: b1fb ab3d aeac 67bd 9f61 e0bd 9f74 7e3d
00000220: 9c4a 01be 86e3 c2bd d132 093e b46e d03d
00000230: 74eb 09be 9ae9 c93d 6f08 e13d 321e 023e
00000240: 48f9 b7bd 3f11 b93d e469 0abe 1c79 a5bd
00000250: b857 ae3d 50e8 043e
-0.14630745 -0.029637909 0.07216676 -0.08387524 -0.08572135 -0.1428785 -0.0788912 -0.003429099
-0.0074835927 -0.06513989 -0.11151307 -0.10544807 -0.07393615 -0.024294354 -0.1153862 -0.0775428
-0.130771 -0.10447664 0.0077943606 -0.10177039 -0.045128115 -0.019042796 -0.100423 -0.11454032
-0.10871646 -0.120309114 -0.05605758 -0.05013044 -0.019622503 -0.09609493 -0.040648393 -0.056502946
-0.12794001 -0.21908252 -0.0064763934 -0.3312964 -0.05681602 -0.06305089 -0.016033 -0.039957978
-0.03389387 -0.083032474 -0.08191915 -0.08823087 -0.14761822 -0.13710228 -0.035550565 -0.10763245
-0.09491771 0.0060511213 -0.07125608 -0.14945804 0.019403547 -0.059412807 -0.14365293 -0.045693323
-0.12698752 -0.15483738 -0.15192357 -0.13292281 -0.124933444 -0.065896235 -0.12111303 -0.13412216
-0.033465706 -0.12788548 -0.083280526 -0.074796855 -0.16606712 -0.09996568 -0.15993822 -0.13363412
-0.12413061 -0.08535484 -0.08850433 -0.07931199 -0.14553797 -0.14094803 -0.1574587 -0.14749084
-0.13681313 -0.16214192 -0.062106196 -0.12081486 -0.12903672 -0.16205378 -0.14204569 -0.13502127
-0.12670746 -0.10165655 -0.16986723 -0.11218883 -0.08825368 -0.13390735 -0.050753597 -0.044363007
-0.14143923 -0.07234299 -0.057886723 -0.16627501 -0.07213501 -0.1304392 0.07823232 -0.10844805
-0.12525499 -0.059159715 0.13388182 -0.1258064 0.12378709 -0.11141786 0.12415693 -0.101402506
0.1054394 -0.13170692 -0.06806243 -0.11738382 0.11255091 -0.10635174 -0.13704927 0.12676165
-0.10673464 -0.11401134 -0.061900478 0.109113224 -0.069348626 0.103945546 -0.11073416 0.1036948
-0.11829368 0.12754081 0.12998761 -0.11618084 0.08397616 -0.056561165 -0.1095612 0.062122937
-0.12626117 -0.09516053 0.13398291 0.10177365 -0.13468724 0.09859009 0.10987937 0.12706831
-0.089830935 0.090364926 -0.13516957 -0.080797404 0.08512825 0.12979245

shared_encoder.gru_left.weight_ih_l0_reverse f4 [150, 50]
00000000: c0fc 1a3d ac2b b43e 531f 99bd 36b2 31be
00000010: 06a3 a43e fcb1 dc3c 667f 063c 234f 60bd
00000020: c6b7 113e ecb2 673d 308b 57bb 7691 333e
00000030: c6e1 aabd 1083 cabb 2aec f03c d385 68bb
00000040: dc8f 9d3e 6860 363d e30e 53bd 8666 8e3d
00000050: 43f0 dcbc a411 9fbc 2c96 28be 305e fabd
00000060: 946d d73c f4dd ee3b 3c98 6cbb 35de 4fbc
00000070: 3906 a6ba f4a4 ba3d bb80 f43c cb6e a23c
00000080: f158 d1bb 3205 433d 1e12 87bd 5ce2 b2bd
00000090: e801 623e db1e 073e 19c4 843c 7572 0b3e
000000a0: 620d 2fbe cdaf 1cbe c309 2bbd 3d13 edbd
000000b0: ac79 15be 5ba2 463e 1278 5dbe ae9d 533e
000000c0: ff9a 183d b69e cfbd a2ad 4b3e d069 413e
000000d0: b588 773c 2f2f 68bc aa99 be3d eb4f 5b3e
000000e0: 0770 e8bd 2abb 963d c409 f2bc 840a 803e
000000f0: cd2b 0fbe 4843 a93e fea0 fb3d eb56 013e
00000100: cfc3 753e a45a ed3d 7e34 f83d 4ce6 d03d
00000110: 9484 44be 37e3 253e 86fa 51be 6291 ee3d
00000120: 309d 1d3c 26a6 443c 2f98 563e 3d9a 4cbe
00000130: ca56 11be e2ae 26be a150 1fbe d18e 11bd
00000140: b97c 7f3e 1698 16be 4781 18be 3f5b c8bd
00000150: 7a9c 4c3d c4d7 95be 69bb e43e 6ddd a03e
00000160: d555 513e d285 bf3e 9121 95be f3fa c4be
00000170: 1709 28be ff74 a2be 9a56 c0bb 7c66 f83e
00000180: 3e4c 15bd e2a7 b83e 0917 2c3e 8d42 9dbe
00000190: b477 323c 912b aa3d e19f acbc da8f a6bd
000001a0: 9fc3 0a3e 85d4 3f3c 8e65 553d d32d 6abd
000001b0: bff5 fd3d 7068 18bd 99c7 e83b 1f75 753d
000001c0: 0d44 6cbd bf1d 10bd 6ab6 cabc ba57 89bd
000001d0: 5626 123e 4596 96bc 67fc 313d 0223 c03c
000001e0: 1ba2 5d3d f195 e2bc 7a7f 9ebd 1d4c 59bd
000001f0: f14d d9bc 2f90 e4bc 8ca8 0a3d 24cc 92bc
00000200: c8c8 793b 939a 6b3d f645 03bd 2fd1 84ba
00000210: a0de 543c 23da 223d 6641 5abb 43c5 92bd
00000220: e6a8 8f3d abc4 893c 6b70 9f3c 1113 293d
00000230: df71 a7bd 9ba9 99bd a33d 083c ec85 d4bc
00000240: 8eae b7bd 0d5b 273d a6c5 c8bd 9b3d ab3d
00000250: dda8 87bb ad02 ab3c d8e9 55bc 9d00 b63e
00000260: 230a 00be 2dd9 65be f309 b23e 7f1d ee3c
00000270: b475 a13d dc04 14be ba00 533e dc3e 993c
00000280: 0339 2d3d 3ae2 da3d 6470 a7bd a93f aebd
00000290: a1f7 20bc 08e6 85bd 42f0 a13e fd96 43bc
000002a0: 4620 803c fc2e 1b3d b216 9b3d 3d4b bebd
000002b0: 6c6e 6ebe 8b24 35be 2c3c aebc 0330 e33c
000002c0: ae46 2a3d 675a 563d ec3c 2a3c a756 083e
000002d0: c246 25bd cddf 173d 59b5 d83c 469a ad3d
000002e0: 3b29 e5bd a35e 97bd 4da6 473e d6d8 8a3d
000002f0: 28a8 9bbc 4aee c43d 9088 dbbd d609 9abd
00000300: b613 d1bc f002 2fbd 5d34 3ebe 924d 0e3e
00000310: b377 5dbe f498 123e c72f 78bd 4c78 cfbc
00000320: 7c19 173d 10e1 8e3e 541e c3bd 48eb 29be
00000330: 12a2 5e3e 4111 4b3d a345 3d3c 9415 dbbc
00000340: 5235 ad3d 8dc3 5e3d 43b9 76bc f923 143e
00000350: 3dc3 5cbd d667 86bb f9f6 5c3d 47f3 d03a
00000360: a08e 493e 24ae 2b3d ee5f 7bbd e204 563d
00000370: 2421 09bd cdf5 bfbc 6f4b 20be d6c2 d0bd
00000380: 0dd9 263d 1faa 093d a258 88b9 8fa5 153c
00000390: be58 103c df90 a13d de07 523d 4eb9 173b
000003a0: f93d 4fbc 823d 9d3c bd57 87bd 3c24 65bd
000003b0: f53b 473e a06d 133e 9497 3e3c 1f24 fb3d
000003c0: be65 0fbe ff16 cfbd 117a 33bd 6eef e3bd
000003d0: dab3 afbd 9c8f 373e 2f92 0dbe 299f 373e
000003e0: 21e0 d5bc 843e cebd 8151 023e e8d8 c23e
000003f0: 6dae 88ba 2fac d3bd 1cfd aa3e bbf7 0e3e
0.037838697 0.3518957 -0.07476678 -0.17353138 0.32155627 0.026940338 0.008209085 -0.05476297
0.1423026 0.056567118 -0.0032889359 0.17535958 -0.08343844 -0.0061801746 0.029409487 -0.0035480156
0.30773818 0.044525534 -0.05152787 0.069531485 -0.026970034 -0.019417591 -0.16463536 -0.12224996
0.026297368 0.0072896425 -0.003610148 -0.012687256 -0.001266665 0.091134936 0.02984654 0.01982822
-0.0063887765 0.047612377 -0.065952525 -0.08734581 0.2207104 0.13195364 0.016206788 0.1361788
-0.17094949 -0.15301438 -0.041757356 -0.11575935 -0.14597195 0.19397871 -0.21627834 0.20665619
0.03725719 -0.101376936 0.19890454 0.1888802 0.015108277 -0.014171406 0.09306653 0.21417205
-0.113494925 0.073599175 -0.029545672 0.25008023 -0.13981552 0.33059144 0.12286566 0.12630813
0.24000476 0.11589554 0.12119387 0.10200176 -0.191912 0.16199957 -0.20505723 0.11648823
0.009619996 0.0120025035 0.20956491 -0.19980712 -0.14193264 -0.1627765 -0.15558101 -0.03553659
0.24949922 -0.14706454 -0.14893065 -0.09783029 0.049953915 -0.2926618 0.44674233 0.31418934
0.20442899 0.37406784 -0.29127172 -0.3847271 -0.16409718 -0.31729886 -0.0058696987 0.4851569
-0.036449663 0.36065584 0.16805662 -0.30714837 0.010892797 0.08309091 -0.02107233 -0.08132906
0.13551186 0.011708383 0.052098803 -0.057172608 0.12400388 -0.037208974 0.007103872 0.05992615
-0.057682086 -0.035184618 -0.024745185 -0.06706186 0.14272436 -0.018382201 0.0434536 0.023454193
0.054109674 -0.027659388 -0.07739158 -0.053051103 -0.026526423 -0.027900783 0.033852145 -0.017919607
0.003811406 0.05752046 -0.03204914 -0.0010133142 0.012992531 0.039758813 -0.003330314 -0.07166531
0.07014637 0.016817411 0.019462785 0.04127795 -0.08176016 -0.07503053 0.008315477 -0.025942765
-0.089688405 0.040858317 -0.098033234 0.0836136 -0.004140003 0.0208753 -0.013056241 0.35547343
-0.12503867 -0.22446127 0.34773216 0.0290668 0.07883778 -0.14454979 0.20605746 0.018706731
0.0422907 0.106876805 -0.08175734 -0.08508236 -0.009824664 -0.065380156 0.31628615 -0.011937854
0.01564039 0.037886605 0.07572688 -0.09291694 -0.2328431 -0.17689721 -0.021268927 0.027732855
0.04157131 0.05233231 0.0103905015 0.13314305 -0.040350683 0.037078667 0.02645366 0.08476691
-0.11189505 -0.073910974 0.19497032 0.067796394 -0.019001082 0.096157625 -0.107194066 -0.07521407
-0.025522094 -0.04272741 -0.18574663 0.13896778 -0.21627693 0.1431616 -0.06059244 -0.025325917
0.03688954 0.27906084 -0.09527269 -0.16593659 0.21741512 0.049577 0.011552247 -0.026743688
0.08457436 0.05438571 -0.015058818 0.14466847 -0.05389713 -0.0041017337 0.05394647 0.0015941643
0.19683313 0.04191412 -0.061370783 0.05225075 -0.03347887 -0.023432637 -0.15653776 -0.10193412
0.04073434 0.033609506 -0.00026005978 0.0091337105 0.00881022 0.0788896 0.051277034 0.0023151222
-0.012649053 0.019194368 -0.066085316 -0.05594276 0.19456466 0.14397287 0.011632819 0.12262749
-0.14003655 -0.10111808 -0.043817583 -0.11129652 -0.08579226 0.17925876 -0.13825296 0.17931809
-0.02610785 -0.10070518 0.12726404 0.3805611 -0.001042796 -0.10335576 0.33396232 0.13961689

shared_encoder.gru_left.weight_hh_l0_reverse f4 [150, 50]
00000000: 5605 a13e 3d98 8cbe 7ddd 60be d09b 263e
00000010: b817 4b3e 5d5d 653e b621 723e 320f 2e3e
00000020: 0838 4c3e 8e68 5e3e ad89 18be d5dd 553e
00000030: 00cd 30be b87b 35be 4e21 883e 9e6a 8c3e
00000040: 47e3 30be b32e 483e 07a0 323e f5cb 2d3e
00000050: fa59 6fbe 8c65 81be 50c7 4dbe 232b 3bbe
00000060: 2d2f 673e a90c 563e 192c bfbd e7ab 393e
00000070: 1ffc 023d 8799 423e 3177 783e 8114 e3bd
00000080: 9067 623e 914c 35be 815b 793e d611 7cbe
00000090: 8470 52be 8e30 563e 20e2 12be 6d7a 853e
000000a0: d953 28be 002f 8c3e d1ce 3fbe 4a57 2b3e
000000b0: 59dc 22be c113 423e ec67 7fbe a3fc cc3d
000000c0: 0597 f73d 9dbe 6ebe 2db3 2ebc 5f6a 2abd
000000d0: 68f3 3dbc 4c5f 81bc efb8 cabc fb6a cabc
000000e0: f772 1f3d e91b 513d a8d1 17bd 4696 31ba
000000f0: ea38 8c3c 87cd 09bd 906c c5bc 11be 32bd
00000100: 3a76 3d3d a8fd b73c 2cb0 f93b d816 373c
00000110: 59e7 4f3b f568 4bbc 4515 f3bb 65fc 30bd
00000120: f950 ba3c a3b0 753c 1609 d03c 5ef3 38bc
00000130: 82aa 61be 3809 63bd 6eb4 9ebd 0fd9 edbb
00000140: bc01 053c 2a2c 103e fe0f 5ebb 8fbe 21bd
00000150: 3a0d 40bc e9c5 f9bc 1c77 a33b f3ee ef3b
00000160: 1e65 a5be 052c 683c 1141 893c d749 b6bb
00000170: eabd e83c 79cf 29bb 6b26 d03c d073 6dbc
00000180: 33c1 773b 9e82 0f3d dfee 853b 0077 93bc
00000190: 3964 ba3e 1ba2 abbe 1590 6fbe 3b6d 843e
000001a0: cb8d af3e a950 9a3e 55da 9f3e f072 6b3d
000001b0: 1f80 b33e e94f 8f3e 7e78 8abe bc3e a73e
000001c0: 4008 87be f193 8cbe c777 a23e 36bd b13e
000001d0: 03ca 75be ced6 a03e b3c9 1e3e e105 893e
000001e0: 5b62 c0be f18b a9be 8b8e a1be f9e4 a0be
000001f0: 26de 9b3e 7ee1 893e f5a7 66bc 5e18 a13e
00000200: 8096 373d 1858 9a3e 21ac 823e 0ddc 9dbe
00000210: 4e5f a03e 3b3c 98be 1c58 6c3e 2d2c a2be
00000220: fd97 78be 1a64 963e 08dd ebbc 6559 893e
00000230: 8060 99be d41a bb3e d75d 9bbe cac5 853e
00000240: 4b8b 9fbe 56ec 313e 344d 84be 15cf 313e
00000250: 6d68 743e ed9a 8fbe f63e 903e e84e 80be
00000260: b0c3 5fbe 0538 383e ed47 663e 4d51 843e
00000270: 2c4b 6b3e 9e69 9d3d 54b3 873e 2a30 2f3e
00000280: d38f 1ebe e33d 533e ded7 25be 8ff6 1ebe
00000290: 9650 483e 6e95 923e 6dd7 1dbe 0cc1 683e
000002a0: 8ce9 513e 50c8 293e b902 93be d1eb 62be
000002b0: 6e41 38be 6830 5fbe 4d06 333e 37a1 343e
000002c0: 54d9 443d d2b8 6e3e ca74 b43d f9b0 433e
000002d0: 9b71 473e d442 01be 2145 6c3e 12a4 5fbe
000002e0: 3d37 523e 48c9 5ebe 562a 5ebe 575f 713e
000002f0: b0b1 3fbb beeb 5b3e ada0 4bbe 9534 8a3e
00000300: ce30 7cbe 3bbf 3c3e 9d82 57be c2f0 583e
00000310: 8ad1 6fbe 4b21 bb3d 9776 b33d e151 59be
00000320: a0fb b63d ab25 02be ef80 b6bd 2fdd 8f3d
00000330: 3761 5cbc 90d9 713d 3148 0d3e 91e2 9c3e
00000340: 57c4 b93d 27cf fe3d 4c1c dcbd a5c9 d83d
00000350: e821 e5bd 6813 bbbd da88 763e 30b8 1c3e
00000360: 524e a6bd 7cf4 983d 554b d73d 8f7b e53d
00000370: 961a acbd d755 0dbe eb7d 2dbe 2fef 8fbd
00000380: 47e8 c43d 8e78 9b3d 2dd2 e3bd 9848 40bc
00000390: 1a2d 93bb 72c1 9b3d a367 c43d 0607 293d
000003a0: fc37 0e3e 504e d6bd f26b c83d 2f94 d5bd
000003b0: 34b8 93bd 98f5 8b3d 3582 42be 5455 0a3e
000003c0: e9fb b6bc 3426 ea3d fe27 71bd ca44 943d
000003d0: 5a2e 35bd 5881 c33d 7ccc b4bd 911d b23d
000003e0: 58c4 b93d e44b e7bd 1fb5 823e b310 b2be
000003f0: 919b 89be 5454 193e a5e7 403e 697d 743e
0.31449383 -0.274599 -0.21959491 0.16270375 0.19833267 0.22398897 0.23645672 0.16997984
0.19943249 0.21719572 -0.14896269 0.20885403 -0.17265701 -0.17722976 0.2658791 0.27425092
-0.172742 0.19549064 0.17443858 0.16972335 -0.23374167 -0.25272787 -0.20095563 -0.18278174
0.2257659 0.20903267 -0.09334583 0.18131982 0.031978723 0.19003879 0.24264218 -0.11087895
0.22109818 -0.17704989 0.24351312 -0.24616179 -0.20550734 0.2091696 -0.14344072 0.26069966
-0.16438235 0.27379608 -0.18731238 0.16732517 -0.15904368 0.18952848 -0.24941987 0.10009124
0.120893516 -0.233149 -0.010662836 -0.04160535 -0.011593677 -0.015792511 -0.024746386 -0.024709215
0.038928 0.051052008 -0.03706518 -0.00067744066 0.017116982 -0.03364327 -0.024099618 -0.043638293
0.046255328 0.02245982 0.0076198783 0.01117488 0.0031723587 -0.01241516 -0.007418307 -0.043209452
0.022743689 0.014995727 0.025394958 -0.011288492 -0.220377 -0.055428714 -0.07749258 -0.0072585414
0.008118089 0.14079347 -0.0033884044 -0.03948837 -0.011721903 -0.030489879 0.004988564 0.007322186
-0.3230371 0.014170651 0.016754659 -0.0055630016 0.02841087 -0.0025911017 0.025408944 -0.014492944
0.0037804365 0.035036676 0.0040873135 -0.01800108 0.3640459 -0.33522114 -0.23394807 0.25864586
0.34287867 0.30139664 0.31221262 0.05748266 0.35058686 0.27990654 -0.27045053 0.3266505
-0.26373482 -0.2745662 0.31732008 0.3471467 -0.24002843 0.31413883 0.1550663 0.26762298
-0.3757504 -0.3311458 -0.31554064 -0.31424692 0.30442923 0.2692985 -0.01407813 0.31463903
0.044821262 0.30145335 0.2552195 -0.30831948 0.31322712 -0.29733452 0.23080486 -0.31674328
-0.24276729 0.29373246 -0.02879192 0.26826015 -0.29956436 0.36543906 -0.30345032 0.26127464
-0.3116096 0.17375311 -0.2584015 0.17364152 0.2386796 -0.28047886 0.28173035 -0.250602
-0.21851993 0.1799012 0.22488375 0.25843278 0.22977895 0.076861605 0.26504004 0.17108217
-0.15484552 0.20629077 -0.16195628 -0.15523742 0.19561991 0.2862963 -0.1541421 0.22729892
0.20499247 0.1658032 -0.28713015 -0.2216027 -0.1799371 -0.2179581 0.17482872 0.17639624
0.048058823 0.23312691 0.08811338 0.19110478 0.19476931 -0.12623149 0.23073246 -0.21839932
0.20528884 -0.2175647 -0.21695837 0.23571526 -0.0029250197 0.21476647 -0.19885512 0.26993242
-0.24627993 0.18432324 -0.21045919 0.21185592 -0.23419777 0.091372095 0.087628536 -0.2122264
0.089347124 -0.12709682 -0.08911311 0.07024609 -0.013450912 0.059045374 0.1379707 0.30641606
0.09070652 0.12441855 -0.10747585 0.10585336 -0.11188108 -0.09134561 0.24075642 0.15304637
-0.08120407 0.07468507 0.10512415 0.112052076 -0.08403508 -0.13802277 -0.16942565 -0.070280425
0.09614616 0.07591353 -0.11124072 -0.011736058 -0.0044914605 0.07605256 0.0959008 0.041266464
0.13888544 -0.10464156 0.09786214 -0.104286544 -0.07212868 0.06833953 -0.18994983 0.13509113
-0.022336917 0.11433068 -0.05887603 0.07239683 -0.044233657 0.09546155 -0.08828065 0.086970456
0.09070653 -0.11293772 0.2552881 -0.34778365 -0.268765 0.14973575 0.18838365 0.23875965

shared_encoder.gru_left.bias_ih_l0_reverse f4 [150]
00000000: dcc0 1cbe a9c4 843c 36ce 69be 0865 04be
00000010: daf6 b9bd e44e 82be ea11 90bd ecb1 8b3d
00000020: 3a2f 74bd 4dcd 41bd 08a6 b03c 14fb ab3b
00000030: fc85 80bd f0c7 11bd 9967 f2ba 150c 1fbd
00000040: 5e4c 0dbe a406 80bd 4cc2 fdbd 50c2 aa3a
00000050: 727f 1fbd 9def 08be 1a2f 4c3d 31ff fcbd
00000060: 7eea 01bc aa8f 0ebe bff2 7b3d 33bb e53d
00000070: e5b3 2ebc bd02 39bd cba4 07be 7706 d03c
00000080: 7531 84bd 7ce0 f3bd ff22 48be b22d f83b
00000090: a971 00be 285c aabd 6c12 003d 86a9 0abe
000000a0: 0789 90bd 2781 f43a c3f2 39be 3729 2abe
000000b0: af0c a2bd 3f64 d0bd 33f1 3abe 8df8 75bd
000000c0: 687c 19bb a135 97bd 45ae cf3d c005 1bbc
000000d0: 635f 223e b895 5c3e ccc7 a23d e283 183e
000000e0: 5f9e 2a3d 3c61 ffbd 8bd9 023e b18c ea3d
000000f0: a563 7d3d 7fe4 bb3d 785b 443e 899a 063e
00000100: b465 30bd c121 cfbd f351 643e 1ac4 9d3d
00000110: 7425 423d 21dc 6e3d 44cb b93d c406 9c3d
00000120: f4c5 0f3a 635a 003e a04c d93d 1856 0f3e
00000130: ba33 ddbe 3258 493d 6e52 96bd 692d 003e
00000140: 5620 293e 47e2 743d 125e a63d 69e3 f13d
00000150: f530 863e a555 eb3d c43c 103e 9061 c03d
00000160: fc57 c1be 2a7d 373e e8a8 b43d 2b98 363c
00000170: 0bb7 033e 4939 033e 9119 013e 47af d23d
00000180: 7862 2a3e f42f 283e 50a2 143e c7ad 073e
00000190: 3a38 14bd 858b c13d de5b 843c 6eaf 97bc
000001a0: f180 14bd 167f d3bc 667a 94bd aa6b edbd
000001b0: 63a5 10bd b320 26bd 9ab5 473d 9bb5 29bd
000001c0: a769 ec3c 656d 143d 43ab 01be 626f d5bd
000001d0: a215 9c3c 5f75 2ebd ce7c c6bc d454 55bd
000001e0: 15c5 353d 65da 5f3d 029e b63d 261c 003d
000001f0: 9078 12bd 517e 0bbd b8ae a5bd 59ec 83bc
00000200: 6c22 5abd 2e78 f2bc 59d4 d9bc fad1 0b3d
00000210: 63c3 36bd e253 093d d0eb a7bc d9a4 5b3d
00000220: 1db8 163d 77b1 03bd b6d5 2bbd e5f9 e6bc
00000230: 0e6e db3c 1e53 aabd 9de8 053d 7da3 e1bc
00000240: 868f fd3c 56bc ddbc 34f2 db3c 3542 0abd
00000250: b38c 0abd 939d 183d
-0.15307945 0.016207056 -0.2283257 -0.12929165 -0.09080286 -0.25450814 -0.07034667 0.06821045
-0.05961535 -0.04731493 0.021563545 0.0052484367 -0.062755555 -0.035591066 -0.0018494009 -0.03882988
-0.13798663 -0.062512666 -0.12390575 0.001302788 -0.0389399 -0.13372655 0.049849607 -0.123533614
-0.007929442 -0.13921991 0.061510798 0.11217346 -0.010663007 -0.045168627 -0.13246457 0.025393708
-0.06454746 -0.11908051 -0.195446 0.0075738067 -0.12543358 -0.08318359 0.03126757 -0.1354123
-0.07057386 0.0018654213 -0.18159012 -0.16617285 -0.079125755 -0.101753704 -0.18256073 -0.06005149
-0.00234201 -0.07383276 0.10140661 -0.00946182 0.158567 0.21541488 0.079482645 0.1489406
0.04165494 -0.12469718 0.12778299 0.11452616 0.061862607 0.091744415 0.19175518 0.13144888
-0.04306574 -0.1011386 0.22296886 0.07703419 0.047399 0.0583154 0.09071973 0.07618478
0.00054845144 0.1253448 0.10610318 0.13997686 -0.43203527 0.049156375 -0.07339941 0.12517323
0.16516241 0.059786107 0.08123411 0.11810953 0.26209226 0.11490945 0.1408568 0.093936086
-0.3776244 0.1791884 0.08821279 0.011144678 0.12862794 0.12814821 0.12607409 0.10287338
0.16639125 0.16424543 0.14515042 0.13249885 -0.036186434 0.09450439 0.016157087 -0.018516269
-0.03625578 -0.025817435 -0.07249908 -0.11592801 -0.035313975 -0.04055853 0.048757173 -0.041432958
0.028858973 0.03623714 -0.12662987 -0.10421635 0.019053284 -0.042592403 -0.024229433 -0.05208285
0.044377405 0.054651637 0.08916856 0.031276844 -0.03575951 -0.03405601 -0.080899656 -0.01610391
-0.053255484 -0.029598322 -0.026590513 0.034135796 -0.04461993 0.033527263 -0.020498186 0.053624008
0.036796678 -0.032151666 -0.041951858 -0.02819533 0.026785877 -0.083166346 0.03269254 -0.027543778
0.030952226 -0.027067345 0.02684889 -0.033754546 -0.033825587 0.03725965

shared_encoder.gru_left.bias_hh_l0_reverse f4 [150]
00000000: dcc0 1cbe c0c4 843c 32ce 69be 0665 04be
00000010: d9f6 b9bd e44e 82be ed11 90bd efb1 8b3d
00000020: 2f2f 74bd 48cd 41bd 0fa6 b03c 32fb ab3b
00000030: f685 80bd ecc7 11bd 2a68 f2ba 160c 1fbd
00000040: 664c 0dbe a106 80bd 4fc2 fdbd d7c0 aa3a
00000050: 847f 1fbd 9bef 08be 242f 4c3d 30ff fcbd
00000060: 3dea 01bc aa8f 0ebe cbf2 7b3d 33bb e53d
00000070: f6b3 2ebc d502 39bd cfa4 07be 9d06 d03c
00000080: 7331 84bd 7ee0 f3bd fc22 48be d82d f83b
00000090: ac71 00be 245c aabd 6f12 003d 87a9 0abe
000000a0: 0589 90bd 0380 f43a bff2 39be 3d29 2abe
000000b0: ae0c a2bd 3364 d0bd 39f1 3abe 85f8 75bd
000000c0: ca7b 19bb a835 97bd 51ae cf3d c505 1bbc
000000d0: 585f 223e c395 5c3e d5c7 a23d ec83 183e
000000e0: 689e 2a3d 3261 ffbd 8bd9 023e b58c ea3d
000000f0: 9f63 7d3d 82e4 bb3d 7a5b 443e 8c9a 063e
00000100: b165 30bd d721 cfbd f751 643e 1bc4 9d3d
00000110: 7525 423d 2bdc 6e3d 42cb b93d cb06 9c3d
00000120: 10c5 0f3a 6b5a 003e a84c d93d 1656 0f3e
00000130: bc33 ddbe 2958 493d 6f52 96bd 6a2d 003e
00000140: 5920 293e 2de2 743d 0e5e a63d 5be3 f13d
00000150: f530 863e a155 eb3d c03c 103e 9261 c03d
00000160: 0058 c1be 287d 373e daa8 b43d 6198 363c
00000170: 0cb7 033e 4d39 033e 9419 013e 53af d23d
00000180: 7462 2a3e f92f 283e 52a2 143e cfad 073e
00000190: f037 eebc 3077 b63d 7069 b63c 6d7f cebc
000001a0: 637f cdbc 5fdd 96bc 16a6 97bd 3fea 14be
000001b0: da4e 09bd 52f3 52bd d54d 8f3d 0775 6abd
000001c0: 5835 313d afc1 1b3d f095 12be 6a89 efbd
000001d0: afa6 d83c a07e 0bbd c709 2cbd 5be0 92bd
000001e0: 1e34 2b3d c2dd 6b3d a1e2 e33d dab0 c33c
000001f0: 3719 05bd b6b9 0dbd 157f abbd 3d83 efbc
00000200: ca0a 82bd c8f3 31bd 3822 13bd a543 283d
00000210: 22ab 64bd d86d fd3c 8aa8 edbc d622 563d
00000220: b685 453d 54ec ffbc 0bf3 33bd 73b2 15bd
00000230: 79cd b13c 62f6 a0bd c287 0c3d 2b1d f7bc
00000240: 6f16 e33c a95e 2fbd 2cec 073d b876 42bd
00000250: 67f1 4dbd c7ff 393d
-0.15307945 0.016207099 -0.22832564 -0.12929162 -0.090802856 -0.25450814 -0.07034669 0.068210475
-0.05961531 -0.047314912 0.021563558 0.0052484507 -0.06275551 -0.03559105 -0.0018494178 -0.038829885
-0.13798675 -0.06251264 -0.12390577 0.0013027441 -0.038939968 -0.13372652 0.049849644 -0.12353361
-0.007929382 -0.13921991 0.061510842 0.11217346 -0.010663023 -0.045168716 -0.13246463 0.025393778
-0.06454744 -0.11908053 -0.19544595 0.0075738244 -0.12543362 -0.08318356 0.03126758 -0.13541232
-0.070573844 0.0018653873 -0.18159007 -0.16617294 -0.07912575 -0.101753615 -0.18256082 -0.06005146
-0.0023419731 -0.07383281 0.1014067 -0.009461825 0.15856683 0.21541505 0.07948271 0.14894074
0.041654974 -0.124697104 0.12778299 0.11452619 0.061862584 0.09174444 0.1917552 0.13144892
-0.04306573 -0.10113876 0.22296892 0.0770342 0.047399003 0.058315437 0.090719715 0.07618483
0.00054843817 0.12534492 0.10610324 0.13997683 -0.43203533 0.04915634 -0.07339942 0.12517324
0.16516246 0.05978601 0.08123408 0.11810943 0.26209226 0.11490942 0.14085674 0.0939361
-0.3776245 0.17918837 0.088212684 0.011144728 0.12862796 0.12814827 0.12607414 0.10287347
0.1663912 0.1642455 0.14515045 0.13249896 -0.029079407 0.08909452 0.022267073 -0.025207246
-0.025085157 -0.018416105 -0.07404725 -0.14542483 -0.033522464 -0.05150158 0.06997267 -0.057240512
0.043263763 0.038026508 -0.14315009 -0.116961315 0.026446668 -0.034056306 -0.042001512 -0.07171699
0.04179775 0.05758453 0.111272104 0.02388804 -0.03249475 -0.034600936 -0.08373848 -0.029237384
-0.06349714 -0.04344538 -0.035921305 0.041080136 -0.055827267 0.030936167 -0.02901103 0.052279316
0.04822322 -0.03124062 -0.043932956 -0.036547136 0.021704422 -0.07859494 0.034309156 -0.030165276
0.027720658 -0.042814884 0.033184215 -0.0474765 -0.050279047 0.045409944
