checkpoints/level3_0103.pt (torch_old, 444769 bytes, 32 tensors)

shared_encoder.input_linear.weight f4 [50, 6]
0	0x3deedf04	0.116636306
1	0x3d153824	0.036430493
2	0x3a8d09fc	0.0010760422
3	0x3bc169f6	0.005902524
4	0x3dd4ee0a	0.10396965
5	0x3e35c029	0.17749085
6	0xbdc30f50	-0.09524405
7	0xbc96d52a	-0.018412191
8	0xbc31a2f5	-0.010842075
9	0x3d141521	0.036152963
10	0x3dfca5e4	0.123363286
11	0x3e29b302	0.16572192
12	0x3d387b51	0.04503948
13	0x3c63f1a3	0.013912591
14	0x3c6c025e	0.014404861
15	0x3aaf070d	0.0013353542
16	0x3d47bc30	0.048763454
17	0xbe407af0	-0.18796897
18	0x3da60203	0.081058525
19	0x3cf1db50	0.029523522
20	0x3a406790	0.0007339651
21	0xbce5e9a1	-0.028065505
22	0x38f697bc	0.00011758457
23	0xbe3fdfa4	-0.18737656
24	0xbe066df1	-0.13127877
25	0x3c385521	0.011250765
26	0xbcf8c1f9	-0.03036593
27	0x3c5a03be	0.013306556
28	0x3d8d42f1	0.06897534
29	0x3e26f240	0.16303349
30	0xbba38de3	-0.0049912794
31	0x3d46f237	0.048570838
32	0xbc731d2e	-0.0148385
33	0xba7dd1de	-0.0009682457
34	0x3dc50e81	0.09621907
35	0xbe55b2c9	-0.20868982
36	0xbd88b449	-0.06675012
37	0xbc50e599	-0.012750053
38	0xbc0c4d22	-0.008563312
39	0x3c03b381	0.008038403
40	0xbcba4297	-0.02273683
41	0x3e468c4b	0.19389455
42	0x3e9d7c69	0.3075898
43	0xbd6a44e8	-0.05719462
44	0xbd3bc5b8	-0.045842856
45	0xbd3198f6	-0.043358766
46	0x3cdccb42	0.02695239
47	0x3bf6518f	0.0075170468
48	0xbda6236f	-0.08112227
49	0xbd11548f	-0.035481032
50	0xb95803ee	-0.00020600829
51	0xbcdae7c7	-0.026721848
52	0xbdcdb0ac	-0.10043463
53	0x3e510187	0.20410739
54	0x3e030a76	0.1279696
55	0xbc14cf46	-0.009082621
56	0x3b12e9f3	0.0022417277
57	0x3d130900	0.035897255
58	0x3dce5df7	0.10076516
59	0xbe502f18	-0.20330465
60	0xbd0ee85f	-0.034889575
61	0x3b0a3e2c	0.0021094186
62	0xbcaeb590	-0.02132681
63	0xbc9e8f81	-0.019355537
64	0x3d826c23	0.06368282
65	0x3e581cdd	0.2110476
66	0x3d1dd95d	0.038537372
67	0xbdbb5d5e	-0.09148668
68	0xbcf3e2d3	-0.029771244
69	0x3da758ea	0.08171256
70	0x3e56c049	0.20971788
71	0xbe5d9814	-0.21640044
72	0x3d5b06da	0.05347333
73	0xbcd5622c	-0.026047789
74	0x3bfedabf	0.0077775414
75	0xbc5bec78	-0.013423078
76	0xbd5ecb9b	-0.054393392
77	0xbe448cfe	-0.19194409
78	0x3da44b42	0.08022167
79	0xbd895a99	-0.06706733
80	0x3b971b02	0.004611374
81	0x3c77202a	0.015083352
82	0x3cab6828	0.020923689
83	0xbe44d110	-0.19220376
84	0x3c9fc371	0.019502373
85	0x3bbaec92	0.005704471
86	0xb9bb2496	-0.00035694678
87	0x3c3bdb48	0.011465855
88	0x3d80725c	0.06271812
89	0xbe54e8ab	-0.20791881
90	0x3e213bb2	0.15745428
91	0x3d09a45f	0.033604022
92	0x3bd53fe6	0.0065078614
93	0xbc3cb631	-0.011518047
94	0xbc80d323	-0.015725678
95	0x3e2ebbb7	0.17063795
96	0xbe388844	-0.18020731
97	0xbd49e933	-0.04929466
98	0xbbec3d7f	-0.0072094793
99	0xbc42c0d6	-0.011886796
100	0xbd9788d6	-0.07399146
101	0x3e3e143b	0.18562405
102	0x3dfce131	0.12347639
103	0x3c2d7ffe	0.010589598
104	0x3bcb3530	0.006201409
105	0x3cdc9b4b	0.026929518
106	0x3dcac986	0.09901719
107	0x3e310853	0.17288332
108	0xbd4a4f8f	-0.04939228
109	0xbca6f29e	-0.02037936
110	0xbb761514	-0.0037549185
111	0xba10c03a	-0.0005521808
112	0xbca0bb3f	-0.019620536
113	0x3e4d5e75	0.20055564
114	0x3e4459c7	0.19174872
115	0x3db90045	0.090332545
116	0x3be7106e	0.007051519
117	0x3d813582	0.06309034
118	0x3e1b1c06	0.15147409
119	0xbe56da9a	-0.20981827
120	0xbd0da027	-0.03457656
121	0xbd5f5f19	-0.05453405
122	0xbbe67b3a	-0.0070337327
123	0xb9a4a1ae	-0.00031400978
124	0xbb45db11	-0.0030190388
125	0x3e494149	0.1965381
126	0x3d51727c	0.05113457
127	0xbcde4eea	-0.027137239
128	0x3c7e4b41	0.015520872
129	0xbb90516c	-0.0044042375
130	0xbd3a704e	-0.04551726
131	0xbe3dd167	-0.18536912
132	0x3e938523	0.28812513
133	0xbb7db305	-0.003871144
134	0x3c2f36ed	0.010694248
135	0xbd5ce523	-0.05392946
136	0xbe0a1451	-0.13484313
137	0xbde374b9	-0.111062475
138	0x3e531953	0.20615129
139	0xbcb89e72	-0.02253649
140	0x3b9bdd02	0.004756571
141	0x3c8194da	0.015818048
142	0x3d8a8a81	0.06764699
143	0xbe405df1	-0.18785836
144	0x3de6e638	0.112743795
145	0xbc73dce2	-0.014884206
146	0xbb031bd0	-0.0020005591
147	0x3cbaa07d	0.022781605
148	0x3de9e219	0.11420078
149	0x3e36ceba	0.17852297
150	0xbc84f73f	-0.016231177
151	0x3cb05524	0.021524973
152	0xbbfb47cc	-0.007668471
153	0xbc17e145	-0.009270017
154	0xbd1194bc	-0.035542235
155	0x3e466933	0.19376068
156	0xbead3cb4	-0.33835375
157	0x3d17287e	0.03690385
158	0xbbb3f109	-0.00549138
159	0xbba26e7b	-0.004957018
160	0xbb9458f0	-0.0045272037
161	0x3d60a511	0.05484492
162	0xbe9d121b	-0.30677876
163	0xbcff26c9	-0.031146424
164	0xbc1f904c	-0.009738993
165	0x3d3bbd24	0.045834675
166	0x3e7beb0a	0.24601379
167	0x3c92a3a1	0.01790029
168	0xbd9dd831	-0.07707251
169	0x3ba631f6	0.005071874
170	0xbbce11b6	-0.0062887324
171	0x3c49b7a9	0.012311854
172	0xbd5c4739	-0.05377886
173	0x3e3f05e7	0.18654595
174	0xbdb83394	-0.08994213
175	0xbd13fa81	-0.03612757
176	0xbaa35405	-0.0012460953
177	0xbb1e01d4	-0.0024109976
178	0x3d6b5bec	0.05746071
179	0x3e36e2b2	0.17859915
180	0x3d0d41d5	0.03448661
181	0x3cfff30d	0.031243825
182	0x3bca0a11	0.006165751
183	0xbb5e72ce	-0.003394294
184	0x3d3cb510	0.046071112
185	0xbe44d946	-0.19223508
186	0xbc214731	-0.0098436335
187	0x3c528ed5	0.012851437
188	0x3c717519	0.014737391
189	0xbc13b3d3	-0.009015041
190	0xbd46fb7b	-0.048579674
191	0x3e50623a	0.2034997
192	0xbdb8f3e8	-0.090308964
193	0xbd7efcf7	-0.062252965
194	0xbcb261be	-0.021775123
195	0x3c27167e	0.010198234
196	0xbd1054a5	-0.035236973
197	0x3e49aa9d	0.1969399
198	0xbdff4168	-0.12463647
199	0xbd1cbfad	-0.038268734
200	0x3bd14c20	0.0063872486
201	0x3cfb9ff9	0.03071593
202	0x3d363213	0.04448135
203	0x3e393bdf	0.18089245
204	0x3dca00fe	0.098634705
205	0xbbcdcb48	-0.0062803365
206	0x3b99a28f	0.004688568
207	0x3cb72a39	0.022359
208	0x3d39043c	0.045170054
209	0xbe54828c	-0.20752925
210	0xba17db40	-0.00057928637
211	0xbcb50417	-0.022096677
212	0xbba06593	-0.004894921
213	0xbc42be58	-0.011886202
214	0xbdf9044e	-0.12159024
215	0x3e4b3f3b	0.1984834
216	0xbc8d62ab	-0.017258963
217	0x3bb37b0d	0.0054773153
218	0x3c4059d1	0.011740164
219	0x3a6a7e9c	0.0008945258
220	0x3d9fc934	0.07802048
221	0xbe5d1434	-0.21589738
222	0x3ce8644e	0.028368142
223	0xbd8a59bf	-0.06755399
224	0x3d2a5a94	0.04159029
225	0x3d4c6946	0.049905084
226	0xbb270c6d	-0.0025489584
227	0xbe52b6a9	-0.20577492
228	0x3d64c89b	0.055855375
229	0x3cecf306	0.028924476
230	0xbadb676c	-0.0016739196
231	0xbc3be24f	-0.01146753
232	0x3d04dfd9	0.03244004
233	0xbe3f6ebf	-0.1869459
234	0x3e402e6f	0.18767713
235	0x3d15de53	0.036588978
236	0x3c6c96bc	0.014440235
237	0xbca8c9a7	-0.020603968
238	0x3d3eb3ae	0.046558075
239	0x3e12162f	0.14266275
240	0xbda5d905	-0.08098034
241	0x3d05df05	0.03268339
242	0x3cef349e	0.029199895
243	0xbbf3955e	-0.0074335774
244	0xbccf21b8	-0.025284633
245	0x3e4f532f	0.20246576
246	0xbe1b8d16	-0.15190539
247	0xbc0d1b57	-0.008612475
248	0xbb3d596c	-0.002889241
249	0x3ce66ce9	0.028128104
250	0x3d55d8d4	0.052208737
251	0xbe2ddaf3	-0.16978054
252	0xbd8c79f4	-0.06859198
253	0x3d4a2fba	0.04936192
254	0xbbe49bf2	-0.006976598
255	0xbc8b4671	-0.017001363

shared_encoder.input_linear.bias f4 [50]
0	0xbdd5af53	-0.10433831
1	0xbd132ac9	-0.035929475
2	0x3d24a8a4	0.04019989
3	0x3d3f871c	0.04675971
4	0xbcd7dfb6	-0.02635179
5	0x3d9ad13d	0.0755944
6	0xbd29ef2f	-0.04148787
7	0xbdab7a6b	-0.08372959
8	0xbd0ee880	-0.034889698
9	0x3cac55c9	0.021037
10	0xbd65c6c4	-0.05609776
11	0x3d63ccbf	0.055615183
12	0x3d533e4f	0.051573094
13	0x3d2498c8	0.040184766
14	0x3d7abe20	0.061216474
15	0xbdd05fa0	-0.10174489
16	0x3c38199a	0.011236573
17	0xbdd68532	-0.10474624
18	0xbd6c0942	-0.057626016
19	0xbc89abf0	-0.016805619
20	0xbd407854	-0.046989754
21	0x3d2e1eac	0.04250972
22	0xbd0ea9c2	-0.034829862
23	0xbc7a7b15	-0.015288134
24	0xbdd4d570	-0.103922725
25	0xbd5a2035	-0.05325337
26	0x3d8cfc3c	0.068840474
27	0x3da306f5	0.07960311
28	0xbd2de897	-0.042458143
29	0xbd132c70	-0.03593105
30	0x3d6c4842	0.057686098
31	0xbd865647	-0.06559425
32	0xbd0530ca	-0.032517232
33	0xbcd58d01	-0.026068212
34	0x3d0ecaa2	0.034861214
35	0xbd72188b	-0.059105437
36	0x3da204bc	0.07911059
37	0x3d6e035c	0.058108672
38	0x3d4a9609	0.04945949
39	0xbde91030	-0.11380041
40	0xbd08c3b6	-0.03338977
41	0x3dd70dfc	0.10500714
42	0xbd454762	-0.04816378
43	0x3dcbe820	0.09956384
44	0x3bee402b	0.007270833
45	0xbddfc38b	-0.10925969
46	0x3c84bede	0.016204294
47	0xbdc4c689	-0.0960818
48	0xbdde2b99	-0.10848159
49	0x3de2a1fe	0.11066054

shared_encoder.gru_left.weight_ih_l0 f4 [150, 50]
0	0xbe82d433	-0.2555252
1	0xbf006890	-0.5015955
2	0x3ed78177	0.4209096
3	0x3e9181e2	0.28419405
4	0xbecb018a	-0.39649612
5	0x3eb8280c	0.35968053
6	0xbe8e5ce7	-0.27805254
7	0x3cd0b89a	0.02547865
8	0xbe0b1277	-0.13581263
9	0x3c0186a6	0.007905638
10	0xbe738db5	-0.23784526
11	0x3de2ec20	0.110801935
12	0x3e8f6db6	0.2801339
13	0x3e705d91	0.23473193
14	0x3e510a4f	0.20414089
15	0xbea28737	-0.31743786
16	0xbd77ab8a	-0.060466327
17	0xbe51c3f9	-0.20484914
18	0xbe63aed0	-0.22234654
19	0xbd6fa44f	-0.058506306
20	0xbebc72bc	-0.36806285
21	0x3ebae7e5	0.36505046
22	0x3e12a1c9	0.14319529
23	0x3da36f94	0.07980266
24	0xbe65c7c9	-0.22439493
25	0xbeda442c	-0.42630136
26	0xbe2d3a14	-0.16916686
27	0xbea0d871	-0.31415132
28	0xbea9e32f	-0.3318114
29	0xbe3d0f9c	-0.18462986
30	0x3efe9ecd	0.4973053
31	0xbea9f6c2	-0.33196074
32	0xbe221684	-0.15828902
33	0xbe751bee	-0.23936436
34	0x3e1ff54f	0.15620922
35	0xbeee812f	-0.46582934
36	0x3e8c6a42	0.27424818
37	0x3e899909	0.2687457
38	0x3eaa7ae9	0.33296898
39	0xbe46f172	-0.19428042
40	0xbe3b8dbf	-0.1831579
41	0x3e74269c	0.23842853
42	0xbe85661a	-0.2605446
43	0x3e9c015c	0.30469787
44	0x3d052c75	0.0325131
45	0xbea9ac84	-0.3313943
46	0x3e22a61a	0.15883675
47	0xbeb2c473	-0.34915504
48	0xbe53429b	-0.20630877
49	0x3e60f491	0.21968295
50	0x3d3de90f	0.04636484
51	0xbde5d321	-0.1122191
52	0x3d8950c2	0.067048565
53	0xbd997b42	-0.07494213
54	0xbd394fe0	-0.04524219
55	0x3bb2ef81	0.00546068
56	0x3e239aa6	0.15976962
57	0x3efa3a78	0.48872733
58	0x3e6a1eb6	0.22863278
59	0xbe6f93b0	-0.23396182
60	0x3cf9f522	0.030512396
61	0xbe23adf2	-0.15984324
62	0x3cf89aa5	0.030347178
63	0x3d5b8160	0.05359018
64	0xbe35da6d	-0.17759104
65	0x3da989bc	0.08278224
66	0x3d7b1a01	0.061304096
67	0x3d46782f	0.04845446
68	0x3e207853	0.156709
69	0xbe24f53e	-0.16109177
70	0x3d6264a3	0.055271756
71	0x3d4fdea5	0.05074944
72	0x3e9714fb	0.29508194
73	0x3bfb9dc4	0.0076787192
74	0x3e1fa7f3	0.15591411
75	0xbc868506	-0.016420852
76	0xbebd33f2	-0.36953694
77	0xbeef043d	-0.4668292
78	0x3b8cb7f2	0.004294389
79	0x3d9911a0	0.07474065
80	0x3d90a059	0.07061834
81	0x3dbddce3	0.092706464
82	0x3e4f64eb	0.20253341
83	0x3e04dadd	0.12974115
84	0xbdced77e	-0.100996956
85	0x3c6017de	0.013677565
86	0xbe2203cc	-0.15821761
87	0xbe165680	-0.14681435
88	0xbd023588	-0.031789333
89	0x3df0d131	0.1175865
90	0x3dbab028	0.091156304
91	0xbe2874ec	-0.16450852
92	0xbb5c8b37	-0.0033652314
93	0xbe123f41	-0.14281942
94	0xbd4e9bfc	-0.050441727
95	0x3c8c54bb	0.017130246
96	0xbe006672	-0.1253908
97	0x3dd3e4bf	0.10346364
98	0x3dd92f51	0.10604728
99	0xbcc93fac	-0.024566494
100	0x3e930e04	0.2872163
101	0x3ef9b7bc	0.4877299
102	0xbec6148b	-0.38687548
103	0xbeb75df5	-0.3581387
104	0x3ea8a02c	0.329347
105	0xbea3ec3d	-0.32016173
106	0x3eb84b51	0.35994962
107	0x3cf54de8	0.029944375
108	0x3e8d85e7	0.27641222
109	0xbea0cea4	-0.31407654
110	0x3e941e8c	0.28929555
111	0xbe82d1fb	-0.25550827
112	0xbe4dd15b	-0.20099394
113	0xbe66bec1	-0.22533704
114	0xbe774ce3	-0.24150424
115	0x3ea1526b	0.31508192
116	0x3ea1fdf5	0.31639066
117	0x3e83f6cd	0.25774232
118	0x3e9a4488	0.3013041
119	0xbeb39e80	-0.35081863
120	0x3ea736b5	0.32658926
121	0xbe916f8d	-0.2840542
122	0xbe8fb505	-0.28067794
123	0xbe8411c1	-0.25794795
124	0x3eb267e7	0.34844896
125	0x3e9b1edf	0.3029699
126	0x3e70e42e	0.23524544
127	0x3e52a7ed	0.20571871
128	0x3eac8e4f	0.33702323
129	0x3e95c1da	0.2924946
130	0xbedf3efe	-0.43602747
131	0x3e57d953	0.21078996
132	0x3eb3d59a	0.35123903
133	0x3efc6a2b	0.4929975
134	0xbe590ad0	-0.21195531
135	0x3ed759c4	0.42060673
136	0xbe6bc93f	-0.23025988
137	0xbeb41b5f	-0.35177132
138	0xbe95105c	-0.29114044
139	0x3e0f26d6	0.13979658
140	0x3e77d0de	0.2420077
141	0xbea6048c	-0.32425344
142	0x3e91bd8d	0.28464928
143	0xbec635a6	-0.38712806
144	0xbe739eec	-0.23791093
145	0x3ebdf039	0.37097338
146	0xbea1b7dc	-0.31585586
147	0x3ebfba2b	0.37446722
148	0x3e2952b1	0.1653545
149	0xbe4c6eeb	-0.19964187
150	0x3d9d9c63	0.07695844
151	0xbe1f9334	-0.15583497
152	0x3d510701	0.05103207
153	0xbd0fdd7c	-0.035123333
154	0xbdb7c7be	-0.08973645
155	0xbbaae2b3	-0.005215013
156	0x3de032ef	0.10947215
157	0x3eebb062	0.46033007
158	0x3e73e336	0.23817143
159	0xbe22f375	-0.15913184
160	0x3cdacf3a	0.026710141
161	0x3d47ef6a	0.048812307
162	0x3de1387e	0.10997103
163	0x3df9ad3c	0.12191245
164	0xbdf58400	-0.119880676
165	0xbc267c03	-0.010161403
166	0x3dbc8646	0.09205298
167	0xbc218573	-0.009858477
168	0x3da1374d	0.07871876
169	0xbe82bc3f	-0.25534245
170	0x3d1a5484	0.037678257
171	0x3da82a75	0.08211223
172	0x3ebcbdb4	0.36863482
173	0x3ccf40a3	0.025299376
174	0x3e3a10e3	0.18170504
175	0xbdd2d316	-0.10294168
176	0xbeae9fa3	-0.34106168
177	0xbebf3720	-0.37346745
178	0xbdcee44b	-0.10102137
179	0x3dab2119	0.08355922
180	0x3dc153b6	0.09439795
181	0x3b4569b8	0.0030122828
182	0x3e6cc010	0.23120141
183	0x3de489b3	0.111590765
184	0xbdd147e3	-0.102187894
185	0xbc490641	-0.012269557
186	0xbdb2a23b	-0.08722349
187	0xbd3e73e4	-0.04649724
188	0x3bd08439	0.0063634184
189	0x3d92c4e2	0.07166459
190	0x3cd5911a	0.026070166
191	0xbe4169f4	-0.18888074
192	0xbdba621f	-0.09100746
193	0xbe1ef0cd	-0.15521546
194	0xbd1e26d8	-0.038611263
195	0x3d707c97	0.058712568
196	0xbd0fdfa0	-0.035125375
197	0x3dafb774	0.08579913
198	0x3d17797a	0.036981083
199	0xbd14df9c	-0.036346063
200	0xbed8f81c	-0.42376792
201	0xbeaf57b0	-0.34246588
202	0x3eb3cfe6	0.3511955
203	0x3e93b6e4	0.28850472
204	0xbe7214ed	-0.23640795
205	0x3ecab4be	0.3959102
206	0xbe6f37ef	-0.2336118
207	0xbe580656	-0.21096167
208	0xbb3d428c	-0.0028878776
209	0xbc80cbe3	-0.01572222
210	0xbe94ca08	-0.29060388
211	0x3e18367f	0.14864539
212	0x3e9f1337	0.31069347
213	0x3e64fb9b	0.22361605
214	0x3e221342	0.15827659
215	0xbedf2ecd	-0.43590394
216	0x3e3696a7	0.17830907
217	0xbeca5acf	-0.39522406
218	0xbe7d3f7c	-0.24731249
219	0xbe480e8b	-0.19536798
220	0xbeab0215	-0.33400026
221	0x3e9e0a35	0.30867162
222	0xbd61b069	-0.05509988
223	0xbda4bf16	-0.08044259
224	0xbe89f5d2	-0.2694536
225	0xbedf1ad3	-0.43575153
226	0x3e32a502	0.17445758
227	0x3e1f8cb6	0.1558102
228	0xbe9a9688	-0.3019297
229	0xbe059ab4	-0.13047296
230	0x3ee20c37	0.44149944
231	0xbe921258	-0.2852962
232	0xbd760126	-0.06005969
233	0xbd839ae5	-0.06426028
234	0x3e07596f	0.1321771
235	0xbeb19431	-0.34683374
236	0x3ea2c745	0.31792656
237	0x3ea0a84f	0.3137841
238	0x3ea789f2	0.3272243
239	0xbeb9b416	-0.36270207
240	0xbe224fb6	-0.1585072
241	0x3ea1940e	0.3155827
242	0xbe962fbe	-0.293333
243	0x3e9f9d59	0.31174734
244	0xbd449ea8	-0.04800287
245	0xbecb6e5f	-0.39732644
246	0x3d86e951	0.0658747
247	0xbedf3b7f	-0.4360008
248	0xbed4bed6	-0.41551846
249	0x3ebab12e	0.36463302
250	0xbed7a570	-0.42118406
251	0xbef98528	-0.48734403
252	0x3ed0211f	0.4065027
253	0x3e9ba01d	0.30395594
254	0xbeb90207	-0.3613436
255	0x3ec914ef	0.39273784

shared_encoder.gru_left.weight_hh_l0 f4 [150, 50]
0	0xbdaa0656	-0.0830199
1	0x3d245d41	0.040127996
2	0xbdc0cb46	-0.09413771
3	0x3cd3e233	0.025864696
4	0xbc3e26a3	-0.011605891
5	0xbdba5205	-0.09097675
6	0x3ca1f6e1	0.019771041
7	0xbd31aaf3	-0.04337592
8	0x3d993787	0.07481294
9	0xbdc826c1	-0.09773017
10	0x3aff5b46	0.0019482158
11	0x3dcf19e6	0.101123616
12	0xbc8b1712	-0.016978774
13	0x3e321fee	0.17394993
14	0xbdafe0d6	-0.08587806
15	0x3d7964e6	0.06088724
16	0xbe877aee	-0.26460975
17	0xbdd9f2e2	-0.10642029
18	0x3d927b5c	0.07152435
19	0x3da3ac51	0.07991851
20	0xbdab2b98	-0.08357924
21	0x3ddc11df	0.10745596
22	0xbde6960a	-0.112590864
23	0x3d255691	0.04036576
24	0xbd8ec33a	-0.0697083
25	0xbca64401	-0.020296099
26	0xbd727a62	-0.059198745
27	0x3d967dbf	0.07348203
28	0xbd172cad	-0.03690784
29	0xbe6a2af5	-0.2286795
30	0x3d34e1e1	0.044160727
31	0xbdc7d875	-0.09758083
32	0x3ddb31f0	0.10702884
33	0xbe1fb6a1	-0.15597011
34	0x3da7d344	0.081945926
35	0x3e393148	0.18085206
36	0xbd25ee00	-0.040510178
37	0xbe0f520d	-0.13996144
38	0xbc2c6032	-0.010520982
39	0xbd1dcb29	-0.038523827
40	0x3eba7cbd	0.36423293
41	0xbca67809	-0.02032091
42	0xbe9b7e9f	-0.30370042
43	0xbcccc666	-0.024996947
44	0xbc8e3bcf	-0.017362503
45	0x3d8d9fae	0.06915222
46	0xbda7068f	-0.08155548
47	0xbce53f8d	-0.027984405
48	0xbcd63920	-0.026150286
49	0xbde9b8f8	-0.11412233
50	0x3da38b81	0.07985593
51	0x3e45dbb0	0.19322085
52	0x3e388239	0.18018426
53	0x3e07c1a2	0.13257459
54	0x3e28134e	0.16413614
55	0x3e46e204	0.19422156
56	0xbdc24715	-0.09486214
57	0x3dc6ea22	0.09712626
58	0xbe46d6c0	-0.19417858
59	0x3e687fba	0.22704974
60	0xbeb3d0a4	-0.35120118
61	0x3da756cb	0.08170851
62	0xbce4ebf4	-0.027944542
63	0xbd13083e	-0.035896532
64	0x3e896a23	0.26838788
65	0x3d7838c3	0.060601007
66	0xbee9fe95	-0.45702043
67	0x3e56a560	0.20961523
68	0x3ddde191	0.10834039
69	0xbe621864	-0.22079617
70	0x3e284d65	0.16435774
71	0xbe4efde3	-0.20214038
72	0x3e33e0d3	0.17566232
73	0xbe0adbaf	-0.13560365
74	0x3e2e5394	0.1702407
75	0xbe4b5fe1	-0.19860794
76	0x3e7657ad	0.24056883
77	0xbd107e64	-0.035276785
78	0x3e01732e	0.12641594
79	0x3d2804e9	0.041020308
80	0xbe22b4fb	-0.15889351
81	0x3d8ce940	0.068804264
82	0xbe090acf	-0.1338303
83	0x3d9a4101	0.0753193
84	0x3e7ee3ca	0.24891582
85	0x3ce3b79d	0.027797515
86	0x3ecda202	0.40162665
87	0x3dc9175c	0.098189086
88	0x3c93e0dc	0.018051557
89	0xbc58c0d4	-0.013229568
90	0x3da033ad	0.078223564
91	0xbd88ea1e	-0.06685279
92	0x3a501c78	0.00079388125
93	0xbeb8c2d7	-0.3608615
94	0x3e705da1	0.23473217
95	0xbdd91600	-0.10599899
96	0x3e514d47	0.20439635
97	0x3e1de72d	0.15420218
98	0xbe76c0f8	-0.24097049
99	0xbe4eb9e4	-0.20188099
100	0x3ccb3907	0.024807466
101	0x3ee51b9c	0.44747627
102	0x3dfcab89	0.12337405
103	0x3f191f8d	0.5981377
104	0x3e8500df	0.25977227
105	0x3dfa4118	0.12219447
106	0xbef24cbb	-0.47324166
107	0x3ea08387	0.31350347
108	0xbed8327a	-0.4222601
109	0x3e8c6a02	0.27424628
110	0xbf11da1a	-0.5697342
111	0xbe69fd8e	-0.2285063
112	0xbef039d9	-0.46919134
113	0x3c803b09	0.01565315
114	0x3e73a19e	0.23792121
115	0xbe6cdf36	-0.23132023
116	0xbe844b4a	-0.2583869
117	0x3e59d5d7	0.2127298
118	0x3d2ad2e5	0.04170503
119	0xbe8e9290	-0.27846193
120	0x3f013929	0.50477844
121	0x3e59a222	0.21253255
122	0x3e085708	0.1331445
123	0xbebdaa21	-0.3704386
124	0x3dea6fd1	0.114471085
125	0xbeeeb9fd	-0.46626273
126	0x3ee76f80	0.45202255
127	0xbe897f78	-0.26855063
128	0x3edf9fc3	0.43676576
129	0x3eb32044	0.34985554
130	0xbf0219fc	-0.508209
131	0x3e816f8c	0.25280416
132	0xbd85680d	-0.06513987
133	0x3e497986	0.19675264
134	0x3d77c978	0.06049487
135	0xbe672303	-0.2257195
136	0x3f00e4f4	0.50349355
137	0x3e891a89	0.26778057
138	0xbf106a7e	-0.56412494
139	0x3e9713ef	0.29507396
140	0xbe7e5e47	-0.24840651
141	0x3e0fc7b8	0.1404103
142	0x3ddcdd93	0.107844494
143	0xbf1ff64b	-0.6248519
144	0x3ee81c00	0.45333862
145	0xbd56bfea	-0.052429117
146	0x3ed3c216	0.41359013
147	0x3ebaf877	0.3651769
148	0xbeca224b	-0.39479288
149	0xbea7338a	-0.3265651
150	0x3d70fcab	0.058834713
151	0x3e377f86	0.1791974
152	0x3e2852bc	0.1643781
153	0x3e73684f	0.2377026
154	0x3d81d6eb	0.063398205
155	0x3e185c06	0.14878854
156	0xbe19b4bf	-0.15010355
157	0x3deb4ab8	0.11488861
158	0xbe67ca51	-0.22635771
159	0x3e4807be	0.19534203
160	0xbec80de3	-0.39073095
161	0x3dd328b3	0.10310497
162	0xbd64fc3d	-0.055904616
163	0x3da282e9	0.079351254
164	0x3e1f25b1	0.15541722
165	0x3e63a4e8	0.22230875
166	0xbed28103	-0.41114053
167	0x3e07d0fe	0.13263318
168	0x3e26f475	0.1630419
169	0xbdce3f59	-0.10070676
170	0x3e8ff985	0.28120056
171	0xbe2feddf	-0.17180584
172	0x3e16f0ff	0.1474037
173	0xbdf25f04	-0.11834529
174	0x3e0ac5bf	0.13551997
175	0xbe32a6d6	-0.17446455
176	0x3e8d8ca7	0.27646372
177	0xbd619e5e	-0.05508267
178	0x3e26d9c6	0.16294011
179	0xbe0f8528	-0.14015639
180	0xbe88bf76	-0.26708573
181	0x3dfb5d16	0.12273614
182	0xbdcc7d00	-0.09984779
183	0x3da7157e	0.08158396
184	0x3e7f2937	0.24918066
185	0x3d0c6e79	0.034285042
186	0x3eafb391	0.34316686
187	0x3e0c8a77	0.13724695
188	0xbe609502	-0.21931842
189	0xbdefcd83	-0.1170912
190	0x3e1d5fb5	0.1536854
191	0xbe6100d1	-0.21972968
192	0xbdb469b2	-0.08809222
193	0xbea03e4b	-0.31297526
194	0x3e570f53	0.2100194
195	0xbde57b76	-0.11205189
196	0x3e3896e6	0.18026313
197	0x3e1fec93	0.1561759
198	0xbe36c69e	-0.17849204
199	0xbdf828cf	-0.121171586
200	0xbe44825e	-0.19190356
201	0xbe931fd6	-0.28735226
202	0xbe0ec1a1	-0.13941051
203	0xbe3945e8	-0.18093073
204	0xbd4cc236	-0.0499899
205	0xbe1402ad	-0.14454146
206	0x3de4ac46	0.11165671
207	0xbde596ff	-0.11210441
208	0x3dff3e25	0.12463025
209	0xbe9335fd	-0.28752127
210	0x3e119819	0.14218177
211	0xbd6a670b	-0.057227176
212	0x3e238867	0.15970002
213	0x3e915cc7	0.28391096
214	0xbe883246	-0.26600856
215	0x3d8e7c54	0.069573075
216	0x3d83ceed	0.06435952
217	0xbc1a6734	-0.00942402
218	0x3dac4dac	0.08413252
219	0x3ea2c8cc	0.3179382
220	0xbe03b6b5	-0.12862666
221	0x3d8eb888	0.0696879
222	0xbe0210d9	-0.1270174
223	0x3e3792a6	0.17927036
224	0xbe1ec6b8	-0.15505493
225	0x3e8ff0d0	0.28113413
226	0xbe89a265	-0.2688171
227	0x3d3caad3	0.04606135
228	0xbe82ba6e	-0.2553286
229	0xbe369935	-0.17831881
230	0x3dadf1d5	0.084933914
231	0x3e46cae0	0.19413328
232	0x3e41fec8	0.18944848
233	0xbe52f301	-0.20600511
234	0xbe23c860	-0.15994406
235	0x3ea3f870	0.3202548
236	0xbe76bf60	-0.24096441
237	0x3e60cbf7	0.21952806
238	0x3dc4f27f	0.09616565
239	0x3d1eed40	0.038800478
240	0xbc97d6d8	-0.018535063
241	0xbd9e7c60	-0.077385664
242	0xbe85ed7e	-0.26157755
243	0x3e1b750a	0.15181366
244	0xbea69f31	-0.32543328
245	0x3ed322d9	0.41237524
246	0xbea8832d	-0.3291258
247	0x3e86c626	0.2632305
248	0x3eafa23f	0.3430347
249	0x3d701ca6	0.05862107
250	0xbe16ee7d	-0.14739414
251	0xbe96676a	-0.29375774
252	0xbe07332a	-0.13203111
253	0xbe3fc0e8	-0.18725932
254	0xbe63e36b	-0.22254722
255	0xbe33fac4	-0.17576128

shared_encoder.gru_left.bias_ih_l0 f4 [150]
0	0x3cc9f087	0.024650825
1	0x3d1e5eb3	0.03866453
2	0xbd0e0ddf	-0.034681197
3	0x3d0f49f1	0.034982625
4	0xbcff1596	-0.031138223
5	0xbd520211	-0.051271502
6	0x3cead046	0.028663766
7	0xbd7a7f3a	-0.06115649
8	0x3bcccfac	0.0062503424
9	0xbcc3407d	-0.023834461
10	0xbd46bcc8	-0.04851988
11	0xbd330efb	-0.04371546
12	0x3bb884c6	0.005631062
13	0x3d25de93	0.040495466
14	0x3c23e494	0.010003228
15	0xbc1926a5	-0.0093475925
16	0xbc5636c0	-0.013074577
17	0x3c80a12b	0.01570185
18	0x3e83c605	0.25737014
19	0xbd7d3376	-0.061816655
20	0xbc229cb3	-0.009925055
21	0x3df91bd7	0.12163513
22	0xbbca43b8	-0.0061726235
23	0x3d7c6272	0.061617322
24	0xbf28f981	-0.6600571
25	0x3ce01796	0.027354997
26	0xbc65a85d	-0.014017192
27	0xbc9dabaf	-0.019246904
28	0x3cc78802	0.024356846
29	0x3d0c08ea	0.03418819
30	0xbc76d692	-0.015065806
31	0xbe3528e2	-0.17691377
32	0x3c274916	0.010210296
33	0xbd8e7fbf	-0.069579594
34	0xbddfcce8	-0.10927755
35	0x3c720c3b	0.014773424
36	0xbd4430e6	-0.047898196
37	0xbe4ac5c7	-0.19802009
38	0x3d008590	0.031377375
39	0x3d78f7f4	0.06078334
40	0x3dcca261	0.09991909
41	0xbda5affb	-0.08090206
42	0x3dccb0cf	0.09994661
43	0x3db4d475	0.088295855
44	0xbbc00a30	-0.0058605894
45	0xbe70ed29	-0.2352797
46	0xbdb75fee	-0.08953844
47	0xbdbd61de	-0.09247182
48	0x3d1488aa	0.036263146
49	0x3d2f5364	0.042804137
50	0xbe52ed54	-0.20598346
51	0x3e42ed3e	0.19035813
52	0xbcb79c90	-0.022413522
53	0x3eb0cdb4	0.3453194
54	0x3f27acb0	0.65497875
55	0xbacfe502	-0.0015861096
56	0x3e9e60c7	0.3093321
57	0x3f35d3b9	0.7102619
58	0x3eafb33c	0.34316432
59	0x3ecc28bb	0.39874825
60	0x3f28c8fb	0.6593167
61	0x3e550f11	0.20806529
62	0x3e916f81	0.28405383
63	0xbe1dfd4e	-0.1542866
64	0xbc330957	-0.01092752
65	0x3d878396	0.06616895
66	0xbf233058	-0.6374564
67	0x3e0b1ca1	0.1358514
68	0xbe2f1034	-0.17096025
69	0x3efd387e	0.49457163
70	0x3ef91f7d	0.48656836
71	0x3e446258	0.1917814
72	0x3ddd30e2	0.10800339
73	0x3e0d0201	0.13770296
74	0x3e4d1d93	0.20030813
75	0x3e529490	0.20564485
76	0x3ebda518	0.3704002
77	0x3f42d28f	0.76102537
78	0x3eb446fa	0.352104
79	0xbd9c811c	-0.07641813
80	0x3eb9dcb6	0.36301202
81	0x3f8ad525	1.0846297
82	0xbd675796	-0.056480013
83	0xbe827124	-0.25476944
84	0x3ec87720	0.39153385
85	0xbf081afc	-0.53166175
86	0x3f04b1ae	0.5183362
87	0x3f395442	0.7239419
88	0x3e635a30	0.22202373
89	0x3d735586	0.059407733
90	0x3b52dea2	0.0032176157
91	0x3db88c45	0.09011129
92	0xbe375a51	-0.17905547
93	0x3dc803ce	0.09766351
94	0x3ec44264	0.38331902
95	0x3eebc279	0.46046808
96	0x3f182ebb	0.59446305
97	0x3f4d1ddf	0.80123705
98	0x3dfb0d5d	0.12258408
99	0x3f06ad0d	0.52607805
100	0x3d20c393	0.039249014
101	0x3d34dbb1	0.044154827
102	0x3c60c25f	0.013718217
103	0x3cdc36d1	0.026881607
104	0xbc2c0b14	-0.010500688
105	0x3a04d11e	0.0005066561
106	0xbd34eff3	-0.044174146
107	0x3ad29710	0.0016066749
108	0xbd0f8e46	-0.035047792
109	0x3af3f2d9	0.0018611803
110	0xbcc364aa	-0.023851711
111	0x3c6c7df0	0.014434323
112	0xbd116913	-0.035500597
113	0x3cca4738	0.024692163
114	0x3b6256b2	0.0034536538
115	0xbae1902e	-0.0017209107
116	0xbd392f7a	-0.045211293
117	0xbbe6636c	-0.007030895
118	0xbc1a5247	-0.0094190305
119	0x3bbe2ff7	0.0058040577
120	0x3cef8eaf	0.029242842
121	0x3d51e6cd	0.0512455
122	0x3c3c55d3	0.011495071
123	0xbbf82c94	-0.0075736735
124	0xba1bdb1a	-0.00059454294
125	0xbd0f74fb	-0.03502367
126	0x3cd2fa6b	0.025754174
127	0xbb1cf0a3	-0.0023947142
128	0x3cbe1a7c	0.023205988
129	0xbc6579f8	-0.01400613
130	0xbd29f681	-0.04149485
131	0xbab4bfa3	-0.0013790022
132	0xbd1d28d8	-0.03836903
133	0xbd7e2959	-0.06205115
134	0x3bcdfa78	0.0062859617
135	0xbda643e3	-0.08118417
136	0x3cb3337b	0.021875134
137	0xbb7fb615	-0.0039018441
138	0xbd657c77	-0.056026902
139	0xbce1bbd3	-0.027555382
140	0x3c8bb717	0.017055077
141	0x3c0eeb0a	0.00872303
142	0xbb7f3f94	-0.0038947808
143	0x3acdf310	0.0015712697
144	0x3cbf637b	0.023362866
145	0xbb2f0144	-0.0026703635
146	0x3c30c9d1	0.010790304
147	0xbbf28745	-0.0074013793
148	0xbd12769f	-0.035757657
149	0xbc2bd71e	-0.0104883

shared_encoder.gru_left.bias_hh_l0 f4 [150]
0	0x3cc9f083	0.024650818
1	0x3d1e5eab	0.0386645
2	0xbd0e0de4	-0.034681216
3	0x3d0f4a02	0.03498269
4	0xbcff158e	-0.031138208
5	0xbd52020a	-0.051271476
6	0x3cead02e	0.028663721
7	0xbd7a7f3a	-0.06115649
8	0x3bcccfa1	0.006250337
9	0xbcc34084	-0.023834474
10	0xbd46bcd7	-0.048519935
11	0xbd330eea	-0.043715395
12	0x3bb884d2	0.005631068
13	0x3d25de84	0.04049541
14	0x3c23e4c0	0.010003269
15	0xbc192682	-0.00934756
16	0xbc563706	-0.013074642
17	0x3c80a112	0.015701804
18	0x3e83c606	0.25737017
19	0xbd7d3376	-0.061816655
20	0xbc229c91	-0.009925024
21	0x3df91bc1	0.12163497
22	0xbbca4351	-0.0061725755
23	0x3d7c625a	0.061617233
24	0xbf28f982	-0.6600572
25	0x3ce017af	0.027355043
26	0xbc65a7e9	-0.014017084
27	0xbc9daba3	-0.019246882
28	0x3cc78812	0.024356876
29	0x3d0c08ff	0.034188267
30	0xbc76d623	-0.015065703
31	0xbe3528dd	-0.1769137
32	0x3c274925	0.01021031
33	0xbd8e7fa5	-0.0695794
34	0xbddfccf0	-0.109277606
35	0x3c720bff	0.014773368
36	0xbd4430df	-0.04789817
37	0xbe4ac5bf	-0.19801997
38	0x3d00858a	0.031377353
39	0x3d78f7f6	0.06078335
40	0x3dcca25f	0.09991907
41	0xbda5affb	-0.08090206
42	0x3dccb0dd	0.099946715
43	0x3db4d483	0.08829596
44	0xbbc00a5a	-0.005860609
45	0xbe70ed27	-0.23527966
46	0xbdb75fe9	-0.0895384
47	0xbdbd61df	-0.09247183
48	0x3d1488a3	0.03626312
49	0x3d2f5363	0.042804133
50	0xbe52ed4e	-0.20598337
51	0x3e42ed35	0.190358
52	0xbcb79c98	-0.022413537
53	0x3eb0cdae	0.3453192
54	0x3f27acae	0.65497863
55	0xbacfe41d	-0.001586083
56	0x3e9e60c1	0.30933192
57	0x3f35d3b7	0.71026176
58	0x3eafb33b	0.3431643
59	0x3ecc28c0	0.3987484
60	0x3f28c8ff	0.65931696
61	0x3e550f12	0.2080653
62	0x3e916f84	0.28405392
63	0xbe1dfd4b	-0.15428655
64	0xbc330972	-0.010927545
65	0x3d87838f	0.0661689
66	0xbf23305a	-0.63745654
67	0x3e0b1c9d	0.13585134
68	0xbe2f1034	-0.17096025
69	0x3efd3882	0.49457175
70	0x3ef91f79	0.48656824
71	0x3e44625a	0.19178143
72	0x3ddd30df	0.10800337
73	0x3e0d01fc	0.13770288
74	0x3e4d1d89	0.20030798
75	0x3e52948f	0.20564483
76	0x3ebda512	0.3704
77	0x3f42d293	0.7610256
78	0x3eb446fb	0.35210404
79	0xbd9c8118	-0.0764181
80	0x3eb9dcb4	0.36301196
81	0x3f8ad527	1.0846299
82	0xbd67578e	-0.056479983
83	0xbe82711e	-0.25476927
84	0x3ec87721	0.39153388
85	0xbf081b02	-0.5316621
86	0x3f04b1ae	0.5183362
87	0x3f395441	0.72394186
88	0x3e635a30	0.22202373
89	0x3d735570	0.05940765
90	0x3b52deed	0.003217633
91	0x3db88c43	0.09011128
92	0xbe375a4e	-0.17905542
93	0x3dc803cf	0.097663514
94	0x3ec44264	0.38331902
95	0x3eebc272	0.46046788
96	0x3f182ebb	0.59446305
97	0x3f4d1ddf	0.80123705
98	0x3dfb0d5b	0.12258407
99	0x3f06ad0e	0.5260781
100	0x3d627603	0.055288326
101	0x3d48ca4d	0.049021054
102	0x3c7203f1	0.0147714475
103	0x3d00b690	0.031424105
104	0x3bfd0349	0.007721339
105	0x3cb3e228	0.021958426
106	0xbd272a8f	-0.04081207
107	0x3c339a55	0.010962089
108	0xbd0f7302	-0.03502179
109	0x3cecf170	0.02892372
110	0xbcd44829	-0.025913315
111	0x3d166259	0.036714885
112	0xbd230d8e	-0.03980785
113	0x3d266c2d	0.04063051
114	0x3cd87cad	0.026426638
115	0x3c581ba6	0.013190186
116	0xbd126e67	-0.03574982
117	0x3ced6265	0.028977582
118	0x3ced694e	0.028980877
119	0xbb98fc2f	-0.0046687345
120	0x3d01e9e7	0.031717207
121	0x3d7432a6	0.059618615
122	0x3d361e32	0.04446239
123	0xbd494506	-0.04913809
124	0x3d134742	0.03595663
125	0xbd39539f	-0.045245763
126	0x3cf6ff83	0.030151134
127	0xbc39af26	-0.011333263
128	0x3d085189	0.033280883
129	0xbcd10190	-0.02551344
130	0xbd38f2fa	-0.045153596
131	0x3bf0971e	0.0073422333
132	0xbd697cbb	-0.057003718
133	0xbd0ea9db	-0.034829956
134	0x3c9e98b4	0.019359924
135	0xbdab2b93	-0.083579205
136	0x3cdb5607	0.02677442
137	0x3ba429b9	0.0050098565
138	0xbd6c56e6	-0.05770006
139	0xbcda28b1	-0.026630731
140	0x3c9ab5bb	0.018885484
141	0xbb99dc53	-0.004695454
142	0xbd481e2d	-0.048856903
143	0xbcde379b	-0.027126124
144	0x3ccff9d9	0.025387691
145	0x3c3790c4	0.011203948
146	0x3c91f0b4	0.017814972
147	0x3c03ff7e	0.00805652
148	0xbd612e4e	-0.0549758
149	0xbcad5016	-0.021156352

shared_encoder.gru_left.weight_ih_l0_reverse f4 [150, 50]
0	0x3e6ff6fb	0.2343406
1	0xbd068b66	-0.032847784
2	0x3dc23bc5	0.094840564
3	0x3d44c14a	0.048035897
4	0xbd930cf9	-0.07180209
5	0xbc36b721	-0.01115206
6	0x3ce61976	0.028088313
7	0x3eb5b1d0	0.35487223
8	0xbc6bd5fa	-0.014394278
9	0xbd7161b5	-0.05893107
10	0x3d3715cb	0.044698518
11	0xbd0079d7	-0.031366196
12	0xbd98c07c	-0.074585885
13	0xbccfeb3b	-0.025380721
14	0xbd35cf75	-0.0443873
15	0x3ea9f544	0.33194935
16	0xbddf24b3	-0.10895672
17	0x3e682c7b	0.22673218
18	0xbc626ad2	-0.013819413
19	0xbd1de10d	-0.038544703
20	0xbd761504	-0.060078636
21	0x3c36ccba	0.011157209
22	0x3df5e304	0.120061904
23	0x3b4d4a65	0.003132486
24	0x3e8280e2	0.25488955
25	0xbd0eac63	-0.03483237
26	0xbe6d6cb4	-0.23185998
27	0xbea62bbd	-0.32455245
28	0xbcec1cf2	-0.028822396
29	0x3c94ed27	0.01817949
30	0x3d5c44f1	0.053776685
31	0xbc783b96	-0.015150925
32	0xbd3a1c41	-0.0454371
33	0xbbd2c631	-0.0064323177
34	0xbcab86c1	-0.02093828
35	0x3d9d8d04	0.07692912
36	0xbd31f106	-0.04344275
37	0xbe0568f7	-0.13028322
38	0x3c510333	0.01275711
39	0x3e8ce257	0.27516434
40	0xbd180d92	-0.037122317
41	0xbeb27eb3	-0.3486229
42	0x3c98402f	0.018585293
43	0xbe98aa92	-0.29817635
44	0x3d714738	0.05890581
45	0x3e2dc199	0.16968383
46	0xbbbe4a29	-0.0058071804
47	0x3e41e4a9	0.18934883
48	0x3ec0cae3	0.3765479
49	0xbea1b229	-0.31581238
50	0x3eb12d30	0.34604788
51	0xbc0d4b2d	-0.00862388
52	0xbdd1c8bb	-0.102433644
53	0xbd6c3fa9	-0.0576779
54	0x3c338cab	0.010958831
55	0xbe87f319	-0.26552656
56	0x3d33d097	0.0439001
57	0x3e99bb01	0.30025485
58	0xbdc67217	-0.0968973
59	0x3e39a87f	0.18130682
60	0x3b0fa3e2	0.002191775
61	0xbd860713	-0.06544318
62	0xbe5140db	-0.20434897
63	0xbdc85585	-0.097819366
64	0xbda6c0b8	-0.08142227
65	0x3ece4bac	0.40292108
66	0xbe7cef0b	-0.24700563
67	0x3ec8d276	0.3922307
68	0x3d69e2f6	0.057101212
69	0x3e9e52b1	0.30922464
70	0x3df1d9ad	0.118090965
71	0xbe0e9226	-0.13922939
72	0x3e99db02	0.30049902
73	0x3e575528	0.21028578
74	0x3e3a5c03	0.18199162
75	0x3e245f77	0.16052042
76	0xbee8c7f1	-0.45465043
77	0xbee5a61c	-0.44853294
78	0x3cd16c27	0.025564266
79	0xbca1ca00	-0.019749641
80	0xbdd04add	-0.10170529
81	0x3e2ea11d	0.17053647
82	0xbcd26118	-0.025681064
83	0xbe2139e8	-0.15744746
84	0x3d539ec2	0.051665075
85	0x3e4ff321	0.2030759
86	0xbe145689	-0.14486136
87	0x3b18f210	0.002333764
88	0xbdf0ff51	-0.11767448
89	0x3f05bd67	0.5224213
90	0x3d627ab7	0.05529281
91	0xbe9aae2d	-0.3021101
92	0x3ddf14bb	0.10892626
93	0xbe3c1cef	-0.18370412
94	0x3e458368	0.19288409
95	0x3e9ed0be	0.31018633
96	0x3d091cfa	0.0334749
97	0x3e4d3365	0.20039137
98	0x3ed884eb	0.42288908
99	0xbed50775	-0.41607252
100	0xbcf1880f	-0.029483823
101	0xbec64448	-0.3872397
102	0x3eaa355f	0.33243844
103	0x3ec313ce	0.38101047
104	0xbec48bfd	-0.38388053
105	0x3e8f26d9	0.27959326
106	0xbeb55dc1	-0.3542309
107	0x3dc097ba	0.094039395
108	0xbeb81cba	-0.35959417
109	0x3e8554cc	0.26041257
110	0xbe86e59b	-0.2634705
111	0x3e832855	0.25616708
112	0x3e9383ad	0.28811398
113	0x3e97f2fa	0.29677564
114	0x3ec1ac50	0.37826777
115	0xbd17dab8	-0.03707382
116	0xbed05614	-0.40690672
117	0xbdc87ba5	-0.09789208
118	0xbea85f1e	-0.3288507
119	0x3e97ba5f	0.29634377
120	0xbeb1da05	-0.34736648
121	0x3eab6373	0.3347431
122	0x3ec86d4f	0.39145896
123	0x3ea0b386	0.31386966
124	0xbe2e748a	-0.17036644
125	0xbe9d9b1c	-0.30782402
126	0xbe598ae7	-0.21244393
127	0xbe8b2997	-0.27180168
128	0xbeaaf156	-0.3338725
129	0xbec730d8	-0.38904452
130	0x3ebd52e8	0.36977315
131	0xbe9270cd	-0.28601685
132	0xbee12e65	-0.4398071
133	0xbedcf91b	-0.43158802
134	0x3ead918b	0.33900103
135	0xbec5ecfc	-0.38657367
136	0x3e982172	0.29713017
137	0x3e3867f1	0.180084
138	0x3ed449ee	0.41462654
139	0x3d46804e	0.048462205
140	0xbeb18012	-0.34668022
141	0x3c708d26	0.01468209
142	0xbe5173b6	-0.20454296
143	0x3db1b37d	0.08676813
144	0x3ed52dae	0.41636413
145	0xbe2ef366	-0.17085037
146	0x3e9af10f	0.30262038
147	0xbe40f285	-0.18842514
148	0x3c9797f6	0.018505078
149	0x3df4634c	0.11933002
150	0x3e7476cf	0.23873447
151	0xbbbed540	-0.005823761
152	0xbc0d8d0a	-0.008639583
153	0x3e25dabc	0.16196722
154	0xbe3706b9	-0.17873658
155	0xbd87001a	-0.06591816
156	0x3e4731bc	0.19452566
157	0x3f2a661c	0.66562057
158	0x3e19644d	0.14979668
159	0xbe4c82ad	-0.19971724
160	0x3e123c90	0.14280915
161	0xbd2ea30f	-0.042635974
162	0xbc16c4e7	-0.009202219
163	0x3d96ea6f	0.073689334
164	0xbdd4dea0	-0.10394025
165	0x3ea26b9a	0.31722718
166	0x3c91fe1c	0.017821364
167	0x3de3c056	0.111206695
168	0x3d656b6c	0.05601065
169	0xbee26b15	-0.44222322
170	0x3d7e6166	0.062104605
171	0x3c7ee6ba	0.015557939
172	0x3eaf0de3	0.34190282
173	0xbda4d874	-0.08049098
174	0x3eb3b11e	0.35096067
175	0xbd5309a7	-0.051522877
176	0xbeb61922	-0.3556605
177	0xbedf2614	-0.4358374
178	0xbdce140e	-0.10062419
179	0x3d62b3a1	0.05534709
180	0x3ce274ac	0.027643524
181	0x3c9e4391	0.019319328
182	0x3defcb15	0.11708657
183	0xbd2823ba	-0.041049697
184	0xbd928520	-0.07154298
185	0x3e26dadf	0.1629443
186	0xbe00c9ff	-0.12577055
187	0xbe7b3ad5	-0.24534161
188	0x3ccafb3b	0.024778
189	0x3e893bdc	0.26803482
190	0xbd5180b1	-0.05114812
191	0xbef92820	-0.48663425
192	0x3c924702	0.017856125
193	0xbed4a981	-0.4153557
194	0x3cac7f27	0.021056725
195	0x3ea0acad	0.3138174
196	0x3c1af0f8	0.0094568655
197	0x3e99c078	0.30029655
198	0x3ebf88e3	0.37409124
199	0xbe738075	-0.23779471
200	0x3eb2f18c	0.3494991
201	0xbb3e8334	-0.0029069902
202	0x3d9f7dff	0.07787704
203	0x3d8f688b	0.07002362
204	0xbe23ad82	-0.15984157
205	0xbc9a94bb	-0.018869748
206	0x3dc59284	0.09647086
207	0x3f150fd6	0.5822729
208	0x3c84380a	0.016140003
209	0xbde92757	-0.113844566
210	0x3dedcd88	0.116114676
211	0xbd6c727e	-0.057726376
212	0xbd6e921f	-0.05824482
213	0x3c9072bb	0.017632833
214	0xbd64dc7c	-0.055874333
215	0x3ef2015c	0.47266662
216	0xbd9e5cc6	-0.07732539
217	0x3eadc0df	0.3393621
218	0x3cf096a9	0.029368715
219	0xbe384fc9	-0.17999186
220	0xbd4b0f5b	-0.04957519
221	0x3cdaf937	0.026730163
222	0x3e24391e	0.16037413
223	0xbc37fd07	-0.01122976
224	0x3ef000a3	0.46875486
225	0xbb5c85dd	-0.0033649125
226	0xbe96d730	-0.2946105
227	0xbecc4526	-0.39896506
228	0xbd3134c8	-0.043263227
229	0x3cad23dc	0.021135263
230	0x3dab1533	0.08353653
231	0x3ba90c07	0.0051589045
232	0x3d676453	0.05649216
233	0xbcac79f1	-0.02105424
234	0xbcbaf0c6	-0.022819888
235	0x3d90da5b	0.07072898
236	0xbdcb7372	-0.09934129
237	0xbe453fb0	-0.19262576
238	0x3d7e6804	0.062110916
239	0x3edba773	0.4290119
240	0xbccb8670	-0.024844378
241	0xbf00a8d6	-0.50257623
242	0x3d833e02	0.064083114
243	0xbeeb3f4c	-0.4594673
244	0x3d6ddfea	0.05807487
245	0x3e5e74d9	0.21724261
246	0x3ca5d4e8	0.020243123
247	0x3e9828b9	0.2971857
248	0x3f09df85	0.5385669
249	0xbedb35e6	-0.4281456
250	0x3e7d707a	0.24749938
251	0xbdb4fbc2	-0.088370815
252	0x3e3e7ab1	0.1860149
253	0x3e2f06d4	0.17092448
254	0xbe90e5a5	-0.28300205
255	0x3ddfda1b	0.10930272

shared_encoder.gru_left.weight_hh_l0_reverse f4 [150, 50]
0	0xbef8351c	-0.4847802
1	0xbd7eda53	-0.06221993
2	0xbd9277ed	-0.0715178
3	0xbcfd6175	-0.03093026
4	0xbe5bc5e7	-0.21462213
5	0xbc9bacf7	-0.019003375
6	0xbf0a582c	-0.5404079
7	0xbc876046	-0.016525399
8	0xb7fae2fb	-2.9908018e-05
9	0xbe19203f	-0.14953707
10	0x3ccbf3fd	0.024896616
11	0xbe0ab2d5	-0.13544782
12	0x3d37e666	0.04489746
13	0x3e5f3a05	0.21799476
14	0x3e42224f	0.189584
15	0xbdb3bf37	-0.08776706
16	0x3ea2df36	0.3181092
17	0x3be0c1cf	0.0068590413
18	0x3db3a75a	0.08772154
19	0xbed9e0a9	-0.42554215
20	0xbe23e03a	-0.16003504
21	0x3e8c7805	0.27435318
22	0x3d271d2a	0.040799297
23	0xbdd71cae	-0.10503517
24	0xbea66556	-0.32499188
25	0xbea9cc62	-0.33163744
26	0xbe46208b	-0.19348352
27	0xbe497e89	-0.19677176
28	0x3d6cc1ae	0.057801895
29	0x3def90ba	0.11697526
30	0xbeb11171	-0.3458362
31	0x3e6e6aff	0.23283003
32	0xbe5f9b65	-0.21836622
33	0x3d0d5f26	0.03451457
34	0x3dd5b567	0.104349904
35	0x3e679546	0.22615537
36	0x3eade5ec	0.3396448
37	0xbec1416b	-0.37745222
38	0xbe01bcd3	-0.12669687
39	0xbe048de2	-0.12944749
40	0x3dd88418	0.1057207
41	0xbe7e7d82	-0.24852565
42	0xbe138264	-0.14405209
43	0xbe263ea6	-0.16234836
44	0x3e957cda	0.29196817
45	0xbddac1ef	-0.10681521
46	0x3c845380	0.016153097
47	0xbeeea3aa	-0.4660924
48	0xbe6efb4f	-0.23338054
49	0x3ef72c9e	0.48276228
50	0xbe7941a3	-0.24341445
51	0x3d30302b	0.043014687
52	0x3e622e25	0.22087915
53	0xbe1ba723	-0.15200476
54	0xbe4193da	-0.18904057
55	0xbdbab072	-0.091156855
56	0xbde50724	-0.111830026
57	0xbe328c3a	-0.17436305
58	0xbc394325	-0.011307512
59	0xbb158c35	-0.0022819166
60	0x3dd74cc4	0.10512689
61	0xbdbbe3ef	-0.09174334
62	0x3e3f18f3	0.18661861
63	0x3e4d997b	0.2007808
64	0xbe0bd85d	-0.13656755
65	0xbe730561	-0.2373252
66	0x3defaad9	0.117025085
67	0xbe25a0ec	-0.16174668
68	0xbdb39b96	-0.0876991
69	0x3c33c548	0.0109723285
70	0x3e8de29e	0.27711958
71	0x3e700c65	0.23442228
72	0x3ea40279	0.32033136
73	0x3dc17531	0.094461806
74	0x3ce88a57	0.028386278
75	0x3d2e1e0f	0.042509135
76	0x3e08300f	0.13299583
77	0x3de140a1	0.10998655
78	0xbde933fb	-0.113868676
79	0xbe38fee9	-0.1806599
80	0x3dc96bd3	0.09835019
81	0x3dc4ffac	0.09619078
82	0xbe2f2199	-0.1710266
83	0x3d893dee	0.06701265
84	0xbe0c943c	-0.13728422
85	0xbc3f303c	-0.011669215
86	0xbbebc0de	-0.0071946224
87	0x3ba4f6ac	0.0050342884
88	0x3d1037a4	0.035209313
89	0xbeb0ab9e	-0.34505934
90	0x3e0252d0	0.12726903
91	0xbd9514bd	-0.07279346
92	0x3e1c32c4	0.1525374
93	0xbd8c1993	-0.068408154
94	0xbdae58de	-0.08513044
95	0x3d63a97d	0.05558156
96	0x3e32fc7d	0.17479129
97	0x3d9f3a89	0.077748366
98	0xbd088029	-0.033325348
99	0x3e9f551b	0.31119618
100	0xbd80ea02	-0.062946334
101	0xbbdd7a30	-0.0067589507
102	0x3e625525	0.22102793
103	0xbe70650a	-0.23476043
104	0x3e5fede6	0.21868095
105	0x3dad0bed	0.0844954
106	0x3d2f2481	0.042759422
107	0xbe271d9e	-0.16319892
108	0xbd94ab7e	-0.07259272
109	0x3e07ff74	0.13281041
110	0xbdc973a7	-0.09836512
111	0x3e1fd90f	0.15610145
112	0x3e996abd	0.29964247
113	0x3d95b7b7	0.073104315
114	0xbe0e6eb3	-0.13909416
115	0xbe65fad0	-0.22458959
116	0xbe82754c	-0.25480115
117	0x3e8b8d51	0.27256253
118	0xbe887695	-0.2665297
119	0x3e30eac8	0.17277062
120	0x3dd31870	0.103073955
121	0x3d824373	0.06360521
122	0x3d3ace73	0.04560704
123	0x3e610f57	0.21978508
124	0x3e8fa834	0.28058016
125	0x3e9f7f7b	0.31151947
126	0xbe95ac99	-0.29233244
127	0xbe8d2232	-0.2756515
128	0xbe6198a2	-0.22030881
129	0xbe495c6d	-0.19664164
130	0x3e4bd852	0.19906738
131	0x3cdbdacd	0.02683773
132	0xbe0f0545	-0.13966854
133	0xbe7d6bea	-0.24748197
134	0xbd8e3883	-0.069443725
135	0x3d1c449e	0.038151376
136	0xbeb71be0	-0.35763454
137	0x3e93c333	0.28859863
138	0xbe0282c4	-0.12745196
139	0xbcbfeaac	-0.02342733
140	0x3d9c5de5	0.076350965
141	0x3d863696	0.0655338
142	0x3e08d636	0.13362965
143	0x3de96265	0.113957204
144	0xbe53cf87	-0.20684634
145	0x3d8d40b5	0.068971075
146	0xbe73cc96	-0.23808512
147	0x3ea475b0	0.32121038
148	0x3c426432	0.011864709
149	0x3dc48ca1	0.09597135
150	0xbe461143	-0.19342522
151	0xbe153d03	-0.14574055
152	0x3e8fb532	0.2806793
153	0x3e1131ee	0.14179203
154	0x3df4b102	0.11947824
155	0x3cebfe4d	0.028807783
156	0xbe6747a2	-0.2258592
157	0xbd7637fe	-0.060111992
158	0xbe790b79	-0.24320783
159	0xbdc3d54e	-0.09562169
160	0xbe9d3852	-0.3070703
161	0x3e2f880c	0.17141742
162	0xbb826a41	-0.0039799516
163	0xbe03240e	-0.12806723
164	0xbdde9e16	-0.10869996
165	0xbdb131d7	-0.08652084
166	0xbde94694	-0.11390415
167	0x3d610b2f	0.054942306
168	0x3d688baf	0.056773838
169	0x3d7b4f39	0.06135485
170	0xbcb6e5f3	-0.022326445
171	0xbddf12fe	-0.10892294
172	0xbe5503aa	-0.20802179
173	0x3cf9108e	0.030403402
174	0xbe517e8e	-0.20458433
175	0xbdbd1c41	-0.09233905
176	0xbe293351	-0.16523482
177	0xbe1d9f47	-0.1539279
178	0x3d7d987c	0.061913
179	0xbe0bb3ea	-0.1364285
180	0x3c92eb6d	0.017934525
181	0xbdebad34	-0.11507645
182	0x3d31529e	0.04329168
183	0x3df6cdc0	0.120509624
184	0x3cb04bc7	0.021520508
185	0x3ef87e51	0.48533872
186	0x3c04b269	0.008099177
187	0xbd9a821b	-0.07544347
188	0xbccd5afe	-0.025067803
189	0x3e1038af	0.14084123
190	0xbdaae1c7	-0.08343845
191	0xbe857199	-0.2606323
192	0xbde59d80	-0.11211681
193	0xbc8edc23	-0.017438954
194	0x3e155b43	0.14585595
195	0x3e4f1d84	0.20226103
196	0xbe2da459	-0.16957225
197	0xbe21e198	-0.15808713
198	0x3d8fc90e	0.0702077
199	0x3e5454c9	0.20735468
200	0xbebfbe46	-0.37449855
201	0xbdf325b1	-0.118724234
202	0x3e66da77	0.22544275
203	0xbdcab266	-0.09897308
204	0xbebb3a17	-0.36567757
205	0xbe5e0a44	-0.21683604
206	0xbef31fbe	-0.47485155
207	0xbd49022b	-0.049074333
208	0xbe78b496	-0.24287638
209	0xbe3a17bc	-0.18173116
210	0xbd753ce6	-0.05987253
211	0xbe02b1db	-0.12763159
212	0x3d9e691e	0.07734893
213	0x3e5f007a	0.21777526
214	0xbdf33abb	-0.11876436
215	0xbdf2c154	-0.11853281
216	0x3e8346de	0.25640005
217	0xbe207157	-0.15668236
218	0x3e0c1fce	0.13684008
219	0xbe07920a	-0.13239303
220	0x3d279e0f	0.04092222
221	0x3dbe1f61	0.09283329
222	0x3e1d22bf	0.15345286
223	0x3db45994	0.08806148
224	0xbecc9547	-0.3995764
225	0xbe8e80e4	-0.2783271
226	0xbe07c23a	-0.13257685
227	0xbe10fd7a	-0.14159194
228	0xbd6e229d	-0.05813848
229	0xbe396320	-0.1810422
230	0xbe413a19	-0.18869819
231	0x3e5fd145	0.21857174
232	0xbe492315	-0.19642289
233	0x3e4e12c9	0.20124353
234	0xbdd2e2d3	-0.102971695
235	0x3f01b046	0.50659597
236	0x3e954498	0.29153895
237	0xbe8dc985	-0.2769281
238	0xbd9d35b7	-0.07676261
239	0xbe124a56	-0.1428617
240	0x3e84bde5	0.25926128
241	0xbeb9b45a	-0.3627041
242	0x3d37451e	0.04474365
243	0xbe402257	-0.187631
244	0x3e93cf04	0.28868878
245	0x3c180a86	0.009279853
246	0x3dfec119	0.12439174
247	0xbeaf652b	-0.34256873
248	0xbe3e6489	-0.18593039
249	0x3ec99f71	0.39379457
250	0xbe656e8e	-0.22405455
251	0xbeb9544c	-0.36197126
252	0x3e8cc08f	0.2749066
253	0xbe6cc5bb	-0.23122303
254	0xbe9232a0	-0.2855425
255	0xbef14243	-0.47120866

shared_encoder.gru_left.bias_ih_l0_reverse f4 [150]
0	0x3bda79f6	0.006667371
1	0x3dd3ed3c	0.10347983
2	0xbe2926c4	-0.16518694
3	0x3c1b8b0a	0.009493599
4	0x3d918ad7	0.0710656
5	0x3d609617	0.054830637
6	0x3d94d1a6	0.0726655
7	0xbd9ab55a	-0.07554121
8	0xbca2a55a	-0.019854236
9	0x3db75c6d	0.08953176
10	0xbd756454	-0.059910133
11	0x3d886458	0.06659764
12	0xbd8ec815	-0.06971756
13	0xb9b9f952	-0.00035471708
14	0x3d344dbd	0.04401945
15	0xbe0f3318	-0.13984334
16	0x3bb77a92	0.0055993283
17	0x3d99b97b	0.07506081
18	0xbd1a953a	-0.03773997
19	0xbce2661c	-0.02763658
20	0x3d8156b0	0.063153625
21	0xbc9aef4f	-0.01891294
22	0x3c895571	0.016764374
23	0xbd931d57	-0.071833305
24	0x3ca1cb02	0.019750122
25	0x3c49b70b	0.012311707
26	0xbea65155	-0.32483926
27	0xbeac72fa	-0.3368147
28	0x3db2b54f	0.08725988
29	0xbe05c611	-0.13063838
30	0xbc3b9c66	-0.0114508625
31	0x3dfbb819	0.12290973
32	0x3c649fd9	0.013954126
33	0x3d94715b	0.07248183
34	0xbb32f23e	-0.0027305032
35	0xbc9280ca	-0.017883677
36	0x3e1bdcb9	0.15220918
37	0x3d77f8c8	0.06053999
38	0xbe8f9605	-0.28044143
39	0xbd909a0d	-0.07060633
40	0x3d35268d	0.044226218
41	0x3cefd052	0.02927414
42	0x3d9b710d	0.07589922
43	0xbd0ee851	-0.034889523
44	0x3d0c98ab	0.034325283
45	0xbba40daa	-0.0050065117
46	0x3d88a768	0.06672555
47	0x3e7f6cdf	0.24943875
48	0x3de9c8ff	0.1141529
49	0x3c3cc042	0.011520447
50	0x3f5b2f51	0.85619074
51	0x3e27c647	0.1638423
52	0x3e6b42de	0.22974727
53	0x3ef1a19e	0.47193617
54	0x3f0711c7	0.527615
55	0x3ee30010	0.44335985
56	0x3ee47b86	0.4462549
57	0x3d92b71f	0.07163834
58	0x3f02351b	0.5086228
59	0x3eea1113	0.45716152
60	0x3ee2d4a9	0.44302872
61	0x3edf378c	0.43597066
62	0x3edf52d2	0.43617874
63	0x3f24d7e3	0.64391917
64	0x3d092155	0.033479054
65	0x3e3c59e5	0.18393667
66	0x3f213146	0.6296581
67	0x3dc85237	0.09781306
68	0xbd8ff7b2	-0.07029666
69	0x3ec0b53c	0.3763827
70	0x3e5196b5	0.20467646
71	0x3e8f6a3d	0.2801074
72	0x3f00c490	0.5029993
73	0x3ebc76ed	0.36809483
74	0x3f1d6757	0.6148581
75	0x3e9144ca	0.28372794
76	0xbe68f5fa	-0.22750083
77	0xbe566097	-0.20935284
78	0x3e824483	0.25442895
79	0x3ef72cff	0.48276517
80	0x3e8c2036	0.27368325
81	0x3e92ee1f	0.28697297
82	0x3ef16c21	0.47152808
83	0x3deed293	0.116612576
84	0x3efad4fd	0.48990622
85	0x3f439123	0.76393336
86	0x3eba01c7	0.3632948
87	0x3eb86e26	0.36021537
88	0x3d823952	0.06358589
89	0x3f486aba	0.7828785
90	0x3efc3bb7	0.4926431
91	0x3e6ea3ab	0.23304622
92	0x3ea0e581	0.31425098
93	0x3f0f8e2a	0.560763
94	0x3ef3fb52	0.4765268
95	0x3ec9b917	0.39399025
96	0x3ea1af50	0.31579065
97	0x3e402175	0.18762763
98	0x3edac6fe	0.42729944
99	0x3f2f9d87	0.6859974
100	0xbcac9fe1	-0.02107233
101	0xbc2a41b6	-0.010391643
102	0x3c34e053	0.011039811
103	0xbbfcba08	-0.0077126063
104	0xbc837124	-0.01604516
105	0xbbc68c99	-0.006059241
106	0xbd09b941	-0.033623938
107	0xbcf40190	-0.029785901
108	0xbbf82b8c	-0.0075735506
109	0xbbce89ac	-0.006303033
110	0x3b8a4dd8	0.0042207055
111	0xbc414e8d	-0.011798513
112	0x3c0a66db	0.008447374
113	0x3c3ecfd7	0.011646233
114	0x3bbbf49d	0.0057359473
115	0xbca1b7ef	-0.019741027
116	0x3c55a459	0.013039672
117	0xbad2465e	-0.00160427
118	0xbc9c7722	-0.019099776
119	0xbc4645a6	-0.012101566
120	0xbc218ddd	-0.009860483
121	0x3cddc647	0.027072085
122	0x3c0c2116	0.00855281
123	0x3ba3d8b6	0.005000199
124	0xbc8283c0	-0.015931964
125	0xbc7b127f	-0.015324234
126	0x3c5503bb	0.013001378
127	0x3ad41a07	0.0016182073
128	0xbcada3bc	-0.021196239
129	0xbc0365a1	-0.008019836
130	0xbc2f074d	-0.010682893
131	0x3cc6262b	0.024188122
132	0xbc9867a7	-0.018604113
133	0x3b40874c	0.0029377518
134	0x3a0e45ed	0.000542729
135	0x3c83fd53	0.016112005
136	0x3c955e52	0.018233452
137	0xbc778f5e	-0.015109865
138	0xbcfbade5	-0.030722568
139	0xbc1ed060	-0.009693235
140	0x3c524eb1	0.012836144
141	0xbd493ed1	-0.049132172
142	0x3c2273c8	0.0099153
143	0xbbe2f7ab	-0.006926497
144	0x3c128f45	0.008945291
145	0xbad0433f	-0.0015889182
146	0x3c0e3305	0.008679156
147	0xbcfff218	-0.031243369
148	0xbcb47e35	-0.022032836
149	0x3cbecd64	0.023291297
