checkpoints/Level6_1012.pt (torch_old, 444769 bytes, 32 tensors)

shared_encoder.input_linear.weight f4 [50, 6]
0	0x3ca1d7a3	0.019756144
1	0x3d2ad43b	0.041706305
2	0x3ca40c37	0.020025356
3	0x3a88033f	0.0010376944
4	0xbda3e3b6	-0.08002417
5	0x3e04af5e	0.12957522
6	0xbdc3b8a7	-0.09556704
7	0xbd2ed2f6	-0.042681657
8	0x3a412338	0.0007367614
9	0xb9433596	-0.00018616611
10	0x3dc1a714	0.09455696
11	0x3ddd9c6b	0.1082085
12	0x3e06126d	0.13092966
13	0xbc993103	-0.018700128
14	0xbbb7f322	-0.0056137005
15	0xbc4d7120	-0.012539178
16	0xbd5850dc	-0.05281149
17	0xbd8422bf	-0.0645194
18	0x3dec6451	0.11542571
19	0x3d0a8c3e	0.03382515
20	0xbc0b6947	-0.008508987
21	0x3c11b38d	0.008892906
22	0xbd748b84	-0.059703365
23	0xbddcd6af	-0.10783135
24	0xbe073d76	-0.13207039
25	0xbaa5f741	-0.0012662188
26	0xbbc74de1	-0.006082282
27	0x3ba9b4b0	0.0051790103
28	0x3d47a291	0.04873902
29	0x3db90f22	0.090360895
30	0x3d9efba3	0.0776284
31	0x3d9874fc	0.07444188
32	0xbcde6d82	-0.027151827
33	0x3d27f5fb	0.04100607
34	0x3d35ce31	0.044386093
35	0x3c7ede55	0.015555938
36	0xbdb65664	-0.089031965
37	0xbdc720c7	-0.09723049
38	0x3bb36af8	0.005475398
39	0xbcb1af0f	-0.02168992
40	0x3d10cb06	0.03534987
41	0x3da25e20	0.07928109
42	0x3dcac66b	0.099011265
43	0xbd2ab9d0	-0.04168111
44	0xbc5b01b9	-0.01336711
45	0x3bc1a6ef	0.0059097926
46	0xbc2f9170	-0.010715827
47	0x3d3e8af2	0.046519227
48	0xbe041d0d	-0.12901707
49	0x39b5318d	0.00034559928
50	0xbbadbfe2	-0.005302415
51	0xbbfefbf5	-0.0077815005
52	0xbd7c330f	-0.06157213
53	0x3daf459a	0.08558197
54	0x3d3e0e20	0.04640019
55	0x3d376ec7	0.04478338
56	0xbcc26551	-0.023729952
57	0x3c58e1b7	0.013237408
58	0xbc9275d0	-0.017878443
59	0x3dc57e34	0.09643212
60	0xbd35cab5	-0.04438277
61	0x3cc1fd2f	0.023680298
62	0x3ca8ab8c	0.020589612
63	0x3b1c7f19	0.0023879467
64	0x3d393178	0.045213193
65	0xbdcdf0dd	-0.10055707
66	0x3c6c8d96	0.014438054
67	0x3d13c4f5	0.036076505
68	0xbc0cb6a3	-0.008588466
69	0xbc10403c	-0.008804377
70	0xbd66cc9b	-0.05634747
71	0x3df887fb	0.12135311
72	0x3da05ae8	0.07829839
73	0xbcca440f	-0.024690656
74	0xbc14fc65	-0.009093379
75	0xbc60e669	-0.013726809
76	0xbc9e481c	-0.019321494
77	0x3d77584e	0.06038695
78	0x3dbd79d2	0.09251751
79	0xbdacfe01	-0.08446885
80	0x38c8a8cc	9.568184e-05
81	0xbbbfbc75	-0.0058513233
82	0xbca4eb83	-0.020131832
83	0x3d7ce995	0.0617462
84	0x3d415608	0.047201186
85	0x3d2d8751	0.042365376
86	0xbc81562b	-0.015788158
87	0x3cd3e28c	0.025864862
88	0x3c93794b	0.018002173
89	0x3d82cb83	0.06386473
90	0x3d73d801	0.05953217
91	0x3c991d9e	0.01869088
92	0x3c12680f	0.008935942
93	0xbb6a3036	-0.0035734302
94	0xbd6e79ad	-0.058221508
95	0x3dd02a1a	0.1016428
96	0xbe029d6b	-0.12755363
97	0x3c0efa17	0.008726618
98	0x3bc0753e	0.0058733514
99	0x3bdb98e5	0.006701576
100	0x3cdffaeb	0.027341327
101	0x3dbfc687	0.09364038
102	0x3dc1941c	0.09452078
103	0xbe23d999	-0.16000976
104	0x3c8ba7c1	0.017047765
105	0xbcd4d6e1	-0.025981368
106	0xbc4e9ee3	-0.012611124
107	0xbd8b8e4d	-0.06814251
108	0xbda8e1ec	-0.08246216
109	0xbd8bfbaf	-0.06835114
110	0x3c8d963f	0.017283557
111	0xbcf2571d	-0.029582554
112	0xbd601989	-0.054711852
113	0xbcd8e285	-0.0264752
114	0x3ddd339d	0.1080086
115	0x3d9034ef	0.07041346
116	0x3baf4f62	0.0053500393
117	0x3cb8b2b8	0.022546157
118	0x3d151e7b	0.03640602
119	0xbcfc7097	-0.030815406
120	0xbdf455af	-0.11930405
121	0x3d5f8468	0.05456963
122	0xbc4abbaa	-0.012373844
123	0x3a341a2a	0.0006870354
124	0x3cf5fb80	0.030027151
125	0x3dedeeef	0.116178386
126	0x3dc5ed46	0.09664397
127	0xbd04776a	-0.032340445
128	0x3c812e0d	0.015769029
129	0xbb8e5f33	-0.0043448447
130	0xbd61d192	-0.055131502
131	0x3cf90cae	0.030401554
132	0x3df25cc3	0.11834099
133	0xbd4a1cd1	-0.049343888
134	0xbc0ed049	-0.008716651
135	0xbc8668d5	-0.01640741
136	0xbd31efa3	-0.043441426
137	0xbd3aa3dd	-0.04556643
138	0x3dc99caa	0.098443344
139	0xbcf351eb	-0.029702147
140	0xbbdd481f	-0.0067529823
141	0x3bc3e64f	0.0059783827
142	0xbb2ad102	-0.002606452
143	0x3c9e2fd8	0.019309923
144	0x3d4026f7	0.04691216
145	0xbb4d0989	-0.00312862
146	0xbc5dd8c7	-0.013540453
147	0xbc0dae81	-0.008647562
148	0xbcae3836	-0.021267038
149	0x3dbb5959	0.09147901
150	0xbd34645a	-0.044041015
151	0xbd61d382	-0.05513335
152	0x3cb724b1	0.022356363
153	0xbb78db8f	-0.0037972664
154	0x3dde2e49	0.10848672
155	0xbdbf2c2f	-0.09334599
156	0xbdfa2490	-0.12214005
157	0x3c44eddb	0.0120196
158	0xbc3553d4	-0.011067349
159	0xbcc79c83	-0.024366623
160	0xbd207222	-0.039171346
161	0xbca75458	-0.02042596
162	0xbd63fef6	-0.05566307
163	0x3b709033	0.0036707043
164	0xbca40522	-0.020021979
165	0x3bb7d548	0.005610142
166	0x3dbe4757	0.09290951
167	0xbdd1d168	-0.10245019
168	0xbd475cb2	-0.048672386
169	0xbd001c20	-0.031276822
170	0x3c0f24d9	0.0087368125
171	0x3ad6089c	0.001632947
172	0x3dc53273	0.09628763
173	0xbdbcf812	-0.09227003
174	0xbde87997	-0.113513164
175	0x3b7ce73c	0.0038589975
176	0xbb9a5dca	-0.0047108876
177	0xbc1fab0a	-0.009745369
178	0xbc3fd770	-0.011709079
179	0x3c0cc40f	0.008591666
180	0x3de7326d	0.11288915
181	0xbc16a2c4	-0.00919408
182	0xbd2677c5	-0.040641565
183	0xbc67d170	-0.014149055
184	0xbd2f83fd	-0.042850483
185	0xbde92b12	-0.11385168
186	0xbd93d735	-0.07218782
187	0x3d35ba61	0.044367198
188	0x3c1b8b89	0.009493717
189	0xbb94c3da	-0.004539949
190	0x3b1e34e6	0.0024140417
191	0xbd2fcc5c	-0.0429195
192	0xbe02ce1f	-0.12773941
193	0xbd79455c	-0.060857162
194	0x3b4474ef	0.0029976924
195	0xbcb80369	-0.022462564
196	0xbd67c213	-0.056581568
197	0x3d2ca73f	0.042151686
198	0xbdfc6033	-0.12323036
199	0xba4764f7	-0.00076062925
200	0xbbf693c4	-0.0075249393
201	0xbc2c92f7	-0.010533086
202	0xbcb63ef7	-0.02224682
203	0x3cace5e0	0.021105707
204	0x3df631a7	0.12021189
205	0xbd34c3ec	-0.04413216
206	0xbc857845	-0.0162927
207	0x3bd9d7d9	0.0066480455
208	0x3cc9b629	0.024622994
209	0xbd2f5e0b	-0.042814296
210	0x3bf9d175	0.007623846
211	0xbd42f251	-0.047594372
212	0xbc858b16	-0.016301673
213	0xbb8962ea	-0.0041926997
214	0x3e08c0b2	0.13354757
215	0xbe178a69	-0.14798893
216	0x3b01919f	0.0019770635
217	0xbbef6d55	-0.0073067346
218	0x3ac38ac0	0.001491867
219	0x3a6bede2	0.0008999986
220	0xbd8ce612	-0.0687982
221	0x3e1712c2	0.1475325
222	0x3dc37534	0.09543839
223	0xbe584748	-0.21120942
224	0x3c3b2581	0.011422516
225	0xbc8c3033	-0.017112827
226	0x3c3a3582	0.011365296
227	0xbd90160c	-0.07035455
228	0x3d5d00bf	0.05395579
229	0x3cbc896c	0.023014747
230	0xbb5cf8eb	-0.0033717703
231	0x3b895523	0.0041910573
232	0xbd979dd3	-0.074031495
233	0x3dbc093e	0.0918145
234	0x3d14ac02	0.036296852
235	0x3ce725e1	0.028216304
236	0x3c8ebed0	0.01742497
237	0x3b6deb7a	0.0036303685
238	0xbda5ada8	-0.08089763
239	0x3de3ede3	0.11129358
240	0xbd3e8168	-0.04651013
241	0xbc868761	-0.016421976
242	0xba42979c	-0.0007423104
243	0x3b6f2420	0.0036490038
244	0x3d8e09fc	0.06935498
245	0xbde2cee5	-0.11074618
246	0xbc7a2a74	-0.015268911
247	0xbc89315d	-0.016747171
248	0xbc854be1	-0.016271533
249	0x3c4d896e	0.012544973
250	0x3deacb2e	0.11464535
251	0xbe0970f9	-0.13422002
252	0xbdcb2fcd	-0.09921227
253	0x3d7a2b96	0.061076723
254	0x3bfc91eb	0.0077078245
255	0x3c0e27e4	0.008676503

shared_encoder.input_linear.bias f4 [50]
0	0xbd5bb225	-0.05363669
1	0xb92365de	-0.0001558284
2	0xbc9e4720	-0.019321024
3	0x3bb95de1	0.005656943
4	0x3c05ca36	0.008165887
5	0xbd27a1ec	-0.040925905
6	0x3c5b06bd	0.013368306
7	0xbd49565b	-0.04915462
8	0x3b666afa	0.0035158978
9	0xbd6fd5b9	-0.05855343
10	0x3d6dcdd1	0.05805761
11	0xbd72ceb5	-0.059279162
12	0xbd3dc76f	-0.046332773
13	0xbd321d0d	-0.043484736
14	0xbd56dcbe	-0.05245661
15	0xbd5f1ad6	-0.054468952
16	0x3c09959a	0.008397484
17	0xbc13dd4c	-0.009024929
18	0x3d1db095	0.03849848
19	0xbcde146a	-0.027109344
20	0x3b584007	0.0032997148
21	0xbd328c97	-0.04359111
22	0xbcf3824a	-0.029725213
23	0xbd529c87	-0.051418807
24	0xbd5ea71e	-0.054358594
25	0x3d677252	0.05650551
26	0x3d279f8b	0.040923636
27	0x3d4864a9	0.048924122
28	0x3d4bb1c8	0.049730092
29	0x3d122f42	0.0356896
30	0x3c2c5312	0.010517852
31	0x3d278d0a	0.04090599
32	0x3d16a661	0.036779765
33	0x3d066e2d	0.032819916
34	0xbcf091fc	-0.029366486
35	0x3d61ad8f	0.05509716
36	0xbd78f0f0	-0.06077665
37	0xbc214e4d	-0.0098453285
38	0xbd71e47b	-0.059055787
39	0xbd864b27	-0.06557303
40	0x3d80cf62	0.06289555
41	0x3d5f60cc	0.054535672
42	0x3d0fb938	0.035088748
43	0x3d5f8875	0.054573495
44	0xbc7edcbf	-0.01555556
45	0xbd6dd7a9	-0.058066998
46	0xbd361044	-0.044449106
47	0xbd6ebca4	-0.05828537
48	0xbd431191	-0.047624175
49	0x3c715813	0.014730471

shared_encoder.gru_left.weight_ih_l0 f4 [150, 50]
0	0xbe216a53	-0.15763216
1	0xbed701db	-0.41993603
2	0x3de1ba49	0.11021859
3	0x3e89d97e	0.26923746
4	0xbe441ce2	-0.19151643
5	0xbcfecb74	-0.031102873
6	0xbd12e4dd	-0.035862792
7	0x3b843714	0.004034886
8	0xbda6e90a	-0.081499174
9	0xbd9254ed	-0.071451046
10	0x3deb0800	0.11476135
11	0xbe1df064	-0.15423733
12	0xbd1e1277	-0.03859183
13	0xbd87d263	-0.06631925
14	0xbd113714	-0.035452917
15	0xbd81ef32	-0.06344451
16	0xbde0bbf6	-0.10973351
17	0x3caed393	0.02134112
18	0x3d3238d9	0.043511245
19	0x3c8a15de	0.01685613
20	0xbdb70a5f	-0.08937525
21	0x3c75b153	0.014995891
22	0x3cfbe2ee	0.030747857
23	0x3c700eff	0.014652013
24	0xbd968ec7	-0.07351451
25	0x3e377620	0.17916155
26	0xbbeea858	-0.0072832517
27	0x3df0f6eb	0.11765846
28	0x3e26d628	0.16292632
29	0xbc8c2394	-0.017106809
30	0x3ec0ce42	0.37657362
31	0x3d11529a	0.035479166
32	0xbcdffca2	-0.027342144
33	0xbd952fa7	-0.072844796
34	0x3d40754a	0.046986856
35	0x3e7e50cf	0.24835514
36	0xbe354e5e	-0.17705676
37	0x3be6c9c6	0.0070430962
38	0xbdf24664	-0.11829832
39	0xbe0f6d68	-0.14006579
40	0x3df705bf	0.12061643
41	0x3e348dbb	0.17632191
42	0x3b39a6ba	0.0028328137
43	0x3e2f5ab7	0.17124449
44	0x3d383908	0.044976264
45	0xbe13ebf9	-0.14445485
46	0x3d1b0f00	0.037856102
47	0xbe2fa3b4	-0.17152292
48	0xbd7afd48	-0.061276704
49	0xbb12867b	-0.0022357989
50	0xbe83343e	-0.25625795
51	0xbf428e26	-0.7599815
52	0x3ebc724f	0.3680596
53	0x3f1328f0	0.5748434
54	0xbee81e80	-0.4533577
55	0xbbfb2b80	-0.0076650977
56	0xbdd22ce7	-0.10262471
57	0x3c358bd9	0.011080706
58	0xbe2acbb9	-0.16679277
59	0xbe1a065b	-0.15041487
60	0x3e301842	0.17196754
61	0xbe8b8dcb	-0.27256617
62	0xbd1f69e6	-0.038919352
63	0xbd0353a3	-0.032062184
64	0xbd821067	-0.06350785
65	0xbdfa0f92	-0.12210001
66	0xbe692db2	-0.22771338
67	0x3daca5ca	0.08430059
68	0x3d1f828f	0.03894287
69	0x3d3297bc	0.043601736
70	0xbe5444cc	-0.20729369
71	0x3d9a9ce9	0.075494595
72	0x3e203f1b	0.15649073
73	0x3d48c6af	0.049017604
74	0xbddf7145	-0.10910276
75	0x3e8aa2b4	0.27077258
76	0xbd165d0c	-0.03670983
77	0x3e714db9	0.23564805
78	0x3e90b00d	0.28259316
79	0xbd93b50b	-0.072122656
80	0x3f4459a0	0.76699257
81	0x3d24d4df	0.040242072
82	0xbde59332	-0.11209716
83	0xbe00801a	-0.12548867
84	0x3dfcf480	0.12351322
85	0x3edbbf93	0.42919597
86	0xbea214e3	-0.3165656
87	0x3dac6fc3	0.08419754
88	0xbe25e730	-0.16201472
89	0xbe5205c3	-0.2051001
90	0x3e66072e	0.22463676
91	0x3eb7017f	0.3574333
92	0xbc893cfa	-0.016752709
93	0x3ea885b8	0.3291452
94	0x3e105eec	0.1409871
95	0xbe8e7caf	-0.278295
96	0x3cf3fe9b	0.029784491
97	0xbeb03b24	-0.3442012
98	0xbe0c5c2a	-0.13707033
99	0xbd9c128f	-0.07620727
100	0xbd7faa23	-0.062418114
101	0xbdad732c	-0.08469233
102	0xbe372e34	-0.17888719
103	0xbc0f5576	-0.008748403
104	0x3d89ba6e	0.06725012
105	0xbe076b68	-0.13224566
106	0x3de98f5b	0.11404296
107	0xbde4ae2e	-0.11166035
108	0x3e1b02c2	0.15137771
109	0xbd81316b	-0.06308254
110	0x3d35bfd8	0.04437241
111	0xbd8217cb	-0.063521944
112	0xbda2d9e9	-0.07951719
113	0xbdd1d73c	-0.10246131
114	0xbdda775c	-0.10667297
115	0xbd131bfc	-0.03591536
116	0x3e086e5d	0.1332335
117	0xbd9038d5	-0.0704209
118	0x3de3dfc2	0.11126663
119	0xbe03cf22	-0.12871984
120	0x3da460a0	0.08026242
121	0xbd985a26	-0.074390694
122	0xbdcefba2	-0.10106589
123	0xbdc7d540	-0.09757471
124	0xbd69e756	-0.057105385
125	0xbd912653	-0.07087388
126	0x3de8c67a	0.113659814
127	0x3d46267f	0.048376556
128	0xbd4a10e4	-0.049332514
129	0x3df0396a	0.11729701
130	0xbd0edb34	-0.034877017
131	0x3d539407	0.05165484
132	0x3e161b07	0.14658748
133	0x3df695d4	0.12040296
134	0xbde4d8fb	-0.11174198
135	0xbd8296a2	-0.06376387
136	0x3c79a8ff	0.015238046
137	0xbdc89ef2	-0.097959414
138	0xbd6a59e6	-0.05721464
139	0xbda9b3f6	-0.08286278
140	0x3cda9ac6	0.02668513
141	0xbd082f20	-0.033248067
142	0x3dbb99f4	0.091602236
143	0x3d02ca5b	0.031931262
144	0xbe0ba464	-0.13636929
145	0x3a98b484	0.0011650478
146	0xbdef9a9c	-0.11699411
147	0x3c8da85a	0.01729219
148	0xbdc53121	-0.09628511
149	0x3e276022	0.16345266
150	0xbdba694a	-0.091021135
151	0xbed17cab	-0.40915427
152	0x3db86b4b	0.090048395
153	0x3e7955dd	0.2434916
154	0xbe233c97	-0.15941082
155	0xbc663e54	-0.014052946
156	0xbce34144	-0.027741082
157	0x3c0931a7	0.008373654
158	0xbcefe7da	-0.02928536
159	0xbd1da46c	-0.038486883
160	0x3d919bfc	0.0710983
161	0xbdd75bb7	-0.1051554
162	0xbb8a5d43	-0.0042225434
163	0xbd4d01cd	-0.050050545
164	0xbd1b65c5	-0.037938852
165	0xbd5adf85	-0.05343582
166	0xbd932e94	-0.071866184
167	0xbc05be68	-0.008163072
168	0x3cb49afa	0.022046555
169	0x38cbe6e9	9.722805e-05
170	0xbd5b85c4	-0.053594366
171	0x3c909f26	0.017654013
172	0x3caf4a59	0.021397756
173	0x3bc0d842	0.005885155
174	0xbd43f587	-0.047841575
175	0x3de11b18	0.10991496
176	0xba8331b8	-0.0010009324
177	0x3dc0faf1	0.09422863
178	0x3d9bf652	0.07615341
179	0x3bf7407d	0.0075455294
180	0x3eb46a16	0.35237187
181	0x3c9ea082	0.019363645
182	0xbcdede82	-0.02720571
183	0xbd4abe13	-0.049497675
184	0xbaad4160	-0.0013218336
185	0x3e297c78	0.16551387
186	0xbe0aee89	-0.13567556
187	0xbcde62bc	-0.02714669
188	0xbd7c9fa2	-0.061675675
189	0xbdd288af	-0.102799766
190	0x3dbcfab0	0.09227502
191	0x3e0260aa	0.12732187
192	0x3bd9a895	0.006642411
193	0x3e049fcc	0.12951583
194	0x3cf30cda	0.029669214
195	0xbdef7c05	-0.11693577
196	0xbb9af657	-0.004729073
197	0xbe0004fd	-0.12501903
198	0xbd2a45b5	-0.041570384
199	0x3d4380e6	0.04773035
200	0xbe2b19a2	-0.16708997
201	0xbf21f9c5	-0.63271743
202	0x3e9817e4	0.29705727
203	0x3ee8a62f	0.45439288
204	0xbebb151c	-0.36539543
205	0x3bc26777	0.005932744
206	0xbdbae9c9	-0.09126622
207	0x3ce7237a	0.028215159
208	0xbe078064	-0.13232571
209	0xbdc3390b	-0.095323645
210	0x3de6b560	0.11265063
211	0xbe2b81a2	-0.1674867
212	0xbcee600c	-0.029098533
213	0xbc75fb76	-0.015013566
214	0xbd7677c3	-0.060172807
215	0xbdaeaed4	-0.085294396
216	0xbe3d0c39	-0.18461694
217	0x3d266ca0	0.040630937
218	0x3c0de385	0.008660202
219	0x3d811588	0.06302935
220	0xbe456bd8	-0.1927942
221	0x3dad4c3d	0.08461807
222	0x3df5cbdb	0.12001773
223	0x3d2b5076	0.04182478
224	0xbd911ec4	-0.07085946
225	0x3e64b840	0.22335911
226	0xbd55a461	-0.052158717
227	0x3e2ad1cf	0.16681598
228	0x3e54149a	0.20710984
229	0xbd900d88	-0.07033831
230	0x3f1e036d	0.6172398
231	0x3c8f4c9a	0.017492581
232	0xbdc4c406	-0.09607701
233	0xbdef0b56	-0.11672084
234	0x3de2242d	0.11042056
235	0x3eb4f8a4	0.35345948
236	0xbe5a3dc5	-0.21312626
237	0x3d924557	0.07142132
238	0xbdcd17e1	-0.1001432
239	0xbe10b68a	-0.14132133
240	0x3e1f6ba3	0.15568404
241	0x3e8919ba	0.2677744
242	0xbcbd26f4	-0.023089863
243	0x3e60b5ae	0.21944305
244	0x3de526f5	0.11189071
245	0xbe4d3182	-0.20038417
246	0x3d33cedf	0.04389846
247	0xbe80c24d	-0.2514824
248	0xbd7f2ff5	-0.062301595
249	0xbdc6d214	-0.09708038
250	0x3f1b2fcf	0.60619825
251	0x3f6b1eec	0.9184406
252	0xbef8955d	-0.48551455
253	0xbf4ddce7	-0.80415195
254	0x3f3c1f82	0.7348558
255	0xbbf4a666	-0.0074661253

shared_encoder.gru_left.weight_hh_l0 f4 [150, 50]
0	0x3d6b4f39	0.0574486
1	0x3d9576db	0.072980605
2	0xbd8209d0	-0.06349528
3	0x3d7a894c	0.061166093
4	0x3d947b6c	0.07250103
5	0x3cacf869	0.021114545
6	0xbd9c0ad7	-0.07619255
7	0x3da4cba8	0.08046657
8	0xbd9ff4f9	-0.07810397
9	0x3d9b52a3	0.07584121
10	0xbd8a02d5	-0.067388214
11	0x3d6ceefd	0.057845104
12	0xbda66798	-0.08125228
13	0x3d8ad265	0.06778411
14	0x3d9a01da	0.075198844
15	0x3d956623	0.07294872
16	0xbd1dd228	-0.0385305
17	0x3da53e39	0.08068509
18	0x3d8f8312	0.070074216
19	0xbd9b9400	-0.07596588
20	0x3d89b809	0.06724555
21	0x3d9d2881	0.07673741
22	0x3d637a8c	0.05553679
23	0xbd649246	-0.05580356
24	0x3d85caf0	0.06532848
25	0xbd80723c	-0.062717885
26	0x3d89c18c	0.06726369
27	0xbd9560aa	-0.07293828
28	0x3d960b9b	0.07326432
29	0xbd219307	-0.039446857
30	0xbd9d7b1e	-0.07689498
31	0x3d8e35e4	0.069438726
32	0xbd44fa7e	-0.04809045
33	0x3c8d15a9	0.017222242
34	0x3d88889d	0.06666682
35	0x3c222c1d	0.009898213
36	0x3d86fd55	0.06591288
37	0x3d8bc663	0.06824949
38	0xbd91079f	-0.07081532
39	0xbd6c70de	-0.057724826
40	0x3d990872	0.07472314
41	0xbd940224	-0.07226971
42	0xbd6c8cc6	-0.05775144
43	0xbd4c0b43	-0.049815428
44	0x3d892aa0	0.06697583
45	0xbd80d4ec	-0.062906116
46	0x3d9aefc8	0.07565266
47	0x3dac25e2	0.08405663
48	0xbd439e82	-0.047758587
49	0xbd6dc5a5	-0.058049817
50	0x3c540d50	0.012942627
51	0x3d3e146f	0.046406206
52	0xbd2fae6a	-0.042890944
53	0x3c83e2c8	0.016099349
54	0x3d23a305	0.03995039
55	0xbb012969	-0.001970852
56	0xbcbd1457	-0.023080988
57	0x3d49c333	0.049258422
58	0xbd80b297	-0.06284063
59	0x3d094b0f	0.033518847
60	0xbd411671	-0.047140542
61	0x3d5cd502	0.053914078
62	0xbd20ee22	-0.0392896
63	0x3d28a265	0.041170496
64	0x3d08226a	0.033235945
65	0x3d1cddf3	0.038297605
66	0x3b2a92b3	0.002602738
67	0x3cfe0caa	0.031011898
68	0x3d39e689	0.04538587
69	0xbd152fe0	-0.03642261
70	0x3d560030	0.052246273
71	0x3d2da806	0.042396568
72	0x3c54811f	0.012970238
73	0xbd0f1765	-0.03493442
74	0x3d4e37a8	0.050346047
75	0xbcfb00e4	-0.030640073
76	0x3c987f40	0.018615365
77	0xbd1cb7a7	-0.038261082
78	0x3d1321d4	0.035920933
79	0xbcaf008e	-0.02136257
80	0xbd804e91	-0.06264985
81	0x3cd9b78d	0.026576782
82	0xbd16ba70	-0.036798894
83	0xbbf31566	-0.0074183224
84	0x3cf010b5	0.029304842
85	0xbd08f8eb	-0.03344051
86	0x3d76ab86	0.06022217
87	0x3d33352b	0.043751877
88	0xbce13c2b	-0.02749451
89	0xbd2f22cf	-0.042757805
90	0x3cf2e809	0.029651659
91	0xbd2faf49	-0.042891774
92	0xbd374efd	-0.044753063
93	0xbd0f7e0c	-0.035032317
94	0x3d1035a9	0.035207424
95	0xbca8f48c	-0.020624422
96	0x3d594eee	0.05305379
97	0x3d563625	0.05229773
98	0xbcc0888f	-0.023502616
99	0xbce4f7f8	-0.027950272
100	0x3d210bca	0.039317884
101	0xbbec06a4	-0.00720294
102	0xbdb93908	-0.09044081
103	0x3e0a7d49	0.13524355
104	0x3d2f332c	0.04277341
105	0x3dfe6f8e	0.12423621
106	0xbda3abbc	-0.0799174
107	0x3b6097a5	0.0034270075
108	0x3c573ae0	0.0131365955
109	0x3d2458a7	0.040123608
110	0xbc976671	-0.018481465
111	0xbd6854ed	-0.056721617
112	0xbc48ebbe	-0.012263237
113	0x3d5e9dba	0.05434964
114	0x3df71fc4	0.12066606
115	0xbcb953a2	-0.022622887
116	0xbe123b6c	-0.1428048
117	0x3c09d248	0.008411951
118	0x3cfaee37	0.030631168
119	0xbcf1519d	-0.029457862
120	0x3d35dc97	0.044399824
121	0xbc10547c	-0.008809205
122	0x3e150eb1	0.14556386
123	0xbc49b4a4	-0.0123111345
124	0xbc96f1a9	-0.01842578
125	0xbbf18c1b	-0.007371438
126	0x3dd27eb8	0.10278076
127	0xbcc92a78	-0.024556383
128	0x3c4c2290	0.012459412
129	0xbdff2256	-0.12457721
130	0xbcdd1942	-0.026989583
131	0x3c3649bb	0.011125977
132	0xbe12db5f	-0.14341496
133	0x3e070b02	0.13187793
134	0x3dcf1a51	0.10112441
135	0x3e219ecf	0.15783237
136	0x3d65be39	0.056089614
137	0xbca5fafd	-0.020261282
138	0xbaa6b299	-0.0012718021
139	0xbb7faeee	-0.0039014178
140	0x3d05091d	0.032479394
141	0xbd037242	-0.032091387
142	0x3cc11539	0.02356969
143	0xbd2302cc	-0.03979759
144	0x3e06f493	0.13179235
145	0xbd52312f	-0.051316436
146	0x3d2bd0c8	0.041947156
147	0xbbf7aff8	-0.007558819
148	0xbdfbdf52	-0.12298454
149	0x3c9303e3	0.01794619
150	0x3c826997	0.01591949
151	0x3d2bd5f7	0.0419521
152	0xbd75056b	-0.05981962
153	0x3d350d15	0.04420193
154	0x3d505b7f	0.050868507
155	0xbd4995de	-0.04921519
156	0xbd0e2d03	-0.034710895
157	0x3d3d6a2a	0.046243824
158	0xbd553b7a	-0.052058674
159	0x3d007bb7	0.031367984
160	0xbd45b0d8	-0.048264354
161	0x3c3b2d80	0.011424422
162	0xbd43310a	-0.04765419
163	0x3d1c7be5	0.038204093
164	0x3cf54c3f	0.029943584
165	0x3d263440	0.040577173
166	0xbd0d16cb	-0.034445565
167	0x3c4f1b23	0.012640747
168	0x3d12f67d	0.0358796
169	0xbd79b086	-0.06095936
170	0x3d280bac	0.041026756
171	0x3d24bf16	0.040221296
172	0x3d0c54d4	0.034260586
173	0xbd2087c5	-0.03919198
174	0x3cf2ad5f	0.029623685
175	0xbc9d842e	-0.019228067
176	0x3d2f2619	0.042760942
177	0xbd47752a	-0.04869572
178	0x3d6bc3f4	0.057559922
179	0xbd2d2ca9	-0.04227892
180	0xbd4a2eff	-0.049361225
181	0x3cd2009e	0.02563506
182	0xbd3108db	-0.043221336
183	0xbc0c73ee	-0.008572562
184	0x3c944666	0.018099975
185	0x3d814e43	0.06313755
186	0x3d3b43b3	0.04571886
187	0x3d213947	0.039361265
188	0xbd427eab	-0.04748408
189	0xbd25d097	-0.04048213
190	0x3d215687	0.03938916
191	0xbd022797	-0.031776037
192	0xbd1d3bda	-0.038387157
193	0xbcae939b	-0.021310618
194	0x3caa8ea7	0.020819975
195	0xbc544847	-0.012956685
196	0x3d239847	0.039940145
197	0x3d11c4fe	0.035588257
198	0xbc3acd87	-0.011401541
199	0xbd04d3a9	-0.032428417
200	0x3d3a3f4a	0.045470513
201	0x3c917173	0.017754292
202	0xbc5daad0	-0.013529494
203	0x3cb4c689	0.022067325
204	0x3d35b8dc	0.04436575
205	0xbb89bc38	-0.0042033456
206	0xbd365d5e	-0.044522636
207	0x3d3886e2	0.04505051
208	0xbd153b39	-0.036433432
209	0x3c9169b3	0.017750597
210	0xbca43e67	-0.020049287
211	0x3d268bb3	0.04066057
212	0xbd59bb58	-0.05315718
213	0x3d156f5e	0.03648316
214	0x3cc15124	0.023598261
215	0x3d18e258	0.037325233
216	0xbbc713a0	-0.0060753375
217	0x3cca2864	0.024677463
218	0x3ce2b072	0.027672026
219	0xbcf2193d	-0.02955305
220	0x3cc7549b	0.024332335
221	0x3d12f964	0.03588237
222	0x3c8e031e	0.01733547
223	0xbcf08db5	-0.029364446
224	0x3d2531d5	0.040330727
225	0xbcf51d94	-0.02992133
226	0x3d498147	0.049195554
227	0xbd1e0750	-0.038581192
228	0x3cc127a3	0.02357847
229	0xbc9e3d8e	-0.019316461
230	0xbd32e731	-0.043677513
231	0x3d5302c2	0.051516302
232	0xbbcf05fe	-0.006317853
233	0xbcfd6fb1	-0.030937048
234	0x3d0b0db6	0.033948623
235	0xbd23010e	-0.039795928
236	0x3ce59bfc	0.02802848
237	0x3d08a269	0.03335801
238	0xbd05235e	-0.032504432
239	0xbc98073b	-0.018558135
240	0x3ced3448	0.028955594
241	0xbc9cca25	-0.019139359
242	0xbcbf3548	-0.023340836
243	0xbcefa525	-0.029253552
244	0x3c863cc0	0.01638639
245	0xbcb4ff8d	-0.022094512
246	0x3cd913ae	0.026498642
247	0x3d20dc64	0.03927268
248	0xbb997c60	-0.004684016
249	0xbcddfd48	-0.027098313
250	0x3d7847ae	0.060615234
251	0x3d8a031d	0.06738875
252	0xbdc10ecb	-0.0942665
253	0x3d949274	0.07254496
254	0x3d6ada1f	0.057336923
255	0xbe0f9459	-0.14021434

shared_encoder.gru_left.bias_ih_l0 f4 [150]
0	0xbc816a83	-0.015797859
1	0xbb24fdff	-0.0025175808
2	0x3d028061	0.031860713
3	0x3cabab21	0.020955624
4	0x3ae3180e	0.0017325894
5	0x3c370812	0.011171358
6	0xbb1c8f91	-0.0023889283
7	0xba8f91b4	-0.0010953457
8	0xba0446dc	-0.0005045959
9	0xbc00ba2b	-0.007856886
10	0xbc35235d	-0.011055795
11	0xbc1749a9	-0.009233871
12	0xbb6d3fa3	-0.003620126
13	0x3c00be10	0.007857814
14	0x3b278f6b	0.0025567662
15	0xbc0c5eaa	-0.008567492
16	0xbbe48f42	-0.0069750855
17	0xbc6bfe38	-0.014403872
18	0xbb89112a	-0.0041829543
19	0xbb4065af	-0.0029357483
20	0xbb173c5b	-0.0023076746
21	0x3adb42d2	0.0016728288
22	0x3c52a5aa	0.01285688
23	0xbc2469d4	-0.010034997
24	0xbbb3b649	-0.0054843766
25	0xbc04e18c	-0.008110415
26	0x3b3fde13	0.0029276654
27	0xbadd1328	-0.0016866671
28	0xbb3a2cee	-0.0028408128
29	0x3c506754	0.012719948
30	0x3b4ba917	0.0031076127
31	0xbaaaad77	-0.0013021667
32	0x3ca41e30	0.020033926
33	0xbc3a5895	-0.011373659
34	0xba78b5af	-0.0009487522
35	0x3b89f91d	0.004210605
36	0x3ba0e22a	0.0049097734
37	0xbb89ba41	-0.0042031114
38	0xbafe4784	-0.0019399975
39	0xbb958553	-0.0045630126
40	0xbb8b95ee	-0.0042598164
41	0xbb9df175	-0.0048200437
42	0xbc5186eb	-0.012788515
43	0xbc21c986	-0.009874707
44	0x3c45892b	0.012056629
45	0xbc6a37a9	-0.014295497
46	0x3b82bf71	0.0039901068
47	0xbb90924a	-0.0044119703
48	0x3bc0d752	0.005885043
49	0xbb98bf30	-0.004661463
50	0x3c88a82d	0.016681755
51	0xbe0c1b9b	-0.13682406
52	0xbe87ab04	-0.26497662
53	0x3ce571a4	0.02800829
54	0xbd047d0a	-0.03234581
55	0xbed0b08b	-0.40759692
56	0x3c7fce9a	0.0156132225
57	0xbe0bf607	-0.1366807
58	0xbdce0207	-0.100589804
59	0x3b4edcd8	0.0031564739
60	0xbd8e2e14	-0.069423825
61	0xbb8396d2	-0.004015782
62	0xbcd54596	-0.026034158
63	0xbc88f619	-0.016718911
64	0x3cf6f373	0.030145383
65	0xbe500719	-0.20315208
66	0xbe389e95	-0.18029244
67	0xbc33d732	-0.0109765995
68	0xbccad0d2	-0.024757776
69	0xbca3325e	-0.019921478
70	0xbb3c14f4	-0.0028699012
71	0xbdf1e78a	-0.11811741
72	0xbd89a9eb	-0.067218624
73	0xbc56ca86	-0.013109809
74	0xbb91e64a	-0.0044525014
75	0xbc81f374	-0.015863158
76	0x3c94ff53	0.018188154
77	0xbc7b386c	-0.015333276
78	0xbe0f8fc3	-0.14019684
79	0x3c07f4a5	0.008298074
80	0xbdce0930	-0.10060346
81	0xbc139640	-0.00900799
82	0x3c0935fa	0.008374685
83	0xbe9823da	-0.29714853
84	0x3c742110	0.014900461
85	0xbe79f7e5	-0.2441097
86	0xbd705feb	-0.058685225
87	0xbd03368d	-0.032034446
88	0xbdb1cc12	-0.086815014
89	0xbe0c81b7	-0.13721357
90	0xbc892742	-0.016742352
91	0xbbcf355c	-0.0063234996
92	0xbd93d259	-0.07217855
93	0xbc4b1233	-0.012394476
94	0x3c9c6678	0.01909183
95	0x3b2791ae	0.002556901
96	0xbcaffac7	-0.021481885
97	0xbd99b8d8	-0.07505959
98	0x3a84c519	0.001012954
99	0xbddc76b7	-0.107648306
100	0xbd18b29f	-0.03727972
101	0xbcd7a438	-0.026323423
102	0xba390398	-0.00070577255
103	0xbd2ace3b	-0.041700583
104	0xbd2b11c5	-0.041764993
105	0xbd830069	-0.063965626
106	0x3d45c0c6	0.048279546
107	0xbcdd31b3	-0.027001237
108	0x3d0453ba	0.03230641
109	0xbd2f9e63	-0.04287566
110	0x3cf75561	0.030192079
111	0xbd473e5c	-0.048643455
112	0x3d35900d	0.04432683
113	0xbd28be84	-0.041197315
114	0xbd249575	-0.040181596
115	0xbc877e8e	-0.016539838
116	0x3d6b8a4c	0.057504937
117	0xbd2be683	-0.04196788
118	0xbd22a5f9	-0.039709065
119	0x3d2c2f5f	0.042037364
120	0xbd292046	-0.041290544
121	0xbd0006b9	-0.03125641
122	0xbd555a26	-0.052087925
123	0x3d15fb2a	0.03661648
124	0xbd47a4c2	-0.04874111
125	0x3d267c93	0.040646147
126	0xbd3f7261	-0.04673994
127	0x3d397674	0.04527898
128	0xbce1dfc1	-0.027572514
129	0x3d3a7f8d	0.0455318
130	0x3ce92477	0.02845977
131	0xbd57e537	-0.05270883
132	0x3d3d1094	0.04615839
133	0xbd84d7eb	-0.064864956
134	0xbd45be2f	-0.048277076
135	0x3c09d90a	0.008413563
136	0xbd080ee0	-0.03321731
137	0xbd2ff669	-0.042959604
138	0x3d0a1833	0.033714484
139	0x3cd25a26	0.025677752
140	0xbd13f20a	-0.0361195
141	0x3d611ac8	0.05495718
142	0x3d0771ea	0.03306762
143	0x3d28e709	0.041235957
144	0xbd47ec2e	-0.048809223
145	0x3d55451b	0.052067857
146	0xbd22d7ff	-0.03975677
147	0xbd0ca0fa	-0.034333207
148	0x3d4bc5a5	0.049749035
149	0x3cfb290b	0.03065922

shared_encoder.gru_left.bias_hh_l0 f4 [150]
0	0xbc816a6f	-0.015797822
1	0xbb24fdf0	-0.0025175773
2	0x3d02805f	0.031860705
3	0x3cabab2e	0.020955648
4	0x3ae317ee	0.0017325857
5	0x3c370809	0.011171349
6	0xbb1c8fde	-0.0023889462
7	0xba8f919e	-0.0010953431
8	0xba044552	-0.000504573
9	0xbc00ba37	-0.007856897
10	0xbc352339	-0.011055761
11	0xbc174998	-0.009233855
12	0xbb6d3fde	-0.0036201398
13	0x3c00be17	0.007857821
14	0x3b278fcc	0.0025567887
15	0xbc0c5ea7	-0.008567489
16	0xbbe48eec	-0.0069750454
17	0xbc6bfe3a	-0.014403874
18	0xbb891144	-0.0041829664
19	0xbb406565	-0.002935731
20	0xbb173ce2	-0.002307706
21	0x3adb42f3	0.0016728326
22	0x3c52a59e	0.012856869
23	0xbc2469c5	-0.010034983
24	0xbbb3b652	-0.0054843808
25	0xbc04e194	-0.008110423
26	0x3b3fdd95	0.002927636
27	0xbadd1383	-0.0016866777
28	0xbb3a2d04	-0.002840818
29	0x3c506740	0.012719929
30	0x3b4ba8c9	0.0031075946
31	0xbaaaacfb	-0.0013021523
32	0x3ca41e3c	0.020033948
33	0xbc3a5879	-0.011373633
34	0xba78b81d	-0.0009487884
35	0x3b89f934	0.0042106155
36	0x3ba0e21e	0.004909768
37	0xbb89ba2c	-0.0042031016
38	0xbafe4714	-0.0019399845
39	0xbb95854f	-0.0045630108
40	0xbb8b95e2	-0.004259811
41	0xbb9df14c	-0.0048200246
42	0xbc51871c	-0.01278856
43	0xbc21c98b	-0.009874712
44	0x3c45891a	0.012056613
45	0xbc6a37a6	-0.014295494
46	0x3b82bf5f	0.0039900984
47	0xbb90922c	-0.0044119563
48	0x3bc0d773	0.0058850585
49	0xbb98bf37	-0.0046614665
50	0x3c88a804	0.016681679
51	0xbe0c1b99	-0.13682403
52	0xbe87ab02	-0.26497656
53	0x3ce571ac	0.028008305
54	0xbd047d00	-0.03234577
55	0xbed0b08d	-0.40759698
56	0x3c7fce96	0.015613219
57	0xbe0bf605	-0.13668068
58	0xbdce0205	-0.10058979
59	0x3b4edd2a	0.003156493
60	0xbd8e2e14	-0.069423825
61	0xbb8396cf	-0.0040157805
62	0xbcd54585	-0.026034126
63	0xbc88f61f	-0.016718922
64	0x3cf6f36b	0.030145368
65	0xbe50071f	-0.20315216
66	0xbe389e97	-0.18029247
67	0xbc33d73d	-0.01097661
68	0xbccad0d5	-0.024757782
69	0xbca33259	-0.019921469
70	0xbb3c15c5	-0.00286995
71	0xbdf1e78f	-0.118117444
72	0xbd89a9e4	-0.06721857
73	0xbc56ca6c	-0.013109785
74	0xbb91e703	-0.0044525876
75	0xbc81f380	-0.01586318
76	0x3c94ff4c	0.018188141
77	0xbc7b387a	-0.015333289
78	0xbe0f8fc5	-0.14019687
79	0x3c07f4ab	0.0082980795
80	0xbdce0938	-0.10060352
81	0xbc13969d	-0.009008077
82	0x3c093605	0.008374696
83	0xbe9823d9	-0.2971485
84	0x3c7420f0	0.014900431
85	0xbe79f7df	-0.24410962
86	0xbd705fd8	-0.058685154
87	0xbd033684	-0.032034412
88	0xbdb1cc0e	-0.086814985
89	0xbe0c81b7	-0.13721357
90	0xbc892745	-0.016742358
91	0xbbcf3541	-0.006323487
92	0xbd93d254	-0.07217851
93	0xbc4b1253	-0.012394506
94	0x3c9c6677	0.019091828
95	0x3b2791f9	0.0025569184
96	0xbcaffab6	-0.021481853
97	0xbd99b8dc	-0.07505962
98	0x3a84c443	0.0010129291
99	0xbddc76b0	-0.10764825
100	0xbd214ad4	-0.039378002
101	0xbcfb25d5	-0.030657688
102	0x3a9fccb0	0.0012191739
103	0xbd204163	-0.039124858
104	0xbd23a2b4	-0.039950088
105	0xbdeb4daa	-0.114894226
106	0x3d38d616	0.045126043
107	0xbd00ec16	-0.03147515
108	0x3d0faa19	0.035074327
109	0xbd2b7063	-0.041855227
110	0x3d07a7d0	0.033119023
111	0xbd498f37	-0.049208846
112	0x3d331137	0.04371759
113	0xbd1a99b5	-0.037744243
114	0xbd219a89	-0.039454017
115	0xbcc98ca6	-0.0246032
116	0x3d83f95f	0.06444048
117	0xbd300d0e	-0.0429812
118	0xbd1ee114	-0.03878887
119	0x3d28a4fa	0.04117296
120	0xbd22b056	-0.03971895
121	0xbd09dad7	-0.033655968
122	0xbd590293	-0.05298097
123	0x3d1bd135	0.038041312
124	0xbd448ad0	-0.047983944
125	0x3d24882d	0.04016893
126	0xbd3471be	-0.044053786
127	0x3d33b90c	0.043877646
128	0xbd049778	-0.032371014
129	0x3d34051a	0.043950178
130	0x3cf6d4ea	0.030130822
131	0xbd4c5272	-0.049883313
132	0x3d395b73	0.04525323
133	0xbda31ea0	-0.07964826
134	0xbd3f706f	-0.046738084
135	0x3c4a94b8	0.012364559
136	0xbd0790d3	-0.0330971
137	0xbd2e24e2	-0.042515643
138	0x3d10ccfa	0.03535173
139	0x3cf8e7be	0.03038394
140	0xbd12ff48	-0.035887986
141	0x3d4ae3dd	0.049533714
142	0x3d1ae9c1	0.03782058
143	0x3d2657a6	0.04061093
144	0xbd4083aa	-0.047000565
145	0x3d4c9fc5	0.049957056
146	0xbd19cd37	-0.037549224
147	0xbd117903	-0.035515796
148	0x3d445c27	0.047939446
149	0x3d0d46ea	0.034491457

shared_encoder.gru_left.weight_ih_l0_reverse f4 [150, 50]
0	0x3cf3020e	0.029664066
1	0xbe2d86af	-0.16945909
2	0x3e03fabf	0.12888621
3	0x3e15cbb9	0.14628495
4	0xbde3bcee	-0.1112002
5	0x3cdfeb6c	0.027333938
6	0xbd685739	-0.056723807
7	0x3d333e85	0.043760795
8	0xbd0ea44f	-0.034824666
9	0x3d0baad4	0.03409846
10	0xbd465c37	-0.048427787
11	0x3d4cc35a	0.04999099
12	0x3cc11aac	0.023572288
13	0x3d140504	0.036137596
14	0x3c888dff	0.016669272
15	0x3d504655	0.050848324
16	0xbd9b4a5a	-0.07582541
17	0x3b675e11	0.003530387
18	0xbd025932	-0.031823345
19	0x3ca5a9c8	0.02022256
20	0xbd496fa4	-0.049178734
21	0x3d633be7	0.05547705
22	0x3d932279	0.071843095
23	0x3d0b8eaf	0.03407162
24	0xbbbafd0a	-0.005706434
25	0xbe1bb616	-0.15206179
26	0xbcea05d3	-0.02856723
27	0xbda5b94c	-0.08091983
28	0xbe03cf85	-0.12872131
29	0xbd0590ca	-0.032608785
30	0x3df7b92c	0.120958656
31	0x3b735cb9	0.0037134124
32	0xbd87aab4	-0.06624356
33	0xbd15eca0	-0.036602616
34	0x3cfc21eb	0.030777892
35	0xbd641025	-0.05567946
36	0xb9b4115f	-0.00034345218
37	0xbcdd448f	-0.02701023
38	0x3d486271	0.048922006
39	0x3d136a96	0.03599032
40	0xbd809a33	-0.06279411
41	0xbda70896	-0.081559345
42	0xbc098c62	-0.008395286
43	0xbd0991e4	-0.033586398
44	0x3d14b9ca	0.036309995
45	0xbb692ead	-0.00355808
46	0x3d5ec3ac	0.054385826
47	0x3cd59e57	0.026076479
48	0x3d6f7a32	0.058466144
49	0xbc9b3f3f	-0.018951057
50	0x3e11e303	0.14246754
51	0xbd2770b3	-0.040878963
52	0x3dc51c3b	0.09624525
53	0x3d59eb5d	0.053202976
54	0xbd9a74d6	-0.07541816
55	0x3d8639e7	0.06554013
56	0xbd875a39	-0.066090055
57	0x3daa999e	0.083300814
58	0xbd38ab02	-0.04508496
59	0x3dc546b1	0.09632624
60	0xbde4f3a3	-0.111792825
61	0x3e0b5f78	0.13610637
62	0x3d892cf1	0.06698025
63	0x3d914ef0	0.07095134
64	0x3dbe57b9	0.092940755
65	0x3df14625	0.11780957
66	0xbd9f476c	-0.077772945
67	0xbc8dd582	-0.017313723
68	0xbd9a0bee	-0.07521807
69	0x3d0e9477	0.034809556
70	0xbcd835f2	-0.02639291
71	0x3db94292	0.090459004
72	0x3db2f993	0.08739009
73	0x3d989cc1	0.074517734
74	0x3d7f3565	0.06230678
75	0xbe78cb04	-0.24296194
76	0xbd81e497	-0.06342428
77	0xbe3f15dd	-0.18660684
78	0xbe847029	-0.2586682
79	0xbd402450	-0.04690963
80	0xbcd83408	-0.026391998
81	0xbd275b10	-0.04085833
82	0xbd673237	-0.056444373
83	0xbd70d01b	-0.058792215
84	0x3d572faf	0.05253571
85	0xbe29f411	-0.1659701
86	0x3dffe405	0.12494663
87	0xbc7c14dd	-0.015385834
88	0x3e362bfc	0.17790216
89	0x3ded002d	0.11572299
90	0xbe00cfb5	-0.12579234
91	0xbe4bef08	-0.19915402
92	0xbd41bdb8	-0.04730007
93	0xbe18981b	-0.14901774
94	0x3d175a39	0.036951277
95	0x3da2ebd2	0.079551354
96	0x3de93220	0.11386514
97	0x3e111d50	0.14171338
98	0x3e09317c	0.13397783
99	0xbcb61516	-0.022226851
100	0x3c94ca45	0.018162856
101	0xbe672e7d	-0.22576328
102	0x3e4b9498	0.19880903
103	0x3e639066	0.22223052
104	0xbe38d3ea	-0.18049589
105	0x3d52ce15	0.051466066
106	0xbd901206	-0.07034688
107	0x3d73ac6c	0.059490606
108	0xbd87c295	-0.066289105
109	0x3c86e372	0.016465876
110	0xbd02a2de	-0.031893604
111	0xbbddda9c	-0.006770445
112	0x3d1ec02d	0.03875749
113	0x3d553b83	0.052058708
114	0x3ca68b60	0.020330131
115	0x3d0b9118	0.03407392
116	0xbe186d82	-0.14885524
117	0x3cd463c8	0.025926486
118	0xbc91e011	-0.017807039
119	0x3d1b598d	0.0379272
120	0xbdc3fb91	-0.09569467
121	0x3d92f485	0.07175545
122	0x3dd8a2df	0.1057794
123	0x3d3d5cc3	0.046231043
124	0x3b977d70	0.0046231076
125	0xbe04c2ca	-0.12964931
126	0xbd0a77b3	-0.03380556
127	0xbd6db079	-0.058029626
128	0xbdd437fb	-0.1036224
129	0xbd3a51c3	-0.04548813
130	0x3e3d9faf	0.18517946
131	0xbd0687ac	-0.03284423
132	0xbda9a720	-0.0828383
133	0xbd90f40a	-0.07077797
134	0x3d8fe58c	0.070262045
135	0xbd2aeada	-0.04172788
136	0xbc7cc3c9	-0.015427538
137	0x3cdbda27	0.026837422
138	0x3d292fcc	0.04130535
139	0x3c785996	0.015158078
140	0xbd11c39c	-0.03558694
141	0xbd162f17	-0.036666002
142	0xbcb4c824	-0.02206809
143	0xbc9ba5ce	-0.01899996
144	0x3d9cc266	0.07654266
145	0xbd13e7bf	-0.036109682
146	0x3db7fc8f	0.089837186
147	0xbbe790a7	-0.0070668045
148	0x3d28d883	0.041222107
149	0xbd66886a	-0.05628244
150	0x3c981ba2	0.018567864
151	0xbe1dc7dc	-0.15408272
152	0x3dcd7dfe	0.10033797
153	0x3e1838a4	0.14865357
154	0xbdc9f891	-0.098618634
155	0x3c946cb2	0.018118236
156	0xbc902e72	-0.017600272
157	0x3d27acd3	0.040936302
158	0xbc823331	-0.01589355
159	0x3cf9357f	0.030421017
160	0xbd224f59	-0.039626453
161	0x3b9d2820	0.004796043
162	0x3d3b60c9	0.0457466
163	0x3d26a279	0.04068229
164	0x3c9e6596	0.01933555
165	0x3d16cab7	0.036814418
166	0xbd9b9fcd	-0.07598839
167	0xbcb38cf0	-0.02191779
168	0x3ba1b8b7	0.00493535
169	0x3c416980	0.011804938
170	0xbceccae7	-0.028905345
171	0x3d5a166c	0.05324404
172	0x3d066aed	0.032816816
173	0x3b927442	0.0044694254
174	0xbc3917d2	-0.011297183
175	0xbe06d5db	-0.13167517
176	0xbd1eed5e	-0.03880059
177	0xbd93bd1b	-0.072138034
178	0xbdf81cbd	-0.121148564
179	0xbca1c9fd	-0.019749636
180	0x3e1d6efd	0.1537437
181	0xbc9be84e	-0.01903167
182	0xbd8c21e2	-0.068424
183	0xbd1a07ff	-0.037605282
184	0x3c56c29e	0.013107924
185	0xbd1cb552	-0.038258858
186	0x3a4c1a3c	0.00077858916
187	0xbc9c60a6	-0.019089054
188	0x3d723d84	0.059140697
189	0x3c3abfaf	0.01139824
190	0xbce96a5b	-0.028493097
191	0xbd50890f	-0.05091196
192	0xbcf416de	-0.02979606
193	0xbbecbfea	-0.0072250264
194	0x3cc82fdb	0.024436882
195	0xbc65fde0	-0.014037579
196	0x3d3d9906	0.046288513
197	0x3bc205bd	0.005921094
198	0x3cf879c1	0.030331494
199	0x3b6cb35c	0.0036117649
200	0x3d4a9e96	0.049467646
201	0xbdcb14cb	-0.09916075
202	0x3dfa8c47	0.12233787
203	0x3db72009	0.08941657
204	0xbda58ee5	-0.080838956
205	0x3d075a99	0.033045385
206	0xbd3fc571	-0.046819154
207	0x3d172930	0.036904514
208	0xbd2f5ae0	-0.042811275
209	0x3cfa9b19	0.030591534
210	0xbd18b555	-0.037282307
211	0x3d07a676	0.033117734
212	0x3c4b6b69	0.012415745
213	0x3cc75917	0.024334474
214	0x3cda45dd	0.026644642
215	0x3d5d8090	0.054077685
216	0xbd896e4b	-0.0671049
217	0xbc625b44	-0.013815705
218	0xbce19d2e	-0.02754077
219	0x3d0ca6a6	0.034338616
220	0xbd10d80b	-0.035362285
221	0x3d433984	0.047662273
222	0x3d4e42e2	0.050356753
223	0x3d242f5e	0.040084235
224	0x39c76557	0.00038031742
225	0xbe263426	-0.1623083
226	0xbcca14f5	-0.024668196
227	0xbd9d0a76	-0.07668011
228	0xbe2006be	-0.15627572
229	0xbce20632	-0.027590845
230	0x3da3bc90	0.0799495
231	0x3af1922e	0.0018430406
232	0xbd61e701	-0.055151943
233	0xbd309a3a	-0.043115832
234	0x3d16dc3a	0.03683112
235	0xbd90b76a	-0.070662335
236	0x3b0c7401	0.0021431448
237	0xbd1bbda3	-0.03802265
238	0x3d9636c9	0.07334668
239	0x3d2d1d95	0.04226454
240	0xbd482faf	-0.0488736
241	0xbda5c3d3	-0.08093991
242	0x3b6e8501	0.0036395194
243	0xbcb365cf	-0.021899132
244	0x3cef947d	0.02924561
245	0xbca6c04f	-0.020355372
246	0x3d8f000e	0.06982432
247	0x3d0a2cd1	0.033734147
248	0x3ca9227f	0.020646332
249	0xbca211aa	-0.019783814
250	0x3d18487d	0.037178505
251	0xbe3e2bd8	-0.18571413
252	0x3e461d64	0.19347149
253	0x3e2d7023	0.16937308
254	0xbe1f9c1d	-0.15586896
255	0x3d06d259	0.032915447

shared_encoder.gru_left.weight_hh_l0_reverse f4 [150, 50]
0	0x3d121eb6	0.03567382
1	0xbd8041e9	-0.06262571
2	0xbd203242	-0.03911043
3	0x3bbdd600	0.005793333
4	0x3d3fd335	0.046832282
5	0x3c9a1214	0.018807448
6	0x3c38b81c	0.011274364
7	0x3d3ca935	0.046059806
8	0x3d42d8fb	0.04757021
9	0x3d3856d3	0.045004677
10	0xbd06a1ec	-0.032869264
11	0x3d069a6b	0.03286211
12	0xbce5fe3f	-0.028075336
13	0xbc8b70d4	-0.017021574
14	0x3d57dd07	0.052701022
15	0x3d16ac38	0.036785334
16	0xbd3c03d1	-0.045902077
17	0x3d3841f6	0.04498478
18	0x3cba0535	0.022707561
19	0x3d0da5e7	0.034582045
20	0xbd5f284d	-0.054481793
21	0xbd247b57	-0.04015669
22	0xbb32567e	-0.0027212198
23	0xbd5ec918	-0.054390997
24	0x3d87adbb	0.06624933
25	0x3cd01dc2	0.025404815
26	0x3d10c11c	0.035340413
27	0x3ce6c95a	0.028172184
28	0x3d5565fc	0.052099213
29	0x3c7acdbb	0.015307839
30	0x3d170ea6	0.036879204
31	0xbc0b1f8d	-0.008491409
32	0x3c826a9a	0.015919972
33	0xbd2d77c9	-0.042350564
34	0x3d02c521	0.031926278
35	0xbd20644f	-0.03915816
36	0xbd16cc35	-0.03681584
37	0x3cedb303	0.029016024
38	0x3d538ca0	0.051647782
39	0x3d363b98	0.044490427
40	0xbd182566	-0.03714504
41	0x3d256dfa	0.040388085
42	0xbcadb0d6	-0.021202486
43	0x3c88b0e0	0.016685903
44	0xbcc0c859	-0.023533033
45	0x3d2c3d2e	0.042050533
46	0xbd0362c3	-0.03207661
47	0x3cd04d20	0.025427401
48	0x3c9dabbc	0.019246928
49	0xbcf12803	-0.029438024
50	0xbd076287	-0.033052947
51	0xbc511543	-0.012761417
52	0x3ca8dd8c	0.020613454
53	0xbd41d367	-0.04732075
54	0xbc7e8090	-0.015533581
55	0xbd09638a	-0.033542193
56	0xbd486886	-0.048927806
57	0xbcb9649a	-0.022630978
58	0xbd0cc9ab	-0.034372013
59	0xbc854806	-0.016269695
60	0x3d08cd02	0.033398636
61	0xbd318a48	-0.043344766
62	0x3c8172b8	0.015801772
63	0x3d5c4c80	0.053783894
64	0xbbf87589	-0.0075823707
65	0xbc02b8b7	-0.00797861
66	0x3c98e8ee	0.018665757
67	0xbc45d989	-0.01207579
68	0xbd40775c	-0.04698883
69	0xbcc4299d	-0.023945624
70	0xba5bff31	-0.00083922135
71	0x3c9c4cb3	0.019079542
72	0x3da8c9fc	0.082416505
73	0x3c7a8761	0.015291066
74	0xbce17e8e	-0.027526166
75	0xbcd3d365	-0.025857637
76	0xbc3613b2	-0.011113094
77	0xbd42960e	-0.047506385
78	0xbd09185c	-0.033470497
79	0xbd0c577e	-0.034263127
80	0xbc92374e	-0.017848637
81	0x3e068351	0.1313603
82	0xbcfce5fd	-0.030871386
83	0xbcd5795c	-0.026058845
84	0xbd186acd	-0.03721123
85	0x3cd23823	0.025661534
86	0x3d02c700	0.031928062
87	0xbd298695	-0.041388113
88	0xbcf6cfa5	-0.03012831
89	0xbc39ca06	-0.01133967
90	0x3d0de0cf	0.034638222
91	0xbd2902ca	-0.041262425
92	0x3d85cb21	0.065328844
93	0xbd0081ea	-0.031373896
94	0x3d1ad6df	0.037802573
95	0xbc43bf1e	-0.011947421
96	0x3c62fd3e	0.013854323
97	0xbcbcc7d6	-0.023044508
98	0xbd49bf3e	-0.04925465
99	0x3a24d95d	0.0006288493
100	0x3aebc1a7	0.001798679
101	0xbc9463a1	-0.018113913
102	0x3d0378ff	0.032097813
103	0xbc7737fe	-0.015089033
104	0x3cbd3dc5	0.023100743
105	0xbc05f03b	-0.008174951
106	0xbc862f2c	-0.016379915
107	0x3ccd90ab	0.025093397
108	0x3ce47e0a	0.027892131
109	0x3c957f7c	0.018249266
110	0xbc605654	-0.013692457
111	0xbbba3ec4	-0.005683752
112	0xbc93ccf6	-0.018042069
113	0x3ca3de62	0.020003501
114	0x3cbb15cf	0.022837548
115	0x3c1d3612	0.009595411
116	0xbc6a5699	-0.014302873
117	0x3d1c15cb	0.03810672
118	0xbca34ff4	-0.019935586
119	0x3c8271ac	0.015923344
120	0xbd171137	-0.03688165
121	0xbceca5c1	-0.028887631
122	0x3d072b29	0.033000145
123	0xbd1ee8a6	-0.03879609
124	0x3cd5b334	0.026086427
125	0x3abc217e	0.0014353243
126	0xbbbfee51	-0.005857267
127	0xbc7ba686	-0.0153595265
128	0x3bad97e9	0.00529765
129	0x3b9fa57c	0.004872022
130	0x3c1950c9	0.00935764
131	0x3d527ae9	0.051386748
132	0x3cac9ab8	0.02106987
133	0xbcf02e86	-0.02931906
134	0x3a7770de	0.0009439121
135	0x3bbba518	0.005726468
136	0x3b361fa3	0.0027789853
137	0xbb8be1f5	-0.0042688795
138	0xbbef3db9	-0.007301059
139	0x3cb3763c	0.021906964
140	0xbbad3d3e	-0.0052868417
141	0x3be7f226	0.007078427
142	0x3bf4cabc	0.007470457
143	0xbb2fb5c5	-0.0026811224
144	0xbcb56d38	-0.022146806
145	0xbc8f4fee	-0.017494168
146	0xbba39799	-0.004992437
147	0x3b9f75f2	0.004866355
148	0x3bde4fdf	0.0067844237
149	0xbba403c1	-0.0050053303
150	0x3d07ad75	0.033124406
151	0xbd955682	-0.07291891
152	0xbd0581ef	-0.032594617
153	0x3d1207ac	0.035651848
154	0x3d069ebe	0.032866232
155	0x3ce56d6d	0.02800628
156	0x3d366ceb	0.044537466
157	0x3d861c51	0.0654837
158	0x3d7d58ad	0.061852146
159	0x3ce147ea	0.027500112
160	0xbd182d08	-0.03715232
161	0x3c6e6886	0.0145512875
162	0xbd02c7d5	-0.031928856
163	0xbcdbc111	-0.02682546
164	0x3d48ac9b	0.048992734
165	0x3d60b7ed	0.054862905
166	0xbd350e2e	-0.044202976
167	0x3da2f260	0.079563856
168	0x3ce0e4d4	0.027452864
169	0x3d3a5d2d	0.045499016
170	0xbdb56317	-0.088567905
171	0xbd5815fa	-0.052755333
172	0xbbf23e67	-0.007392693
173	0xbd62ad79	-0.055341218
174	0x3d35b6d5	0.044363815
175	0x3c924050	0.017852932
176	0x3d704688	0.058661014
177	0x3d5a013e	0.05322384
178	0x3da26059	0.07928533
179	0x3cbcd41e	0.023050364
180	0x3c8bdc5d	0.01707285
181	0x3c3b440d	0.011429799
182	0x3d7d4ee2	0.061842807
183	0xbd903d65	-0.0704296
184	0x3d1d0724	0.038336888
185	0xbd766f9d	-0.060165036
186	0xbd0857e3	-0.03328694
187	0x3d1f221e	0.038850896
188	0x3d1828c0	0.037148237
189	0x3d5585fc	0.05212973
190	0xbd7cd387	-0.061725166
191	0x3d589d92	0.052884646
192	0xbcd4388b	-0.025905868
193	0x3c369d29	0.011145868
194	0xbd0e1648	-0.034689218
195	0x3d41731e	0.047228925
196	0xbd5aba70	-0.053400457
197	0x3cc94b77	0.024572117
198	0x3c3e790b	0.011625539
199	0xbd75b7f6	-0.059989892
200	0x3d743dc4	0.059629217
201	0xbdb56a97	-0.08858221
202	0xbd50f50d	-0.05101495
203	0x3d2cbbf7	0.042171445
204	0x3d126473	0.035740327
205	0x3d31fbe5	0.043453116
206	0x3d33753b	0.04381297
207	0x3db1eefd	0.086881615
208	0x3dd50eda	0.10403223
209	0x3d8aa576	0.067698404
210	0xbd61cd1b	-0.055127244
211	0x3d55674e	0.052100472
212	0xbd7a395e	-0.061089866
213	0xbcd81fcd	-0.026382351
214	0x3dca4255	0.09875933
215	0x3da0f6df	0.07859587
216	0xbd56dff0	-0.052459657
217	0x3d97f882	0.07420446
218	0x3d74d29b	0.05977116
219	0x3d6e3191	0.05815274
220	0xbddbb1b7	-0.10727256
221	0xbd837b2d	-0.06419978
222	0xbc640b5c	-0.013918724
223	0xbda78abc	-0.08180758
224	0x3d8f5bd6	0.06999938
225	0x3d5815a7	0.052755024
226	0x3d7cd17e	0.061723225
227	0x3d397ba1	0.045283917
228	0x3d9f307f	0.07772922
229	0x3cfc489b	0.03079634
230	0x3d2fc29e	0.04291021
231	0xbc5f4960	-0.013628334
232	0x3d9ddd29	0.077081986
233	0xbddedd99	-0.1088211
234	0x3d3d70b4	0.04625006
235	0xbd29409c	-0.041321382
236	0xbd2e803b	-0.04260276
237	0x3cf802d2	0.030274782
238	0x3d6d08ce	0.057869725
239	0x3da59396	0.080847904
240	0xbd5cb610	-0.053884566
241	0x3da35cf0	0.07976711
242	0xbd33d796	-0.04390677
243	0x3d48a346	0.048983835
244	0xbd459145	-0.048234243
245	0x3d89f983	0.06737044
246	0xbd4805be	-0.0488336
247	0x3d5760cc	0.052582547
248	0x3c9af1f1	0.018914195
249	0xbd896883	-0.06709387
250	0x3d066e80	0.032820225
251	0xbd9d96c3	-0.07694771
252	0xbd24b529	-0.04021183
253	0x3ca33e58	0.019927189
254	0x3d5fa9cf	0.0546053
255	0x3cbd87ef	0.023136107

shared_encoder.gru_left.bias_ih_l0_reverse f4 [150]
0	0xbd103f01	-0.035216335
1	0x3cabe1c5	0.020981679
2	0xbd42da7b	-0.04757164
3	0xbcbe9df2	-0.023268674
4	0xbc9ea6b8	-0.019366607
5	0xbcfc16ff	-0.030772684
6	0xbc906208	-0.01762487
7	0x3cb4761d	0.022028977
8	0x3c31109b	0.010807182
9	0xbce843a4	-0.028352566
10	0xbcfc8ff5	-0.030830363
11	0xbd383a6c	-0.04497759
12	0xbd011aaf	-0.031519588
13	0xbb0c4e09	-0.0021408817
14	0x3c164a55	0.009172996
15	0xbc59cb4d	-0.0132931
16	0xbca0b35e	-0.019616779
17	0x3c2ed17d	0.010670063
18	0xbd1f3f60	-0.0388788
19	0xbcbe6b53	-0.023244536
20	0x3d0639ff	0.032770153
21	0xbd18c395	-0.037295897
22	0xbd0afea2	-0.033934243
23	0xbc8605f5	-0.016360262
24	0xbabcf0b8	-0.0014415001
25	0xbcbee20e	-0.02330115
26	0xbbce6640	-0.0062988102
27	0x3a2aa4d7	0.00065095484
28	0x3aa6684c	0.0012695878
29	0xbd1a4801	-0.037666325
30	0xbcc6fba0	-0.024289906
31	0x3ba76a6c	0.005109122
32	0xbccf6048	-0.025314465
33	0x3a39e897	0.00070918485
34	0xbcdcb9f8	-0.026944146
35	0xbc3d0c32	-0.011538552
36	0xbd14f445	-0.036365766
37	0x3c26773f	0.010160266
38	0x3b84575c	0.0040387344
39	0xbcd011d9	-0.025399135
40	0xbc480467	-0.012208081
41	0xbc260271	-0.010132418
42	0xbc8fd8f5	-0.017559508
43	0xbc955211	-0.018227609
44	0xbc864ce0	-0.016394079
45	0xbc9d08b7	-0.019169195
46	0xbca7f43f	-0.020502208
47	0xbcff44a4	-0.03116066
48	0x3c4e8ec4	0.01260728
49	0xbc37cb89	-0.01121796
50	0x3b4d5266	0.003132963
51	0x3d64d953	0.05587132
52	0x3e365605	0.17806251
53	0xbda60904	-0.08107188
54	0xbd326d2d	-0.04356115
55	0xbdaaba34	-0.08336297
56	0xbdcea836	-0.100906774
57	0x3e3ee5e0	0.18642378
58	0x3cfde617	0.030993504
59	0xbb9939d8	-0.004676085
60	0xbd43f725	-0.047843117
61	0xbd3fabbd	-0.04679464
62	0xbd836ebf	-0.064176075
63	0xbe4ea7f2	-0.20181254
64	0x3e85f972	0.26166874
65	0x3e78b96b	0.24289481
66	0xbd8dc5be	-0.06922482
67	0xbc80a9cc	-0.015705965
68	0x3e3a33ee	0.18183872
69	0x3d9fea47	0.07808357
70	0x3e54afc9	0.20770182
71	0x3de2f516	0.11081903
72	0xbe43ccb8	-0.19121063
73	0x3c8dc9d3	0.017308151
74	0xbde4da42	-0.11174442
75	0xbd0cb403	-0.03435136
76	0x3d91302d	0.07089267
77	0xbd823633	-0.06357994
78	0x3d7802c8	0.060549527
79	0x3e1a9b61	0.15098335
80	0xbcd369d3	-0.025807297
81	0xbe726de9	-0.2367474
82	0x3e1c4733	0.15261535
83	0x3e178d1c	0.14799923
84	0x3e193af2	0.14963892
85	0xbdd94e9c	-0.10610697
86	0x3b14aeb7	0.0022687146
87	0xbe1ba8d6	-0.15201125
88	0x3d457f2e	0.04821699
89	0x3d4386a5	0.04773583
90	0xbddbc518	-0.10730952
91	0x3e5b100a	0.21392837
92	0xbe2842c6	-0.16431722
93	0xbddfa120	-0.10919404
94	0xbd797a24	-0.060907498
95	0x3c442657	0.011972032
96	0xbc85ada6	-0.016318154
97	0xbd05bf0c	-0.0326529
98	0xbe23dbe9	-0.16001858
99	0x3e001594	0.12508231
100	0xbd1c5724	-0.03816904
101	0x3d97a563	0.07404592
102	0x3b8608b3	0.0040903925
103	0xbd5830c5	-0.052780885
104	0xbd9f7726	-0.07786398
105	0xbd7af33a	-0.061267115
106	0xbd46ac36	-0.048504077
107	0xbcaa6d51	-0.02080408
108	0xbd95fa91	-0.073231824
109	0xbd99dd3b	-0.075128995
110	0x3d7e9b64	0.06215991
111	0xbd75ac07	-0.05997851
112	0x3d816a4b	0.06319102
113	0x3d78ff1b	0.060790163
114	0x3c34225a	0.010994518
115	0xbc1a9f6f	-0.009437426
116	0x3d9323c0	0.07184553
117	0xbdca4667	-0.098767094
118	0xbc065243	-0.008198324
119	0xbd8cd16e	-0.06875883
120	0xbcddcba7	-0.027074648
121	0x3d663bfc	0.05620955
122	0x3d4aba89	0.0494943
123	0x3d8bcf7a	0.068266824
124	0xbd9416b4	-0.07230893
125	0xbd972170	-0.073794246
126	0xbd6572b0	-0.056017578
127	0xbd0fbd36	-0.035092555
128	0xbd7d9bf9	-0.061916325
129	0xbca9e1d7	-0.020737572
130	0xbd9652c4	-0.07340005
131	0x3d353e81	0.04424906
132	0xbd376b25	-0.044779915
133	0x3d62a99d	0.055337537
134	0xbd27b2ab	-0.040941875
135	0x3d759178	0.059953183
136	0x3d88df37	0.066832
137	0xbd943225	-0.07236127
138	0xbd339e18	-0.04385194
139	0xbd891b83	-0.066947006
140	0x3d82adc9	0.06380803
141	0xbc8fb65c	-0.01754301
142	0x3d7856a8	0.060629517
143	0xbd997026	-0.07492094
144	0x3d7627fa	0.06009672
145	0xbda49613	-0.08036437
146	0x3d9532aa	0.07285054
147	0xbd8d4f2c	-0.068998665
148	0xbd8c6a69	-0.068562336
149	0x3d628298	0.055300325
