checkpoints/Nitrate3_1012.pt (torch_old, 444769 bytes, 32 tensors)

shared_encoder.input_linear.weight f4 [50, 6]
00000000: 6384 2bbc 7984 293d b748 bc3e 40de 3b3a
00000010: a406 3a3c fdff da3b 9314 61b9 679d 4fbb
00000020: a8bd c5be dce2 fbbb 0d37 69bc a8ee 123c
00000030: 0825 3cbb 096f c03b 1dc9 ba3e f538 393c
00000040: 3a9e 303d 6560 72ba 68b7 3c3a 5162 173c
00000050: bbaf b53e bccf ce3b b6bc 303d cc52 58bc
00000060: a6ae acbc 8491 6b3d 7a98 c93e 0eec ae3b
00000070: e359 7f3d d400 513b 5cef 80bc 021f 2f3d
00000080: 54b8 a43e 4c9b 37b8 29cb 473b 6e17 383c
00000090: 8ee4 053c ea24 6f3d 0766 94be 6541 86bb
000000a0: 8f1a 443c 36aa ee3b 2a37 b73c e098 07be
000000b0: 9343 563e 0429 7ebc d552 86be 17e4 babb
000000c0: 3236 08bc e9fe 6b3c 0718 7ebe 1b79 ccbb
000000d0: 4ef7 ab3d 2493 a23b a9a4 f63c 874d 40bd
000000e0: b7c4 3f3e c3fe a6bb a642 21bd a608 eabb
000000f0: 5c19 a43c f657 703e 255b 5ebe c769 953c
00000100: 75fa 4e3d d9f2 e6b9 6b97 893b 799c 93bd
00000110: 2c4d 733e 7e05 9e3b 9297 60bd 4258 9cbb
00000120: 0b0c 773c c833 5bbe 7e13 443e 6054 abbc
00000130: 37d1 9cbd 3b38 b4bc d759 4b3b efb0 8dbd
00000140: 6906 983e 4b39 62bc 9f23 afbd 3479 263c
00000150: e112 77ba 0a98 b0bd eee9 883e 7a86 a3bc
00000160: 0d2e a0bd b36f 003b e5bf 453c 007c a8bd
00000170: 3eca 4d3e cf8e 56bd f7a8 653d 54bb 6e3a
00000180: aff9 f7bc 382b 46bc 8c08 afbe 3ab0 1a3c
00000190: a927 5e3c 6052 863c 0669 173c 705c 40bc
000001a0: f17c 9a3e 8429 73bb 516b e2bc 1b79 133c
000001b0: 6b07 4b3c 9dc9 41bd 0851 9fbe af46 efba
000001c0: e57a 02bd 92ad c03a b8e9 af3b 499a 753d
000001d0: 27e4 bc3e b906 553a b139 053d be9e 5bbb
000001e0: a950 6e3b 3275 aa3d a5d1 bbbe 1a60 58bc
000001f0: 32c1 55bd ae33 b93a 27ad 093b 8941 24bb
00000200: fe82 c83e 6793 aabb eeeb 573c 2249 b7bb
00000210: 931d 633c 22a3 98bc 2f26 a73e f8ee b5bb
00000220: 2b05 3c3c 4040 42bc 50a8 beba db0d 443d
00000230: a206 ab3e f880 013c 2ae2 97bd c0aa 683b
00000240: 1cb6 4eba 4446 bb3b 6b6e eb3d 82e6 98bc
00000250: 58cf 31be 4de3 bc3c ec0b e23d 402b 003e
00000260: 6287 42bb aac0 893b 357e 61be f2d8 b9bb
00000270: 2d81 f6bb 3855 7f3d bf7b 8abe 80d3 943c
00000280: 177c 413d 10a6 5bbb a5d4 dabc cd5e 71be
00000290: 8997 473e aab0 9dbb eb5a d73b be6e 173c
000002a0: 9c62 f03c ac84 96bd 5e17 583e 3840 34bd
000002b0: 1f3a 04bd 7253 3c3b de8f 8f3a cfea 7fbd
000002c0: 30f9 b1be 4f25 e4bb 2499 b9bc 571e bcbb
000002d0: c5b6 aa3b 0e62 a5bc 1ec7 bebe 0973 f0ba
000002e0: 0d0f 92bd a343 81ba 6299 363b 3389 953d
000002f0: a9c3 9dbe d45c 9c3a 1e1f 113d 0b40 c73b
00000300: 17d3 033c c88f 9fbd d572 b8be cd39 2b3a
00000310: 9c3b eebd 59e0 85bb 5659 953b 060a 3dbd
00000320: e3df c9be 4df9 013c 533d dbbc 6b9d 26ba
00000330: 15bd 933c 813c 9bbd f912 833e 5654 23bc
00000340: be24 b2bd 4dd9 613b 626d 29ba b20f 893d
00000350: 3615 b0be c3d6 23bc a4a4 edbc b7b8 823b
00000360: 369a b0bc b973 9d3d d82d b63e 9618 e039
00000370: 307d caba 0713 543c 3553 8cbc 309c d8bd
00000380: 1c5b 8b3e 8d31 643b 18fb 14bd d2a5 e53a
00000390: e942 2d3c dfe9 463c 9c33 a63e c1c6 bcba
000003a0: 870c 00bb c878 8eba 05ad cd39 5e68 2abd
000003b0: 28d7 b13e 5981 e93a a49a 80bb 14db 4d3b
000003c0: e138 24bb f078 d13d 7fd6 a0be d9a5 79ba
000003d0: f702 6f3d d035 04bc 8a7a 92bb f24b 69bd
000003e0: ac51 a43e 9e7c 813c fc2e bd3c c761 00bc
000003f0: bbc7 4fbb 7c6c b23d f575 81be 1668 de3b
-0.010468575 0.0413861 0.36774227 0.0007166602 0.011354122 0.006683348 -0.00021465337 -0.0031679512
-0.3862126 -0.007686956 -0.014234317 0.008968033 -0.0028708596 0.0058726114 0.36481562 0.0113050835
0.043119647 -0.0009245931 0.00071989605 0.009239749 0.35485634 0.006311385 0.04314872 -0.013203334
-0.021079373 0.05751182 0.39374143 0.0053381985 0.062341582 0.0031891363 -0.015739135 0.04275418
0.3217188 -4.377523e-05 0.0030486083 0.011236055 0.008172167 0.058384813 -0.2898409 -0.004097151
0.011969223 0.0072834743 0.022365171 -0.13241911 0.20924215 -0.015512709 -0.2623507 -0.00570346
-0.008313702 0.014404037 -0.24813853 -0.006240023 0.08396779 0.004961388 0.030107813 -0.046948936
0.18727385 -0.005096288 -0.0393702 -0.0071421443 0.020031624 0.23471054 -0.21714456 0.018238915
0.050531823 -0.00044049954 0.0041989586 -0.07207579 0.23759907 0.004822432 -0.05483205 -0.0047712633
0.015078555 -0.21406472 0.1914806 -0.020914257 -0.07657092 -0.021999469 0.003102889 -0.06918513
0.2969239 -0.013807605 -0.08551716 0.010160733 -0.00094251154 -0.08622749 0.26740974 -0.019961584
-0.078212835 0.0019597828 0.012069677 -0.08226776 0.2009668 -0.052382287 0.05606934 0.00091068936
-0.030270426 -0.012095265 -0.34186208 0.00944143 0.01355926 0.016396701 0.009241348 -0.011740789
0.30173448 -0.0037103603 -0.027639063 0.009001042 0.012391905 -0.047311414 -0.3111651 -0.0018255318
-0.031855483 0.0014700165 0.0053684376 0.05996159 0.36892816 0.0008126307 0.032525722 -0.0033511366
0.0036363995 0.083231345 -0.36683384 -0.013206506 -0.0521862 0.0014129782 0.0021007748 -0.0025063476
0.3916244 -0.00520556 0.013178809 -0.005593435 0.0138620315 -0.018632475 0.3264632 -0.005552169
0.0114758415 -0.011856139 -0.0014546011 0.047864776 0.33403498 0.007904284 -0.07416184 0.0035502166
-0.0007885413 0.0057151634 0.1149567 -0.018664602 -0.17364252 0.023057604 0.1103743 0.12516499
-0.0029682745 0.0042038755 -0.220208 -0.005671614 -0.007522723 0.06233713 -0.27047536 0.018167257
0.047237482 -0.003351573 -0.026712725 -0.2357132 0.194914 -0.0048123198 0.0065721176 0.009242712
0.029343896 -0.07349524 0.21102664 -0.044006556 -0.03228199 0.002873626 0.001095291 -0.06247979
-0.34760427 -0.0069624553 -0.022656031 -0.0057409215 0.005209776 -0.020188358 -0.3726129 -0.001834483
-0.07131777 -0.0009862076 0.002786242 0.07301559 -0.3081334 0.001192952 0.035430066 0.0060806326
0.008045933 -0.07791096 -0.3602511 0.00065317453 -0.11632463 -0.004085582 0.004557769 -0.046152137
-0.39428625 0.007932973 -0.02676264 -0.00063558546 0.018034497 -0.075798996 0.25600412 -0.009968838
-0.08698414 0.0034461797 -0.00064631377 0.06692447 -0.34391183 -0.009999934 -0.02900917 0.003989305
-0.021557909 0.07688088 0.3558185 0.00042742927 -0.0015448686 0.01294399 -0.01712952 -0.105766654
0.27217948 0.0034819574 -0.036372274 0.0017520732 0.010575035 0.01214072 0.3246125 -0.0014402495
-0.0019538717 -0.0010869736 0.00039229557 -0.04160344 0.34734464 0.0017815038 -0.0039246846 0.0031411098
-0.0025058317 0.10228145 -0.31413648 -0.00095233094 0.058352437 -0.0080694705 -0.004470174 -0.056957193
0.3209356 0.015806492 0.023093693 -0.007835812 -0.0031704742 0.08712098 -0.25285307 0.0067873104

shared_encoder.input_linear.bias f4 [50]
00000000: 0c43 c5bc 0404 f13c 42f5 10bd 8bf4 d8bc
00000010: 5495 ecbc 9c39 dfbc 96c8 a73c 1db0 a2bc
00000020: f089 a33c 3e92 81bc 04b7 253b 5b17 babc
00000030: 1810 56bc 6ad4 92bc a445 8ebc 7765 20bc
00000040: d610 d23c 55bd bcbc 8619 a53c 0fb3 debc
00000050: be6c fa3c 57c3 bdbc 4d2c abbc 22fa aebc
00000060: cc4f 1bbc 7868 03bd 78bc d93c 02ec 40bc
00000070: e2ce 4abc 33c8 f93c 00a9 bd3c 500e 4b3c
00000080: a5bb c83c 30e4 da3c cd5f 24bc 4587 cd3c
00000090: f4af b0bc d7e1 dabc 96fb f1bc 0a55 bebc
000000a0: d3a5 f13c 5844 c1bc 78f5 aa3c 2fb1 833c
000000b0: 108f 42bc ccfa d0bc ffa8 82bc 41c3 9dbb
000000c0: 9067 c4bc e52f e73c
-0.024079822 0.02942086 -0.035390146 -0.026483795 -0.028879799 -0.02724915 0.020481389 -0.019859368
0.019963235 -0.015816804 0.0025286088 -0.022716215 -0.0130653605 -0.017923553 -0.017367192 -0.009789816
0.025642794 -0.0230395 0.020153772 -0.027184991 0.03056943 -0.023164434 -0.020895148 -0.021359507
-0.009479474 -0.03208205 0.026579127 -0.011775019 -0.012378426 0.03049097 0.023151875 0.012393549
0.024503538 0.026720136 -0.010032606 0.025088916 -0.021568276 -0.026719017 -0.02953891 -0.02323391
0.029498016 -0.02359216 0.020869002 0.016075699 -0.011874929 -0.025510214 -0.015949724 -0.004814536
-0.023975164 0.02822108

shared_encoder.gru_left.weight_ih_l0 f4 [150, 50]
00000000: d302 12be 00d7 9b3c b96a 0bbe 2e02 c5bd
00000010: 9c41 20be c3fe c1bd 3f26 99bc 070b 25be
00000020: 9549 843d 4063 e6bc 6811 6e3d 5c4f a8bd
00000030: 10d7 b4bd d3ba 8cbd 9915 adbd efac 0e3e
00000040: d80b d43c 3fe0 bbbd 4389 66bd cfc1 83bd
00000050: c52b a6bb 4056 29bd 9968 05be 8c01 b1bd
00000060: 2bec 893d e28f 37bd 0c14 ad3c 13bf 21bd
00000070: ac52 3fbd 6eb9 a43d e59f a8bd 73ef 4f3d
00000080: c1ec 24be 0af5 dd3c 95c6 5bbc 71fe 173e
00000090: 7ead 1cbd 5f86 06be 7396 b4bd ed90 b2bd
000000a0: 58b6 223d 3dad 78bd 9e2f 443d 9665 e93d
000000b0: cfcc 8f3a 7e4a 20be e51f ae3c 7b57 adbd
000000c0: 58e9 0dbd 638b 153e 0f27 27bb b03d e8bb
000000d0: b59e 323d 0657 db3d 2997 b0bd f45d 6dbc
000000e0: e0a3 3ebd 93ca bf3b aae6 9abd b2ed 1ebc
000000f0: 3323 8a3b a3b6 f03c c5d2 4b3d c812 24bd
00000100: 394d 9b3b 49ac 8d3d 3585 5c3d 086e 2fbb
00000110: a20f 0abd 6c50 2abd f9a8 01be e71c 1b3e
00000120: a007 983d a929 ac3b d6d7 8d3d 56ab 9dbd
00000130: 382e 13bb c6a6 323c c39c b4bc a803 673c
00000140: 9f4e 9abd 405c d5bb a27b 02be 80f8 cd3a
00000150: b081 533d 495a 1ebd bc73 f4bc 5dfb 8f3c
00000160: a9b7 efbc 7d01 72bc 4fdd 84bd ebae 2d3d
00000170: c14a 53bd 8194 8c3c d88a 023d 0225 5bbb
00000180: e3f3 11bd 7bba 88bb 2bd7 f33c f0ea d23d
00000190: f903 debd 7bfb 96bc dfa7 b7bd 92e8 b4bd
000001a0: f84e 46be 5620 bbbc 638a 943c 11e4 39be
000001b0: 937b bf3d 1de0 92bd 5830 543c a2f7 15be
000001c0: 74b6 04be 4a73 57bd b268 1ebe 8d10 0b3e
000001d0: a4c9 c53d cf09 ebbd 63fd 75bd 2cdb 0fbe
000001e0: 2623 033d 59bb 24bb 16c3 90bd 3e17 b2bd
000001f0: 5919 d1bc 7dc5 5cbd a0e4 a73d c999 9ebb
00000200: 84cb 07bd a473 823d 6b4a 9abd 6ed2 893d
00000210: decb d8bd be74 733d cdd9 bbbd 55b5 ab3d
00000220: c625 29bd a0c5 15be 128b e9bd 60fc 10bd
00000230: b5dc c93d 99eb 7ebc ab90 b43d e6ea 013e
00000240: d0d7 19bb c3d4 24be eec5 52bd 8fbb 38bd
00000250: 777f 08be e144 b33d 36ab 963d 31e2 f6bd
00000260: 4f3f 303e 1105 273e c4d5 5a3d 9f85 223d
00000270: 59f6 f5bd ede6 d13d 1710 07be 90c1 ca3d
00000280: a2e2 abbd c32e e23d 565a c43d 9069 933d
00000290: 5e22 ef3d f71d ba3d acb7 3cbd 264e 8f3d
000002a0: fe5c d9bd dbea 5b3c 89dd 31be 405b 5e3e
000002b0: 5413 bf3d ea12 003e 3937 ce3d 789b d83c
000002c0: 44cf b7bd 06e6 813d 3fe3 293d 9038 f9bc
000002d0: 0d21 1bbe 9b48 c7bd 328a 29be 3b68 fcbd
000002e0: 4266 bb3d 5398 edbd 2dfe 833d 3dd0 b53d
000002f0: 9c33 b03d 7d87 ae3d 6ae8 d3bd 8df6 2b3e
00000300: f21d d9bd a20f a1bd bf58 2d3d c2ff a03d
00000310: 3260 7f3d f190 903d c159 ae3d 99f3 54bd
00000320: cd6c 09bc 20c6 66bd 01a3 cf3d 4abe d73d
00000330: 658c 5abd 4efe 953c e823 8abd 9192 403d
00000340: 66d2 1bbd ae00 fdbb f84b 1f3d 2330 343d
00000350: e298 a7bb 6235 41bd 8549 b4bc 086f cc3c
00000360: 89d8 893d 3431 41bd 6e4b 8ebd 7c0a fdbc
00000370: 18e0 e0bd d245 2b3e ac40 023c e09a 8f3b
00000380: 9782 5a3d af02 3cbd de28 783b 8889 c53a
00000390: adf7 d1bb 8427 163d 0e08 85bd 78bd dabb
000003a0: 953c 72bd 2f6d d3bc f095 3f3d 7d37 a4bb
000003b0: 9b22 e5bc a040 13bc 4180 653b e931 63bc
000003c0: 4c04 1fbd 924c 833d a98f a9bc 8379 d4bb
000003d0: 42fb 1fbd 3e8d 8fbc 5889 aebc 65de e4bc
000003e0: 4f63 fb3c bffb b23c f31c 1fbe f8fb 963d
000003f0: a5e3 06be 5f6d f0bd 0d80 2dbe bb61 d0bd
-0.1425889 0.019023418 -0.1361493 -0.09619556 -0.15650028 -0.0947242 -0.018694995 -0.16117488
0.06459347 -0.028123498 0.05812207 -0.082182616 -0.088300824 -0.068715714 -0.08451385 0.13933156
0.025884554 -0.09173631 -0.056283247 -0.064334504 -0.0050711357 -0.04134202 -0.13028182 -0.08642873
0.067344986 -0.04481495 0.021127723 -0.039488863 -0.0467097 0.080431804 -0.082336225 0.050765466
-0.1610594 0.027094383 -0.013414045 0.14843155 -0.038251393 -0.13137196 -0.088177584 -0.08719049
0.039724678 -0.060712088 0.047896974 0.11396329 0.0010971072 -0.15653417 0.021255443 -0.08463951
-0.034646362 0.14603953 -0.0025505458 -0.007087432 0.043608386 0.10709958 -0.086225815 -0.014487732
-0.046543002 0.005853006 -0.07563527 -0.009700226 0.004215622 0.029383963 0.049761552 -0.040056974
0.0047394303 0.069176264 0.053837974 -0.0026768465 -0.033706315 -0.041580603 -0.12662114 0.15147744
0.07423329 0.0052539897 0.06925933 -0.07698695 -0.0022457968 0.01090402 -0.022047406 0.014099993
-0.07534527 -0.006511241 -0.12742475 0.0015714318 0.05163735 -0.03866032 -0.029840343 0.017575914
-0.02926238 -0.014770863 -0.06487524 0.042403143 -0.051584963 0.017160656 0.031870693 -0.0033438806
-0.03563298 -0.004172621 0.029765686 0.10298717 -0.108406015 -0.018430462 -0.08967566 -0.08833422
-0.19366062 -0.022842567 0.018132394 -0.18153407 0.09349742 -0.071716525 0.012950979 -0.14645246
-0.12960225 -0.052600183 -0.15469626 0.13580532 0.096576005 -0.1147648 -0.0600561 -0.14048451
0.032015942 -0.0025136082 -0.0706846 -0.08695839 -0.025524782 -0.053899277 0.08197904 -0.00484011
-0.033153072 0.06369713 -0.07533725 0.067295894 -0.105857596 0.059437506 -0.091724016 0.08384196
-0.04129579 -0.14626169 -0.11403479 -0.035396934 0.0985655 -0.015559101 0.08816656 0.12687263
-0.0023474582 -0.16096787 -0.05145829 -0.045100745 -0.13329874 0.08753372 0.07356875 -0.12054861
0.1721165 0.16310526 0.05342652 0.039678212 -0.12009878 0.10249124 -0.13189732 0.099002
-0.08392836 0.11044075 0.09587543 0.07197869 0.11676477 0.090877466 -0.0460736 0.069973275
-0.1061344 0.013422693 -0.17369665 0.21714497 0.093298584 0.12507215 0.10069127 0.02644132
-0.0897508 0.063427016 0.041476484 -0.030422479 -0.15149327 -0.09730645 -0.16556624 -0.12324568
0.091503635 -0.11601319 0.064449646 0.08877609 0.08603594 0.08521936 -0.10347064 0.1679327
-0.10601415 -0.0786431 0.042320963 0.07861282 0.0623476 0.070588954 0.08513213 -0.051990125
-0.0083877565 -0.05634129 0.101385124 0.10534342 -0.053356547 0.018309738 -0.0674513 0.047014777
-0.03804245 -0.0077210283 0.03889081 0.04399122 -0.0051146606 -0.04717005 -0.022007713 0.024955288
0.06730754 -0.047166064 -0.06947981 -0.030888788 -0.109802425 0.16725853 0.007949989 0.004382476
0.053347196 -0.045900997 0.0037866156 0.0015070895 -0.006407699 0.03665878 -0.06495677 -0.0066754185
-0.059139807 -0.025808899 0.04677385 -0.0050114975 -0.027970603 -0.008987576 0.0035019072 -0.01386688
-0.038822457 0.06411089 -0.020698385 -0.006484212 -0.039057977 -0.017523404 -0.021305725 -0.027938077
0.030687002 0.021848558 -0.15538387 0.07372278 -0.13172777 -0.11739611 -0.16943379 -0.101748906

shared_encoder.gru_left.weight_hh_l0 f4 [150, 50]
00000000: 6696 e33d 4489 4e3e fb7c bfbd 88b5 633e
00000010: 04d9 063e 1867 fb3d d7af 45be dd4f 343e
00000020: 2e16 25be 03d1 4e3e 45cc 44be 5133 0b3e
00000030: e2e4 4ebe a344 3b3e 300a 173e f287 e53d
00000040: b7d9 e8bd d38e 283e c5e6 323e 54bc 3abe
00000050: 6d88 2a3e 0174 283e ce60 2b3e 2691 17be
00000060: 9832 233e ede1 22be c068 5b3e f536 41be
00000070: 7c0f 263e 6690 00be edec 18be 2780 603e
00000080: d275 41be 969f e93d a070 023e 1c3f b53d
00000090: 8ebe 2f3e 2269 643e e815 29be aa4d 1abe
000000a0: 44da 263e b702 50be 16a1 02be 9f77 38be
000000b0: 7872 243e 1beb 1abe 7735 4b3e 1ec4 3d3e
000000c0: 18ee e3bd 41a2 18be 21cf 99bb caba 993d
000000d0: afc6 22bc 071f 453e 3745 7b3d 4ca5 513c
000000e0: 255a 82bd 5ca0 113e a72d 0ebd 0a52 0c3e
000000f0: 8c95 fabd 264a 0d3d 6c6b 12be e8d9 283d
00000100: accb b43c fa6a 8c3c c09c 09bb d5f4 3c3d
00000110: 0090 3f3d 96b2 e0bd 2ce2 dc3d 36bd b93d
00000120: d793 0e3d 6f40 85bc 52b6 783d 30dd 17bd
00000130: 087e 0e3e 8fc2 b5bd 3bcf ae3d 7f3e 6ebc
00000140: 4379 9ebd 9990 2c3e 087d 9ebc 14c4 c53c
00000150: 1df5 d73c 837e ad3a 26a6 ef3d 88d2 663e
00000160: 8a2a fcbc 46f9 1e3c b838 dcb9 83a5 31be
00000170: 5e68 0fbd c45d f5bd 10fb 753d 5a37 0ebd
00000180: fbf7 163e fffb c83d c7d2 77bc b3a8 debd
00000190: 40ac ab3d 227e 603e 5e01 26bd d6ae 023e
000001a0: 876e 1d3e 69cc c03d bbc4 5bbe 2dee 083e
000001b0: 8693 49be c967 043e e1d8 34be cb5e 3d3e
000001c0: 3898 fcbd 0640 833e fe38 f13d f602 b13d
000001d0: 50b4 b7bd ef1a 5d3e b9a1 473e 58cf 16be
000001e0: 4d38 173e aab0 0f3e 7d83 3a3e a07d 21be
000001f0: 67c2 743e a952 4abe 647b 1b3e 2d4e 3abe
00000200: bd0c 1d3e 6cca e1bd 9153 17be 7206 0d3e
00000210: 2b47 7fbe 16c0 ae3d 1e7b db3d e61a c03c
00000220: 256e 1e3e 10a0 f03d 9c8a 58be f168 65be
00000230: 0c23 173e 622c 0cbe b282 e9bd e026 35be
00000240: 34a1 133e 1066 60be 79b5 033e 9b19 5e3e
00000250: e3d0 b7bd cded 21be bc40 f0bd 7338 52bd
00000260: beb8 003e f5cd cf3c ceac a9bd 76d4 ccbd
00000270: 2362 2e3d 4bcb 8ebd 8f1a 9d3d 29f8 52bd
00000280: 5f94 793c 43d0 80bd bdde 283d 1e8c debd
00000290: 7ba4 e2bd 830a e4bd 36be a43d ab52 72bd
000002a0: e29c e5bd d832 923d 1673 a8bd 3e32 ddbd
000002b0: 3d57 b3bd 6c45 cf3d 9048 b8bd 2ab6 e63d
000002c0: c8b4 34bd 0035 b13d e6f4 94bd ce87 c53d
000002d0: 2a65 d63d cb5c e2bc 0c1c d23d fdb9 b4bd
000002e0: 50a1 e4bd b529 ddbd df52 93bd c678 873d
000002f0: 889b b13d 24ca de3d 2549 c5bd eebd 693a
00000300: 7538 c03d dbee a03d a3ca c4bd bbd7 823d
00000310: 9378 41bd 5fd9 9dbd b98a fd3d c74e b03c
00000320: d07c 323d e617 33bc 5ece 31ba bdde bd3d
00000330: 2c67 28bd 9e8c 1a3d f2b5 2abd 6b66 113d
00000340: 0c94 4a3a bac3 943c 87a9 54bd 808b 283b
00000350: 1cd9 8ebd f74c 3fbd 50bf a83c c08f b23c
00000360: ce2f c2bc 2060 09bd 6751 d6bc 06f7 3f39
00000370: 1a01 543c 6120 e93b 2ac7 80bc ca13 74bc
00000380: 6c38 17bd bf71 f93c d089 843d e89a 93bb
00000390: 3d46 513b fb7b 9abc 0452 273c c0c6 e53d
000003a0: 4d4f a93c 8d13 393c a1ef 113d 16fa fbba
000003b0: 4ae7 5c3c 952f 083e 21ed 923c c928 403b
000003c0: 2b8f 973c f206 9ebd de5b 90bc 07e3 77bc
000003d0: f049 953c 9419 2d3d 36bb df3c d2a0 bd3c
000003e0: 8af5 fbbb 422b a0bc 883a fb3d 2c73 483e
000003f0: 940b edbd 2734 743e 9e4a e73d fd07 f03d
0.111126706 0.2016955 -0.0935001 0.22237217 0.13168722 0.12275523 -0.19305359 0.1760859
-0.16121742 0.20196919 -0.19218548 0.13593794 -0.202045 0.18287902 0.1474998 0.1120757
-0.11369651 0.16460733 0.17470844 -0.18235904 0.16653605 0.16450502 0.16736147 -0.14801463
0.15937269 -0.15906496 0.21426678 -0.1886862 0.16216844 -0.12555084 -0.1493413 0.21923886
-0.18892601 0.11407392 0.12738276 0.08849928 0.17162535 0.2230573 -0.16512263 -0.15068689
0.16294199 -0.20313536 -0.12756762 -0.18014382 0.16059291 -0.15128748 0.19844614 0.18531844
-0.11129397 -0.14905645 -0.004693881 0.0750633 -0.009935065 0.19250117 0.061345305 0.0127957575
-0.0636485 0.14221328 -0.034711506 0.1370317 -0.12235555 0.03449454 -0.1429879 0.041223437
0.022069775 0.017140854 -0.0020997971 0.046131928 0.04676819 -0.109715626 0.10785326 0.09069292
0.03480896 -0.016266076 0.06072075 -0.037076175 0.13915265 -0.08875 0.0853562 -0.014541267
-0.077379726 0.16852035 -0.019346729 0.024141349 0.026361996 0.0013236556 0.11701612 0.22541249
-0.030782003 0.009702986 -0.0004200393 -0.17348294 -0.03501164 -0.11980775 0.060053885 -0.034720756
0.14743035 0.098136894 -0.015125937 -0.108720206 0.083824635 0.21923116 -0.040528648 0.12762007
0.15374194 0.09413988 -0.21461765 0.13372107 -0.19685182 0.12930216 -0.17660858 0.18493192
-0.12333721 0.25634784 0.117784485 0.08643143 -0.08969939 0.21592306 0.19495286 -0.14727533
0.14767571 0.14032236 0.18214221 -0.15770578 0.23902284 -0.19758095 0.15183789 -0.18193884
0.1533689 -0.11024937 -0.14777972 0.1377199 -0.24929492 0.08532731 0.10716842 0.023450326
0.15471704 0.117492795 -0.21146625 -0.22403313 0.14759463 -0.13688806 -0.11401881 -0.17690611
0.14416963 -0.21913934 0.12862195 0.21689455 -0.08975389 -0.1581337 -0.11731097 -0.051323365
0.12570474 0.025366763 -0.08284913 -0.10001461 0.04257406 -0.06972369 0.07671081 -0.051506195
0.015233128 -0.06289723 0.041228045 -0.10866569 -0.110665284 -0.111348175 0.08044092 -0.05916087
-0.11211564 0.07138604 -0.08225076 -0.108005986 -0.08756874 0.10120663 -0.08998215 0.11265214
-0.04411772 0.08652687 -0.07273273 0.09645043 0.10468514 -0.027632138 0.10259256 -0.08824537
-0.111635804 -0.107989706 -0.07193541 0.066148326 0.08672243 0.10878399 -0.09633092 0.00089165464
0.09385768 0.07858058 -0.096089624 0.063888036 -0.04723413 -0.07707476 0.12379975 0.021521939
0.04357606 -0.010930991 -0.0006782765 0.092709996 -0.041114017 0.03773176 -0.041677423 0.035498064
0.0007727749 0.018159736 -0.051919486 0.0025717914 -0.06975004 -0.04670426 0.020599037 0.021797061
-0.023704436 -0.033538938 -0.026161863 0.00018307203 0.012939716 0.0071144556 -0.015719969 -0.014897296
-0.036919042 0.030449746 0.06471598 -0.0045045502 0.0031932734 -0.018857947 0.010212425 0.11219549
0.020667696 0.011296165 0.03562892 -0.0019224312 0.013482878 0.13299401 0.017935337 0.0029321185
0.018500885 -0.077161685 -0.01762193 -0.015129811 0.018223733 0.04226072 0.027310949 0.023147974
-0.0076891826 -0.019551877 0.12267023 0.19575185 -0.11574474 0.2384802 0.11293529 0.11720274

shared_encoder.gru_left.bias_ih_l0 f4 [150]
00000000: 716b debc a611 283d 58a7 b1bd 6254 133e
00000010: 8877 d43b 8fb2 8bbd ec35 913c 4ed4 c43c
00000020: 92b1 8c3c 630c a23d 9f6a 463d 5626 dabb
00000030: 9c40 9a3d 5972 0e3d 05c9 ce3b d04a 16bd
00000040: f321 edbc b109 3c3a 2598 113d c457 ee3c
00000050: 7ffc a03c fa22 543c cfc6 07bd d7fa 073d
00000060: a0e2 47bd a707 bd3b 6dc1 c73d ec9d 07bc
00000070: a441 943d aa1d 283c 3ad5 9b3b 733e 913d
00000080: 12ca 2f3d 169f 9ebd 3736 cabb 9914 aabd
00000090: 42ff 8c3d 793e d93d a308 173b 6153 b43c
000000a0: c968 813c 3cb3 b53c ded1 8dba 41a7 af3d
000000b0: 6d17 4d3d 41b3 44bb 9c8b ad3d e188 64bd
000000c0: 1efe 02bd 4707 dabc 739b d5be 00d4 21be
000000d0: 0c5a 26bf 2878 28be c9ee e6bc ad58 ebbe
000000e0: c7e4 08be f2db 37bd 5f23 2ebe 2540 e1bd
000000f0: aec6 2bbe b920 12be e2b0 e2bd c208 a4bd
00000100: 07e5 c8be c5b6 a5be 9f84 f1be 2650 c8bd
00000110: 0639 12be e701 66bd 7198 f5bd 814d ebbd
00000120: b1c8 62bd 6cba c9be 8ab6 e53b 2b63 f3bd
00000130: 034d 09be 0dff 88bd 0ebc 36be 972d dfbe
00000140: 9062 f4bd c13f efbc 4869 2ebe 7ff5 febe
00000150: 8f3a acbe 9408 2fbf 949a 2dbe 2f8c 8ebc
00000160: ab3a ecbd 90fc 8ebe 2b2e a4be c310 7b3d
00000170: 088b adbe 6ee4 19be f1a4 76be f4d1 9dbd
00000180: 448e d0bd 46d4 f6bb 1a09 c7be f4f7 debc
00000190: 64b6 a43b db6d 1c3c 0bf7 2dbb 1a65 8f3c
000001a0: 9ca5 af3c 8396 c9bb 4307 25bc 0666 2e3c
000001b0: 6d46 d7bc bdcf 933c a8d1 a9bb fcbd 003d
000001c0: ba96 49bc 5f1c 993c a4a5 493c 7f55 c43c
000001d0: 7185 babc 5ea1 9c3c 857a b93c 19a9 28bc
000001e0: 6b43 193c 8327 243c 519b 853c e854 efbc
000001f0: 22ce 943b eaf5 5dbc 5296 503c c857 e2bb
00000200: b148 b83c e75c f23a 6956 6ebc c6ac 5c3c
00000210: a709 d1bc efb5 3fbc 34f6 743c 6a95 af3c
00000220: 84d6 5f3c 66ec 843c d4e8 4bbc a566 d3bc
00000230: 7e3b 4fba 1fda 05bc b690 00bc 1d0b 61bc
00000240: a372 5d3c b9bb b0bc fe24 db3c cb09 423b
00000250: d486 f3b9 a82a 92bb
-0.027150841 0.041032456 -0.086744964 0.14387658 0.006483976 -0.06821167 0.017725907 0.024027016
0.017174516 0.07912519 0.048441526 -0.006657402 0.075318545 0.03477702 0.0063105845 -0.03669244
-0.028946852 0.0007173075 0.035545487 0.029094584 0.01965165 0.012947792 -0.033148583 0.033198204
-0.04880011 0.0057687345 0.0975369 -0.008277398 0.072390825 0.010260979 0.004755643 0.07091989
0.04291732 -0.07745187 -0.0061710137 -0.0830471 0.06884624 0.10607619 0.002304592 0.022012414
0.015797036 0.022180192 -0.0010819992 0.08576823 0.05007117 -0.003001407 0.08473894 -0.0557946
-0.031980626 -0.026614798 -0.4172016 -0.15803528 -0.6498115 -0.16452086 -0.028190034 -0.45966092
-0.13368522 -0.04488749 -0.1700568 -0.10998563 -0.16775009 -0.14270295 -0.11068894 -0.08009483
-0.39237234 -0.32366005 -0.47171494 -0.09780912 -0.14279565 -0.056154158 -0.119919665 -0.11489392
-0.055367175 -0.3940004 0.0070102857 -0.11884149 -0.13408284 -0.06689272 -0.17845175 -0.4358947
-0.11932862 -0.029205205 -0.17032349 -0.49796674 -0.33638427 -0.68372464 -0.16953498 -0.01740083
-0.115346275 -0.27927065 -0.32066473 0.061295282 -0.33895135 -0.15028545 -0.24086358 -0.07706061
-0.10183385 -0.007532629 -0.3887413 -0.027217843 0.0050266255 0.009547676 -0.0026544954 0.017504264
0.021441273 -0.0061519756 -0.010072532 0.0106444415 -0.026278699 0.018043393 -0.0051824637 0.031431183
-0.012304002 0.018690286 0.012307558 0.023966549 -0.022768708 0.019119915 0.02264143 -0.010294222
0.009354453 0.010019186 0.016309412 -0.029215291 0.0045411745 -0.0135474 0.012731152 -0.006907437
0.0224956 0.0018490822 -0.014546969 0.013468927 -0.025517298 -0.011701091 0.0149512775 0.02143355
0.013661984 0.016226005 -0.012445647 -0.02580578 -0.00079052884 -0.00816968 -0.007847002 -0.01373556
0.013516101 -0.021573888 0.026751038 0.0029607888 -0.00046449027 -0.0044606514

shared_encoder.gru_left.bias_hh_l0 f4 [150]
00000000: 6d6b debc ac11 283d 5da7 b1bd 6054 133e
00000010: b377 d43b 99b2 8bbd 0336 913c 57d4 c43c
00000020: 9bb1 8c3c 5d0c a23d 996a 463d 4826 dabb
00000030: 9a40 9a3d 6672 0e3d ddc8 ce3b cf4a 16bd
00000040: d821 edbc 8d06 3c3a 2098 113d bd57 ee3c
00000050: 86fc a03c fe22 543c c6c6 07bd d9fa 073d
00000060: a6e2 47bd 8507 bd3b 70c1 c73d 189e 07bc
00000070: a341 943d d41d 283c b8d4 9b3b 703e 913d
00000080: 18ca 2f3d 169f 9ebd 5636 cabb 9e14 aabd
00000090: 3eff 8c3d 853e d93d fe08 173b 5c53 b43c
000000a0: c168 813c 2fb3 b53c 48d1 8dba 42a7 af3d
000000b0: 6b17 4d3d 3fb3 44bb a08b ad3d e488 64bd
000000c0: 18fe 02bd 5607 dabc 759b d5be ffd3 21be
000000d0: 0c5a 26bf 2f78 28be a1ee e6bc ad58 ebbe
000000e0: cfe4 08be 03dc 37bd 5e23 2ebe 2240 e1bd
000000f0: abc6 2bbe bb20 12be e1b0 e2bd ce08 a4bd
00000100: 02e5 c8be c8b6 a5be a084 f1be 2f50 c8bd
00000110: 0b39 12be e601 66bd 7598 f5bd 854d ebbd
00000120: c4c8 62bd 6aba c9be 74b6 e53b 2d63 f3bd
00000130: 054d 09be 09ff 88bd 10bc 36be 9b2d dfbe
00000140: 9162 f4bd b63f efbc 4c69 2ebe 7bf5 febe
00000150: 903a acbe 9408 2fbf 929a 2dbe 178c 8ebc
00000160: aa3a ecbd 8afc 8ebe 292e a4be c710 7b3d
00000170: 0a8b adbe 70e4 19be f7a4 76be f4d1 9dbd
00000180: 3b8e d0bd b4d4 f6bb 1a09 c7be fcf7 debc
00000190: 1e76 11bc 6c76 6638 b4ab efb9 386d 683c
000001a0: 78c8 6d3c 1d78 69bc 8068 feba f4d8 953b
000001b0: 0589 8ebc 55c3 273c 73a0 413b 6e44 a23c
000001c0: f34f ecbb 7678 2b3c f13f 7bbb a466 c93b
000001d0: 8f1a 06bc 55c9 0a3c fe71 543c 4c96 1abb
000001e0: f1fb 073b 04fc 0c3b 48fc bb3b a97b 6abc
000001f0: ec83 7eba caed 85bb 3aba ec3b 5da5 323a
00000200: 56ea 663c 1bb5 5a3c e515 b5bb d75e 243c
00000210: 9b84 8abc 81bd 90bc 94c3 12bb 3ed8 7f3c
00000220: 85d2 c83b f571 653c d5f9 5dbb fff0 30bc
00000230: 976a 4cbc 01df a8bb 0aec e53b 2f54 ccbb
00000240: bab0 793b 264d 45bc 081f 9f3c 0c84 5cbb
00000250: 22e5 563c 5830 ef3a
-0.027150834 0.04103248 -0.086745 0.14387655 0.006483996 -0.06821174 0.01772595 0.024027033
0.017174533 0.07912514 0.048441503 -0.0066573955 0.07531853 0.034777068 0.006310566 -0.036692437
-0.028946802 0.0007172607 0.03554547 0.029094571 0.019651663 0.012947796 -0.03314855 0.03319821
-0.048800133 0.0057687187 0.09753692 -0.008277439 0.07239082 0.010261018 0.0047555827 0.07091987
0.04291734 -0.07745187 -0.006171028 -0.08304714 0.06884621 0.10607628 0.0023046131 0.022012405
0.01579702 0.022180168 -0.0010819817 0.08576824 0.05007116 -0.0030014066 0.08473897 -0.05579461
-0.031980604 -0.026614826 -0.41720167 -0.15803526 -0.6498115 -0.16452096 -0.028189959 -0.45966092
-0.13368534 -0.044887554 -0.17005679 -0.109985605 -0.16775005 -0.14270298 -0.11068893 -0.08009492
-0.3923722 -0.32366014 -0.47171497 -0.09780919 -0.14279573 -0.056154154 -0.119919695 -0.11489395
-0.055367246 -0.39400035 0.0070102755 -0.11884151 -0.13408287 -0.06689269 -0.17845178 -0.43589482
-0.119328626 -0.029205184 -0.17032355 -0.49796662 -0.3363843 -0.68372464 -0.16953495 -0.017400784
-0.11534627 -0.27927047 -0.32066467 0.061295297 -0.3389514 -0.15028548 -0.24086367 -0.07706061
-0.10183378 -0.0075326804 -0.3887413 -0.027217858 -0.008878259 5.4946562e-05 -0.0004571356 0.014186196
0.0145131275 -0.014249829 -0.0019409806 0.004572982 -0.01739932 0.010239442 0.0029545098 0.01980802
-0.007211679 0.010465732 -0.0038337673 0.006146269 -0.008185043 0.008470853 0.012966631 -0.002358812
0.0020749534 0.0021512518 0.0057368614 -0.014311709 -0.0009708989 -0.0040871846 0.0072243484 0.0006814802
0.014093956 0.013348843 -0.0055262917 0.010032377 -0.016908934 -0.017668488 -0.0022394406 0.015615521
0.0061286115 0.01400422 -0.0033870835 -0.010799645 -0.012476585 -0.0051535373 0.0070166634 -0.0062356214
0.0038099722 -0.012042319 0.019423977 -0.0033648042 0.013116153 0.001824866

shared_encoder.gru_left.weight_ih_l0_reverse f4 [150, 50]
00000000: deea fabc 1c91 ac3c c25c 3dbd 814e a1ba
00000010: bf4d b8ba c25b d1bc 8896 513c 9308 3abe
00000020: 3306 5c3d bd20 12bd cf7e 1b3e f4cc fdbc
00000030: 8a48 3ebe 530a 5abd 39d0 f3bd 6ae2 34bd
00000040: f2df 953d 11a1 4ebd 27a0 cd3c de4a e7bc
00000050: f55d c13d 1ac9 c8bd dc81 08bd d113 9ebc
00000060: 5e4c 133b bfd9 a43d 8e15 803d 430e 31be
00000070: 5771 08be d927 22bc b62a 9f3d 3d2d bc3d
00000080: 69a2 6e3c 8118 b43c 69cd bdbd afd9 963d
00000090: 902e 72bd 5fd4 aebd 521d 96bd fb89 a6bd
000000a0: f841 813d 6ab6 74bd 3938 313d a0f7 a63d
000000b0: fc65 1abe 393e 5fbd 1bd8 b6bd b5af cfbd
000000c0: 1a63 21bd 688f 8e3d c618 123e 21ed 75be
000000d0: 9bb1 3a3e 7196 583e c076 513e cd63 793e
000000e0: f07f 42be ab5a 853c 5525 3fbe 5884 c23d
000000f0: 56f9 3cbd be24 163e 4454 ed3d f48f 133e
00000100: 8b7d 353e e440 de3d 2e98 27be a6cf 303e
00000110: 60b5 36be 8021 193e 29a8 3cbe 8bd8 493e
00000120: 2e43 673e 1ec6 323e cba2 033e ac2a 053e
00000130: 2288 05be c4a0 8c3d abd5 233e e765 31be
00000140: 19d1 48be 3ab6 20be c73d 57be 8e4f 59be
00000150: dccf ee3d 6b12 43be 5e99 2f3e 5aa1 293e
00000160: 39ed 3f3e 5886 c03d 80e6 2abe cf23 243e
00000170: 7f12 13be 0dbb 07be c2ee a43d f876 df3d
00000180: 271c 083e 9543 cc3d c977 133e 3e88 cabd
00000190: 7c6c 033e 9090 61be 8720 223e 6ffc 3e3e
000001a0: c3c1 553e 3585 683e f232 27be beb2 82bc
000001b0: b852 0cbe 690e bc3d da02 28bd 01d8 a53d
000001c0: 17f3 ba3d f6d4 0f3e c304 db3d 77ec d83d
000001d0: 7d37 0fbe 10d1 2d3e a9c8 19be bfc4 1c3e
000001e0: e6b7 0abe 7c8c 243e 1aa9 483e 5c58 253e
000001f0: 5aa2 0a3e 8ad6 c73d 10fa c7bd 7d64 793d
00000200: 424b f63d 5675 3fbe 595f 28be b864 14be
00000210: d8dd 40be 74cd 55be 5862 aa3d 86ca 39be
00000220: d264 243e f5f3 0b3e cfda 183e cc81 a33d
00000230: 2da7 13be db94 0a3e 11e4 f8bd 3a9c fdbd
00000240: 4d30 a23d 361e be3d 0251 d03d a241 983d
00000250: bcf8 eb3d 9c53 b0bd a9c1 0dbd 726d a53c
00000260: eb8f a7bd 564d a93b b4ee 74bd 5dbb abbc
00000270: a957 23bd 2b6e 7dbd 2162 123b 820f e8bb
00000280: 3309 f9bb fc44 d2ba 3d62 b03b 04af 9fbb
00000290: aef3 43bc e0b7 2cbc b2f1 293d 8ef0 80bd
000002a0: b30a 983d 27db 1ebb bd26 92bb 5567 bfbd
000002b0: 8aba 9dbc b673 c0bd f540 89bd 23fa 44be
000002c0: f03b 813c 7549 463d d2f3 40be 3532 583d
000002d0: 083b d13d d238 8a3d 9d21 5b3d fccc 0d3d
000002e0: 2fb0 b7bd 791d 30bd 7b39 54bd 5f56 bc3c
000002f0: b74f cabd 11cc 06bd e59d 573d e119 6a3d
00000300: 27f7 d3bc b316 393d 3e3b 173d 6ed1 efbd
00000310: d23d 05bd ba13 dbbc a5a0 583c d100 ce3c
00000320: 7443 0dbd 2783 2c3c 822a 70bd fcd2 43bc
00000330: 9321 95bd ebd8 b3bc 42e6 0cbd 1040 34bd
00000340: 953a 713a 2155 f6bb 7aa0 54bc 554d b43b
00000350: 8655 f9bb fffe 26bc 5dc1 a8bc 53c3 50bc
00000360: 6409 683d 4a29 6dbd 9ce1 943d d819 00bc
00000370: 6b96 febc 9bc6 4cbd 031a 43bc 891d 86bd
00000380: fa66 9cbd 9822 52be 4f1f 193d 52cc c73d
00000390: 0cc2 37be 5abc 833d ea73 cc3d 071e a13d
000003a0: 3a02 963d daaa 8e3c 8668 a9bd aaf0 8bbd
000003b0: 9a4f 8ebd 8985 1b3c f1dc bcbd 116e e7bc
000003c0: 070b d73c 361f 993d 942c 06bd 812d 3f3d
000003d0: ab03 5b3d 6997 0cbe 7d67 99bc 9d30 01bd
000003e0: f31a 13ba 3518 3a3c 6c42 563b df63 edbd
000003f0: 900d c43d b14f da3d 0488 953d 1c27 593d
-0.030629572 0.021065287 -0.04623104 -0.0012306721 -0.0014061256 -0.025556449 0.012792237 -0.18167333
0.05371685 -0.035675753 0.15185092 -0.030981518 -0.18582359 -0.053232502 -0.1190495 -0.044161238
0.07318105 -0.050446574 0.02510078 -0.028233942 0.09441749 -0.09803982 -0.03332697 -0.019296559
0.0022475938 0.08049344 0.06254111 -0.17290597 -0.13324486 -0.009897196 0.07771818 0.09188316
0.014565089 0.02198434 -0.092676945 0.073657386 -0.059126437 -0.085366 -0.07329811 -0.081317864
0.06311411 -0.059744276 0.04326651 0.081526995 -0.15077966 -0.0545027 -0.089279376 -0.10140935
-0.03940115 0.06960946 0.14267263 -0.24016239 0.18231814 0.21151139 0.20455456 0.24354477
-0.18994117 0.016278585 -0.18666585 0.09497899 -0.046136223 0.14662454 0.11588338 0.14410383
0.17723672 0.10852221 -0.16366646 0.17266712 -0.17842627 0.14954185 -0.18423523 0.19711511
0.22584221 0.17458388 0.1285507 0.1300456 -0.13040212 0.06866601 0.15999477 -0.17324029
-0.19611014 -0.15694514 -0.2101966 -0.21221754 0.1166074 -0.19049995 0.17148349 0.16565457
0.18742837 0.09400624 -0.16689491 0.16029285 -0.14362524 -0.13254948 0.08053352 0.10911363
0.1329199 0.09973828 0.14401163 -0.098892674 0.12834352 -0.22027802 0.1583272 0.18650983
0.20874695 0.22707064 -0.16328028 -0.015954372 -0.1370343 0.09182436 -0.041018344 0.0809784
0.09128397 0.14046082 0.106942676 0.10591977 -0.13986011 0.16974282 -0.15017952 0.15309428
-0.13546714 0.16069216 0.19595757 0.16146988 0.13538495 0.09757717 -0.097644925 0.06088685
0.12026073 -0.18697104 -0.16442622 -0.14491546 -0.18834627 -0.20879155 0.08319539 -0.18143663
0.16054085 0.13667281 0.14927219 0.07983741 -0.14419241 0.13533346 -0.12152875 -0.123833135
0.07919369 0.09283106 0.10171701 0.074343935 0.11522052 -0.08609697 -0.034608517 0.02019379
-0.08181747 0.00516669 -0.059797958 -0.020963365 -0.03987852 -0.061872642 0.0022336321 -0.007081927
-0.0075999736 -0.0016042287 0.0053828047 -0.0048731584 -0.011959953 -0.010541886 0.041490264 -0.06295882
0.07423916 -0.0024239512 -0.0044601844 -0.09345881 -0.019253988 -0.0939707 -0.06701843 -0.19236045
0.01577565 0.048409898 -0.1884301 0.052782256 0.102163374 0.06749119 0.053498853 0.034619316
-0.08969151 -0.042996857 -0.05181263 0.022990404 -0.09878486 -0.032909457 0.052640814 0.057153586
-0.025874687 0.045187663 0.036921732 -0.117098674 -0.03252966 -0.026742805 0.013221894 0.025146874
-0.034488156 0.010529316 -0.05863429 -0.011952158 -0.072817944 -0.02195402 -0.03439928 -0.044006407
0.000920215 -0.0075174724 -0.012977714 0.0055023828 -0.007609072 -0.010192632 -0.020600015 -0.012741881
0.05664958 -0.057900704 0.07269594 -0.007818662 -0.031077584 -0.049994092 -0.011908057 -0.06548602
-0.07636829 -0.20521009 0.037383374 0.09755768 -0.17945117 0.064324096 0.09983046 0.078670554
0.073246434 0.017415453 -0.082718894 -0.068330124 -0.069487765 0.0094922865 -0.09221829 -0.028250726
0.026250375 0.07476656 -0.032757357 0.046674255 0.053470295 -0.13729633 -0.018726105 -0.031540502
-0.0005611621 0.0113583105 0.00326934 -0.115913145 0.09572899 0.10659731 0.073013335 0.053015813

shared_encoder.gru_left.weight_hh_l0_reverse f4 [150, 50]
00000000: d6d4 0b3e 4bac 24bd f8f9 a6bd 3734 233e
00000010: 68de 223e cce7 c13d 5c29 153e 0003 143e
00000020: 12b0 87bd 3180 273a 3b7f 8bbd c963 32bd
00000030: 03d9 f8bd c380 34be 6466 253e 574c be3d
00000040: adce 11be bf03 f63d 60f7 e43c df9e 24bd
00000050: a45a 083e 1152 08be ec54 98bc 72f4 2fbc
00000060: 298a 403e 9776 b63d 5140 2b3e 506e 833e
00000070: 5c2d d63c 9e82 88bd 9cac b73d 68db 47be
00000080: ddd4 3f3d 5794 87bb acdc c33d 1edf 633c
00000090: c293 b3bd acbd 82bd 5245 723e abc4 c23d
000000a0: 9525 3ebe 2af5 b53b 7351 d5bd 19cc 10bd
000000b0: 6a96 87bd 5077 dabc 570f ed3d 786d e03d
000000c0: 635f b43d 9711 493c a66d a83d d752 2dbd
000000d0: 6db7 8abd 312b 173d af6d 463d 3257 aa3d
000000e0: 5848 903d 31ed ae3d 91a2 b2bc 55e1 433d
000000f0: 28bd 7bbd dc66 e73c 3350 01be 5fc6 04bd
00000100: 656b c23d 6db6 963d a53f 82bc b890 673d
00000110: b891 02bc c505 b43c 6f8b adbc 2403 6cbd
00000120: bff5 b7bd 8b9c 85bc d1cf fe3c 5a25 bf3d
00000130: 2555 993d ca2f d4bc eb71 a23b 2bf4 16bd
00000140: 7323 aa3d dad1 aebc 9da5 b63d 20b7 a2bd
00000150: 6e76 523d 755e ffbc 5a5e 90bd 971c eb3c
00000160: aeb0 b63c 05f3 863d 8ab3 b7bc fc65 9bbd
00000170: 965d f0bd fe35 8b3d eaf6 14bd c323 863d
00000180: 8615 d2bc 16e7 b93d b94c 893d d147 e9bb
00000190: e07e e53d 8617 b9bc 4f27 44bd c5a3 983d
000001a0: 2a88 a93d cb69 b93d 2503 af3d fa48 0a3e
000001b0: 8889 413c 4906 553d 8f94 a9bd 5749 063d
000001c0: 24f2 16be 24fd 69bd f162 0b3e a4a1 bd3d
000001d0: a96a 0dbd cc7c c23d 8dba d0bb 6af6 053d
000001e0: dcbd cd3c 5c86 d6bd 5354 babd c403 4fbd
000001f0: 6421 a33d 623f e53d 9adf ba3d 65ce 493d
00000200: a3a6 443c 92e1 1abd 0590 cf3d f9c5 95bd
00000210: 57f5 ff3d 01f7 7dbd 6b46 a73d a1dd 60bc
00000220: 1e91 b9bd 337a a33c e5ac 913d 3899 c13d
00000230: 326d 89bd 3f23 3abd 0f9d 17be a354 6f3d
00000240: 983a b1bd 5443 0f3d d8df 87bc b219 d53d
00000250: 48ad b73d 5e94 293a 48fc 313e 3c05 08be
00000260: 43d9 33be ff47 7d3e d866 5d3e 197f 363e
00000270: 34ca 5e3e 7f0d 813e 6162 943d 9a1e d83d
00000280: 7177 c3bd 1374 a43d 0d5b 4bbe cfbb 80be
00000290: 23d0 613e d0a6 5c3e 06bb 38be 3e79 6e3e
000002a0: 71f2 82bd f5c6 b33d cbb4 393e aa64 56be
000002b0: ad5c cabd eaa5 55be f2dc 6d3e c2d0 173e
000002c0: afeb 903e 169d a53e 4e77 3b3e 9db8 21be
000002d0: 99e3 143e a5e8 6ebe 67d1 4f3e d95f 14be
000002e0: b54f bc3d 443f 81bd 4cd2 5dbe adb8 cd3d
000002f0: 8bad 923e 333d 3a3e ce0a 8bbe 0264 c4bd
00000300: 4bd1 35be 7ebb 2a3e 524c 51be 9d62 ef3d
00000310: 9889 87bd 3619 353e 7f21 133e cfb2 35be
00000320: e837 403e e78f 19be 2492 3dbe a205 7b3e
00000330: f762 543e a46b 2f3e 9de7 533e 4bed 883e
00000340: af47 c83d f76f 133e f0f4 e6bd 4daa 063e
00000350: 978d 59be fafc 82be 6c3f 803e 869a 653e
00000360: 2b89 3cbe ecb4 5e3e 4ec9 aabd 88c0 b53d
00000370: ed67 673e 9eac 4abe 2db8 b6bd 010d 5ebe
00000380: 0981 823e 2bb1 3d3e a74f 883e be3b a63e
00000390: e93e 193e 78c8 4ebe 8631 343e 1d9e 8bbe
000003a0: 0d35 443e d272 2dbe 2a9f bb3d 72a7 46bd
000003b0: 8fba 63be 2489 c23d ff22 963e 14dd 473e
000003c0: e811 85be ddc9 06be b040 41be f5ea 543e
000003d0: 620d 4ebe 9a9f 0c3e 689c a6bd ec2d 443e
000003e0: b8ce 2f3e d1f7 25be a5ba 4a3d 2836 99bd
000003f0: b032 99bd 781a 4a3d 024a 5e3d 81fc 593c
0.13655409 -0.040203374 -0.081531465 0.15937887 0.15905154 0.0946804 0.14566559 0.1445427
-0.066253796 0.00063896464 -0.06811377 -0.043552194 -0.12150767 -0.17627244 0.1615234 0.092919044
-0.14238997 0.12012433 0.027949989 -0.040190574 0.13315827 -0.13312556 -0.018595181 -0.010739433
0.18802704 0.08909338 0.16723754 0.256701 0.026144676 -0.06665538 0.089684695 -0.1951729
0.04683386 -0.0041375565 0.09563574 0.013908176 -0.08768417 -0.06383833 0.23659256 0.09510168
-0.18569024 0.0055529075 -0.10415926 -0.035350893 -0.06620486 -0.02666822 0.115751915 0.109583795
0.08807256 0.01227226 0.08224039 -0.04231533 -0.06773267 0.036906425 0.048444446 0.083174124
0.070450485 0.085413344 -0.021806033 0.047822315 -0.06145969 0.02824729 -0.1262825 -0.032415744
0.0949314 0.07359014 -0.015899489 0.0565345 -0.007969312 0.021975407 -0.021184651 -0.057620183
-0.08982419 -0.016309997 0.031104954 0.09333296 0.07486943 -0.025901694 0.0049574277 -0.03685395
0.08307543 -0.0213403 0.08918307 -0.079450846 0.051382475 -0.03117297 -0.07049246 0.028700156
0.022301044 0.06589321 -0.022424478 -0.07587811 -0.117366 0.067974076 -0.036368288 0.0654979
-0.025645029 0.09077279 0.06704087 -0.007119157 0.1120584 -0.022594225 -0.04788905 0.074531116
0.08277924 0.090533815 0.08545522 0.13504401 0.011812575 0.052007947 -0.082802884 0.032784786
-0.14740807 -0.05712618 0.13611962 0.09259346 -0.034525547 0.09496459 -0.006369895 0.032705702
0.025114946 -0.10474846 -0.09098115 -0.0505407 0.07965353 0.1119373 0.0912468 0.0492691
0.01200262 -0.037812777 0.101348914 -0.07313151 0.12497967 -0.06200314 0.08167728 -0.013724715
-0.09060882 0.01995573 0.07113055 0.09453052 -0.067102805 -0.04544377 -0.14806007 0.058430325
-0.08653754 0.03497632 -0.01658623 0.104052916 0.08968598 0.0006468947 0.17381394 -0.13283247
-0.17563348 0.24734496 0.21621263 0.17821921 0.21756822 0.2520561 0.07245327 0.10552712
-0.09544266 0.08029952 -0.19858952 -0.25143287 0.22052054 0.21548009 -0.18040094 0.23288438
-0.06393898 0.087781824 0.18135373 -0.20936838 -0.09880958 -0.20864072 0.23228815 0.14825729
0.28304812 0.3234641 0.1830723 -0.1579308 0.14539947 -0.23330934 0.20294724 -0.14489688
0.091948904 -0.06310895 -0.21662253 0.1004499 0.28648028 0.18187408 -0.2715668 -0.095893875
-0.1775562 0.16673085 -0.2043927 0.11688731 -0.06618041 0.17685398 0.14368246 -0.17743991
0.18771327 -0.149963 -0.1851278 0.24513867 0.20740877 0.17130905 0.20693822 0.2674354
0.097792976 0.1439818 -0.11277187 0.13150902 -0.21245418 -0.2558363 0.25048387 0.22422227
-0.184117 0.21748704 -0.08339177 0.08874613 0.22598238 -0.1979241 -0.089218475 -0.21684648
0.2548907 0.18524615 0.2662327 0.32467455 0.14965405 -0.2019366 0.17597017 -0.27269068
0.19160862 -0.16938332 0.091612175 -0.048499532 -0.22239135 0.09498814 0.29323575 0.19517928
-0.25990224 -0.13162942 -0.18872333 0.20792754 -0.20122293 0.13732758 -0.08135301 0.19158143
0.171687 -0.16207816 0.049494404 -0.074810326 -0.07480371 0.04934165 0.054269798 0.0133048305

shared_encoder.gru_left.bias_ih_l0_reverse f4 [150]
00000000: d0bc 2fbe ca6a eebd 3ba0 01be 5335 53be
00000010: 68ad 67be 6d90 b5be 57ac 88be 2496 52be
00000020: 794a 3ebe 8b35 ecbd 29d8 1abd aeb2 68be
00000030: cdb9 11be abf2 78be 3410 9bbe 7e83 8dbe
00000040: 6e1b 9cbe c161 8ebe 58be 44bd 7ea1 02be
00000050: 0932 c1be 3809 84be ed4d d0bd d232 8dbe
00000060: 7f32 47be c37b 21be 1ee7 bebe ef24 27be
00000070: 2453 febd 0d38 6fbe 9877 7ebe ae4f 84be
00000080: b5d3 a3bd 3e71 a2bd 7af6 c1bc 266e 75bd
00000090: 8edd 96be 8a98 a3be 61c1 b2be ec25 bebe
000000a0: 081e 64be 693d cfbc 81eb 5fbd fe5c 35be
000000b0: dd87 a5be 672e 38be ff05 a3be 53aa 3cbe
000000c0: b976 18be cb9f 08be c3cf 963e 14f9 d83e
000000d0: d3d8 c53e b634 423e 6eb8 7c3e d993 ee3e
000000e0: b828 a43e 502f 863e 11da 993e 10f4 b03e
000000f0: aad1 e43e 6130 513e c5b4 aa3e 08f8 3d3e
00000100: 9cca 953e 1937 a83e 2637 b83e 6d38 943e
00000110: 1049 023f 9af7 963e 0046 9c3e d7ca b53e
00000120: 56d2 ac3e 5547 b63e e09a 6e3e e707 933e
00000130: 29a7 6f3e e252 063e 7182 be3e 79d2 a73e
00000140: c852 b33e f922 543e f2ef c83e a895 ce3e
00000150: cb81 ce3e bdd3 f23e b0b1 a83e 94eb 853e
00000160: e28c 583e 30ce 853e c2e8 3d3e cedf e13e
00000170: 7e1f ce3e 8de7 883e a406 bc3e a111 bb3e
00000180: 5f2f 7e3e 2ce3 af3e c57b c63e 8982 d03e
00000190: db8b 9f3b 0f6c 933b f832 6a3a d4ec d8bb
000001a0: ba37 9eba dd62 463b 3df8 953b af67 383c
000001b0: 32f3 983b 2842 3b3a 9b2f 023c 3e6c 2c3c
000001c0: e312 76bb a058 da3c 8568 273c 40d2 593b
000001d0: 1a59 f5b9 ce80 023c be27 d2bc 3493 7d3b
000001e0: 4bc0 49bd ffb5 71bb 13c9 d4ba 16a0 42bc
000001f0: c458 c8bb 0b96 013c aee8 593c 00d5 86bd
00000200: 8990 aaba 2612 10ba 4b4f 2b3c dedb 643c
00000210: 6c6b 523a f4bb 013b 1b7c 53bc b350 8d3b
00000220: 4fcb fcbb cf11 4f3c a3ae dab9 9aec 2d3c
00000230: 23b8 973c bc62 dfbc 4e19 42ba f75e 573c
00000240: 2328 0dbc de49 0d3c 7496 5dbc 059f 9a3b
00000250: 8f56 b53b b400 b2ba
-0.1716187 -0.11641462 -0.1265878 -0.2062581 -0.22624743 -0.3546175 -0.26693985 -0.20565087
-0.18583097 -0.1153365 -0.037803803 -0.22724411 -0.14231034 -0.2431132 -0.302858 -0.27639383
-0.30489677 -0.27808955 -0.04803309 -0.12756917 -0.37733486 -0.25788283 -0.10171113 -0.27577835
-0.19452856 -0.15769868 -0.37285703 -0.16322683 -0.124182016 -0.23361225 -0.24850309 -0.2584204
-0.07999364 -0.079317555 -0.0236771 -0.0599195 -0.29465908 -0.31952316 -0.3491316 -0.37138307
-0.22277081 -0.025297837 -0.054667953 -0.17711255 -0.32330218 -0.17986451 -0.31840512 -0.18424349
-0.14889039 -0.13342206 0.29455385 0.42377532 0.38641986 0.1896542 0.2467973 0.46597174
0.32062316 0.26207972 0.30049184 0.34561205 0.4469121 0.20428611 0.3334104 0.18551648
0.2925614 0.32854536 0.35979575 0.289493 0.50892735 0.2948578 0.30522156 0.35506317
0.33754224 0.35601297 0.23301268 0.28716967 0.2340361 0.13117555 0.37208894 0.32777765
0.35024095 0.20716466 0.39245564 0.40348554 0.403334 0.47427168 0.32948065 0.26156294
0.21147493 0.2613387 0.18545821 0.44116062 0.40258402 0.2673916 0.36723816 0.36536887
0.24822758 0.34353006 0.38766304 0.4072459 0.004868967 0.0044989656 0.00089339865 -0.006620029
-0.0012071051 0.003027133 0.0045767114 0.011255189 0.004667663 0.0007143342 0.00794592 0.010523854
-0.0037547878 0.026653588 0.0102177905 0.003323689 -0.00046796427 0.00796528 -0.025653716 0.0038692476
-0.04925565 -0.003688216 -0.0016234241 -0.011878988 -0.0061140973 0.007909308 0.013300104 -0.06583595
-0.0013013046 -0.00054958684 0.010455917 0.013968436 0.00080268714 0.0019795867 -0.012908007 0.0043125986
-0.007714666 0.012638523 -0.00041710315 0.010615492 0.01852042 -0.02726876 -0.00074042834 0.0131452
-0.008615526 0.008623568 -0.01352464 0.0047186636 0.005534 -0.0013580532

shared_encoder.gru_left.bias_hh_l0_reverse f4 [150]
00000000: d1bc 2fbe d36a eebd 36a0 01be 5335 53be
00000010: 66ad 67be 6d90 b5be 56ac 88be 2696 52be
00000020: 7c4a 3ebe 8635 ecbd 18d8 1abd b2b2 68be
00000030: cfb9 11be a9f2 78be 3310 9bbe 7e83 8dbe
00000040: 6d1b 9cbe bd61 8ebe 4abe 44bd 80a1 02be
00000050: 0a32 c1be 3909 84be ef4d d0bd d232 8dbe
00000060: 7c32 47be c47b 21be 1fe7 bebe e624 27be
00000070: 0e53 febd 0f38 6fbe 9a77 7ebe af4f 84be
00000080: b9d3 a3bd 4a71 a2bd 5ff6 c1bc 2f6e 75bd
00000090: 8ddd 96be 8b98 a3be 60c1 b2be ea25 bebe
000000a0: 081e 64be 7d3d cfbc 8beb 5fbd 035d 35be
000000b0: dd87 a5be 6d2e 38be fe05 a3be 52aa 3cbe
000000c0: bd76 18be ce9f 08be c3cf 963e 0ef9 d83e
000000d0: d2d8 c53e ac34 423e 73b8 7c3e d993 ee3e
000000e0: b828 a43e 512f 863e 14da 993e 14f4 b03e
000000f0: acd1 e43e 6130 513e c6b4 aa3e 09f8 3d3e
00000100: 9dca 953e 1a37 a83e 2637 b83e 7438 943e
00000110: 0e49 023f 9cf7 963e 0046 9c3e d5ca b53e
00000120: 56d2 ac3e 5847 b63e e79a 6e3e e507 933e
00000130: 2da7 6f3e dd52 063e 6d82 be3e 78d2 a73e
00000140: c652 b33e f922 543e f4ef c83e a595 ce3e
00000150: cc81 ce3e bdd3 f23e acb1 a83e 98eb 853e
00000160: e78c 583e 31ce 853e c0e8 3d3e d0df e13e
00000170: 7e1f ce3e 8fe7 883e a506 bc3e a311 bb3e
00000180: 632f 7e3e 30e3 af3e c17b c63e 8982 d03e
00000190: 94d9 b4bb 8258 023c 37af a33b de49 59bc
000001a0: a9a8 14bc 9e03 5a3b ed12 b8ba c1fc 5b3c
000001b0: 9082 e83b 3f0d 3f3b 1fc6 5e3c a00c 533c
000001c0: 4d5f 993b 5247 c03c 0b8f d83a 904c 9c3a
000001d0: 81c2 893b 0805 903a 19eb fabc 82e8 b73b
000001e0: 5d0d 1fbd 5f68 823b 6c15 58bb 8074 3dbc
000001f0: 6581 0bbc bbd5 a03b 7afa 8e3b 72d9 5bbd
00000200: 5d18 033b a0a1 80bc 2cfc 5c3c 5deb 853c
00000210: fb4f 6fbb 6f03 9d3b 8956 aebc b100 ef3b
00000220: c597 10bc 39e7 3d3c 6f73 5ebc 54e4 1e3c
00000230: 872e 893c a106 08bd e543 793b 5dd8 5d3c
00000240: f5a2 0fbc 6ec5 203c 69c9 6fbc fa47 26bb
00000250: 2656 c53b c20a 783a
-0.17161871 -0.11641469 -0.12658772 -0.2062581 -0.2262474 -0.3546175 -0.26693982 -0.2056509
-0.18583101 -0.11533646 -0.03780374 -0.22724417 -0.14231037 -0.24311318 -0.30285797 -0.27639383
-0.30489674 -0.27808943 -0.048033036 -0.1275692 -0.3773349 -0.25788286 -0.10171115 -0.27577835
-0.19452852 -0.15769869 -0.37285706 -0.1632267 -0.12418185 -0.23361228 -0.24850312 -0.25842044
-0.07999367 -0.079317644 -0.02367705 -0.059919532 -0.29465905 -0.3195232 -0.34913158 -0.371383
-0.22277081 -0.025297875 -0.05466799 -0.17711262 -0.32330218 -0.1798646 -0.3184051 -0.18424347
-0.14889045 -0.1334221 0.29455385 0.42377514 0.38641983 0.18965405 0.24679737 0.46597174
0.32062316 0.26207975 0.30049193 0.34561217 0.44691217 0.20428611 0.33341044 0.18551649
0.29256144 0.3285454 0.35979575 0.2894932 0.5089272 0.29485786 0.30522156 0.3550631
0.33754224 0.35601306 0.23301278 0.2871696 0.23403616 0.13117547 0.37208882 0.32777762
0.3502409 0.20716466 0.3924557 0.40348545 0.40333402 0.47427168 0.32948053 0.26156306
0.211475 0.26133874 0.18545818 0.44116068 0.40258402 0.26739165 0.3672382 0.36536893
0.24822764 0.34353018 0.38766292 0.4072459 -0.0055191014 0.007955672 0.0049952525 -0.01326224
-0.009073415 0.0033266316 -0.0014043726 0.01342696 0.0070956424 0.0029152182 0.01359704 0.012881428
0.00468055 0.023471508 0.0016522122 0.0011924673 0.004204095 0.0010987828 -0.030629681 0.005612434
-0.038831104 0.003979727 -0.0032971753 -0.01156342 -0.008514737 0.004908291 0.004363355 -0.05367417
0.0020003535 -0.015702069 0.013487857 0.016347582 -0.0036516178 0.004791669 -0.021281498 0.0072937836
-0.008825247 0.011590772 -0.013577326 0.009697992 0.016745819 -0.033209447 0.0038034853 0.013540355
-0.008766879 0.009812696 -0.014635422 -0.0025372491 0.0060222326 0.0009462052
