checkpoints/Nitrate3_0103.pt (torch_old, 444769 bytes, 32 tensors)

shared_encoder.input_linear.weight f4 [50, 6]
0	0xbdb0a271	-0.08624733
1	0xbca2af2c	-0.01985892
2	0x3e3249d5	0.17410977
3	0x3c602f15	0.0136831
4	0x3c46dc78	0.012137525
5	0xbc8d428d	-0.017243648
6	0x3d030716	0.03198918
7	0xbcd45598	-0.02591972
8	0xbe3f31d2	-0.18671349
9	0xbbe5a278	-0.007007893
10	0x3cf99348	0.030465737
11	0x3d320f82	0.04347182
12	0xbd5e6ddf	-0.054304
13	0xbcf2a648	-0.029620305
14	0x3e36a6e3	0.178371
15	0x3c5b915a	0.013401354
16	0x3cf9722e	0.030449953
17	0x3b831e4e	0.0040014153
18	0xbce98cac	-0.02850946
19	0x3d829419	0.06375904
20	0x3e3932fa	0.18085852
21	0xbc7fa486	-0.01560319
22	0xbd4a8db2	-0.049451537
23	0xbd9b350d	-0.07578478
24	0xbcbb4e0e	-0.022864368
25	0x3d07fbb1	0.033199016
26	0xbe4e28b4	-0.20132715
27	0xbc4fb5f1	-0.012677656
28	0xbc8b64ba	-0.017015804
29	0x3d89b3d2	0.06723751
30	0xbea2861b	-0.3174294
31	0x3da2d071	0.07949913
32	0x3d98ac75	0.074547686
33	0x3bc7329c	0.006079031
34	0xbe38a1b9	-0.18030442
35	0x3d363718	0.044486135
36	0x3ce1d286	0.027566206
37	0xbbca51d1	-0.006174304
38	0xbe39fe6b	-0.18163459
39	0xbcb78e04	-0.022406586
40	0xbc3b22e6	-0.011421895
41	0x3d4ed7b6	0.050498687
42	0x3dc1da31	0.09465445
43	0x3db632b8	0.088963926
44	0x3e30b9ab	0.17258327
45	0xbda7bafc	-0.08189961
46	0xbd7562f2	-0.059908815
47	0x3e0d354f	0.13789867
48	0x3dad5ce9	0.08464987
49	0xbb4fa6c1	-0.0031685086
50	0xbe1e0f88	-0.15435612
51	0xbcd15683	-0.025553947
52	0xbd03eafb	-0.032206517
53	0x3d0177a4	0.03160824
54	0xbd9a4737	-0.075331144
55	0x3d9bb2e8	0.07602483
56	0x3e421230	0.1895225
57	0x3ca6bf4c	0.02035489
58	0x3d50dd25	0.05099215
59	0xbc8b3fd6	-0.016998213
60	0x3e21bcb3	0.1579464
61	0xbd856dad	-0.065150596
62	0xbe2018d5	-0.15634473
63	0x3cab7dc5	0.020933995
64	0x3e1a3f6e	0.15063259
65	0xbd4369db	-0.047708374
66	0xbe7a2744	-0.24429041
67	0xbd393897	-0.045219984
68	0x3dc7e97d	0.09761331
69	0x3d4292ad	0.047503162
70	0x3df75072	0.120758906
71	0x3abd860d	0.0014459506
72	0xbc38ea20	-0.0112862885
73	0x3dcdb79e	0.10044788
74	0x3de6fe46	0.112789676
75	0xbdc8d3ef	-0.09806048
76	0xbdf43950	-0.11924994
77	0x3e6fa0cb	0.23401181
78	0xbd1a094f	-0.037606534
79	0xbdc4d064	-0.0961006
80	0x3e462c71	0.1935289
81	0xbcaa5e4f	-0.020796923
82	0xbcd0b221	-0.025475563
83	0x3d3f1123	0.046647202
84	0xbdaeefa3	-0.08541801
85	0x3d11fe90	0.03564316
86	0x3e2be037	0.1678475
87	0x3d0e08b2	0.03467626
88	0x3cd28fdb	0.025703361
89	0xbd169870	-0.03676647
90	0xbd2d18fb	-0.04226015
91	0x3d6c12ea	0.057635225
92	0x3e24989b	0.1607384
93	0xbda8b562	-0.08237721
94	0xbd975ba4	-0.07390526
95	0x3d8ca875	0.06868068
96	0xbda51ae8	-0.080617726
97	0xbbf84d97	-0.007577609
98	0xbe4ef7c0	-0.20211697
99	0xbc604ef1	-0.013690696
100	0xbe097c21	-0.13426258
101	0x3d357aa2	0.044306405
102	0xbd113c28	-0.03545776
103	0xbd8bf76d	-0.06834302
104	0x3e3f8224	0.18701988
105	0xbca8b842	-0.020595673
106	0x3d8a317a	0.06747718
107	0x3cacbf29	0.021087246
108	0x3d9a720c	0.07541284
109	0x3bf07c0d	0.0073390068
110	0xbe2328b8	-0.15933502
111	0xbd37b8c6	-0.044853948
112	0xbd134151	-0.035950962
113	0x3d22ab30	0.03971404
114	0xbd4f81af	-0.050660785
115	0x3dedb15c	0.11606094
116	0x3e35b2bf	0.17743967
117	0x3ae554a9	0.0017496544
118	0xbe056aa3	-0.1302896
119	0xbcab274a	-0.020892758
120	0x3c975ace	0.018475916
121	0x3d60b7f2	0.054862924
122	0xbe67c3f3	-0.22633342
123	0xbd2777fc	-0.04088591
124	0x3c8104ed	0.01574942
125	0x3d82b5f9	0.06382365
126	0xbb96d488	-0.0046029724
127	0xbc1d7063	-0.009609315
128	0x3e534018	0.20629919
129	0xb787c072	-1.6182868e-05
130	0xbd2bd1bc	-0.041948065
131	0xbd0fd719	-0.035117242
132	0x3c4faab0	0.012674972
133	0xbcac5caf	-0.021040289
134	0x3e458c94	0.19291908
135	0xbce1271e	-0.027484473
136	0xbc2dcbdc	-0.010607686
137	0x3af4d020	0.0018677749
138	0x3c80a44a	0.01570334
139	0xbd7d7a59	-0.061884258
140	0x3e1b6fcf	0.1517937
141	0xbcae4c2c	-0.021276556
142	0x3e020b5e	0.12699649
143	0x3cc928f9	0.02455567
144	0xbec8c03d	-0.39209166
145	0x3b416305	0.0029508483
146	0x3ca165db	0.019701889
147	0xbd590e4c	-0.05299215
148	0xbe817008	-0.25280786
149	0x3de3792f	0.11107098
150	0x3dbf0dcb	0.09328803
151	0x3de05cb7	0.10955184
152	0xbe2b992a	-0.16757646
153	0xbc0691cc	-0.008213472
154	0xbc86f9bf	-0.01647651
155	0xbc4268fc	-0.011865851
156	0x3b6dd2b6	0.0036288924
157	0xbcde573e	-0.02714121
158	0xbe62fee0	-0.2216754
159	0xbc17bf8e	-0.009261979
160	0x3c30f18b	0.010799776
161	0x3b34396a	0.0027500042
162	0x3c74403f	0.014907896
163	0x3d8bfa1b	0.06834813
164	0xbe4c932f	-0.19978021
165	0xbb1983e9	-0.0023424572
166	0xbd5d36c4	-0.054007307
167	0x3c8460f4	0.016159512
168	0xbd8f8835	-0.07008401
169	0x3d94c1fd	0.07263563
170	0xbe28f9a7	-0.16501485
171	0x3ca1803c	0.019714467
172	0xbd9c2db2	-0.07625903
173	0xbe002145	-0.12512691
174	0x3d94a73f	0.07258462
175	0x3d8a1ced	0.067437984
176	0xbe3192b9	-0.17341127
177	0xbd37278f	-0.04471546
178	0xbe05440c	-0.13014239
179	0x3bc4d66c	0.0060070064
180	0x3d2fd910	0.042931616
181	0xbdcb54fa	-0.09928317
182	0xbe2b9a08	-0.16757977
183	0x3ca7c7bd	0.020480985
184	0x3d9191f3	0.07107916
185	0x3bfcf37c	0.0077194553
186	0x3e2f96aa	0.17147318
187	0x3cd99ebb	0.026564946
188	0xbe173faa	-0.1477038
189	0xbbcfdbe7	-0.006343353
190	0x3d8c7e69	0.06860048
191	0xbb65a4ea	-0.0035040923
192	0x3cdcd23b	0.026955714
193	0xbd386953	-0.04502232
194	0xbe516713	-0.20449476
195	0x3c91c7bf	0.017795442
196	0x3d390f5f	0.045180675
197	0x3b1ed838	0.0024237763
198	0x3b321305	0.002717198
199	0xbd52cf3f	-0.051467177
200	0xbe3ccf6d	-0.18438502
201	0xba802cd4	-0.0009778985
202	0x3bd13194	0.006384084
203	0x3cd29ae9	0.025708633
204	0xbd403183	-0.046922218
205	0xbc9d7075	-0.019218663
206	0x3e33837e	0.17530629
207	0x3d0d319c	0.03447114
208	0x3e18f1bd	0.14935966
209	0xbd07c7d0	-0.03314954
210	0x3dd44052	0.103638306
211	0x3d072812	0.0329972
212	0xbe362e0b	-0.17791001
213	0xbce6578a	-0.028117914
214	0xbd1b5580	-0.037923336
215	0x3bb6170d	0.005556947
216	0xbe6d32d1	-0.23163916
217	0x3d977a59	0.07396383
218	0x3de04c22	0.10952021
219	0xb9ba3948	-0.00035519362
220	0xbdc52322	-0.09625842
221	0x3d345ceb	0.044033926
222	0xbd5c576a	-0.053794302
223	0x3c741c3f	0.0148993125
224	0x3e42fc2b	0.19041507
225	0x3a5e7c47	0.00084871467
226	0x3cae13d6	0.021249693
227	0x3c3ddc2f	0.01158814
228	0xbdcc6afb	-0.099813424
229	0x3b2a790f	0.0026012098
230	0x3e106ba4	0.14103562
231	0x3c7d7176	0.015468946
232	0x3ceb33d5	0.028711239
233	0x3c46f672	0.012143718
234	0xbd984815	-0.074356236
235	0xbcddbaa1	-0.02706653
236	0x3e2f6825	0.17129572
237	0x3c843c3a	0.016142
238	0x3a77fe73	0.0009460218
239	0xbcc5da58	-0.024151966
240	0x3d678158	0.056519836
241	0x3dbbc0c4	0.091676265
242	0xbe24b20d	-0.16083546
243	0x395fb4ed	0.00021334337
244	0xbd1b3764	-0.03789462
245	0xbd81e92b	-0.063433014
246	0xbd83792d	-0.06419597
247	0x3a895bae	0.0010479593
248	0x3e4a0d17	0.19731556
249	0x3d9f9ee7	0.0779398
250	0xbc4db6bc	-0.012555774
251	0xbd58ef75	-0.05296274
252	0x3d17c03f	0.037048575
253	0xbccf2994	-0.02528838
254	0xbe4199cd	-0.18906327
255	0xbc2974b1	-0.010342763

shared_encoder.input_linear.bias f4 [50]
0	0xbc01da53	-0.007925588
1	0x3ce6d8f9	0.028179632
2	0xbd2e8740	-0.042609453
3	0xbc428be2	-0.011874171
4	0x3c82678a	0.015918512
5	0x3cc540d8	0.024078771
6	0x3c5a9bac	0.013342779
7	0xbdaf26b0	-0.08552301
8	0x3b81fca8	0.0039668866
9	0xbc5265f2	-0.0128416885
10	0x3c7fea58	0.015619837
11	0x3cc8fa0f	0.0245333
12	0xbd92e94a	-0.071734026
13	0xbd4aabae	-0.049480133
14	0xbc59c04f	-0.013290479
15	0xbd0dca37	-0.034616675
16	0x3d02c0f4	0.031922296
17	0xbd314c39	-0.043285582
18	0x3c51aa2e	0.012796922
19	0xbd19eaf4	-0.037577584
20	0x3c182987	0.009287245
21	0xbc9d9d2d	-0.019239986
22	0xbd1ed518	-0.03877744
23	0xbd7c3362	-0.06157244
24	0x3d52f8d7	0.051506843
25	0x3cd0767f	0.025447128
26	0x3d0c7555	0.034291584
27	0x3d24887e	0.04016923
28	0x3d92d257	0.071690254
29	0x3c3cbfac	0.0115203075
30	0x3cfe90c7	0.031074895
31	0x3b8ea4f2	0.004353159
32	0x3d1c02e9	0.038088713
33	0x3cd80c9d	0.026373202
34	0xbd1c4ced	-0.0381593
35	0x3ca700a3	0.020386046
36	0x3ca443b5	0.020051816
37	0xbd17e0d9	-0.037079666
38	0xbcbe90e5	-0.02326245
39	0xbd07519b	-0.03303681
40	0x3d15d009	0.03657535
41	0xbc6d9b54	-0.014502365
42	0x3cf26986	0.029591333
43	0xbd4d6ab2	-0.05015058
44	0xbd1acfe3	-0.037795912
45	0xbd1cd49d	-0.0382887
46	0xbace24c0	-0.0015727505
47	0xbd0d79f3	-0.034540128
48	0xbce96316	-0.02848963
49	0x3bed2921	0.007237569

shared_encoder.gru_left.weight_ih_l0 f4 [150, 50]
0	0x3e0f5954	0.1399892
1	0xbe5d5bb0	-0.21617007
2	0x3e0257ca	0.12728801
3	0x3e1bf161	0.15228797
4	0xbaac8079	-0.0013160846
5	0x3d2d428c	0.042299792
6	0xbe444113	-0.19165449
7	0xbeb599ff	-0.35469052
8	0xbe0619dd	-0.13095804
9	0x3dacbd86	0.08434586
10	0x3d47c819	0.048774812
11	0x3e3ae2df	0.18250607
12	0xbe7acc4a	-0.24491993
13	0x3b9af070	0.0047283694
14	0x3e4b6be4	0.19865376
15	0xbd0536e3	-0.032523047
16	0xbde94457	-0.11389988
17	0x3da4b180	0.08041668
18	0xbe0eaf41	-0.13934042
19	0x3dc8e785	0.09809784
20	0xbdcbaa72	-0.09944619
21	0x3e16845e	0.14698932
22	0x3c6bfa90	0.0144030005
23	0x3d86b109	0.065767355
24	0x3e8938e8	0.2680123
25	0xbd88d033	-0.06680336
26	0xbd6b432e	-0.057437114
27	0xbdb0194e	-0.085985765
28	0x3e116970	0.14200377
29	0xbd1285f0	-0.035772264
30	0xbe0c8221	-0.13721515
31	0xbe4122ef	-0.18860982
32	0xbe0d997d	-0.13828082
33	0xbe1459cb	-0.14487378
34	0x3de5f7a2	0.11228873
35	0xbdea39a0	-0.11436772
36	0x3d8e8171	0.06958283
37	0xbc9ac023	-0.018890446
38	0x3bde60f6	0.006786461
39	0x3df2d4a2	0.11856963
40	0xbd7df070	-0.061996877
41	0x3e7612aa	0.24030557
42	0xbe2e6bcf	-0.17033313
43	0xbdb858a6	-0.09001283
44	0x3dcc7415	0.099830784
45	0xbe4149ab	-0.18875758
46	0x3e0d3082	0.13788036
47	0xbe006508	-0.1253854
48	0x3cdeeba3	0.02721197
49	0xbe4a5e12	-0.19762447
50	0xbd4fd4b6	-0.050739966
51	0x3b940489	0.004517142
52	0x3dc1e4dd	0.0946748
53	0xbd3accc4	-0.045605436
54	0xbc22efe3	-0.009944889
55	0xbe42b6b3	-0.19015007
56	0x3d66800e	0.056274466
57	0xbd8386e2	-0.06422211
58	0x3e268a08	0.16263592
59	0xbe070260	-0.131845
60	0x3e2639b6	0.16232952
61	0xbe8376bb	-0.25676522
62	0x3cc8d56f	0.024515836
63	0xbd28aeb9	-0.041182254
64	0xbbc95cf1	-0.0061451127
65	0xbc797f29	-0.015228071
66	0x3d3dd1f2	0.046342798
67	0xbce25a08	-0.02763082
68	0x3d1e4b44	0.038645998
69	0xbd60c181	-0.05487204
70	0xbd15f1e0	-0.036607623
71	0x3c21d9fa	0.00987863
72	0x3b912d31	0.004430436
73	0x3a1d4866	0.0005999863
74	0xbdd221de	-0.10260366
75	0x3bbb1fbc	0.00571057
76	0xbca92599	-0.02064781
77	0xbd2ac484	-0.04169132
78	0xbd2d4c5b	-0.042309146
79	0x3d05d546	0.032674097
80	0x3c79d4af	0.015248462
81	0x3ddb2bb8	0.10701698
82	0xbd2523b4	-0.040317252
83	0xbc1f4a9c	-0.009722378
84	0xbdb1549c	-0.08658716
85	0x3cda018a	0.026612062
86	0xbdc62786	-0.09675507
87	0xbd992213	-0.07477202
88	0xbca13e44	-0.01968301
89	0xbc80f501	-0.015741827
90	0xbcef619c	-0.029221348
91	0xbe2558b2	-0.16147116
92	0x3d6d3582	0.057912357
93	0x3b8c57d9	0.004282933
94	0xbd185ebb	-0.037199717
95	0xbd9695ca	-0.07352789
96	0x3c8522e0	0.016251981
97	0xbde8efdf	-0.11373877
98	0xbc8a99e9	-0.016919093
99	0x3dd1ed07	0.102502875
100	0x3e0f8508	0.14015591
101	0xbe550457	-0.20802437
102	0x3d1cd4b4	0.038288787
103	0x3e33e47e	0.17567632
104	0xbdd47d01	-0.10375405
105	0xbe12fc44	-0.14354044
106	0xbe2e9cbd	-0.17051978
107	0xbca29776	-0.019847613
108	0xbd77ba1b	-0.06048022
109	0x3daa462f	0.08314168
110	0x3d540367	0.051761057
111	0xba9c57fa	-0.0011928075
112	0xbdb3076c	-0.0874165
113	0x3d986957	0.07441967
114	0x3d04e352	0.032443352
115	0x3bc72314	0.0060771797
116	0xbe05676e	-0.13027737
117	0x3b2aeb1a	0.0026080073
118	0xbd3c913b	-0.04603694
119	0x3c8a3577	0.016871197
120	0xbe11f87e	-0.14254948
121	0x3e0cd17b	0.13751785
122	0x3d91f478	0.07126707
123	0x3d82dc2a	0.06389649
124	0xbd1ae0bd	-0.037811983
125	0xbd5e9485	-0.054340858
126	0xbdb3e3e8	-0.08783704
127	0xbe0d3bbb	-0.13792317
128	0x3d3c15c5	0.0459192
129	0xbd12ebe0	-0.03586948
130	0xbdec913d	-0.115511395
131	0xbe123816	-0.14279208
132	0xbe213c8f	-0.15745758
133	0xbdc4c7f3	-0.0960845
134	0x3e0dfb0d	0.138653
135	0xbd87f63b	-0.066387616
136	0x3abd3295	0.001443463
137	0x39f78971	0.00047213913
138	0xbbeabb75	-0.00716346
139	0x3d532db7	0.05155727
140	0xbe017cfe	-0.12645337
141	0x3e4180e1	0.1889682
142	0xbd7440cf	-0.05963212
143	0x3d50df3d	0.050994147
144	0x3e04f43d	0.12983795
145	0xbe3e1059	-0.18560924
146	0x3e02d40a	0.12776199
147	0xbe29eb37	-0.16593634
148	0xbcd599fa	-0.026074398
149	0xbe1b68d0	-0.15176702
150	0xbdd356b2	-0.1031927
151	0x3d87165b	0.06596061
152	0xbca2b064	-0.0198595
153	0xbe071db1	-0.1319492
154	0x3d3ba0cd	0.04580765
155	0xbe862efa	-0.26207715
156	0x3df14e94	0.11782566
157	0xbddc97a1	-0.107711084
158	0x3e8f4deb	0.27989134
159	0xbe37b5c6	-0.17940435
160	0x3e87c445	0.2651693
161	0xbeabed67	-0.3357956
162	0xbcde555d	-0.027140314
163	0xbde28067	-0.11059647
164	0xbdc9c39d	-0.098517634
165	0xbe039616	-0.12850222
166	0x3e1a4d23	0.15068488
167	0xbdfbc57c	-0.122935265
168	0x3dde36dd	0.10850308
169	0xbe179841	-0.14804174
170	0xbb4cad38	-0.0031231176
171	0xbdcb2f9f	-0.099211924
172	0xbd929743	-0.07157757
173	0xbdaecdc5	-0.08535341
174	0xbe2accb1	-0.16679646
175	0x3d9fea15	0.078083195
176	0x3cfd2311	0.03090051
177	0x3c47ef83	0.0122031
178	0xbb81b6f0	-0.0039585754
179	0x3defa439	0.11701245
180	0x3dab1f71	0.08355606
181	0x3e0da1fc	0.13831323
182	0x3d44bdbc	0.048032507
183	0x3daa3523	0.08310916
184	0xbe3ce962	-0.18448403
185	0x3d8e4467	0.069466405
186	0xbe391394	-0.18073875
187	0xbe3973bd	-0.18110557
188	0xbd946843	-0.07246449
189	0xbdb7b5a5	-0.08970193
190	0x3daaf407	0.08347326
191	0xbe45dd3e	-0.19322678
192	0x3e1d00c3	0.15332322
193	0xbd7c546e	-0.061603956
194	0xbde510ab	-0.1118482
195	0xbe16d6c7	-0.14730369
196	0xbd50864f	-0.050909337
197	0xbe664b62	-0.22489694
198	0xbdcead32	-0.10091628
199	0x3e4d5110	0.20050454
200	0xbb495099	-0.0030718206
201	0x3cc70c37	0.024297817
202	0x3b8e0fbc	0.004335372
203	0xbcb8e3b9	-0.022569524
204	0xbcba11e6	-0.022713613
205	0xbd9b147f	-0.07572269
206	0x3cc415f4	0.02393625
207	0xbd5abe1a	-0.05340395
208	0x3d727c4f	0.05920058
209	0xbe00e904	-0.12588888
210	0x3dee1e31	0.11626852
211	0xbcd1003d	-0.025512809
212	0xbbfa8280	-0.0076449513
213	0x3ca86c58	0.020559475
214	0xbd610ab1	-0.054941837
215	0xbcb26dd3	-0.021780884
216	0x3d430a33	0.04761715
217	0xbd82c36b	-0.06384929
218	0x3d2989e1	0.041391257
219	0xbd7c1a78	-0.06154868
220	0xbd64637b	-0.055758934
221	0xba86eb75	-0.001029356
222	0x3c88992c	0.0166746
223	0xbc599aa3	-0.013281497
224	0x3cb23ed7	0.02175848
225	0xbc8d36e8	-0.017238095
226	0x3c473b79	0.0121601755
227	0xbc3e3516	-0.011609336
228	0xbc80f174	-0.015740134
229	0xbd11daa5	-0.035608906
230	0x3c696658	0.014245592
231	0x3c82e091	0.015976222
232	0xbc071618	-0.008245014
233	0xbc240f55	-0.010013421
234	0xbd79663c	-0.060888514
235	0x3cfd258c	0.030901693
236	0xbd60d747	-0.054892804
237	0xbcfb49ec	-0.030674897
238	0x3c358477	0.011078945
239	0xbcc87846	-0.024471413
240	0x3b65514d	0.0034991086
241	0xbd7b284d	-0.06131773
242	0x3d87c777	0.06629842
243	0xbc9f2651	-0.01942745
244	0xbd40eab8	-0.047098845
245	0xbc83f2a0	-0.016106904
246	0xbbf240f8	-0.007392999
247	0xbdbaf54a	-0.091288164
248	0xbd54a109	-0.051911388
249	0x3d31a56f	0.04337066
250	0xbc8b746c	-0.017023288
251	0xbd322e97	-0.043501463
252	0x3e2203e9	0.15821804
253	0x3c485b22	0.012228759
254	0x3c5ba588	0.013406165
255	0xbdb2e3e2	-0.087348714

shared_encoder.gru_left.weight_hh_l0 f4 [150, 50]
0	0x3df9ea49	0.122028895
1	0x3e46d066	0.19415435
2	0xbd2a5742	-0.04158712
3	0x3e8cc075	0.27490583
4	0x3d3a9490	0.045551836
5	0x3e242e14	0.16033202
6	0xbdae38a5	-0.08506898
7	0xbe923e3b	-0.28563103
8	0x3d7ec0b9	0.062195513
9	0xbd1cbc20	-0.038265347
10	0xbe953eea	-0.29149562
11	0x3df15f82	0.11785795
12	0xbd20e8b1	-0.03928441
13	0xbc9506e8	-0.01819177
14	0x3e03eae0	0.12882566
15	0x3cbb32ca	0.022851367
16	0xbda1bb8f	-0.07897102
17	0xbdfd0c57	-0.12355869
18	0x3e246e01	0.16057588
19	0xbe9ee03d	-0.31030455
20	0xbe2efcda	-0.17088643
21	0xbde816ec	-0.11332497
22	0x3c93160b	0.017954847
23	0xbd101f3f	-0.03518605
24	0xbe040644	-0.12893015
25	0x3e336006	0.17517099
26	0xbd890df7	-0.06692117
27	0x3d04c4d5	0.032414276
28	0xbe31256c	-0.17299432
29	0x3ca7c52b	0.02047976
30	0x3defbc0e	0.117057905
31	0xbe826d05	-0.254738
32	0x3d84580b	0.06462105
33	0x3e2cfc43	0.16893105
34	0xbd3f582d	-0.04671495
35	0xbd0a7069	-0.03379861
36	0x3be3c6a6	0.006951171
37	0x3a758d8f	0.0009367102
38	0xbda97e82	-0.082760826
39	0xbdf1bb0e	-0.11803256
40	0x3daf153f	0.08548974
41	0x3dd1bc15	0.10240952
42	0xbd2827e2	-0.04105366
43	0xbe0d13f5	-0.13777144
44	0x3afa8a7a	0.0019114756
45	0xbe0b5654	-0.1360715
46	0x3cf00fca	0.029304404
47	0xbe55dcaa	-0.20884958
48	0xbdf803b4	-0.12110081
49	0x3ea116b6	0.3146264
50	0x3df40a15	0.119159855
51	0x3d401607	0.046896007
52	0xbd39e1e6	-0.04538145
53	0x3c0797b9	0.00827592
54	0x3de6ec35	0.11275522
55	0x3dce7642	0.1008115
56	0xbcdca318	-0.026933238
57	0x3e9f62c6	0.31130046
58	0xbe275c16	-0.16343722
59	0x3e3990fd	0.18121715
60	0xbb82b011	-0.003988274
61	0x3e212fa0	0.15740824
62	0xbe287c1b	-0.16453592
63	0x3dbda78a	0.09260471
64	0x3dda6d4d	0.10665379
65	0x3e1fd3d7	0.15608154
66	0xbdbcc5ea	-0.092174366
67	0x3e3603a1	0.17774822
68	0x3dc578e9	0.096422024
69	0xbc20be3e	-0.009810982
70	0x3e81a737	0.25322887
71	0x3e5ea448	0.21742356
72	0x3e33f2a4	0.17573029
73	0xbe1200ca	-0.14258114
74	0x3e7c414c	0.24634284
75	0xbe476f93	-0.19476156
76	0x3e524e6e	0.20537731
77	0xbe0d97ee	-0.13827488
78	0x3e6d2e8c	0.23162287
79	0xbde320fa	-0.11090274
80	0xbe30e655	-0.17275365
81	0x3e8f657b	0.2800711
82	0xbe5dce65	-0.21660765
83	0x3da23517	0.07920282
84	0x3dc4677a	0.09590049
85	0xbdd94a95	-0.106099285
86	0x3dd08b61	0.101828344
87	0x3e214759	0.15749873
88	0xbc8ebaa9	-0.01742299
89	0xbe0e8233	-0.13916855
90	0x3dee7390	0.116431355
91	0xbe889cda	-0.26682168
92	0xbe21868e	-0.15773985
93	0xbda2feee	-0.0795878
94	0x3e12ae24	0.14324242
95	0xbdedb5f7	-0.11606973
96	0x3e134509	0.14381804
97	0x3e965d0d	0.29367867
98	0xbd6bbec1	-0.057554964
99	0xbe9b0593	-0.3027769
100	0xbe00c6ac	-0.12575787
101	0x3e321465	0.17390592
102	0x3d56f3d1	0.052478615
103	0x3e7a7768	0.24459612
104	0x3e851b87	0.25997564
105	0x3d38cec5	0.045119066
106	0xbe2a6031	-0.16638257
107	0x3d2e9603	0.04262353
108	0xbdffd486	-0.124917075
109	0x3e585745	0.2112704
110	0xbe5c563f	-0.21517275
111	0xbe18a68b	-0.14907281
112	0xbe7abd83	-0.24486355
113	0x3de35eb3	0.11102047
114	0x3dc46a8d	0.095906354
115	0xbe2580e8	-0.16162455
116	0xbe0e41af	-0.13892244
117	0xbda266eb	-0.07929786
118	0x3e2fc979	0.171667
119	0xbe1eca1a	-0.15506783
120	0x3d97bcde	0.074090704
121	0x3e0de72b	0.13857715
122	0xbe39a0e0	-0.18127775
123	0xbe57ac57	-0.21061836
124	0x3e31cdab	0.17363612
125	0xbd866d14	-0.06563774
126	0x3e67cac5	0.22635944
127	0xbe332d7e	-0.17497823
128	0x3da6930e	0.08133517
129	0xbdc72364	-0.09723547
130	0xbdbef544	-0.093241245
131	0xbe1721fe	-0.1475906
132	0xbe4259e3	-0.18979602
133	0x3e05aa9b	0.13053362
134	0x3da38902	0.079851165
135	0xbdf36eb0	-0.11886346
136	0x3e1efd4e	0.15526316
137	0x3e6fd867	0.23422395
138	0xbe205210	-0.15656304
139	0x3dc5a429	0.09650452
140	0x3d58ec8b	0.05295996
141	0x3e93094c	0.2871803
142	0x3e082361	0.13294746
143	0xbe559a75	-0.20859702
144	0x3e0e8d22	0.13921025
145	0x3db13f05	0.08654598
146	0x3e44aef7	0.19207369
147	0xbe64fdb9	-0.22362413
148	0xbde95b54	-0.113943726
149	0x3d90e0e3	0.07074144
150	0x3e18b30f	0.14912055
151	0x3dca9ede	0.09893583
152	0xbd33e80d	-0.043922473
153	0x3ca24e71	0.019812794
154	0x3e10d452	0.14143494
155	0x3e20bea8	0.1569773
156	0xbddf0913	-0.10890403
157	0x3eb6bb97	0.35689995
158	0xbe626b02	-0.22111133
159	0x3e3135f1	0.17305733
160	0xbd473de9	-0.048643027
161	0x3e192941	0.14957143
162	0xbe241ac5	-0.16025837
163	0x3e19dbe8	0.15025294
164	0x3e1deb82	0.1542187
165	0x3e2ffb6a	0.1718575
166	0xbe318bea	-0.17338529
167	0x3e4ba1d2	0.19885948
168	0x3e0de682	0.13857463
169	0xbdd2ddf1	-0.10296238
170	0x3e90a198	0.28248286
171	0x3e710457	0.23536812
172	0x3e4fe7f1	0.20303322
173	0xbe33244c	-0.17494315
174	0x3e6e0d04	0.23247153
175	0xbe83812b	-0.25684485
176	0x3e432ea8	0.19060767
177	0xbe67748e	-0.22603056
178	0x3e92960b	0.286301
179	0xbe401f3b	-0.18761913
180	0xbe635a09	-0.22202314
181	0x3e9ed938	0.310251
182	0xbe5e5c10	-0.21714807
183	0x3e0765c7	0.13222419
184	0x3e18f017	0.14935337
185	0xbe0ba5f8	-0.13637531
186	0x3e155ce8	0.14586222
187	0x3e38e121	0.1805463
188	0xbdbb31a7	-0.0914033
189	0xbe25325b	-0.1613249
190	0x3e3747d0	0.17898488
191	0xbe83f012	-0.25769097
192	0xbe360cb7	-0.17778288
193	0xbdddfae8	-0.10838872
194	0x3e38e2a5	0.18055208
195	0xbe1af720	-0.15133333
196	0x3e35218c	0.17688578
197	0x3e93d048	0.28869843
198	0xbde6907f	-0.11258029
199	0xbea87ec5	-0.32909217
200	0x3dda848f	0.10669815
201	0xbc897610	-0.01677993
202	0x3d739ed3	0.05947764
203	0xbdeee3f5	-0.11664573
204	0x3be11b55	0.0068697133
205	0x3d8c16d0	0.06840289
206	0xbcbb043a	-0.022829164
207	0x3e26a568	0.16274035
208	0xbd865c1a	-0.06560536
209	0x3c8a530b	0.016885301
210	0x3dac1b69	0.084036656
211	0x3dcf17ab	0.10111936
212	0xbc644a8b	-0.013933788
213	0x3ccb5acf	0.024823574
214	0x3cb67e3f	0.022276996
215	0x3d9942eb	0.07483467
216	0x3ca6b95c	0.020352058
217	0x3d81335e	0.06308626
218	0xbc226fae	-0.009914322
219	0x3ab21bdf	0.0013588628
220	0x3db48e7f	0.088162415
221	0x3d88949a	0.066689685
222	0x3dce45c7	0.10071903
223	0xb82b1424	-4.0788334e-05
224	0x3d7448ac	0.059639618
225	0xbdbbf374	-0.091772944
226	0x3d58f6ec	0.052969858
227	0xbd92e0f0	-0.0717181
228	0x3d986b3b	0.074423276
229	0xbc802891	-0.015644344
230	0xbd836e85	-0.06417564
231	0x3e229555	0.15877278
232	0xbd1f047a	-0.03882263
233	0xbc2cd86a	-0.010549644
234	0x3d8cd7e7	0.068771176
235	0x3d258366	0.040408514
236	0x3c986cfe	0.018606659
237	0x3cf450fd	0.029823774
238	0x3d0ce9b3	0.03440256
239	0xbd96a02e	-0.073547706
240	0x3d107138	0.035264224
241	0xbe0c8abf	-0.13724802
242	0xbd91c6d4	-0.071180016
243	0x3b0b2aac	0.0021235151
244	0x3d1735df	0.03691661
245	0xbdc40701	-0.095716484
246	0x3cdd5a5b	0.027020624
247	0x3e15522d	0.14582129
248	0x3c1a0132	0.009399699
249	0xbde809ea	-0.11330016
250	0x3dd41474	0.103554636
251	0x3de6e00c	0.11273202
252	0xbd4b7e60	-0.049681067
253	0x3e4a5eb6	0.19762692
254	0x3e0f88c7	0.1401702
255	0x3dc31951	0.09526313

shared_encoder.gru_left.bias_ih_l0 f4 [150]
0	0xbedc79bf	-0.43061635
1	0x3d289ff8	0.041168183
2	0x3e359f8f	0.17736648
3	0x3dc70102	0.09716989
4	0x3d6a647c	0.057224736
5	0xbce65459	-0.028116392
6	0x3cb3e2c6	0.02195872
7	0x3d92ce0d	0.07168207
8	0x3d244962	0.040109046
9	0x3dd83830	0.10557592
10	0x3d76b5d6	0.060232006
11	0xbebf69bb	-0.37385353
12	0x3dd539ef	0.104114406
13	0xbbfae590	-0.0076567605
14	0x3c640bd2	0.013918834
15	0xbe1378b3	-0.14401512
16	0x3d926c05	0.07149509
17	0xbc97e6e3	-0.018542713
18	0x3d4a7a99	0.049433324
19	0xbbcbb906	-0.006217125
20	0x3da0f07b	0.07858368
21	0x3da9e03d	0.08294723
22	0xbd94afdd	-0.07260106
23	0x3dbba503	0.09162333
24	0x3dcbb055	0.09945742
25	0x3d1d03d5	0.038333733
26	0x3e114410	0.1418612
27	0x3d381a3c	0.044946894
28	0x3daf00c0	0.08545065
29	0x3c5642e4	0.013077471
30	0x3cafd7d0	0.021465212
31	0x3cb96a43	0.022633677
32	0x3e00b2f2	0.12568262
33	0x3d3d4e4a	0.04621724
34	0x3ced80d4	0.028992094
35	0x3dd73d5c	0.1050975
36	0x3d0d1053	0.034439396
37	0x3daa86e9	0.08326513
38	0x3a62c96b	0.00086512294
39	0xbeb60e4a	-0.35557777
40	0x3b00efb5	0.0019674127
41	0xbd56197a	-0.05227039
42	0xbdc1e1a0	-0.09466863
43	0x3d7b5a8d	0.061365653
44	0x3d683ddd	0.056699622
45	0xbe3ec065	-0.1862808
46	0x3d894c74	0.067040354
47	0x3bf9244d	0.0076032043
48	0xbd17e673	-0.037085008
49	0x3d9b6859	0.07588262
50	0xbe3b028d	-0.18262692
51	0xbe5812e2	-0.21100953
52	0xbf0112b2	-0.5041915
53	0xbe819b12	-0.25313622
54	0xbe0ec7c7	-0.13943397
55	0xbe49ad46	-0.19695005
56	0xbe009823	-0.12558036
57	0xbe165027	-0.14679013
58	0xbe112895	-0.14175637
59	0xbe6119f4	-0.21982557
60	0xbe477eef	-0.19482015
61	0xbdf8cdcf	-0.1214863
62	0xbe764501	-0.2404976
63	0xbdc5d2e5	-0.096593656
64	0xbe6cf0a4	-0.23138672
65	0xbdac5f23	-0.084165834
66	0xbe8d4d99	-0.27598265
67	0xbdadf395	-0.08493725
68	0xbe38cb29	-0.1804625
69	0xbe27dec0	-0.16393566
70	0xbe34a9be	-0.17642877
71	0xbe0f2890	-0.13980317
72	0xbdbf9a7f	-0.0935564
73	0xbe84e43d	-0.25955382
74	0xbe2aeb62	-0.16691354
75	0xbddeecd0	-0.10885012
76	0xbe6109bc	-0.2197637
77	0xbe00239e	-0.12513587
78	0xbe2be837	-0.16787802
79	0xbe09ee1e	-0.13469741
80	0xbdcac894	-0.099015385
81	0xbdc9ae24	-0.09847668
82	0xbea185bc	-0.31547344
83	0xbe5aa647	-0.21352492
84	0xbe263901	-0.16232683
85	0xbec78557	-0.38968918
86	0xbe0417d8	-0.1289972
87	0xbe4609db	-0.19339697
88	0xbdb3d792	-0.08781351
89	0xbe3b8927	-0.18314038
90	0xbe6b4f46	-0.22979459
91	0xbb6e514d	-0.0036364377
92	0xbdde62b1	-0.10858668
93	0xbe4aaee4	-0.19793278
94	0xbe1fd576	-0.15608773
95	0xbd5e7689	-0.054312263
96	0xbe2737a3	-0.16329817
97	0xbd879f33	-0.06622162
98	0xbe057e08	-0.13036358
99	0xbdd38616	-0.10328309
100	0xbd056a60	-0.03257215
101	0x3c35f730	0.011106297
102	0xbde14eee	-0.11001383
103	0x3c8ef338	0.01744996
104	0x3c71f219	0.014767193
105	0x3ad72944	0.0016415496
106	0xbc030139	-0.007995897
107	0x3b810c4a	0.0039382325
108	0xbb9e5a30	-0.0048325285
109	0x3c94f4d1	0.018183144
110	0xbd10bf98	-0.035338968
111	0xbd28f5d6	-0.041250072
112	0xbca3fb38	-0.020017251
113	0x3add2443	0.0016871769
114	0x3cf71a79	0.03016399
115	0xbcb123b7	-0.021623475
116	0xbd605fd0	-0.054778874
117	0xbbb509ef	-0.005524866
118	0x3cba807b	0.022766342
119	0x3b336786	0.0027374937
120	0x3c2f2bd3	0.010691601
121	0x3c7920b7	0.015205554
122	0xbce6ad58	-0.028158829
123	0xbced3c93	-0.028959548
124	0x3c55e9d6	0.013056239
125	0xbb7d53b1	-0.003865462
126	0x3c8335f6	0.016016942
127	0xbbfd8edf	-0.007737979
128	0x3c0365c2	0.008019866
129	0xbc730beb	-0.014834384
130	0xbb0cf5e3	-0.0021508865
131	0xbbf2033e	-0.0073856404
132	0xbcb20d31	-0.021734806
133	0x3bb88f90	0.0056323484
134	0xbb91d83a	-0.004450825
135	0xbdace8d7	-0.08442848
136	0x3bf34b05	0.0074247145
137	0x3c0df8a0	0.008665234
138	0xbc3dabde	-0.011576621
139	0x3cd3aacc	0.025838278
140	0x3cc9436c	0.024568282
141	0x3d0971e5	0.033555884
142	0x3c837d10	0.016050845
143	0xbc66457f	-0.014054655
144	0x3c7f2a53	0.015574056
145	0x3cdd46fe	0.02701139
146	0x3c6f7ba0	0.014616877
147	0xbc22d3d4	-0.009938199
148	0xbc06c621	-0.008225949
149	0xbabc9013	-0.0014386199

shared_encoder.gru_left.bias_hh_l0 f4 [150]
0	0xbedc79c1	-0.4306164
1	0x3d289ff0	0.041168153
2	0x3e359f90	0.1773665
3	0x3dc700fe	0.09716986
4	0x3d6a646f	0.057224687
5	0xbce6545f	-0.028116403
6	0x3cb3e2a5	0.021958658
7	0x3d92ce17	0.07168215
8	0x3d24495c	0.040109023
9	0x3dd8382c	0.10557589
10	0x3d76b5ce	0.060231976
11	0xbebf69bb	-0.37385353
12	0x3dd539f8	0.10411447
13	0xbbfae534	-0.0076567177
14	0x3c640bd6	0.0139188375
15	0xbe1378a6	-0.14401492
16	0x3d926c0d	0.07149515
17	0xbc97e6f9	-0.018542754
18	0x3d4a7aa1	0.049433354
19	0xbbcbb92a	-0.0062171416
20	0x3da0f076	0.07858364
21	0x3da9e035	0.08294717
22	0xbd94afdc	-0.07260105
23	0x3dbba50a	0.09162338
24	0x3dcbb058	0.09945744
25	0x3d1d03d0	0.038333714
26	0x3e11440a	0.14186111
27	0x3d381a39	0.044946883
28	0x3daf00c8	0.08545071
29	0x3c5642f7	0.013077489
30	0x3cafd7ce	0.021465208
31	0x3cb96a3f	0.02263367
32	0x3e00b2f0	0.12568259
33	0x3d3d4e45	0.04621722
34	0x3ced80d4	0.028992094
35	0x3dd73d63	0.105097555
36	0x3d0d1062	0.034439452
37	0x3daa86ef	0.08326518
38	0x3a62cab9	0.0008651424
39	0xbeb60e46	-0.35557765
40	0x3b00f025	0.0019674387
41	0xbd561983	-0.052270424
42	0xbdc1e1a2	-0.09466864
43	0x3d7b5aa1	0.061365727
44	0x3d683ddd	0.056699622
45	0xbe3ec064	-0.18628079
46	0x3d894c66	0.06704025
47	0x3bf92477	0.007603224
48	0xbd17e67d	-0.037085045
49	0x3d9b6858	0.07588261
50	0xbe3b0286	-0.18262681
51	0xbe5812ea	-0.21100965
52	0xbf0112b1	-0.50419146
53	0xbe819b15	-0.2531363
54	0xbe0ec7ca	-0.13943401
55	0xbe49ad4a	-0.19695011
56	0xbe00982f	-0.12558053
57	0xbe165021	-0.14679004
58	0xbe112893	-0.14175634
59	0xbe6119ee	-0.21982548
60	0xbe477ef3	-0.19482021
61	0xbdf8cdc7	-0.12148624
62	0xbe7644fc	-0.24049753
63	0xbdc5d2eb	-0.0965937
64	0xbe6cf0a8	-0.23138678
65	0xbdac5f31	-0.08416594
66	0xbe8d4d9b	-0.2759827
67	0xbdadf396	-0.08493726
68	0xbe38cb23	-0.1804624
69	0xbe27dec2	-0.16393569
70	0xbe34a9c6	-0.17642888
71	0xbe0f2891	-0.13980319
72	0xbdbf9a84	-0.093556434
73	0xbe84e43e	-0.25955385
74	0xbe2aeb6b	-0.16691367
75	0xbddeecdd	-0.10885022
76	0xbe6109b0	-0.21976352
77	0xbe00239d	-0.12513585
78	0xbe2be83a	-0.16787806
79	0xbe09ee1b	-0.13469736
80	0xbdcac88e	-0.09901534
81	0xbdc9ae15	-0.09847657
82	0xbea185bb	-0.3154734
83	0xbe5aa649	-0.21352495
84	0xbe2638f8	-0.1623267
85	0xbec78558	-0.3896892
86	0xbe0417de	-0.1289973
87	0xbe4609d2	-0.19339684
88	0xbdb3d795	-0.087813534
89	0xbe3b8920	-0.18314028
90	0xbe6b4f40	-0.2297945
91	0xbb6e4f64	-0.0036363238
92	0xbdde62a6	-0.108586594
93	0xbe4aaee7	-0.19793282
94	0xbe1fd579	-0.15608777
95	0xbd5e7671	-0.054312173
96	0xbe2737a0	-0.16329813
97	0xbd879f16	-0.0662214
98	0xbe057e09	-0.1303636
99	0xbdd3860f	-0.10328304
100	0xbcf86e38	-0.030325994
101	0xbc97d5b2	-0.018534515
102	0xbdd6dee0	-0.10491729
103	0x3b1ad757	0.0023626888
104	0x3b1e3b00	0.0024144053
105	0xbc9c34f0	-0.019068211
106	0x3c41d728	0.011831082
107	0xbbe6d491	-0.007044383
108	0x3c2a4b1e	0.010393886
109	0x3bb5e362	0.005550788
110	0xbc2c48b5	-0.010515382
111	0xbd3610ea	-0.044449724
112	0xbbefc5e4	-0.0073172916
113	0xbc6f1835	-0.014593174
114	0x3bf33541	0.00742212
115	0xbd0024c7	-0.031285074
116	0xbcf8eb8e	-0.030385759
117	0xbca957be	-0.020671722
118	0xbb8afe48	-0.0042417385
119	0x3c8613d6	0.01636688
120	0xbb2c7f23	-0.0026320897
121	0x3b832d85	0.004003229
122	0xbd27afe8	-0.04093924
123	0xbbc10357	-0.0058902907
124	0x3b56cd96	0.0032776347
125	0x3c19083d	0.009340343
126	0x3c047077	0.008083454
127	0x3bca73ef	0.006178371
128	0xbb9a1af6	-0.004702921
129	0x3b941c9b	0.0045200116
130	0x3c52bf1e	0.012862949
131	0xbc92a5d9	-0.017901348
132	0xbbdecd9e	-0.006799414
133	0xbcd5d90f	-0.026104478
134	0xbcbb2fa5	-0.022849867
135	0xbd88728a	-0.066624716
136	0xbc2b19ba	-0.010443145
137	0xbb0283ee	-0.0019915062
138	0x3bb13b83	0.0054087057
139	0x3cce4356	0.025178593
140	0x3ba90427	0.0051579657
141	0x3d2a7a9a	0.04162083
142	0x3cf75d9a	0.030196
143	0x3bd76ffc	0.006574629
144	0xbb1578ab	-0.002280752
145	0x3d14e66f	0.03635257
146	0x3a09f07c	0.000526197
147	0xbca439b7	-0.020047052
148	0x3c490bed	0.01227091
149	0x3c0533ef	0.008130058

shared_encoder.gru_left.weight_ih_l0_reverse f4 [150, 50]
0	0x3ea61523	0.32438
1	0xbebd1f7a	-0.36938077
2	0x3eae64d5	0.34061304
3	0x3e50154b	0.20320623
4	0xbe51b4bc	-0.20479101
5	0x3eabb6ce	0.33537906
6	0xbe88c334	-0.26711428
7	0x3f0f12cd	0.5588806
8	0xbe0dd655	-0.13851292
9	0x3e91d9a8	0.2848637
10	0xbee84538	-0.4536531
11	0x3e17cfaf	0.14825319
12	0x3f0359cb	0.5130889
13	0x3e90bb24	0.28267777
14	0x3e8eef9d	0.27917185
15	0x3ed75981	0.42060474
16	0xbe852327	-0.26003382
17	0x3e9dad3a	0.30796224
18	0xbe3d81cc	-0.18506545
19	0x3eb6b84f	0.3568749
20	0xbe8ad60f	-0.2711644
21	0x3e4664d1	0.19374396
22	0x3ec4f6f3	0.38469657
23	0x3eacec6c	0.33774126
24	0x3e2a9b9c	0.16660923
25	0xbe850834	-0.2598282
26	0xbe902055	-0.28149667
27	0xbea22fad	-0.31677
28	0xbf029efa	-0.5102383
29	0xbe5df76f	-0.2167642
30	0xbec4fe92	-0.38475472
31	0xbe894147	-0.26807615
32	0xbe9b9faf	-0.30395266
33	0xbe8f4faa	-0.27990466
34	0x3e97384a	0.29535133
35	0xbeb1941e	-0.34683317
36	0x3e853538	0.26017165
37	0x3eaa0def	0.33213755
38	0x3ea30b36	0.3184449
39	0x3e83ee18	0.2576759
40	0xbe95b6b4	-0.29240954
41	0x3e60e53d	0.21962447
42	0xbeba76aa	-0.36418658
43	0x3d7a40ea	0.061097063
44	0x3e6c3873	0.23068409
45	0x3ebbef39	0.3670595
46	0x3e96a054	0.29419196
47	0x3edc7cc9	0.43063954
48	0x3eaacf44	0.33361256
49	0xbe8558e2	-0.26044375
50	0xbca37c5d	-0.019956762
51	0x3dde416d	0.10852323
52	0x3ca6f872	0.02038214
53	0xbe205522	-0.15657476
54	0x3e4e2177	0.20129953
55	0x3e8d30fb	0.27576432
56	0x3e26a444	0.162736
57	0x3e7a337f	0.24433707
58	0x3e1fdeda	0.15612355
59	0xbd22af36	-0.039717875
60	0xbe57d4b4	-0.21077234
61	0x3cd7469e	0.02627879
62	0x3ebc4bb1	0.36776498
63	0x3d73ff82	0.059569843
64	0xbca5db3d	-0.020246143
65	0x3df3a2e5	0.11896304
66	0x3e25bbd5	0.16184933
67	0xbdbec095	-0.09314076
68	0x3dfa3b52	0.12218346
69	0x3db2be6b	0.087277256
70	0x3e2b2be8	0.16715968
71	0xbe2d7c6d	-0.16941996
72	0xbc101821	-0.008794815
73	0x3cc29b2b	0.02375563
74	0x3ec2b2c6	0.38027018
75	0x3d67cc71	0.056591455
76	0x3d489a3c	0.048975214
77	0x3e190e76	0.14946923
78	0xbe1227f5	-0.14273055
79	0x3e08c817	0.13357578
80	0xbdab8a8a	-0.083760336
81	0x3b045e8a	0.0020197951
82	0x3da01458	0.0781638
83	0x3d0a728d	0.03380065
84	0xbe080eec	-0.13286942
85	0x3dc5da11	0.096607335
86	0x3df536b1	0.11973322
87	0xbc049644	-0.008092467
88	0x3d7052f8	0.058672875
89	0xbdcb2119	-0.09918422
90	0xbc1ffbde	-0.00976464
91	0xbdd818f7	-0.10551637
92	0x3d186f67	0.037215617
93	0xbea96a6b	-0.33089003
94	0xbe5a572b	-0.21322314
95	0x3e91f233	0.28505096
96	0xbe00b32d	-0.1256835
97	0x3ea54d28	0.32285428
98	0x3da4f56a	0.080546215
99	0x3d9049a5	0.070452966
100	0x3e112e7d	0.1417789
101	0xbe12c983	-0.14334683
102	0x3e0c411c	0.13696712
103	0x3d2db972	0.042413183
104	0x3c8b286a	0.016987044
105	0x3e518730	0.20461726
106	0xbd8f5232	-0.069980994
107	0x3e198e55	0.14995702
108	0xbdc8f229	-0.098118134
109	0x3d800d25	0.06252507
110	0xbe6204b3	-0.22072105
111	0x3e3ce8e3	0.18448214
112	0x3e8ad5d7	0.27116272
113	0x3e2226af	0.15835069
114	0x3da3ab12	0.079916134
115	0x3def04e2	0.11670853
116	0xbca91796	-0.02064113
117	0x3df42ade	0.11922239
118	0xb984e7da	-0.00025349745
119	0x3e05cb80	0.1306591
120	0xbd73b0fa	-0.05949495
121	0x3b61dbe8	0.003446335
122	0x3daa0ef5	0.08303634
123	0x3df0e6c1	0.11762763
124	0x3e9f7e5b	0.3115109
125	0xbe08e3b4	-0.13368112
126	0xbc9e27f3	-0.019306159
127	0xbdbe1232	-0.09280814
128	0xbe01145d	-0.12605424
129	0xbdcbd01f	-0.09951805
130	0xbde587a9	-0.11207516
131	0xbe3bafc2	-0.18328765
132	0xbd7fc890	-0.06244713
133	0xbd443a5e	-0.047907226
134	0x3de1051d	0.109873034
135	0xbe0fb75d	-0.14034791
136	0x3e073ef7	0.13207613
137	0x3e0b1e34	0.1358574
138	0x3dbb6682	0.09150411
139	0x3de6e41b	0.112739764
140	0xbdf31e66	-0.118710324
141	0x3dd44628	0.10364944
142	0xbdfc467e	-0.12318133
143	0xbd924835	-0.07142679
144	0x3c6bb68c	0.014386784
145	0x3e28df91	0.16491534
146	0x3dd7f195	0.10544125
147	0x3e30734a	0.1723148
148	0x3dd887d3	0.105727814
149	0xbd8b8b66	-0.068136975
150	0x3e20514e	0.15656015
151	0xbe65eb53	-0.2245305
152	0x3e096b77	0.13419901
153	0x3e0358c5	0.12826832
154	0xbe1bcf2e	-0.15215752
155	0x3e05692c	0.13028401
156	0xbe10c762	-0.14138559
157	0x3ea9fa9e	0.33199018
158	0xbd588d8c	-0.052869365
159	0x3e23fc45	0.16014202
160	0xbe5d3985	-0.21603973
161	0x3dc85538	0.09781879
162	0x3ecb43b9	0.39700106
163	0x3e197835	0.14987262
164	0x3e015d93	0.12633352
165	0x3e46d527	0.19417249
166	0xbe1ab9ce	-0.15109941
167	0x3e53fbe7	0.20701562
168	0xbd2e5b0d	-0.0425673
169	0x3e3245b3	0.174094
170	0xbe22d98a	-0.15903297
171	0x3df12e07	0.11776357
172	0x3e39a625	0.18129785
173	0x3e4254f3	0.18977718
174	0x3e055c6f	0.13023542
175	0xbe339515	-0.17537339
176	0xbe2b4342	-0.16724876
177	0xbe841035	-0.25793615
178	0xbead7a5a	-0.3388241
179	0xbe15f306	-0.14643487
180	0xbe6084bb	-0.21925633
181	0xbe371811	-0.17880274
182	0xbe4c9ba0	-0.19981241
183	0xbe183a47	-0.14865981
184	0x3e19792a	0.14987627
185	0xbe52e03f	-0.20593356
186	0x3df00744	0.11720136
187	0x3e4f4150	0.20239758
188	0x3e35585d	0.17709489
189	0x3dc2d59d	0.095134
190	0xbe4fee97	-0.20305859
191	0x3e262fcb	0.16229169
192	0xbe6ba5dd	-0.2301249
193	0x3d06f0b9	0.032944415
194	0x3e1be057	0.15222298
195	0x3e3911c6	0.18073186
196	0x3e58336e	0.21113369
197	0x3dfe205c	0.12408516
198	0x3e46f4df	0.19429348
199	0xbdce3f42	-0.10070659
200	0x3eb50a46	0.353594
201	0xbed2fd77	-0.41209003
202	0x3eae5dee	0.34056038
203	0x3e70534b	0.23469274
204	0xbea7ee95	-0.3279921
205	0x3e4551f4	0.19269544
206	0xbe991088	-0.29895425
207	0x3f0d578e	0.5521172
208	0xbe3eade5	-0.18621023
209	0x3e705110	0.23468423
210	0xbecf288c	-0.40460622
211	0xbc9945ea	-0.018710095
212	0x3eda0fc4	0.42590153
213	0x3ea7eccf	0.32797858
214	0x3e6d710f	0.2318766
215	0x3ef549a7	0.47907755
216	0xbe90266d	-0.28154317
217	0x3eb48f1e	0.3526544
218	0xbe54e8ee	-0.2079198
219	0x3ea89598	0.3292663
220	0xbe8de3c2	-0.27712828
221	0x3e81a069	0.25317696
222	0x3edba12e	0.42896408
223	0x3ebba613	0.36650142
224	0x3e09d046	0.13458356
225	0xbe8aabf0	-0.27084303
226	0xbe9239bb	-0.2855967
227	0xbe9f06cb	-0.3105987
228	0xbf03cd0c	-0.5148475
229	0xbe836620	-0.25663853
230	0xbea56a25	-0.32307544
231	0xbe971e7d	-0.29515448
232	0xbea69b21	-0.3254023
233	0xbea00312	-0.31252342
234	0x3ea3daaa	0.32002765
235	0xbe9ad8c0	-0.30243492
236	0x3e8e5718	0.27800822
237	0x3eb4b271	0.3529239
238	0x3e9b9149	0.3038428
239	0x3e894ac3	0.2681485
240	0xbea24036	-0.31689614
241	0x3e5eb216	0.21747622
242	0xbec54e87	-0.38536474
243	0x3e9bb81d	0.30413905
244	0x3ea115e3	0.3146201
245	0x3eb40b47	0.35164854
246	0x3eb19d8c	0.3469051
247	0x3ed850a3	0.4224902
248	0x3ea6ec95	0.32602373
249	0xbe50e235	-0.20398791
250	0x3e9adec4	0.30248082
251	0xbeb1e889	-0.34747723
252	0x3e91a9b0	0.28449774
253	0x3e90486d	0.28180256
254	0xbe8a8ae0	-0.27059078
255	0x3e4543d2	0.19264153

shared_encoder.gru_left.weight_hh_l0_reverse f4 [150, 50]
0	0x3dc13e24	0.094356805
1	0x3df3e964	0.1190975
2	0xbe01ec7f	-0.12687872
3	0xbd84d4da	-0.06485911
4	0xbd4732e4	-0.048632517
5	0xbde2c5a0	-0.1107285
6	0x3c995235	0.018715957
7	0xbe387461	-0.18013145
8	0xbcd23a3e	-0.025662538
9	0xbe1b45be	-0.15163323
10	0xbe61f123	-0.22064643
11	0x3d649d68	0.055814177
12	0xbe308fc2	-0.17242339
13	0x3cd7d8ce	0.026348498
14	0xbda15a6b	-0.07878574
15	0x3d9bb4e8	0.076028645
16	0x3b76c6e1	0.0037655162
17	0x3d24273c	0.04007648
18	0xbe18f572	-0.1493738
19	0xbe34c0f6	-0.17651734
20	0x3e376bc4	0.17912203
21	0xbd7e4275	-0.062075097
22	0xbd0cb8c3	-0.03435589
23	0xbe00eb58	-0.12589777
24	0xbcbbc4cf	-0.022920994
25	0x3c17aecb	0.0092579825
26	0xbe17a38e	-0.14808485
27	0xbe284f93	-0.16436605
28	0xbe1f5b26	-0.15562114
29	0xbd5d29ca	-0.05399493
30	0x3b5710c1	0.0032816383
31	0xbbe40d81	-0.0069596176
32	0xbdf0acf1	-0.11751736
33	0x3d8fe59c	0.070262164
34	0xbe2b4dbc	-0.16728872
35	0xbd303dda	-0.043027736
36	0x3dac2429	0.084053345
37	0x3d22eb21	0.039775018
38	0xbe20ec81	-0.15715219
39	0x3d624c53	0.05524857
40	0x3d8f8cdd	0.070092894
41	0xbe24ca7f	-0.16092871
42	0x3c5eaeaf	0.0135914525
43	0x3c1bc165	0.009506558
44	0x3c28ae83	0.010295513
45	0xbddaafbb	-0.10678049
46	0x3d64d155	0.055863697
47	0x3e162108	0.14661038
48	0x3d5c0f75	0.05372568
49	0x3d2d2f1e	0.042281263
50	0x3e0ac26b	0.13550727
51	0x3dd59fae	0.10430847
52	0xbe6566fe	-0.2240257
53	0x3e1286fe	0.14309308
54	0x3e33182e	0.17489693
55	0x3e176c2a	0.14787355
56	0x3eabcdd5	0.33555475
57	0xbec8692c	-0.3914274
58	0x3d256f8f	0.040389594
59	0xbe903b7e	-0.2817039
60	0xbe2f9fb4	-0.17150766
61	0x3e42f5df	0.19039105
62	0xbe053cb2	-0.13011435
63	0xbe64ca8b	-0.22342889
64	0xbdd7123b	-0.10501524
65	0x3e598732	0.21242979
66	0xbe3266e2	-0.17422059
67	0x3e6dea79	0.23233975
68	0xbe8438f2	-0.25824696
69	0xbead4161	-0.33838943
70	0x3eb909d5	0.36140314
71	0xbe7cacc8	-0.24675286
72	0xbe573ead	-0.21020003
73	0x3c63898d	0.013887775
74	0x3e32a546	0.1744586
75	0x3d999a0f	0.075000875
76	0xbe92d347	-0.28676817
77	0xbe88ec2a	-0.2674268
78	0xbebee1bf	-0.37281606
79	0xbc91002a	-0.017700274
80	0x3c18a5d6	0.009316882
81	0xbe3f7d4d	-0.18700142
82	0x3df74fe3	0.12075784
83	0xbe377dbf	-0.17919062
84	0xbe98529f	-0.29750535
85	0xbe144f36	-0.14483342
86	0xbdf29a92	-0.11845888
87	0x3e492a51	0.19645049
88	0xbeb4ddd6	-0.35325497
89	0x3e30bf61	0.17260505
90	0xbe01b8b4	-0.12668115
91	0xbebcdd61	-0.3688765
92	0xbda50b30	-0.080587745
93	0x3d7ff4aa	0.06248919
94	0xbd8371ad	-0.06418166
95	0x3dde06c5	0.10841135
96	0xbde33fa2	-0.11096121
97	0x3e2d3b53	0.16917162
98	0x3e5f6304	0.21815115
99	0x3d134d4f	0.0359624
100	0x3dbb93f3	0.091590784
101	0xbe1d6ff9	-0.15374745
102	0xbf035a0b	-0.5130927
103	0x3e31f70a	0.17379394
104	0x3e0733de	0.1320338
105	0x3e51002a	0.20410219
106	0x3de10bfb	0.10988613
107	0xbdc3115d	-0.09524796
108	0x3e4f239f	0.20228432
109	0x3c95926a	0.018258292
110	0xbd837f7f	-0.06420802
111	0x3e1ba0bc	0.15198034
112	0xbdbbca2f	-0.09169423
113	0xbd8f7d33	-0.07006302
114	0x3dbcde5f	0.092221014
115	0x3e5980a2	0.21240476
116	0xbe105446	-0.14094648
117	0x3e13ccfb	0.14433663
118	0x3aa7f011	0.0012812634
119	0xbd83d7ca	-0.06437643
120	0x3de3ecbb	0.11129137
121	0xbe1ddbf6	-0.1541594
122	0xbe2f978c	-0.17147654
123	0x3e1db5df	0.1540141
124	0x3d8f0842	0.06983997
125	0x3df57dfd	0.11986921
126	0xbc7becda	-0.015376294
127	0xbc8f2cf2	-0.017477486
128	0xbdb4e3da	-0.08832522
129	0x3e13b551	0.14424635
130	0x3c5f21bf	0.013618886
131	0xbe0a5dda	-0.13512364
132	0x3e64a3ec	0.22328156
133	0xbe841e7d	-0.2580451
134	0xbc692b2b	-0.014231483
135	0xbe1f2818	-0.15542638
136	0xbe253792	-0.1613448
137	0x3e14fed9	0.14550342
138	0xbd9d6175	-0.07684604
139	0x3e0c4c38	0.1370095
140	0xbdbfc0ef	-0.09362971
141	0xbdbb36c3	-0.09141304
142	0xbdf57a09	-0.11986167
143	0x3d73b859	0.05950198
144	0xbdfd8d11	-0.12380422
145	0x3e349b31	0.17637326
146	0xbe23b12a	-0.15985551
147	0x3dfda2c3	0.1238456
148	0x3e2aaeea	0.16668287
149	0xbdc3d6e8	-0.095624745
150	0x3b79db83	0.0038125224
151	0x3e44a252	0.19202545
152	0x3cdabba5	0.026700804
153	0x3e94d48a	0.29068404
154	0xbb39d322	-0.0028354605
155	0x3e3d5391	0.1848891
156	0x3db4613f	0.08807611
157	0xbbbf1c0c	-0.005832201
158	0x3dac8040	0.08422899
159	0x3d37ac18	0.044841856
160	0x3de1b89b	0.11021539
161	0x3c02c03f	0.007980405
162	0x3df9d054	0.121979386
163	0xbd7639ef	-0.060113844
164	0x3e25177b	0.16122238
165	0x3e2b2d40	0.1671648
166	0xbc625712	-0.0138147045
167	0x3c9278de	0.0178799
168	0x3d97b20f	0.07407009
169	0x3c474b9e	0.012164025
170	0x3c9e462f	0.019320576
171	0x3b1e352e	0.0024140584
172	0xbc5c4857	-0.013444982
173	0x3e823f0a	0.2543872
174	0x3d0c3049	0.034225736
175	0xbca0145e	-0.019540962
176	0x3dcc902f	0.09988438
177	0x3d8bc3f3	0.06824484
178	0x3cc1b20d	0.023644472
179	0x3e3339bb	0.17502491
180	0xbe083f0b	-0.13305299
181	0x3c43d901	0.011953593
182	0x3e67543a	0.22590724
183	0xbe7170be	-0.23578164
184	0x3d6c5625	0.05769934
185	0xbe401427	-0.18757688
186	0xbe568432	-0.20948866
187	0x3c8cee3d	0.017203445
188	0x3aa7fb85	0.0012816048
189	0x3c872473	0.016496873
190	0xbd2cf6ac	-0.042227432
191	0xbbb9cc79	-0.005670127
192	0xbd4248c9	-0.047432695
193	0xbd2d7d49	-0.04235581
194	0x3d5c7c6a	0.053829588
195	0x3e52b31a	0.20576134
196	0xbd8edffb	-0.06976315
197	0xbe1e3df5	-0.15453322
198	0x3bcc1e97	0.0062292325
199	0x3e4ccca0	0.19999933
200	0xbe2eb62f	-0.17061685
201	0x3dd72b4b	0.10506304
202	0x3e329fd9	0.1744379
203	0xbdf12e6d	-0.11776433
204	0xbd09f131	-0.033677284
205	0xbe20e645	-0.15712841
206	0xbe2f4922	-0.17117742
207	0xbe336afa	-0.17521277
208	0xbe3d798a	-0.18503395
209	0xbe1cab88	-0.15299809
210	0x3dfc27fd	0.12312315
211	0x3d95364c	0.07285747
212	0x3e30404b	0.17212026
213	0x3d9256aa	0.07145436
214	0xbe4a9a59	-0.19785441
215	0xbdfd024f	-0.12353956
216	0xbcf18de4	-0.029486604
217	0x3da9d1e4	0.082919866
218	0xbe3365b8	-0.17519271
219	0xbe301edf	-0.17199276
220	0x3e301a42	0.17197517
221	0xbdda820d	-0.106693365
222	0xbd2c2869	-0.042030726
223	0x3d237b25	0.03991236
224	0xbdd2f91d	-0.10301421
225	0x3c8d94df	0.017282901
226	0xbe5359e8	-0.20639765
227	0xbe32dc4c	-0.17466849
228	0xbe0c1742	-0.13680747
229	0xbe574b07	-0.21024714
230	0xbe5bed9f	-0.21477364
231	0xbd094751	-0.03351528
232	0xbe09897b	-0.13431351
233	0x3dfa48c6	0.12220912
234	0xbe428939	-0.18997659
235	0x3e0ddf7f	0.13854788
236	0x3e0aff54	0.13573962
237	0x3d79da8e	0.060999446
238	0xbe37ad46	-0.17937192
239	0x3dd7cdcf	0.10537302
240	0x3d47054b	0.048589032
241	0xbe1ec53c	-0.15504926
242	0x3e398566	0.18117294
243	0xbe3a46b5	-0.18191035
244	0x3e12bef6	0.14330658
245	0xbe1b7124	-0.15179878
246	0x3dd867e6	0.10566692
247	0xbd4f07dc	-0.050544605
248	0x3d8e3f63	0.06945684
249	0x3ddaec41	0.10689593
250	0xbd3687e7	-0.0445632
251	0x3df25f14	0.11834541
252	0xbd1bf01d	-0.038070787
253	0x3e120700	0.14260483
254	0xbdab5aca	-0.08366926
255	0x3de2713f	0.11056756

shared_encoder.gru_left.bias_ih_l0_reverse f4 [150]
0	0xbd75f8f9	-0.060051892
1	0xbe1e8343	-0.1547976
2	0xbdd13152	-0.10214485
3	0xbac3367e	-0.0014893559
4	0xbdb6c7ca	-0.089248255
5	0x3c460cc0	0.012088001
6	0xbc0732a1	-0.008251817
7	0x3e0edea2	0.13952115
8	0x3c3c4544	0.011491124
9	0x3d1ef0a1	0.0388037
10	0xbd780542	-0.06055189
11	0xbd997362	-0.07492711
12	0xbd5ba805	-0.053627033
13	0xbe0e121e	-0.13874099
14	0x3d987c0c	0.07445535
15	0xbc9fdb86	-0.019513857
16	0xbe017538	-0.12642372
17	0xbde7df10	-0.11321843
18	0x3d8b231c	0.06793806
19	0x3dd6f38a	0.1049567
20	0x3e4dbf7c	0.20092577
21	0xbd607e89	-0.054808173
22	0xbd987ca2	-0.07445647
23	0xbd6bf539	-0.05760691
24	0xbdbe4cb9	-0.092919774
25	0xbe6475cd	-0.22310562
26	0x3d75e1f4	0.06002994
27	0x3cf5e445	0.030016074
28	0x3ddc66e0	0.10761809
29	0x3d3ed6e6	0.046591662
30	0xbd4c675d	-0.049903262
31	0xbe0dcbb5	-0.1384724
32	0xbcd02efb	-0.025413027
33	0xbca11472	-0.01966307
34	0x3dac3361	0.08408237
35	0xbd1a8320	-0.037722707
36	0xbccbbc60	-0.024870098
37	0xbdd6abbf	-0.10481977
38	0x3de653ab	0.11246427
39	0xbda5d746	-0.08097701
40	0xbe1a1025	-0.15045221
41	0x3e0f1e77	0.13976465
42	0xbd89d8f4	-0.06730834
43	0xbd7b4587	-0.061345603
44	0xbddba4ed	-0.107248165
45	0x3be0a481	0.006855548
46	0xbe1c218a	-0.15247169
47	0xbdb1fe03	-0.08691027
48	0xbd61838a	-0.055057086
49	0xbe0ee9ed	-0.13956423
50	0x3e3c82dc	0.18409294
51	0x3e1a4ee7	0.15069161
52	0x3e7494f7	0.2388495
53	0x3e5014df	0.20320462
54	0x3e337efb	0.17528908
55	0x3e00b747	0.12569915
56	0x3dc8c78a	0.09803684
57	0x3d8c9934	0.06865159
58	0xbdcc3064	-0.09970167
59	0xba770731	-0.0009423374
60	0x3e22ef01	0.15911485
61	0x3de9291a	0.113847926
62	0x3e2d78a2	0.16940549
63	0x3dbd5a80	0.09245777
64	0x3d92bc15	0.0716478
65	0x3e926321	0.28591254
66	0x3e27c350	0.163831
67	0x3e183950	0.14865613
68	0x3d803a50	0.06261122
69	0x3b828163	0.0039827093
70	0xbd23afee	-0.0399627
71	0x3e0bb3c1	0.1364279
72	0x3dcae571	0.09907044
73	0x3e2e8708	0.17043698
74	0x3ddc47da	0.10755892
75	0x3e4ddd25	0.20103891
76	0x3d1a8108	0.03772071
77	0x3daec892	0.085343495
78	0xbc06694d	-0.008203817
79	0x3d8dcb93	0.06923594
80	0x3e17bfab	0.1481921
81	0x3e4894a8	0.19587958
82	0x3e3e22db	0.18567984
83	0x3e2c09bd	0.1680059
84	0x3d09a5b5	0.033605296
85	0x3e453434	0.19258195
86	0x3e4132d2	0.18867043
87	0x3dce3501	0.100687034
88	0x3cf02c8e	0.02931812
89	0x3e13b8e3	0.14425997
90	0x3e37bb0f	0.17942451
91	0xbc4f0c16	-0.012637159
92	0x3e4b9e18	0.19884527
93	0x3e395ea3	0.18102507
94	0x3e1273cb	0.14301984
95	0x3e0194c9	0.12654413
96	0x3e2f2033	0.17102127
97	0x3e214ae6	0.15751228
98	0x3dc340a1	0.09533811
99	0x3dfa7be1	0.12230659
100	0x3d5a9d97	0.053372946
101	0x3b01ffeb	0.0019836377
102	0xbc9ff294	-0.01952485
103	0x3d84d980	0.06486797
104	0x3cc2f495	0.023798266
105	0x3da37ceb	0.079828106
106	0x3dfdad9d	0.1238663
107	0x3dba6282	0.0910082
108	0x3d64b918	0.05584058
109	0x3d8423d1	0.06452144
110	0xbcad2e43	-0.021140223
111	0xbddfd662	-0.10929562
112	0xbd06c347	-0.032901075
113	0xbd339628	-0.043844372
114	0x3d9e1e89	0.07720668
115	0x3d5a4f1b	0.053298097
116	0x3c9e4087	0.019317878
117	0xbd86c445	-0.06580404
118	0x3da119be	0.07866238
119	0x3dd465a8	0.10370952
120	0xbe160b03	-0.14652638
121	0x3dc34229	0.095341034
122	0x3db17278	0.08664411
123	0xbc91a03b	-0.0177766
124	0x3d6e60c8	0.058197767
125	0xbc3be64c	-0.011468481
126	0x3d6773b2	0.05650682
127	0x3d8b1e57	0.06792896
128	0x3dc27ad6	0.09496085
129	0x3d9dc2e8	0.07703191
130	0x3d03f795	0.032218534
131	0x3c1bf28b	0.009518276
132	0x3d7c5c05	0.061611194
133	0xbd6a5bdd	-0.057216514
134	0x3da97f91	0.082762845
135	0xbd365d09	-0.04452232
136	0xbd83ab13	-0.06429114
137	0xbda8c6cc	-0.082410425
138	0x3db7016e	0.089358196
139	0xbe03c294	-0.12867194
140	0xbc9a2fc7	-0.01882161
141	0x3decda94	0.11565128
142	0xbd62333b	-0.05522464
143	0x3d20e7ba	0.03928349
144	0xbc8b0e0f	-0.016974477
145	0x3d943c69	0.07238085
146	0xbc537dcc	-0.01290841
147	0xbbb4f244	-0.0055220444
148	0xbe00c2bc	-0.12574285
149	0x3c198812	0.009370821
