checkpoints/Nitrate6_1012.pt (torch_old, 444769 bytes, 32 tensors)

shared_encoder.input_linear.weight f4 [50, 6]
0	0x3af1c42c	0.0018445305
1	0xbc034e3b	-0.008014257
2	0x3e418564	0.1889854
3	0xbaf3a713	-0.0018589221
4	0x3cd6b152	0.0262076
5	0x3c3fad28	0.0116989985
6	0x3bd664c3	0.0065427735
7	0x3d1f3ffe	0.038879387
8	0xbe5ff9ab	-0.21872585
9	0x3bfb6f01	0.007673145
10	0x3d109cf5	0.035305936
11	0x3baa7268	0.0052016266
12	0xbb7ca513	-0.003855054
13	0x3c988b54	0.018621124
14	0x3e6e0e7a	0.2324771
15	0x3bae666e	0.005322269
16	0xbc718860	-0.014741987
17	0x3ad49f10	0.0016221721
18	0xbc044584	-0.008073214
19	0x3c845793	0.01615504
20	0x3e6a2d4c	0.22868842
21	0x3baa8210	0.005203493
22	0xbc4a5704	-0.012349848
23	0xbc1ea9e7	-0.009684063
24	0xbd1c7112	-0.03819377
25	0xbd008d96	-0.031385027
26	0x3e4ef714	0.2021144
27	0x3beb3b25	0.0071786814
28	0xbc3cbbeb	-0.0115194125
29	0x3c79186e	0.015203578
30	0xbcef538b	-0.029214641
31	0x3d895525	0.06705693
32	0x3e82e4ca	0.25565177
33	0x3b9c0d2a	0.0047623115
34	0xbd992acf	-0.07478868
35	0x3b348594	0.002754544
36	0x3bf28263	0.007400797
37	0x3c302b12	0.010752456
38	0xbe4e4d7e	-0.20146748
39	0xbc04e368	-0.0081108585
40	0x3c867486	0.016412985
41	0x3c3dbd88	0.011580832
42	0x3cf36ebb	0.029715886
43	0xbdf090a1	-0.11746336
44	0x3db10ddd	0.08645222
45	0xbcbeaf51	-0.023276957
46	0x3cf209a4	0.029545613
47	0x399e2b4a	0.0003016836
48	0xbcd71cdf	-0.026258884
49	0x3c1ef71d	0.009702471
50	0xbe35b348	-0.17744172
51	0x3b6d9611	0.0036252777
52	0xbd80ac20	-0.0628283
53	0x3c9c5191	0.019081863
54	0x3b85412e	0.004066608
55	0x3d9d3484	0.07676032
56	0x3e353b9c	0.1769852
57	0x3bc8a45d	0.0061231093
58	0x3d18c692	0.037298746
59	0xba9fe5bd	-0.0012199205
60	0x3b6026f8	0.0034202915
61	0x3cd31333	0.02576599
62	0xbe418416	-0.18898043
63	0xbb27ebaf	-0.0025622656
64	0x3b5c1ea5	0.0033587602
65	0xbacd406c	-0.0015659458
66	0xbcd3946a	-0.025827605
67	0xbd42c63d	-0.047552336
68	0x3e248630	0.16066813
69	0xba986f5e	-0.001162987
70	0x3b53c822	0.0032315333
71	0x3adbd638	0.0016772216
72	0xbd1128c7	-0.03543928
73	0xbd662d26	-0.0561954
74	0x3e25072f	0.16116022
75	0xbc9abecb	-0.018889805
76	0xbdbb40d0	-0.091432214
77	0x3b087ab8	0.00208251
78	0xbb95f7ba	-0.0045766504
79	0xbe26c63c	-0.16286558
80	0x3e29efdb	0.16595404
81	0xbc3576a7	-0.011075652
82	0xbba2175b	-0.004946632
83	0x3bdddb57	0.006770532
84	0xbb81812d	-0.0039521665
85	0x3c9df21c	0.019280486
86	0x3e2d8bf1	0.16947915
87	0x3bca2f7e	0.0061702123
88	0x3c889fcc	0.01667776
89	0xbba78fca	-0.0051135765
90	0x3c72599b	0.014791871
91	0x3d415537	0.047200408
92	0x3e503861	0.20334007
93	0xbc5642ed	-0.01307748
94	0xbb20c55b	-0.0024531696
95	0x3c5d3998	0.013502501
96	0xbc2f1e81	-0.010688425
97	0x3d7c17f3	0.061546277
98	0xbe73169c	-0.23739094
99	0x3ca0142b	0.019540867
100	0x3bee32c7	0.0072692367
101	0x3c4c3422	0.012463601
102	0x3b9a4d4e	0.0047089225
103	0x3d80f470	0.06296623
104	0x3e4ab595	0.1979583
105	0x3c76a8e7	0.015054918
106	0x3d579ebb	0.05264161
107	0x3bd79991	0.006579586
108	0xbb9c670a	-0.0047730254
109	0xbc2f6f0c	-0.010707628
110	0xbe38235f	-0.17982243
111	0xbc49cc6d	-0.012316805
112	0xbd166c0f	-0.036724146
113	0x3bd80925	0.006592887
114	0xbad0c3d7	-0.0015927505
115	0x3db917b0	0.09037721
116	0x3e55269f	0.20815514
117	0x3c642e34	0.013927031
118	0xbbdfe4d1	-0.006832697
119	0xbb89e864	-0.0042086113
120	0x3c16fd97	0.009215734
121	0x3bf54386	0.007484856
122	0xbe8aa0fc	-0.27075946
123	0xbb7ed4fa	-0.0038884268
124	0x3c0e0830	0.008668944
125	0x3bdab6ae	0.006674609
126	0xbbc260f8	-0.0059319697
127	0xbd31d6f5	-0.04341789
128	0x3e703df7	0.23461138
129	0xbb6ac654	-0.003582378
130	0x3bbe9ef1	0.005817287
131	0xb9ab39b9	-0.00032658668
132	0x3c2cce95	0.0105473
133	0x3d9cee23	0.076626085
134	0x3e6a22e5	0.22864874
135	0xbc06275e	-0.008188097
136	0xbcb23f3e	-0.021758672
137	0xbbda9d95	-0.0066716173
138	0x3cb88572	0.02252457
139	0xbda356b7	-0.07975524
140	0x3e21bf16	0.1579555
141	0xbbba3cfa	-0.0056835385
142	0x3d175634	0.036947444
143	0xbc596084	-0.01326764
144	0xbb911ae1	-0.004428253
145	0xbd8f0b82	-0.06984617
146	0x3e38de4f	0.18053554
147	0xbc1b960a	-0.009496221
148	0xbc13d064	-0.009021852
149	0x3c1cfb67	0.009581423
150	0xbbe178fd	-0.006880878
151	0xbc8969f7	-0.01677416
152	0xbe67c6b2	-0.2263439
153	0x3b1076c8	0.0022043455
154	0xbc9937cd	-0.018703366
155	0xbbdf5770	-0.0068158433
156	0xbcbe4996	-0.023228448
157	0x3b7b9ffa	0.0038394914
158	0xbe3ded4e	-0.18547556
159	0xbba5f453	-0.005064526
160	0xbd681df4	-0.05666919
161	0x3a686c42	0.00088662293
162	0xbdd6a889	-0.10481364
163	0xbd7dd85c	-0.061973915
164	0x3e02c308	0.12769711
165	0xbc09e732	-0.008416938
166	0xbe6ab7f3	-0.22921734
167	0x399facdc	0.00030455634
168	0xbd1350fd	-0.03596591
169	0x3cafabf1	0.021444293
170	0x3e743741	0.23849203
171	0xbc511610	-0.012761608
172	0xbdca9393	-0.09891429
173	0x3be8b7c3	0.007101984
174	0x3a59d0aa	0.00083089864
175	0x3ca301c0	0.019898295
176	0xbe51d1c2	-0.20490173
177	0x3be87426	0.007093924
178	0x3b72b3d3	0.0037033453
179	0x3bc77835	0.006087328
180	0x3aa09ea9	0.0012254316
181	0x3c6226ea	0.013803223
182	0xbe6d594d	-0.23178597
183	0x3ba3e781	0.0050019627
184	0xbcd21a35	-0.025647262
185	0x3a4e5e22	0.0007872303
186	0x3cb0fb0e	0.021604087
187	0x3d83b22a	0.064304665
188	0xbe20579d	-0.15658422
189	0x3bd7f51d	0.006590499
190	0x3cabba4e	0.02096286
191	0x3a9f8637	0.0012170736
192	0xb9a76bf0	-0.00031933142
193	0xbcb70fd2	-0.02234641
194	0xbe65361d	-0.22383924
195	0xbc7b4393	-0.015335935
196	0xbcbd3bb8	-0.023099765
197	0x3b30338b	0.002688619
198	0xbba13f6c	-0.0049208906
199	0xbcf0a815	-0.029377023
200	0xbe7bef9c	-0.24603122
201	0x3ba48b2e	0.0050214743
202	0xbd1a11ce	-0.037614636
203	0x3bafb54d	0.005362189
204	0x3c1341dc	0.00898787
205	0xbd7fb570	-0.06242889
206	0x3e0bfc95	0.13670571
207	0xbc73122b	-0.014835875
208	0x3c26072d	0.010133547
209	0xbb9a6b08	-0.004712466
210	0x3cc3e971	0.023915024
211	0xbaf4fb6b	-0.0018690651
212	0xbe58e510	-0.2118113
213	0xbc14bab2	-0.009077715
214	0x3cd4330d	0.02590325
215	0xbba4db6d	-0.0050310404
216	0xbc8df1ca	-0.017327208
217	0x3d218d37	0.039441314
218	0x3e4ec526	0.20192394
219	0x3b0b3490	0.0021241046
220	0xbaf43fcd	-0.0018634737
221	0x3c22b4ff	0.009930848
222	0xbc4e6dd6	-0.012599429
223	0xbd9cb999	-0.076525874
224	0x3e2d6280	0.16932106
225	0xbb852adc	-0.004063947
226	0x3ccf8616	0.025332492
227	0x3bc6f151	0.0060712476
228	0x3a4fb894	0.00079239276
229	0x3d2a28b2	0.041542716
230	0x3e67e990	0.22647691
231	0xbab10e68	-0.0013508322
232	0x3c9612bb	0.018319478
233	0x3b960f30	0.004579447
234	0xbc0254f6	-0.007954827
235	0x3ce52995	0.02797393
236	0x3e6574c1	0.2240782
237	0x3c065623	0.0081992475
238	0xbc5c8250	-0.013458803
239	0x3af9fc4d	0.0019072384
240	0x3caffac9	0.021481888
241	0xbd28fd31	-0.041257087
242	0xbe89ab29	-0.26888397
243	0x3be1ef4b	0.006894981
244	0x3d42f89d	0.047600377
245	0xbc5ea089	-0.013588079
246	0xbcb5854a	-0.022158284
247	0xbcac098f	-0.021000652
248	0x3e67af3c	0.2262544
249	0x3c999b20	0.018750727
250	0xbcedd2a9	-0.029031115
251	0xbc2c6551	-0.010522203
252	0x3c92c054	0.017913975
253	0x3b7aead2	0.0038286936
254	0xbe54e5aa	-0.20790735
255	0xbb87ffa4	-0.004150348

shared_encoder.input_linear.bias f4 [50]
0	0xbc8dabd5	-0.01729385
1	0x3c52248f	0.012826099
2	0xbca78a46	-0.020451676
3	0xbc7135f7	-0.014722339
4	0xbc605db4	-0.013694216
5	0xbc963460	-0.018335521
6	0x3c66371b	0.014051224
7	0xbc0bec99	-0.008540296
8	0x3c6b3b1e	0.014357356
9	0xbc8cab9a	-0.01717167
10	0x3c37c100	0.011215448
11	0xbc20eca0	-0.009822041
12	0xbb530f4d	-0.0032205165
13	0xbc36b94c	-0.011152577
14	0xbc39a94f	-0.01133187
15	0xbc971775	-0.018443802
16	0x3c336a0c	0.0109505765
17	0xbcbdf9c0	-0.02319038
18	0x3c572f6a	0.013133863
19	0xbcb8488e	-0.022495534
20	0x3c8ad818	0.016948745
21	0xbc87d9a3	-0.01658327
22	0xbc97a88b	-0.018512985
23	0xbc63eac3	-0.013910952
24	0xbb8e08a2	-0.004334525
25	0x3c9396e8	0.018016294
26	0x3cbf2606	0.02333356
27	0x3ca0f635	0.01964865
28	0x3a3cb058	0.0007197908
29	0x3c8327aa	0.016010124
30	0x3c997023	0.018730229
31	0x3bd46ffa	0.006483075
32	0x3c9b1f3b	0.01893579
33	0x3c8c98ed	0.017162764
34	0xbc0f7807	-0.008756644
35	0x3c6040af	0.013687297
36	0xbc6851a4	-0.014179621
37	0xbc55de40	-0.013053477
38	0xbcaa9a44	-0.020825513
39	0xbcb38811	-0.021915467
40	0x3c9e086b	0.019291123
41	0xbc1d9f56	-0.009620508
42	0x3c738428	0.0148630515
43	0x3b2f7492	0.0026772362
44	0xbc8ee637	-0.01744376
45	0xbcbc8dd3	-0.023016846
46	0xbc749719	-0.014928603
47	0xbc4e6f5c	-0.012599792
48	0xbc8e904d	-0.017402792
49	0x3ca67bc4	0.020322688

shared_encoder.gru_left.weight_ih_l0 f4 [150, 50]
0	0xbe2080cb	-0.1567413
1	0x3e021d8c	0.12706584
2	0xbdc24ea4	-0.09487656
3	0xbe2ee227	-0.17078458
4	0xbe375f58	-0.17907465
5	0xbe6f30c7	-0.23358451
6	0x3e28fc57	0.1650251
7	0xbd2dfad8	-0.04247555
8	0x3de4a4e7	0.11164265
9	0xbe174b38	-0.14774787
10	0x3e594282	0.21216777
11	0xbe1cbba4	-0.15305954
12	0xbe49b290	-0.19697022
13	0xbe00c5cd	-0.12575455
14	0xbe047a97	-0.1293739
15	0xbe3a374e	-0.1818516
16	0x3e69b255	0.22821935
17	0xbdda449f	-0.1065762
18	0x3e1b4ecb	0.15166776
19	0xbe139a73	-0.14414386
20	0x3e35fc5b	0.17772047
21	0xbd350797	-0.04419669
22	0xbe634dce	-0.22197649
23	0xbd4729a4	-0.048623696
24	0xbe490e29	-0.19634308
25	0x3d94565a	0.07243033
26	0x3dd283aa	0.10279019
27	0xbe3a3162	-0.181829
28	0xbe501b43	-0.203229
29	0x3e1376a4	0.14400727
30	0x3e238280	0.1596775
31	0x3e622958	0.22086084
32	0x3da44f2d	0.08022914
33	0xbcbcfca0	-0.02306968
34	0xbdb452b9	-0.088048406
35	0x3e124086	0.14282426
36	0xbe80a2ae	-0.25124115
37	0xbe2ce4c3	-0.1688414
38	0xbdb4f4d5	-0.088357605
39	0xbe37b822	-0.17941335
40	0x3e930e06	0.28721637
41	0xbe3a7190	-0.18207383
42	0x3e22eedc	0.1591143
43	0x3e27dd4c	0.16393012
44	0xbe4b6e63	-0.19866328
45	0xbdf52bc0	-0.11971235
46	0xbdb7bfcf	-0.089721315
47	0xbe5b4b6f	-0.21415494
48	0xbe0f4cbb	-0.13994114
49	0x3e4f36bd	0.20235725
50	0x3d182083	0.03714038
51	0xbd5f0f4c	-0.054457948
52	0x3d4617a0	0.048362374
53	0x3d55c3fc	0.05218886
54	0x3cb3662d	0.021899307
55	0xbd40971f	-0.04701912
56	0xbb4e92cd	-0.0031520606
57	0x3da5816d	0.08081327
58	0xbc34a00f	-0.011024489
59	0xbab18d32	-0.0013546108
60	0x3d3bd402	0.045856483
61	0xbd13508c	-0.035965487
62	0xbb8a1a49	-0.004214559
63	0x3d5bafbf	0.0536344
64	0x3b8ecb00	0.0043576956
65	0x3d08ba41	0.03338075
66	0x3d4a4eeb	0.04939167
67	0xbc1447d9	-0.009050333
68	0x3be1b24b	0.0068877093
69	0xbcc32870	-0.023822993
70	0x3d89408f	0.06701767
71	0x3d2c8e3b	0.04212783
72	0x3c0ee540	0.00872165
73	0x3cc742c7	0.024323834
74	0xbcf66b25	-0.030080387
75	0xbd1bd815	-0.03804787
76	0xbd018b9a	-0.031627275
77	0xbcf710be	-0.03015935
78	0xbdeb632c	-0.11493525
79	0x3c6cad25	0.014445578
80	0xbd748ae3	-0.059702765
81	0x3c708224	0.014679465
82	0xbd9e8e1f	-0.07741951
83	0xbda965fa	-0.082714036
84	0x3d83d871	0.06437767
85	0xbca94496	-0.020662587
86	0xbd5ada58	-0.053430885
87	0x3ca00c5e	0.019537147
88	0x3d9fefdc	0.078094214
89	0xbcafbdc1	-0.021452786
90	0x3d0c7927	0.034295227
91	0xbd56f3bc	-0.052478537
92	0x3cd28f89	0.025703209
93	0x3d473bfa	0.048641182
94	0xbdccf2bd	-0.10007236
95	0x3d5ac13f	0.05340695
96	0xbc702dce	-0.014659358
97	0xbd4d48a7	-0.050118115
98	0xbc9aeaeb	-0.018910846
99	0x3d21c20e	0.039491706
100	0xbe04ee0f	-0.12981437
101	0x3d547bce	0.05187588
102	0xbddc1a9a	-0.10747261
103	0xbda5e6bc	-0.0810065
104	0xbdaaaec4	-0.08334115
105	0xbe1fa05e	-0.15588519
106	0x3dfa4393	0.1221992
107	0xbbabb0b1	-0.005239569
108	0x3d9476be	0.07249211
109	0xbde91620	-0.11381173
110	0x3ddb01cf	0.10693704
111	0xbe2e8295	-0.17042
112	0xbdddeae0	-0.108358145
113	0xbd95652e	-0.07294689
114	0xbe3ff830	-0.1874702
115	0xbdacb3d0	-0.08432734
116	0x3de5633f	0.1120057
117	0xbdac3846	-0.08409171
118	0x3dbfdff7	0.0936889
119	0xbe0ba444	-0.13636881
120	0x3dc4a47f	0.09601688
121	0xbc79d020	-0.015247375
122	0xbe1bb806	-0.15206918
123	0xbd21dddc	-0.039518222
124	0xbdea1b3d	-0.114309765
125	0x3dbe0913	0.092790745
126	0x3d8a07f8	0.06739801
127	0xbdec5912	-0.11540426
128	0xbe0c1150	-0.13678479
129	0x3df9f84a	0.122055605
130	0x3d8f1e8f	0.069882505
131	0x3dfd433d	0.1236634
132	0x3d229608	0.039693862
133	0x3d35cda5	0.04438557
134	0xbd60662e	-0.054784946
135	0x3df22a5f	0.11824488
136	0xbe16f60d	-0.14742298
137	0xbe1560f1	-0.14587761
138	0xbd950538	-0.07276386
139	0xbde9f215	-0.114231266
140	0x3e24221d	0.16028638
141	0xbdf28785	-0.118422545
142	0x3dde11e5	0.10843257
143	0x3d9e8b41	0.07741404
144	0xbdcce9d7	-0.10005539
145	0xbd04f359	-0.032458637
146	0xbddbf741	-0.10740519
147	0xbdc78cbf	-0.09743642
148	0xbd9f1edc	-0.07769558
149	0x3e1f7744	0.1557284
150	0x3de89ae2	0.113576666
151	0xbe1bf9fb	-0.15232079
152	0x3df35fec	0.1188353
153	0x3e0a45fa	0.13503256
154	0x3dcfd4cb	0.10148009
155	0x3d096647	0.033544805
156	0xbdb959fe	-0.09050368
157	0x3df81511	0.12113393
158	0xbd6c6387	-0.057712104
159	0x3da0acf7	0.078454904
160	0xbc6fc17d	-0.014633534
161	0x3d338358	0.04382643
162	0x3d7bedfe	0.061506264
163	0x3dbb2123	0.0913718
164	0x3d92e18d	0.07171927
165	0x3dc4cc2c	0.09609255
166	0xbd0124ce	-0.03152924
167	0x3d262cd9	0.040570114
168	0xbd3ea275	-0.04654165
169	0x3d173117	0.03691205
170	0xbd0c9558	-0.034322113
171	0x3dd035c9	0.10166509
172	0x3ddbff0b	0.10742005
173	0x3d9afa16	0.07567231
174	0x3d13bdd2	0.0360697
175	0xbdc851ae	-0.09781204
176	0xbdabcd73	-0.08388796
177	0x3cce40d5	0.025177399
178	0xbc4cad50	-0.012492493
179	0xbd1fb1f0	-0.038988054
180	0xbe1b6c87	-0.15178119
181	0xbd72230a	-0.059115447
182	0xbe0a0c4d	-0.13481255
183	0xbe146ff0	-0.14495826
184	0x3dcf170a	0.10111816
185	0xbdc16e79	-0.09444899
186	0x3d549871	0.051903192
187	0x3d81fa44	0.063465625
188	0x3e152e44	0.1456843
189	0x3d248fb0	0.040176094
190	0xbd60a756	-0.054847084
191	0x3d18cd64	0.03730525
192	0xbd021509	-0.031758342
193	0xbd10c86b	-0.035347383
194	0xbd2f3e12	-0.042783804
195	0x3dcb1960	0.09916949
196	0x3d839495	0.06424824
197	0x3cda2fe9	0.026634173
198	0x3d8b35d5	0.06797377
199	0xbca11ee7	-0.019668056
200	0x3db0acfd	0.08626745
201	0xbdb9ee06	-0.090786025
202	0x3dafdfe8	0.085876286
203	0x3dcd5b4c	0.10027179
204	0x3d751380	0.05983305
205	0xbb4ce16e	-0.0031262296
206	0xbd90483d	-0.07045028
207	0x3dc3ea97	0.09566229
208	0xbd134283	-0.035952102
209	0x3ce08d18	0.027411029
210	0x3ca2e41f	0.019884167
211	0x3cfd1e09	0.030898111
212	0x3be25222	0.0069067637
213	0x3d7dad32	0.06193275
214	0x3ce6839b	0.028138926
215	0x3d74e91d	0.059792627
216	0x3be1b23a	0.0068877013
217	0xbca6e370	-0.020372123
218	0xbd1806f9	-0.037116025
219	0x3d0ac826	0.033882283
220	0xbbae30a9	-0.0053158593
221	0x3da663df	0.08124518
222	0x3d4a3a76	0.04937216
223	0x3d40093f	0.046883818
224	0x3bc6d72f	0.0060681324
225	0xbd66fb0f	-0.056391772
226	0xbd8502a8	-0.06494647
227	0x3d0e149d	0.034687627
228	0xbd3632de	-0.044482104
229	0xbc9bb660	-0.019007862
230	0xbdf95eab	-0.121762596
231	0xbd01baab	-0.03167216
232	0xbdf3c5e2	-0.119029775
233	0xbdeca386	-0.11554627
234	0x3dd2c298	0.10291022
235	0xbcf49820	-0.029857695
236	0x3c7246b8	0.0147873685
237	0x3d2c64e8	0.04208842
238	0x3de5da71	0.11223305
239	0x3ca349b3	0.019932603
240	0xbb768b3a	-0.0037619607
241	0xbbb35da4	-0.0054738093
242	0xba8fee86	-0.001098112
243	0xbc4f5e23	-0.012656721
244	0xbd9e966e	-0.07743536
245	0x3d83999a	0.064257815
246	0x3d26c6f8	0.040717095
247	0xbc139466	-0.009007549
248	0x3cf0db97	0.029401584
249	0xbce34394	-0.027742185
250	0xbe1cf172	-0.15326479
251	0x3e1ec538	0.1550492
252	0xbdd773b6	-0.10520117
253	0xbe3f8ee1	-0.18706848
254	0xbe39f57b	-0.1816005
255	0xbe6ad1d7	-0.2293161

shared_encoder.gru_left.weight_hh_l0 f4 [150, 50]
0	0x3e105539	0.1409501
1	0x3dc071ea	0.093967274
2	0xbe19a02c	-0.15002507
3	0x3d9d8dfb	0.07693096
4	0x3dcaaa0b	0.09895714
5	0x3e24ea94	0.1610511
6	0xbddde72e	-0.1083511
7	0x3ddecf76	0.10879414
8	0xbe1036a6	-0.14083347
9	0x3dc91971	0.09819306
10	0xbe192306	-0.14954767
11	0x3e0f28af	0.13980363
12	0xbdd25bb3	-0.102713965
13	0x3db15477	0.086586885
14	0x3e2c5f65	0.16833265
15	0x3e19bc7d	0.15013309
16	0xbe15243d	-0.14564605
17	0x3e28cb9d	0.16483922
18	0x3dd56bac	0.104209274
19	0xbdd7e2d1	-0.10541309
20	0x3dfcb844	0.123398334
21	0x3dcd1ed6	0.10015647
22	0x3e1b5235	0.15168078
23	0xbe0f5e8c	-0.1400091
24	0x3dd9cb71	0.106345065
25	0xbddbddd1	-0.107356675
26	0x3dc1b032	0.09457435
27	0xbdfa6229	-0.12225754
28	0x3dc1b7f7	0.09458917
29	0xbe09a48f	-0.1344168
30	0xbdd73992	-0.105090275
31	0x3ddf10b2	0.10891856
32	0xbdcc046a	-0.099617794
33	0x3e1a51ab	0.15070216
34	0x3e212e4a	0.15740314
35	0x3e15e3f0	0.14637733
36	0x3db0db81	0.08635617
37	0x3dde5b0c	0.108572096
38	0xbe050ae0	-0.1299243
39	0xbe062fd8	-0.13104188
40	0x3e1fe0de	0.15613124
41	0xbe0c69b0	-0.13712192
42	0xbe0f9528	-0.14021742
43	0xbd8da001	-0.06915284
44	0x3ddb1ba0	0.106986284
45	0xbe16cd1e	-0.14726683
46	0x3db11024	0.08645657
47	0x3e2f3776	0.17111
48	0xbe0ce294	-0.13758308
49	0xbdd377b4	-0.10325566
50	0xbdb76313	-0.08954444
51	0x3d41b559	0.047292087
52	0x3da04acb	0.078267656
53	0x3db40143	0.08789303
54	0x3d86be4d	0.06579266
55	0xbd9f121f	-0.07767128
56	0xbc94100e	-0.018074062
57	0x3db2157b	0.08695503
58	0xb9f6f1a8	-0.00047100824
59	0x3dc12657	0.09431141
60	0x3cec7058	0.028862163
61	0xbd1f7c77	-0.03893706
62	0xbdabae58	-0.08382863
63	0x3d6164fa	0.05502794
64	0xbd67b7aa	-0.05657164
65	0xbd751d92	-0.059842654
66	0x3db26e7d	0.0871248
67	0xbd35643b	-0.04428504
68	0x3d2ca2c0	0.042147398
69	0xbd9b1e21	-0.07574106
70	0x3c83ba00	0.016079903
71	0x3d3fec82	0.04685641
72	0xbd685775	-0.05672403
73	0x3d6b8abe	0.05750536
74	0x3d45b518	0.048268408
75	0xbc9c8fe0	-0.019111574
76	0x3db7a61d	0.089672305
77	0xbc9a8753	-0.018863356
78	0x3d4add72	0.049527593
79	0x3d80d424	0.062904626
80	0xbd06380b	-0.03276829
81	0x3dd59047	0.10427909
82	0xbc208160	-0.00979647
83	0xbd673dd3	-0.056455445
84	0xbd6c5c68	-0.057705313
85	0xbda85967	-0.08220177
86	0x3daea1fa	0.08526988
87	0x3dda592e	0.10661541
88	0x3ce39599	0.027781295
89	0x3d60b970	0.054864347
90	0xbd8216c0	-0.063519955
91	0xbd5e419e	-0.054261796
92	0x3d39d937	0.045373168
93	0xbdc7aed8	-0.09750146
94	0x3d5875d6	0.052846752
95	0x3d78c40b	0.060733836
96	0x3de99cbf	0.1140685
97	0xbcadca7c	-0.021214716
98	0x3d8bc3bc	0.06824443
99	0xbb500f68	-0.0031747464
100	0x3dd86948	0.10566956
101	0x3e23923a	0.1597375
102	0xbda42341	-0.08014537
103	0x3e2e3c7d	0.17015262
104	0x3e4029a0	0.18765879
105	0x3df7d116	0.12100427
106	0xbe427f2e	-0.18993828
107	0x3e44297e	0.19156453
108	0xbe35cd90	-0.17754197
109	0x3e243cf3	0.16038875
110	0xbe1f30af	-0.15545915
111	0x3de5023b	0.11182066
112	0xbe4260c5	-0.18982227
113	0x3e3370f0	0.17523551
114	0x3dfc60bf	0.1232314
115	0x3dfb39c6	0.12266879
116	0xbdd7e4bf	-0.10541677
117	0x3e24abf2	0.16081217
118	0x3e3bf961	0.18356849
119	0xbe37026d	-0.17872019
120	0x3e4dc09a	0.20093003
121	0x3e2e6804	0.17031866
122	0x3e00235d	0.1251349
123	0xbde2c931	-0.110735305
124	0x3e44c20a	0.19214645
125	0xbe44bee6	-0.19213447
126	0x3e36ba96	0.17844614
127	0xbe5b7ed2	-0.21435097
128	0x3e4872da	0.19575062
129	0xbddcd719	-0.10783214
130	0xbe3e9962	-0.18613198
131	0x3e4c9186	0.19977388
132	0xbe3039b8	-0.17209518
133	0x3df1156e	0.117716655
134	0x3e067d55	0.13133748
135	0x3d9a38d7	0.075303726
136	0x3e2e171b	0.17001002
137	0x3e3af8e5	0.18259008
138	0xbe51caf5	-0.20487578
139	0xbe033abf	-0.12815379
140	0x3ddb0f03	0.10696223
141	0xbe71ff83	-0.23632626
142	0xbdf69dcf	-0.12041818
143	0xbe298f74	-0.1655863
144	0x3e3dad67	0.18523179
145	0xbe1012ff	-0.14069746
146	0x3e191a51	0.14951445
147	0x3e30ef16	0.17278704
148	0xbdda1fed	-0.106506206
149	0xbe57b083	-0.21063428
150	0xbe1576b6	-0.14596066
151	0xbd658a40	-0.05604005
152	0x3e2e88e8	0.17044413
153	0x3cb97a11	0.022641214
154	0xbcf2e68d	-0.02965095
155	0xbe0b12e6	-0.13581428
156	0x3d7de61b	0.061987024
157	0xbd06332c	-0.032763645
158	0x3db2ec61	0.08736492
159	0xbc8713bb	-0.0164889
160	0x3dc452c3	0.09586098
161	0xbe04d1cf	-0.1297066
162	0x3c8b1853	0.016979372
163	0xbd2b3742	-0.041800745
164	0xbe0242fa	-0.12720862
165	0xbdfe86fe	-0.124280915
166	0x3de6372a	0.112409905
167	0xbdf75c65	-0.1207817
168	0xbd793a77	-0.060846772
169	0x3bf85e2e	0.0075795865
170	0xbda0dd91	-0.078547604
171	0xbd7849ff	-0.060617443
172	0xbdd0e18b	-0.10199269
173	0x3def40e4	0.11682299
174	0xbd768491	-0.06018502
175	0x3da5e7a2	0.08100821
176	0x3afaa8e3	0.0019123818
177	0x3d6dad1e	0.058026426
178	0xbd16bfd5	-0.03680404
179	0x3de757c1	0.112960346
180	0x3d93dbeb	0.072196804
181	0xb9383df6	-0.0001757069
182	0x3d937c57	0.0720145
183	0xbdec6922	-0.1154349
184	0xbe0864f8	-0.13319767
185	0xbe17fb5b	-0.14841978
186	0xbd156385	-0.036471862
187	0xbb26e58a	-0.0025466406
188	0x3db1a99d	0.08674929
189	0x3dfbb2d0	0.12289965
190	0xbdf19d86	-0.11797623
191	0x3d14cd0a	0.036328353
192	0x3de7bcea	0.113153294
193	0x3c8b7100	0.017021656
194	0xbd89073f	-0.06690835
195	0x3dfe545a	0.124184325
196	0x3c27e717	0.010247967
197	0xbdd06b49	-0.10176713
198	0x3e15dc0c	0.14634722
199	0x3da480ee	0.08032404
200	0xbd983cc4	-0.07433465
201	0xbcd30302	-0.02575827
202	0x3df994ab	0.12186559
203	0x3d7e5fe7	0.06210318
204	0x3ca9e5d6	0.020739477
205	0xbdabedf2	-0.08394994
206	0x3ac3a46a	0.0014926319
207	0x3d0088a9	0.03138033
208	0x3d594542	0.053044565
209	0x3cd90e1e	0.02649599
210	0x3d9d3569	0.07676203
211	0xbd8e9209	-0.06961448
212	0xbd3b6357	-0.045749035
213	0x3c09d503	0.008412602
214	0xbdab0a27	-0.08351546
215	0xbd9b5b74	-0.07585803
216	0x3dc41a43	0.095753215
217	0xbd8f6a98	-0.07002753
218	0xbc8e5307	-0.017373575
219	0xbc9aab73	-0.018880581
220	0xbd32097a	-0.04346607
221	0xbba49d65	-0.0050236457
222	0xbd91d84c	-0.071213335
223	0x3da925db	0.082591735
224	0xbbb2ce12	-0.0054566944
225	0x3c9fb1c4	0.019493945
226	0x3d913472	0.07090081
227	0x3c883f27	0.016631676
228	0xbc32ab8a	-0.010905156
229	0x3dacac36	0.08431284
230	0x3cae4fd2	0.021278296
231	0x3da6d391	0.08145822
232	0x3d68297c	0.056680188
233	0xbdcd8fad	-0.100371696
234	0xbd91bede	-0.07116483
235	0xbde59a3c	-0.112110585
236	0x3b914afa	0.0044339867
237	0x3d49363b	0.049123984
238	0x3d4fe0e2	0.050751574
239	0x3dc494df	0.095987074
240	0xbda6a152	-0.08136238
241	0x3acfcced	0.0015853919
242	0x3dadedf8	0.084926546
243	0xbd3e6357	-0.046481457
244	0xbc5b64d6	-0.01339074
245	0x3d9cdff8	0.07659906
246	0x3d592702	0.053015716
247	0xbd56f89a	-0.05248318
248	0x3dd34bb7	0.10317176
249	0x3d016096	0.031586252
250	0x3e0dac8d	0.13835354
251	0x3dc7ef2e	0.09762417
252	0xbe14885e	-0.14505145
253	0x3dac3443	0.08408406
254	0x3dc33c46	0.095329806
255	0x3e0d29a3	0.13785414

shared_encoder.gru_left.bias_ih_l0 f4 [150]
0	0xbd8aef71	-0.06783951
1	0x3d176d6d	0.03696959
2	0xbd27ba21	-0.04094899
3	0x3c87545f	0.016519723
4	0x3be2ff2f	0.006927393
5	0xbd8bc9c4	-0.06825593
6	0x3c9e1b52	0.019300137
7	0xbb829930	-0.0039855465
8	0x3c67cb2b	0.01414756
9	0x3cd4636d	0.025926316
10	0x3c9ab26a	0.018883903
11	0xbda47ef3	-0.08032026
12	0xbb88a544	-0.004170092
13	0x3cb226ed	0.021747077
14	0xbcea4b08	-0.02860023
15	0xbd9a4918	-0.07533473
16	0xbd6e05b0	-0.058110893
17	0xbc5cf681	-0.0134865055
18	0x3c87758c	0.016535543
19	0xbb8832e0	-0.0041564554
20	0xbbbb8b0b	-0.0057233623
21	0x3c04f54c	0.008115124
22	0xbd6eaf62	-0.058272727
23	0xbb9fa2fd	-0.0048717246
24	0xba29c942	-0.0006476828
25	0xbaae1389	-0.0013280968
26	0x3c693618	0.014234088
27	0xbc9276ff	-0.017879007
28	0x3c5646a9	0.01307837
29	0x3b7a5637	0.003819836
30	0x3c2955ce	0.010335399
31	0xbd121ca0	-0.03567183
32	0x3ce0a7ef	0.027423827
33	0xbc2ffd2e	-0.010741515
34	0xbcb3b009	-0.021934526
35	0xbc89533c	-0.016763322
36	0x3ce295b9	0.027659284
37	0xbd2356b0	-0.039877594
38	0x3be73a51	0.0070565124
39	0xbcf6c716	-0.030124228
40	0xbbfbdcd3	-0.0076862364
41	0xbd8f83c9	-0.07007558
42	0xbacf0695	-0.0015794808
43	0x3d18000e	0.037109427
44	0x3ce04846	0.027378213
45	0xbd8b8e69	-0.06814272
46	0x3cb6aa1a	0.022297908
47	0xbd81f5aa	-0.06345685
48	0xbcfaae93	-0.030600822
49	0xbcb53510	-0.022120029
50	0xbe9a1cf3	-0.30100212
51	0xbe1e2120	-0.15442324
52	0xbe9d3139	-0.30701616
53	0xbdabf121	-0.08395601
54	0xbdeed75c	-0.1166217
55	0xbea460d4	-0.32105124
56	0xbe066944	-0.13126093
57	0xbdae690e	-0.08516131
58	0xbe0fe390	-0.14051652
59	0xbdef1ca2	-0.11675383
60	0xbe3b8289	-0.18311514
61	0xbe4b9e24	-0.19884545
62	0xbdba9f84	-0.091124564
63	0xbe0072f0	-0.12543845
64	0xbe88eeef	-0.26744792
65	0xbe6912e6	-0.22761115
66	0xbea1b80a	-0.31585723
67	0xbe21211b	-0.15735285
68	0xbe0236ec	-0.12716264
69	0xbdb37a8a	-0.08763607
70	0xbddda4c8	-0.10822445
71	0xbddec646	-0.108776614
72	0xbe472e39	-0.19451226
73	0xbe85ea32	-0.2615524
74	0xbdb67671	-0.0890931
75	0xbdb75952	-0.089525834
76	0xbdc83f56	-0.09777705
77	0xbd9c232e	-0.076238975
78	0xbdf675ed	-0.12034211
79	0xbe8204ce	-0.2539429
80	0xbdf33ce8	-0.11876851
81	0xbd13afb4	-0.036056235
82	0xbe355632	-0.17708662
83	0xbe8f339c	-0.27969062
84	0xbe709770	-0.23495269
85	0xbeb15af1	-0.34639695
86	0xbe0d7f66	-0.1381813
87	0xbd006ed8	-0.03135571
88	0xbdf55813	-0.119796894
89	0xbe813054	-0.25232184
90	0xbe7c3fd4	-0.24633723
91	0xbca90569	-0.020632463
92	0xbe6b5150	-0.22980237
93	0xbdf36843	-0.11885121
94	0xbe202b47	-0.15641509
95	0xbe2c967a	-0.16854277
96	0xbdd01681	-0.10160542
97	0xbdcee649	-0.10102517
98	0xbe8b7b38	-0.27242446
99	0xbd91bced	-0.07116113
100	0x3cfcc259	0.030854391
101	0x3cec9a21	0.028882088
102	0xbd9a59bc	-0.07536647
103	0x3cae95d7	0.021311684
104	0x3ca4cca5	0.020117113
105	0x3d053661	0.032522563
106	0xbcbe0bfb	-0.023199072
107	0x3c894241	0.016755225
108	0xbcbb671d	-0.022876317
109	0x3cc3ec2b	0.023916325
110	0xbcede172	-0.029038165
111	0x3c60d37e	0.013722299
112	0xbc81485f	-0.01578158
113	0x3cbce2f6	0.023057442
114	0x3ced4d18	0.028967425
115	0x3cb26c26	0.021780085
116	0xbd1784fe	-0.036992066
117	0x3cacaf33	0.021079635
118	0x3cb17a29	0.021664696
119	0xbc88d0b1	-0.016701074
120	0x3c8eb6b5	0.017421106
121	0x3c9d97d9	0.019237446
122	0x3ca44aaa	0.020055134
123	0xbd0ff614	-0.035146788
124	0x3c9506ae	0.018191662
125	0xbc88bab7	-0.016690595
126	0x3ca4f44a	0.020136017
127	0xbc5ae97c	-0.013361331
128	0x3ca1e4ba	0.019762386
129	0xbd100f71	-0.035170976
130	0xbca938e4	-0.02065701
131	0x3c243e21	0.010024578
132	0xbd032973	-0.03202195
133	0x3d170354	0.03686841
134	0x3cda69f1	0.026661845
135	0x3dc1e3dc	0.09467289
136	0x3cd2b78c	0.025722288
137	0x3c12f695	0.008969923
138	0xbca8fadc	-0.020627432
139	0xbce4726a	-0.027886588
140	0x3cf9f825	0.030513832
141	0xbb54daf8	-0.0032479148
142	0xbcf2a829	-0.0296212
143	0xbcddd550	-0.027079254
144	0x3cd819e2	0.02637953
145	0xbc67db92	-0.014151471
146	0x3cbe378f	0.023219852
147	0x3c1df22b	0.009640257
148	0xbcfc126f	-0.030770509
149	0xbc5b6df8	-0.013392918

shared_encoder.gru_left.bias_hh_l0 f4 [150]
0	0xbd8aef74	-0.06783953
1	0x3d176d65	0.03696956
2	0xbd27ba13	-0.04094894
3	0x3c87545e	0.016519722
4	0x3be2ff6a	0.0069274204
5	0xbd8bc9c0	-0.0682559
6	0x3c9e1b4c	0.019300126
7	0xbb829946	-0.003985557
8	0x3c67cb35	0.014147569
9	0x3cd4636c	0.025926314
10	0x3c9ab25f	0.018883882
11	0xbda47ef5	-0.08032028
12	0xbb88a52a	-0.0041700797
13	0x3cb226f3	0.021747088
14	0xbcea4b0a	-0.028600235
15	0xbd9a491c	-0.07533476
16	0xbd6e05b6	-0.058110915
17	0xbc5cf679	-0.013486498
18	0x3c87758d	0.016535545
19	0xbb8832de	-0.0041564545
20	0xbbbb8af3	-0.005723351
21	0x3c04f558	0.008115135
22	0xbd6eaf5f	-0.058272716
23	0xbb9fa307	-0.0048717293
24	0xba29c9a6	-0.00064768863
25	0xbaae13df	-0.0013281069
26	0x3c693610	0.014234081
27	0xbc9276ff	-0.017879007
28	0x3c5646a9	0.01307837
29	0x3b7a560f	0.0038198268
30	0x3c2955d1	0.010335402
31	0xbd121ca6	-0.035671853
32	0x3ce0a7fe	0.027423855
33	0xbc2ffd3a	-0.010741526
34	0xbcb3aff9	-0.021934496
35	0xbc895336	-0.01676331
36	0x3ce295bb	0.027659288
37	0xbd2356af	-0.03987759
38	0x3be73a35	0.0070564994
39	0xbcf6c71e	-0.030124243
40	0xbbfbdcbb	-0.007686225
41	0xbd8f83c1	-0.07007552
42	0xbacf06d5	-0.0015794883
43	0x3d180007	0.0371094
44	0x3ce04840	0.027378201
45	0xbd8b8e69	-0.06814272
46	0x3cb6aa14	0.022297896
47	0xbd81f5a6	-0.06345682
48	0xbcfaae97	-0.030600829
49	0xbcb5350f	-0.022120027
50	0xbe9a1cf3	-0.30100212
51	0xbe1e211e	-0.1544232
52	0xbe9d3135	-0.30701604
53	0xbdabf11f	-0.083955996
54	0xbdeed75e	-0.11662172
55	0xbea460d4	-0.32105124
56	0xbe066946	-0.13126096
57	0xbdae6918	-0.08516139
58	0xbe0fe390	-0.14051652
59	0xbdef1ca5	-0.116753854
60	0xbe3b8287	-0.18311511
61	0xbe4b9e22	-0.19884542
62	0xbdba9f84	-0.091124564
63	0xbe0072ef	-0.12543844
64	0xbe88eef0	-0.26744795
65	0xbe6912e6	-0.22761115
66	0xbea1b808	-0.31585717
67	0xbe212119	-0.15735282
68	0xbe0236eb	-0.12716262
69	0xbdb37a84	-0.087636024
70	0xbddda4cd	-0.10822449
71	0xbddec64a	-0.108776644
72	0xbe472e36	-0.19451222
73	0xbe85ea32	-0.2615524
74	0xbdb67671	-0.0890931
75	0xbdb75955	-0.089525856
76	0xbdc83f56	-0.09777705
77	0xbd9c2331	-0.076239
78	0xbdf675ed	-0.12034211
79	0xbe8204cb	-0.25394282
80	0xbdf33ceb	-0.118768536
81	0xbd13afbe	-0.036056273
82	0xbe355633	-0.17708664
83	0xbe8f33a1	-0.27969077
84	0xbe709770	-0.23495269
85	0xbeb15af4	-0.34639704
86	0xbe0d7f67	-0.13818131
87	0xbd006edd	-0.031355727
88	0xbdf55818	-0.11979693
89	0xbe813053	-0.2523218
90	0xbe7c3fd2	-0.2463372
91	0xbca9055a	-0.020632435
92	0xbe6b5154	-0.22980243
93	0xbdf36845	-0.11885122
94	0xbe202b49	-0.15641512
95	0xbe2c967b	-0.16854279
96	0xbdd01687	-0.10160547
97	0xbdcee652	-0.10102524
98	0xbe8b7b38	-0.27242446
99	0xbd91bcea	-0.071161106
100	0x3cfbdc65	0.03074474
101	0x3ce80207	0.02832128
102	0xbd911f30	-0.07086027
103	0x3cb1b435	0.021692375
104	0x3ca011c7	0.019539727
105	0x3d040c1d	0.032238115
106	0xbcba7acc	-0.022763632
107	0x3c84be0b	0.0162039
108	0xbcb47f0b	-0.022033235
109	0x3cc2da11	0.023785623
110	0xbcdf6769	-0.02727099
111	0x3c4f3021	0.012645752
112	0xbc799e4d	-0.015235496
113	0x3cb7e94a	0.022450108
114	0x3cda7b2d	0.026670063
115	0x3ca4e692	0.020129476
116	0xbd11979c	-0.035544977
117	0x3c9f2020	0.019424498
118	0x3cad91a2	0.021187607
119	0xbc85e6db	-0.016345432
120	0x3c89ddbd	0.016829366
121	0x3c99f5b2	0.018793914
122	0x3c968131	0.01837215
123	0xbd06b742	-0.032889612
124	0x3c8f2b3e	0.017476674
125	0xbc84788c	-0.016170762
126	0x3ca41523	0.02002961
127	0xbc4f4149	-0.012649843
128	0x3c9eea07	0.019398702
129	0xbd06ac9b	-0.032879453
130	0xbca470d6	-0.020073336
131	0x3c162165	0.009163235
132	0xbcfd0674	-0.030886866
133	0x3d0b9b8c	0.034083888
134	0x3cc93715	0.024562398
135	0x3db9a2dd	0.09064267
136	0x3cd1a83c	0.025592916
137	0x3c030428	0.007996596
138	0xbca30dac	-0.01990398
139	0xbcd10c4a	-0.025518555
140	0x3ce60a37	0.028081043
141	0xbb0111ac	-0.001969437
142	0xbcdaddfb	-0.026717177
143	0xbce17964	-0.027523704
144	0x3cd7782b	0.026302418
145	0xbc506c90	-0.012721196
146	0x3cc068b4	0.023487426
147	0x3c105ebd	0.00881165
148	0xbce6a8ce	-0.028156664
149	0xbc4f868d	-0.012666357

shared_encoder.gru_left.weight_ih_l0_reverse f4 [150, 50]
0	0x3cc541e3	0.024079269
1	0xbda637b2	-0.08116092
2	0x3d260f62	0.040542014
3	0x3cd4f0e0	0.025993764
4	0x3d11c7ac	0.035590813
5	0x3c98fc46	0.01867498
6	0xbceebad4	-0.029141821
7	0x3c91678d	0.017749572
8	0xbca0a04a	-0.019607682
9	0x3c213a30	0.009840533
10	0xbd115f42	-0.035491236
11	0x3d2b5402	0.041828163
12	0x3c9fce1b	0.019507458
13	0x3d0e5326	0.034747265
14	0x3c0459b1	0.008078025
15	0x3d24ef58	0.04026732
16	0xbd5f5d0d	-0.0545321
17	0x3c2b0a84	0.010439519
18	0xbc96e352	-0.018418942
19	0x3c13f8e3	0.009031507
20	0xbd514774	-0.051093534
21	0x3da18730	0.07887113
22	0x3d3e9e0d	0.046537448
23	0x3cbf1316	0.02332453
24	0x3c8a4785	0.016879806
25	0xbd5c1438	-0.05373022
26	0xbc8ced28	-0.017202929
27	0x3c82938b	0.015939495
28	0x3d599bb9	0.053127024
29	0xbd1524f0	-0.03641218
30	0xbd78d973	-0.06075425
31	0xbc6aac84	-0.0143233575
32	0xbcd7bef7	-0.026336176
33	0xbd9ca03d	-0.076477505
34	0x3d023d82	0.03179694
35	0xbc16e144	-0.009208981
36	0x3bba7dfe	0.005691289
37	0x3c8c8bf6	0.017156582
38	0x3cc5c2d9	0.024140762
39	0x3c8a287b	0.016865006
40	0xbd1f3ce2	-0.03887642
41	0x3c505fdd	0.012718168
42	0xbc98ddca	-0.018660445
43	0xbd23df7f	-0.040008064
44	0x3d331836	0.04372426
45	0x3cb9d50f	0.022684602
46	0x3c6c0b26	0.014406955
47	0x3c9879d0	0.018612772
48	0x3d151c66	0.036404036
49	0xbcbf4d08	-0.023352161
50	0x3d217ddc	0.03942667
51	0xbd814e83	-0.06313803
52	0x3d341317	0.043963518
53	0x3d2ce9c2	0.042215116
54	0x3cf88ae2	0.030339662
55	0x3d518549	0.0511525
56	0xbceff706	-0.029292595
57	0x3b9762f9	0.0046199528
58	0xbd14905d	-0.036270488
59	0xbac61812	-0.0015113375
60	0xbcd43e9e	-0.025908764
61	0x3d23dfb5	0.040008266
62	0x3c424a68	0.01185856
63	0x3cf34d2c	0.029699884
64	0x3d0de573	0.034642648
65	0x3c647e9b	0.013946201
66	0xbd595497	-0.053059187
67	0x3ba488ca	0.0050211893
68	0xbc9e26a2	-0.019305531
69	0x3bc594c0	0.0060296953
70	0xbd7c1020	-0.061538815
71	0x3da8b75d	0.08238099
72	0x3d5e3baf	0.054256137
73	0x3ca98ef9	0.020698057
74	0x3d20ab60	0.039225936
75	0xbd4108e3	-0.047127616
76	0xbcc64d0e	-0.024206664
77	0x3d08dacd	0.03341179
78	0x3d841e24	0.06451061
79	0xbc4371ce	-0.011928989
80	0xbd9997cd	-0.07499657
81	0xbcbbc2d2	-0.022920046
82	0xbcddf837	-0.027095897
83	0xbd9ef5e4	-0.07761744
84	0x3d43c545	0.047795553
85	0xbcd82ac2	-0.026387576
86	0x3ce3f5fe	0.02782726
87	0x3ce624c2	0.0280937
88	0x3d8616b8	0.06547302
89	0x3c31eebc	0.010860141
90	0xbcf30071	-0.029663296
91	0x3d16fbd2	0.03686125
92	0xbd1f89ef	-0.038949903
93	0xbd25a775	-0.040442903
94	0x3d28b870	0.04119152
95	0x3c0a856a	0.00845466
96	0x3d34b525	0.044118065
97	0x3c8947e6	0.016757917
98	0x3cccbfcc	0.0249938
99	0xbca63d1e	-0.020292815
100	0x3d52ed6a	0.051495947
101	0xbda9bcfa	-0.082879975
102	0x3d7c60e4	0.06161584
103	0x3d2b0aec	0.041758463
104	0x3d9980d3	0.074952744
105	0x3d8fac68	0.07015306
106	0xbcd4cbee	-0.025976148
107	0x3c6d4b9a	0.014483357
108	0xbc93038b	-0.017946025
109	0x3c854929	0.016270237
110	0xbd5696c3	-0.05238987
111	0x3d0d3cf9	0.034481976
112	0x3d335b34	0.04378815
113	0x3d5e62c2	0.0542934
114	0x3cd28e04	0.025702484
115	0x3d21f8ba	0.039543845
116	0xbd780fcf	-0.06056195
117	0x3d0dd215	0.034624178
118	0xbc491a2a	-0.012274304
119	0x3d0d9d94	0.034574106
120	0xbd67b788	-0.056571513
121	0x3dc3df35	0.09564058
122	0x3d5bb892	0.053642817
123	0x3d0b76dc	0.0340489
124	0x3d4f9d13	0.050686907
125	0xbd9a4fed	-0.07534776
126	0xbc8a5f80	-0.016891241
127	0x3d8d4ca6	0.06899385
128	0x3daf7694	0.08567539
129	0xbd1d9f6b	-0.03848211
130	0xbdaeaaf5	-0.08528701
131	0xbd795eb2	-0.060881324
132	0xbd1900f4	-0.037354425
133	0xbde9a95e	-0.11409257
134	0x3d6683ea	0.056278147
135	0xbd94cd5c	-0.07265732
136	0x3d40652e	0.046971492
137	0x3d7a2565	0.06107082
138	0x3d6a7dba	0.05724881
139	0x3d10ba0c	0.035333678
140	0xbd5e568a	-0.05428175
141	0x3d3ec437	0.046573844
142	0xbd587115	-0.05284222
143	0xbd6fd165	-0.058549304
144	0x3d8cc465	0.06873397
145	0x3cab60ad	0.020920122
146	0x3d379dd0	0.044828236
147	0x3cfa7c7a	0.030576933
148	0x3d0298eb	0.031884115
149	0xbce647c4	-0.028110392
150	0x3bd8932a	0.00660934
151	0xbd62e411	-0.055393282
152	0x3c91abaa	0.017782051
153	0x3d1bba59	0.03801951
154	0x3ce0e18d	0.027451301
155	0x3c06fbf0	0.0082387775
156	0x3ba11107	0.00491536
157	0x3c7f5f64	0.015586708
158	0x3bcad3d1	0.0061898013
159	0xbb6caf41	-0.0036115202
160	0xbc91868f	-0.017764358
161	0xbaed7750	-0.0018117223
162	0x3d37133d	0.04469608
163	0x3d221270	0.039568365
164	0x3be5917c	0.0070058685
165	0x3c4a0450	0.01233013
166	0xbd40f294	-0.04710634
167	0xbce44d6c	-0.027868949
168	0x3cbb8993	0.022892749
169	0xbba174a2	-0.004927234
170	0xbd19c8a9	-0.03754488
171	0x3d99a8e0	0.075029135
172	0x3b98fae1	0.004668579
173	0xbc952885	-0.018207798
174	0x3ad70f6e	0.0016407797
175	0xbd203b79	-0.039119218
176	0xbc509b4d	-0.012732339
177	0x3c8436f5	0.016139487
178	0x3ce47be5	0.027891109
179	0xbca597f6	-0.020214062
180	0xbd023954	-0.031792954
181	0xbd03f36b	-0.032214563
182	0xbcd78d99	-0.026312636
183	0xbd73e3ae	-0.059543304
184	0x3c14373f	0.009046375
185	0xbbbe5e44	-0.005809577
186	0x3c00f9d6	0.0078720655
187	0x3ca31e13	0.019911801
188	0x3cf635a6	0.030054878
189	0xbc570616	-0.01312401
190	0xbbfd0097	-0.0077210176
191	0x3d09f42c	0.033680126
192	0xbcfd4c45	-0.030920157
193	0xbccab0b8	-0.02474247
194	0x3ce18619	0.027529763
195	0xbb7a0e46	-0.003815548
196	0xbbc73ece	-0.006080485
197	0x3bcefef9	0.006317016
198	0xbc0bf494	-0.008542199
199	0xbb83b624	-0.0040195156
200	0x3cff1d49	0.031141894
201	0xbdb82d59	-0.089930244
202	0x3d46cb4d	0.048533726
203	0x3d0d36da	0.03447614
204	0x3d3c8830	0.046028316
205	0x3d1b6383	0.0379367
206	0xbcfeaf94	-0.031089582
207	0x3d23ac0a	0.03995899
208	0xbd14f7c4	-0.0363691
209	0xbc1adbde	-0.0094518345
210	0xbcc22d8c	-0.023703359
211	0x3d002493	0.03128488
212	0x3d4daf55	0.050216038
213	0x3d7d2009	0.06179813
214	0x3c9ae03c	0.018905751
215	0x3d08b079	0.033371422
216	0xbd89156f	-0.06693541
217	0xbbeb6dad	-0.007184705
218	0xbbca4652	-0.0061729336
219	0x3ccee183	0.025254017
220	0xbd941ca0	-0.07232022
221	0x3de9e94b	0.1142145
222	0x3cb6eccc	0.02232971
223	0x3cedeeb1	0.029044481
224	0x3d3bbbee	0.04583352
225	0xbd343409	-0.043994937
226	0xb9b458d5	-0.0003439846
227	0x3da6d5bb	0.081462346
228	0x3d7ed07b	0.06221054
229	0xbd5fa296	-0.054598413
230	0xbd3abc8c	-0.04558997
231	0xbd4a287f	-0.049355026
232	0xbcf83f5e	-0.030303653
233	0xbdc28cbc	-0.09499499
234	0x3d49bcc4	0.049252287
235	0xbd15e6e9	-0.036597166
236	0x3be34274	0.006935412
237	0x3d2424ec	0.040074274
238	0x3d217bae	0.03942459
239	0x3bbc2a39	0.005742338
240	0xbd21eaa9	-0.03953043
241	0x3d938a04	0.07204059
242	0xbd21f5cf	-0.039541062
243	0xbd4d4543	-0.05011488
244	0x3d4f4d7f	0.050611015
245	0xbc8b037b	-0.016969433
246	0x3cc5a23d	0.024125213
247	0x3d04dad1	0.032435242
248	0xbca011c2	-0.019539718
249	0xbcfd30e5	-0.030907104
250	0x3c6ba4c1	0.014382542
251	0xbd7c7671	-0.061636392
252	0x3d2978e9	0.041375075
253	0x3c855774	0.016277052
254	0x3cf42f34	0.029807664
255	0xbaefc855	-0.0018293957

shared_encoder.gru_left.weight_hh_l0_reverse f4 [150, 50]
0	0x3d3f9fa9	0.046783123
1	0xbd8002fb	-0.062505685
2	0xbdaa8d59	-0.08327741
3	0x3be85370	0.0070900247
4	0x3d020d66	0.03175106
5	0x3cf30d78	0.029669508
6	0x3c929603	0.017893797
7	0x3d25c1f4	0.04046817
8	0x3d66fefd	0.05639552
9	0x3d49f2b4	0.049303725
10	0xbd7d393d	-0.061822165
11	0x3d80e8b7	0.06294387
12	0xbd2d10b5	-0.04225226
13	0xbc726883	-0.014795425
14	0x3d77821e	0.060426824
15	0x3d82bfdf	0.06384253
16	0xbd2a5c92	-0.04159219
17	0x3cb0d2a4	0.021584816
18	0x3d991059	0.07473821
19	0x3d511a15	0.051050264
20	0xbd1f8509	-0.03894523
21	0xbd32b387	-0.043628242
22	0xbd811f83	-0.063048385
23	0xbd3673fb	-0.0445442
24	0x3d45374f	0.04814845
25	0x3c8b671f	0.017016945
26	0x3d60b553	0.054860424
27	0x3d862c33	0.06551399
28	0x3da55d2d	0.080744125
29	0x3d892be4	0.066978246
30	0x3cf0d2c5	0.029397378
31	0xbd1ce073	-0.03829999
32	0x3ce922d2	0.028458986
33	0xbd6749ce	-0.05646687
34	0x3d65c4ef	0.056096014
35	0xbd8ccea6	-0.068753526
36	0xbd0b2948	-0.033974916
37	0x3d52adb1	0.051435176
38	0x3dbc60ed	0.091981746
39	0x3d0524cf	0.032505807
40	0xbcc06293	-0.023484504
41	0x3d989047	0.07449394
42	0xbd23a176	-0.039948903
43	0x3ce02fc2	0.027366523
44	0xbc43fd36	-0.011962226
45	0x3cfc7c7e	0.030821081
46	0xbcf88a11	-0.030339273
47	0x3cc278b0	0.023739189
48	0x3d2cff2d	0.042235542
49	0xbcd3455b	-0.025789907
50	0x3c97de16	0.018538516
51	0xbd682af6	-0.056681596
52	0xbd88d8e6	-0.06681995
53	0x3c39d268	0.011341669
54	0x3c847fc2	0.0161742
55	0x3ce0bbc5	0.027433285
56	0x3c9af368	0.018914893
57	0x3cdf664b	0.027270457
58	0x3ca7c402	0.020479206
59	0x3cca7eb5	0.024718622
60	0xbd1f086d	-0.038826395
61	0x3ce97215	0.028496781
62	0xbd311ad1	-0.043238465
63	0xbca0c142	-0.019623403
64	0x3d47b230	0.048753917
65	0x3d70e32e	0.058810405
66	0xbcc8a45f	-0.02449244
67	0x3c42b6f6	0.011884442
68	0x3d605713	0.05477054
69	0x3d0463d0	0.03232175
70	0xbd53f230	-0.05174464
71	0xbcada2c3	-0.021195775
72	0xbd429cd9	-0.047512863
73	0xbc839199	-0.016060637
74	0x3c3bb538	0.01145678
75	0x3c54b30a	0.012982139
76	0x3d7b6e6e	0.06138461
77	0x3d6440cd	0.05572586
78	0x3d3540b9	0.044251177
79	0x3d782f16	0.06059178
80	0x3cc284ed	0.023745025
81	0xbc3ed95d	-0.011648503
82	0x3ca5108d	0.020149494
83	0xbd9ef5ed	-0.0776175
84	0x3cba3384	0.022729643
85	0xbd6824ee	-0.056675844
86	0xbc3df7a1	-0.011594684
87	0x3d290f29	0.041274223
88	0x3d6fd15a	0.058549263
89	0x3c513c46	0.012770718
90	0xbc24ff80	-0.010070682
91	0x3d11cd31	0.035596076
92	0xbc839eb0	-0.016066879
93	0x3d065e0b	0.03280453
94	0xbae323d6	-0.0017329406
95	0x3cd6082a	0.02612694
96	0xbce5e6b2	-0.028064106
97	0x3ccfed02	0.025381569
98	0x3d1d8628	0.03845802
99	0xbd06b989	-0.032891784
100	0x3ce8d211	0.02842048
101	0xbd1ba09c	-0.037994966
102	0xbd42eac6	-0.04758718
103	0x3a38e872	0.000705368
104	0x3c1e2e53	0.009654599
105	0x3c71ac25	0.014750515
106	0x3bac4d04	0.0052582044
107	0x3d51aea3	0.051191937
108	0x3d709d9f	0.05874407
109	0x3ceb162d	0.028697098
110	0xbd7105e9	-0.058843527
111	0x3d0d624c	0.03451757
112	0xbd38e5de	-0.045141093
113	0x3c3385dd	0.010957208
114	0x3d839848	0.0642553
115	0x3d8cf33b	0.0688233
116	0xbc6a3b22	-0.014296325
117	0x3c91d43e	0.0178014
118	0x3d96ecac	0.0736936
119	0x3d4c63fe	0.049900047
120	0xbd9ba356	-0.07599513
121	0xbd34f854	-0.044182137
122	0xbd504769	-0.050849352
123	0xbd1d8185	-0.038453598
124	0x3c55ccd0	0.013049319
125	0xbaa5cebe	-0.0012650115
126	0x3d49ef12	0.04930026
127	0x3d939e72	0.072079554
128	0x3d860ef9	0.065458246
129	0x3dbce568	0.09223443
130	0x3c1fe04e	0.009758068
131	0xbc32516f	-0.010883673
132	0x3d521d26	0.05129733
133	0xbd86a2e0	-0.06574035
134	0x3d402d55	0.046918232
135	0xbd4c65c6	-0.049901746
136	0xbae2e0de	-0.0017309447
137	0x3cece1fd	0.028916353
138	0x3d8cc8f4	0.06874266
139	0x3c8daed8	0.017295286
140	0xb9f0f7f6	-0.00045961112
141	0x3d9b7e70	0.075924754
142	0xbccccd66	-0.025000285
143	0x3c7fdd3c	0.015616711
144	0xbc9da782	-0.019244913
145	0xbca35ddb	-0.019942215
146	0xbc30179f	-0.010747819
147	0x3c52065b	0.012818898
148	0x3d267ce4	0.04064645
149	0xbc6b6a05	-0.014368539
150	0x3d22dd94	0.039762095
151	0xbd43b5d3	-0.047780823
152	0xbd37ba00	-0.044855118
153	0x3d3809e6	0.044931315
154	0x3d035206	0.032060646
155	0x3d2466c7	0.04013708
156	0x3d551db9	0.0520303
157	0x3d0e7d0d	0.034787226
158	0x3d2f73ac	0.042834923
159	0x3d12b4da	0.035817005
160	0xbd59d97f	-0.053185936
161	0x3d301125	0.0429851
162	0xbd23fbfe	-0.04003524
163	0xbd24af60	-0.040206313
164	0x3cca95c3	0.024729615
165	0x3d4c7582	0.04991675
166	0xbd487737	-0.048941817
167	0x3d86b798	0.065779865
168	0x3d3667c2	0.044532545
169	0x3d30458e	0.043035083
170	0xbce0befc	-0.027434818
171	0xbd513d92	-0.05108411
172	0xbd69ed3d	-0.057111014
173	0xbd34005d	-0.04394566
174	0x3d145459	0.036213253
175	0x3cbe23f5	0.023210505
176	0x3d425098	0.04744014
177	0x3d5024ea	0.050816454
178	0x3d9c3655	0.076275505
179	0x3d335939	0.04378626
180	0x3c984adf	0.018590389
181	0xbc891bcd	-0.01673689
182	0x3d6f1da6	0.058377884
183	0xbd70c660	-0.058782935
184	0x3d21dc26	0.03951659
185	0xbd83e4b8	-0.06440109
186	0xbd22c406	-0.039737724
187	0x3d7f76e6	0.06236925
188	0x3d3839dd	0.044977058
189	0x3d3d2600	0.046178818
190	0xbd71fc9a	-0.05907879
191	0x3d65cb60	0.056102157
192	0xbd411dcc	-0.047147557
193	0x3cdf55d3	0.027262604
194	0xbcffd8e2	-0.031231347
195	0x3d34c57b	0.044133645
196	0xbd6863d0	-0.056735814
197	0x3d03f9bc	0.032220587
198	0x3d1ca22f	0.038240608
199	0xbd36a762	-0.044593222
200	0x3d819ddf	0.0632894
201	0xbd8dc4cd	-0.069223024
202	0xbd903554	-0.070414215
203	0x3d20a203	0.039217006
204	0x3cd65050	0.026161343
205	0x3d581413	0.05275352
206	0x3d3ca7e5	0.046058554
207	0x3d37eb99	0.044902418
208	0x3db220fe	0.08697699
209	0x3da588af	0.08082711
210	0xbda579a4	-0.08079842
211	0x3db797ee	0.08964525
212	0xbd8ec84c	-0.06971797
213	0xbd1f0a78	-0.038828343
214	0x3d86703a	0.06564374
215	0x3d9c5b99	0.07634658
216	0xbd57d1a7	-0.052690174
217	0x3d78e899	0.060768697
218	0x3da47442	0.08029987
219	0x3d6ba06b	0.057526033
220	0xbd321344	-0.043475404
221	0xbd7c925b	-0.061663013
222	0xbdb592ee	-0.08865915
223	0xbd8fb81f	-0.0701754
224	0x3d6b4638	0.057440013
225	0x3d471eae	0.048613243
226	0x3d39c6c7	0.045355584
227	0x3d2054db	0.039143424
228	0x3dac2179	0.08404822
229	0x3d7e6cd9	0.062115524
230	0x3d0926cb	0.03348426
231	0xbd6643db	-0.056217056
232	0x3d8f8930	0.07008588
233	0xbddbe09c	-0.107362
234	0x3d4e2080	0.050323963
235	0xbd800d01	-0.0625248
236	0xbd0d348e	-0.03447395
237	0x3d86ef4a	0.065886095
238	0x3dbd3668	0.09238893
239	0x3d960912	0.07325949
240	0xbd274142	-0.04083372
241	0x3dc73cd9	0.09728403
242	0xbd8cf1fe	-0.06882094
243	0x3d864817	0.06556719
244	0xbd14ea89	-0.036356483
245	0x3d5392de	0.051653735
246	0xbd4a4126	-0.049378537
247	0x3d4de3f4	0.05026622
248	0x3d54f3dc	0.051990375
249	0xbd4511d7	-0.048112717
250	0x3d3e54d6	0.046467625
251	0xbd9ced62	-0.07662465
252	0xbdb069b0	-0.08613908
253	0x3cc1b722	0.023646895
254	0x3d2b303c	0.041794047
255	0x3d211666	0.039328

shared_encoder.gru_left.bias_ih_l0_reverse f4 [150]
0	0xbced3b33	-0.028958892
1	0xbd80d094	-0.06289783
2	0xbd8754ec	-0.066079944
3	0xbd32ee2d	-0.043684173
4	0xbd53e6eb	-0.051733892
5	0xbd414703	-0.047186863
6	0xbcf133d7	-0.029443664
7	0xbe1a9867	-0.150972
8	0xbd7fd899	-0.062462423
9	0xbd321616	-0.043478094
10	0xbd31afa9	-0.043380413
11	0xbd09f5e6	-0.033681773
12	0xbd1209d8	-0.03565392
13	0xbd44b1de	-0.04802119
14	0xbdaabcf7	-0.083368234
15	0xbd8e3859	-0.06944341
16	0xbd158b33	-0.036509704
17	0xbd561342	-0.05226446
18	0xbe3301e9	-0.17481197
19	0xbcb68c46	-0.022283684
20	0xbebbf02b	-0.3670667
21	0xbccbc47b	-0.024873963
22	0xbd315995	-0.043298323
23	0xbd2f3fbb	-0.042785387
24	0xbd2bd4f0	-0.04195112
25	0xbd25ecad	-0.040508915
26	0xbe3d863c	-0.18508238
27	0xbea6a354	-0.32546484
28	0xbe012af4	-0.12614042
29	0xbdfe23a3	-0.12409141
30	0xbd570d21	-0.052502755
31	0xbd485d87	-0.04891732
32	0xbd07581e	-0.03304302
33	0xbd65e430	-0.05612582
34	0xbd482eed	-0.048872877
35	0xbd83b3dc	-0.0643079
36	0xbd2a5ca3	-0.04159225
37	0xbd1dd4fe	-0.038533203
38	0xbeb05fc9	-0.34448078
39	0xbd359011	-0.044326846
40	0xbd460fc2	-0.04835487
41	0xbe076efb	-0.1322593
42	0xbd36c864	-0.0446247
43	0xbd20e2e5	-0.039278883
44	0xbd6409ce	-0.055673413
45	0xbd6877ce	-0.05675488
46	0xbd240bf9	-0.04005048
47	0xbd3dbb9c	-0.046321496
48	0xbd0108e3	-0.031502616
49	0xbcfb3af2	-0.030667756
50	0x3d522e25	0.051313538
51	0x3e09647f	0.13417242
52	0x3dea0412	0.114265576
53	0x3d7996bf	0.06093478
54	0x3d875ac4	0.06609109
55	0x3dac9b55	0.08428065
56	0x3d643a6c	0.055719778
57	0x3e28c060	0.16479635
58	0x3e04639f	0.12928627
59	0x3d9bef88	0.07614046
60	0x3dc243e4	0.09485605
61	0x3d877d59	0.06615705
62	0x3da493bb	0.0803599
63	0x3d5e0597	0.05420455
64	0x3e0bad55	0.1364034
65	0x3db5dd5d	0.08880112
66	0x3d6cfdf2	0.05785937
67	0x3d912982	0.07087995
68	0x3da91403	0.0825577
69	0x3dc0a770	0.09406936
70	0x3e7f29c3	0.24918275
71	0x3d58f807	0.052970912
72	0x3d899beb	0.06719192
73	0x3da94623	0.08265331
74	0x3d87ddc0	0.06634092
75	0x3d7a5162	0.06111277
76	0x3e28a097	0.1646751
77	0x3e8405dd	0.25785723
78	0x3e21c2b3	0.15796928
79	0x3da488ef	0.080339305
80	0x3da9f59b	0.08298799
81	0x3d89c6fc	0.067274064
82	0x3daddb75	0.08489124
83	0x3de858ae	0.11345039
84	0x3dd6c363	0.10486486
85	0x3e053f83	0.13012509
86	0x3d8f9bee	0.07012163
87	0x3d8aebe7	0.06783276
88	0x3e57670b	0.21035402
89	0x3d876ce0	0.06612563
90	0x3d95a91e	0.07307647
91	0x3e2a003c	0.16601652
92	0x3da85a10	0.08220303
93	0x3d9ac957	0.07557934
94	0x3dc1a508	0.09455305
95	0x3db44f4c	0.08804187
96	0x3d8b638e	0.06806098
97	0x3d91fb35	0.07127992
98	0x3d69d562	0.057088263
99	0x3da3c7a1	0.079970606
100	0xbc4587b5	-0.012056281
101	0x3be60c13	0.0070204823
102	0x3bd93965	0.0066291564
103	0xbc537427	-0.012906111
104	0xbc766f90	-0.015041247
105	0xbc771303	-0.015080216
106	0xbc1234a4	-0.008923683
107	0x3ad0dc0e	0.0015934722
108	0xbb3b86aa	-0.0028614202
109	0xbcb31c48	-0.021864071
110	0x3c5d6300	0.013512373
111	0xbc8ce259	-0.017197775
112	0x3c380f51	0.0112341205
113	0x3c9ec3c4	0.019380458
114	0xba95a1b5	-0.001141599
115	0xbbf3adaf	-0.007436476
116	0x3c6dfba7	0.014525331
117	0xbc95ae93	-0.01827172
118	0xbad97ab4	-0.0016592355
119	0xbbf1a603	-0.0073745265
120	0xbc900975	-0.017582634
121	0x3c2e8c49	0.010653564
122	0x3c9aa3cb	0.01887693
123	0x3c6eff28	0.014587201
124	0xbc4ce7a5	-0.0125064
125	0xbcba2ce9	-0.022726493
126	0x3b863336	0.0040954603
127	0x3bf17b66	0.0073694466
128	0xbc0e3a19	-0.008680844
129	0xbc07e717	-0.008294842
130	0xbc859245	-0.016305098
131	0x3c623931	0.013807581
132	0xbc00954e	-0.007848097
133	0x3c43ddee	0.011954768
134	0xbc09275e	-0.008371202
135	0x3c1c4d8a	0.009539971
136	0x3c82e06a	0.01597615
137	0xbc8a82de	-0.016908105
138	0xbc887e86	-0.016661894
139	0xbcabf478	-0.020990595
140	0x3c717a82	0.014738681
141	0xbc940769	-0.01806994
142	0x3c8537d4	0.016261972
143	0xbc81709f	-0.015800772
144	0x3c8e545f	0.017374216
145	0xbc73f8be	-0.014890848
146	0x3ca39938	0.019970521
147	0xbc92bc54	-0.017912067
148	0xbc654e89	-0.013995775
149	0x3c05f79b	0.0081767095
