checkpoints/Nitrate6_0103.pt (torch_old, 444769 bytes, 32 tensors)

shared_encoder.input_linear.weight f4 [50, 6]
-0.17310521 -0.18448998 0.15088631 -0.07815048 0.14949828 0.012835505 0.01326206 -0.029701684
-0.23211296 0.008076851 0.090918876 0.05138982 -0.026735011 -0.11266439 0.20421901 0.025020357
0.069825 0.036788914 -0.034865983 0.1454842 0.16483548 0.048759952 -0.15884718 -0.0981571
-0.05710447 0.05116517 -0.25704166 -0.03706856 0.1408543 0.057479173 -0.27101716 0.15040502
0.029695129 0.15486513 -0.062671855 -0.09152336 0.049289312 0.0048491885 -0.18151934 -0.0335532
0.07215928 0.06583727 -0.18345243 0.25957766 0.06714371 -0.021771763 -0.2275296 0.14945778
-0.013923157 -0.17658609 -0.15691993 -0.03711592 0.11947373 0.04644645 -0.15639065 0.1488455
0.114806205 0.02962178 -0.1164263 -0.02996719 0.1417279 -0.09971462 -0.16702874 -0.055452656
0.14297758 -0.007993639 -0.24429065 0.0086685745 0.121177986 0.04757028 0.002522577 0.0026665013
0.22568692 0.053105213 -0.16206953 0.0057295104 -0.0024985191 -0.017995825 -0.0948221 -0.068173245
0.19999139 -0.055599622 -0.026218096 0.1020518 -0.18854423 -0.005327611 0.10136829 0.120069966
-0.04756029 -0.091831684 -0.049575444 0.030740576 0.19911228 -0.06361327 -0.060718898 0.04201029
-0.085697 0.092092656 -0.22492634 0.0043394743 0.011903653 0.022799378 -0.03226783 0.015229732
0.14919826 -0.04254437 -0.062123355 0.041693304 0.07742489 0.11773174 -0.19545409 -0.003662349
-0.010433383 0.057484828 -0.037643187 0.17893909 0.13692603 0.005942452 -0.18323348 -0.019612676
0.064253725 0.040514596 -0.20711708 -0.034212537 -0.0025425889 0.013345982 0.0069832164 -0.16510828
0.23027806 0.051762193 0.028092826 0.02152603 0.05917529 0.043141395 0.19341947 -0.06570262
-0.17832835 0.04407819 0.05947757 -0.018862579 0.22762638 -0.038373236 -0.104138225 0.033920754
-0.33299473 0.00901584 0.04190322 -0.087948166 0.039293464 0.14045206 -0.17851718 -0.1826713
0.15091024 -0.016775858 0.13654512 0.03016706 -0.012643179 -0.033105433 -0.2276505 -0.004132152
0.051236976 -0.03583687 -0.0065783733 0.06524013 -0.20440233 0.0490273 0.09202204 -0.06317725
-0.32634264 -0.09371062 -0.04059298 0.087485544 0.12231364 -0.004690006 -0.009645377 -0.0015570072
-0.17945105 -0.004456928 0.063513234 -0.020364406 0.05742919 -0.07462566 -0.17304993 -0.056304146
0.074921526 0.036439974 0.18381055 -0.029972943 -0.11055254 -0.056969028 0.08601822 -0.0049504433
0.04796813 -0.035747714 -0.17497565 -0.064432375 0.08609075 0.020305274 0.034925662 -0.11812521
-0.14131874 0.009150089 0.14794141 0.021883084 0.03082065 -0.017615363 0.23732576 -0.058018506
-0.048223156 -0.0011845554 0.12701051 0.16311067 -0.20903106 -0.037496142 -0.11020755 0.020314729
-0.27201146 0.20090741 0.047749475 0.045175325 -0.19388522 0.020805608 -0.25452426 -0.06055343
0.08629298 0.09547155 0.069203384 -0.032921147 -0.1183591 -0.032884486 0.19479139 0.030934108
-0.01773678 0.0109966425 -0.09992884 0.008652913 0.16846469 0.010925215 -0.051272433 -0.00937224
0.08492517 0.066569775 -0.16949049 0.0554622 0.014923491 -0.13815078 -0.03804679 -0.04824034
0.18330842 0.13724908 -0.040467344 -0.15808071 0.045837235 0.045322716 -0.18576384 -0.039929543
00000000: 7e42 31be f1ea 3cbe f181 1a3e 5c0d a0bd
00000010: 1416 193e 034c 523c 1c49 593c f250 f3bc
00000020: 05af 6dbe c554 043c ad33 ba3d 227e 523d
00000030: 6203 dbbc 96bc e6bd ca1e 513e 7ef7 cc3c
00000040: 6900 8f3d f9af 163d a2cf 0ebd cff9 143e
00000050: a2ca 283e 84b8 473d d6a8 22be 9706 c9bd
00000060: 60e6 69bd 9292 513d f79a 83be 34d5 17bd
00000070: 1c3c 103e 486f 6b3d c3c2 8abe c603 1a3e
00000080: 3343 f33c f794 1e3e 1a5a 80bd 9970 bbbd
00000090: 97e3 493d f1e5 9e3b 35e0 39be 156f 09bd
000000a0: 3fc8 933d b1d5 863d f4da 3bbe 5de7 843e
000000b0: a482 893d b25a b2bc 85fd 68be 760b 193e
000000c0: f41d 64bc fcd2 34be 9eaf 20be dd06 18bd
000000d0: a5ae f43d a23e 3e3d df24 20be f46a 183e
000000e0: 841f eb3d 60a9 f23c e970 eebd c17d f5bc
000000f0: 1e21 113e 2e37 ccbd 9509 2bbe 5322 63bd
00000100: b768 123e c1f7 02bc 5427 7abe a306 0e3c
00000110: 2a2c f83d 0ed9 423d d251 253b 78c0 2e3b
00000120: 791a 673e da84 593d 8ef5 25be 9ebe bb3b
00000130: 32be 23bb fb6b 93bc 1732 c2bd 6a9e 8bbd
00000140: 8bca 4c3e 6ebc 63bd 55c7 d6bc 8900 d13d
00000150: bd11 41be 3e93 aebb 2e9a cf3d 3ee7 f53d
00000160: 94ce 42bd 4012 bcbd 9f0f 4bbd a9d3 fb3c
00000170: 17e4 4b3e ad47 82bd 61b4 78bd fb12 2c3d
00000180: e981 afbd 139b bc3d 1753 66be 2632 8e3b
00000190: 8a07 433c c3c5 ba3c 462b 04bd 2086 793c
000001a0: 6ec7 183e 0143 2ebd 0f75 7ebd 99c6 2a3d
000001b0: f190 9e3d 571d f13d 1e25 48be 0504 70bb
000001c0: c8f0 2abc 3675 6b3d be2f 1abd cf3b 373e
000001d0: 5636 0c3e e6b8 c23b 8fa1 3bbe c3aa a0bc
000001e0: 7597 833d a2f2 253d 8016 54be 7222 0cbd
000001f0: 90a1 26bb 1ba9 5a3c 77d3 e43b 2512 29be
00000200: 03ce 6b3e 9804 543d ed22 e63c 5b57 b03c
00000210: ca61 723d 08b5 303d c10f 463e 188f 86bd
00000220: b59b 36be 558b 343d c19e 733d b285 9abc
00000230: e416 693e 412d 1dbd 6c46 d5bd 7df0 0a3d
00000240: 497e aabe 2cb7 133c b6a2 2b3d 2b1e b4bd
00000250: 2ff2 203d aad2 0f3e 35cd 36be 2f0e 3bbe
00000260: 3788 1a3e 866d 89bc 7cd2 0b3e e920 f73c
00000270: 5625 4fbc 9099 07bd 361d 69be 0167 87bb
00000280: dddd 513d afc9 12bd 658f d7bb 9e9c 853d
00000290: d84e 51be dad0 483d 0d76 bc3d 1363 81bd
000002a0: 6216 a7be 5beb bfbd d344 26bd 9f2b b33d
000002b0: 937f fa3d 9fae 99bb a507 1ebc 7e14 ccba
000002c0: 04c2 37be 6c0b 92bb 3a13 823d 41d3 a6bc
000002d0: df3a 6b3d 57d5 98bd 0034 31be 2d9f 66bd
000002e0: 7570 993d 1542 153d d538 3c3e d189 f5bc
000002f0: 5f69 e2bd 5b58 69bd 522a b03d 5437 a2bb
00000300: 3b7a 443d 326c 12bd d12c 33be 1ff5 83bd
00000310: 5950 b03d 3f57 a63c 360e 0f3d a1eb f1bd
00000320: dcb5 10be 41ea 153c f47d 173e 2744 b33c
00000330: 967b fc3c 184e 90bc 8605 733e d0a4 6dbd
00000340: a585 45bd 1543 9bba 0b0f 023e 7c06 273e
00000350: 3d0c 56be 8e95 19bd 7fb4 e1bd 136b a63c
00000360: 1645 8bbe acba 4d3e f494 433d c309 393d
00000370: d989 46be 8670 aa3c 0151 82be e006 78bd
00000380: 60ba b03d 9786 c33d 81ba 8d3d 53d8 06bd
00000390: 4166 f2bd e2b1 06bd 6577 473e 8769 fd3c
000003a0: b94c 91bc 432b 343c 7ea7 ccbd f3c4 0d3c
000003b0: 0282 2c3e acff 323c 0b03 52bd 068e 19bc
000003c0: 3fed ad3d bc55 883d ea8e 2dbe 552c 633d
000003d0: a881 743c 6677 0dbe f3d6 1bbd aa97 45bd
000003e0: 34b5 3b3e 068b 0c3e 16c1 25bd e9df 21be
000003f0: d3bf 3b3d 50a4 393d e038 3ebe 298d 23bd

shared_encoder.input_linear.bias f4 [50]
0.04193989 0.0151726175 -0.013251011 -0.026606608 0.048911452 0.029324075 0.025767827 -0.051763684
0.032787547 -0.009721501 0.03361611 -0.0041575246 -0.01416633 -0.032744717 0.0148746595 -0.0173806
0.04721139 -0.028022079 -0.00029610342 -0.022917368 0.024314376 -0.027971478 -0.006308292 -0.038744293
0.05702648 0.031205151 0.03772532 0.03036853 0.07899585 0.030337755 0.026564583 0.026642054
0.04310754 0.02684383 -0.047082786 0.0014744286 0.0023348315 0.01669557 -0.0048552905 -0.009748234
0.018309563 -0.0027918415 0.01865665 -0.0090769455 -0.05046077 0.026072772 -0.024682216 0.015875455
-0.030408511 0.04749572
00000000: 29c9 2b3d 9296 783c c51a 59bc 1af6 d9bc
00000010: 6057 483d 0b39 f03c 0d17 d33c 2806 54bd
00000020: 3c4c 063d ee46 1fbc 0cb1 093d d83b 88bb
00000030: e519 68bc 531f 06bd d8b4 733c c361 8ebc
00000040: bb60 413d 8f8e e5bc 543e 9bb9 34bd bbbc
00000050: f12e c73c 7124 e5bc cab5 cebb 56b2 1ebd
00000060: 9994 693d f2a1 ff3c dd85 1a3d 6cc7 f83c
00000070: 94c8 a13d e286 f83c f89d d93c 7040 da3c
00000080: 8891 303d 97e7 db3c e1d9 40bd 9d41 c13a
00000090: f903 193b 26c5 883c 2119 9fbb 0fb7 1fbc
000000a0: f0fd 953c 54f7 36bb d5d5 983c 78b7 14bc
000000b0: f4af 4ebd 9196 d53c 5c32 cabc 3e0d 823c
000000c0: 451b f9bc df8a 423d

shared_encoder.gru_left.weight_ih_l0 f4 [150, 50]
-0.04620074 -0.13624032 0.016813798 0.118331894 -0.11470632 -0.23861383 -0.05789694 -0.07777993
0.06459987 -0.0893708 0.12978639 -0.16403322 0.031309094 0.030611439 -0.075103916 0.09152077
-0.14959916 0.03761238 -0.037899643 -0.0608939 -0.07415496 0.092397965 0.0571077 0.1480979
-0.1419192 0.056707013 -0.09603559 -0.16923915 -0.0069603794 -0.036590513 -0.024014013 0.13226739
-0.045190137 -0.072216846 0.05214908 -0.04467935 -0.40282091 -0.1660651 0.027424574 0.07842547
0.0046241474 -0.013184217 -0.113446265 0.07231822 0.10352496 -0.21919443 -0.009434024 -0.17224629
0.0336342 -0.042017654 -0.12783182 -0.046401285 -0.030745232 0.029655598 -0.0377574 -0.36569923
0.033724654 -0.09231987 0.13072236 -0.14002354 0.16827254 -0.23961243 0.11553078 0.025461227
-0.22001328 0.025560446 -0.06405106 0.023663184 0.05791244 -0.09940762 0.027454404 0.028219914
0.038414504 0.109120525 -0.13155021 -0.07937416 -0.05012822 -0.09440317 -0.17017587 0.0042215185
0.02179183 0.18652946 0.020662572 0.015559947 -0.0031121413 0.095398 -0.4330454 -0.31399018
-0.039955135 0.026437594 0.02797256 -0.16744652 -0.016005185 -0.006222184 0.08467634 -0.24318394
-0.10096157 -0.2096083 -0.0024430996 0.054666605 0.0064993557 0.040156752 -0.14734891 -0.012379955
0.08055742 0.39355743 0.052365165 0.02999739 0.0945884 0.04228824 -0.0076840925 0.06702424
0.029923314 -0.19518685 0.1865985 -0.06027227 0.14726686 -0.10510629 0.090032466 -0.026940389
-0.026832249 -0.14406803 -0.17480475 -0.09851024 0.26345313 0.076247476 0.12847473 0.13533777
0.5907144 0.08778982 0.089124195 -0.0055488274 0.05882657 0.05594524 -0.24053575 -0.04093331
0.16484872 0.21716847 0.009759084 -0.05077853 0.10371101 0.04707901 0.025852088 -0.08675716
-0.23908652 0.046820644 -0.121508166 0.31551635 -0.080631964 0.096775904 -0.0694542 -0.10718143
0.002014923 0.045623127 -0.040496685 -0.2498276 -0.0343606 -0.04346123 0.05903894 -0.026017554
0.08715724 -0.12743571 0.047528073 0.029536016 -0.13715574 -0.016523875 -0.080762826 0.04231409
0.014242279 -0.031501193 -0.04838405 0.061210208 0.09756944 0.122125395 -0.13999392 -0.019193603
-0.084738396 -0.06647448 -0.17197888 -0.039615557 -0.039630152 0.063722536 -0.016220415 -0.008174467
-0.026593234 0.005430061 -0.26414937 -0.21077466 -0.014556045 0.048116285 0.013311451 -0.011214702
-0.038790375 0.028284753 0.07729538 -0.1709361 -0.043898597 -0.17568344 0.042070866 0.028928716
-0.022008598 -0.0012152779 -0.021475112 0.002591811 0.033665325 -0.12127354 0.03198735 -0.053740516
0.08211973 -0.05012562 0.09523685 -0.10068546 0.011326515 -0.059665084 -0.11531064 -0.040368784
0.080642045 -0.042573914 0.048916087 0.012451451 0.00090147986 -0.024647912 0.016822513 0.048832316
-0.027932202 -0.0037173112 0.018984698 0.02498617 -0.06613831 0.0014961893 -0.03365869 0.08956186
0.01837387 -0.018851366 -0.048296873 0.10585371 -0.018413303 -0.13250543 -0.041937392 -0.046350494
0.041040815 -0.0103669325 0.061937496 0.00810839 -0.00293747 -0.11921924 -0.010679935 -0.080809616
-0.0015585453 0.029996172 -0.11668178 -0.07876427 -0.049059175 0.07998528 -0.025208915 -0.2011459
00000000: fd3c 3dbd 9582 0bbe 17bd 893c fe57 f23d
00000010: 26eb eabd 2f57 74be 5725 6dbd 154b 9fbd
00000020: f04c 843d 0a08 b7bd b9e6 043e 53f8 27be
00000030: f73d 003d d7c4 fa3c 15d0 99bd 3e6f bb3d
00000040: 8630 19be 700f 1a3d a83c 1bbd e26b 79bd
00000050: 8ede 97bd 253b bd3d c3e9 693d faa6 173e
00000060: 4453 11be 9d45 683d 4fae c4bd 074d 2dbe
00000070: e513 e4bb efdf 15bd 09b9 c4bc 1a71 073e
00000080: 4b19 39bd 6de6 93bd 469a 553d b201 37bd
00000090: 8b3e cebe f80c 2abe 80a9 e03c 889d a03d
000000a0: 2986 973b 9d02 58bc 8456 e8bd 931b 943d
000000b0: e504 d43d 8174 60be 2a91 1abc 5561 30be
000000c0: 04c4 093d b41a 2cbd 58e6 02be 460f 3ebd
000000d0: 6ddd fbbc 4cf0 f23c 81a7 1abd ee3c bbbe
000000e0: dd22 0a3d 3312 bdbd 15dc 053e 5562 0fbe
000000f0: a34f 2c3e f65c 75be 679b ec3d 1094 d03c
00000100: 294b 61be 2464 d13c 342d 83bd 4bd9 c13c
00000110: 9835 6d3d 3996 cbbd 0fe8 e03c 732d e73c
00000120: 8758 1d3d 957a df3d 19b5 06be eb8e a2bd
00000130: 4053 4dbd 7356 c1bd 9542 2ebe aa54 8a3b
00000140: c884 b23c 9401 3f3e 8e44 a93c 26ef 7e3c
00000150: 11f5 4bbb 0760 c33d 20b8 ddbe 52c3 a0be
00000160: ffa7 23bd a793 d83c b626 e53c 1a77 2bbe
00000170: 4e1d 83bc 76e3 cbbb ca6a ad3d 3605 79be
00000180: f1c4 cebd 8fa3 56be 691c 20bb 17ea 5f3d
00000190: 8cf8 d43b 687b 243d a2e2 16be 4bd5 4abc
000001a0: 4afb a43d 5c80 c93e db7c 563d 16bd f53c
000001b0: 90b7 c13d 6f36 2d3d d7ca fbbb 0144 893d
000001c0: bd21 f53c 10df 47be ad13 3f3e 0ee0 76bd
000001d0: 20cd 163e f741 d7bd f162 b83d 17b2 dcbc
000001e0: 4ecf dbbc 9286 13be 0400 33be bdbf c9bd
000001f0: 54e3 863e a327 9c3d e18e 033e fc95 0a3e
00000200: 0f39 173f 26cb b33d bf86 b63d f0d2 b5bb
00000210: 21f4 703d d626 653d 014f 76be b0a9 27bd
00000220: 1ace 283e 6961 5e3e 91e4 1f3c 26fd 4fbd
00000230: 7066 d43d ecd5 403d c2c7 d33c bdad b1bd
00000240: 19d3 74be 01c7 3f3d 46d9 f8bd 5c8b a13e
00000250: 5f22 a5bd 7232 c63d 013e 8ebd f081 dbbd
00000260: cc0c 043b 51df 3a3d dadf 25bd ced2 7fbe
00000270: b3bd 0cbd 6704 32bd d1d2 713d c422 d5bc
00000280: 7f7f b23d 827e 02be ccac 423d 84f5 f13c
00000290: 8e72 0cbe 145d 87bc fb66 a5bd 8a51 2d3d
000002a0: 7358 693c 6507 01bd 5b2e 46bd 8eb7 7a3d
000002b0: 7dd2 c73d e11c fa3d 915a 0fbe e73b 9dbc
000002c0: 538b adbd c623 88bd 3b1b 30be ec43 22bd
000002d0: 3a53 22bd f680 823d ade0 84bc 33ee 05bc
000002e0: 0eda d9bc a7ee b13b 963e 87be 50d5 57be
000002f0: 7a7c 6ebc 9515 453d 4618 5a3c dfbd 37bc
00000300: a8e2 1ebd 6db5 e73c 0a4d 9e3d df09 2fbe
00000310: 04cf 33bd 5ce6 33be 8052 2c3d eafb ec3c
00000320: 604b b4bc f649 9fba 93ec afbc 5fdb 293b
00000330: a7e4 093d 435e f8bd 2b05 033d 041f 5cbd
00000340: 642e a83d 8650 4dbd 8a0b c33d 2e34 cebd
00000350: d992 393c 6063 74bd fc27 ecbd bd59 25bd
00000360: a827 a53d fc61 2ebd 3c5c 483d 2c01 4c3c
00000370: 4a51 6c3a 6bea c9bc 5ecf 893c 6504 483d
00000380: 13d2 e4bc 229e 73bb cc85 9b3c ccaf cc3c
00000390: 8673 87bd c81b c43a b2dd 09bd 356c b73d
000003a0: cc84 963c 2e6e 9abc f1d2 45bd d4c9 d83d
000003b0: 7fd7 96bc 81af 07be 8bc6 2bbd 04da 3dbd
000003c0: 6a1a 283d 11da 29bc 2cb2 7d3d 0dd9 043c
000003d0: 9282 40bb 3829 f4bd e5fa 2ebc 837f a5bd
000003e0: 1a48 ccba 88ba f53c dbf6 eebd 294f a1bd
000003f0: 46f2 48bd 53cf a33d ed82 cebc 31f9 4dbe

shared_encoder.gru_left.weight_hh_l0 f4 [150, 50]
0.055836897 0.08938673 -0.030539578 0.16412842 0.31448114 0.10637974 -0.1751255 0.107043274
-0.19720413 0.18323068 -0.14840174 -0.0074236337 -0.33751285 0.101587385 0.06408613 -0.025992343
-0.064016126 0.052379314 0.13655587 -0.07150995 0.20288026 0.1865552 0.040547088 -0.19606453
0.22853117 -0.06851863 0.28943872 -0.14836733 0.25945836 -0.10444784 -0.18900813 -0.008533564
-0.22951283 0.13332364 0.19364752 -0.020151738 0.29700446 0.08220829 -0.14445817 -0.058761645
0.044168677 0.03176804 -0.042516846 -0.24942318 0.18991242 -0.014413352 0.2962451 -0.003297151
-0.032175306 -0.018988732 0.035145428 0.048879433 -0.09168892 0.11150105 0.38016564 0.09680822
-0.13443165 0.21061468 -0.24689865 0.187722 -0.13273987 0.07089318 -0.45735264 0.095064215
0.06996354 0.026647814 -0.08764897 0.07814529 0.12773295 -0.043713998 0.23060657 0.37898368
0.08683227 -0.2218675 0.27912349 -0.14836039 0.30353084 -0.19095883 0.35000008 -0.11344708
-0.39314386 0.1535225 -0.2879804 0.12790114 0.19618817 0.017238958 0.36109912 0.08242206
-0.14544177 -0.09303149 0.057969242 -0.15585195 -0.10555938 -0.26119757 0.24147065 -0.025598027
0.3132716 0.15325888 -0.058179796 -0.19270368 0.010999155 0.08643247 0.052283283 0.06594942
-0.07644188 0.01912728 -0.11475547 0.079868555 0.033579808 -0.09977988 -0.014249017 0.015428427
0.076232284 0.009209447 0.007630577 -0.009331632 0.041193128 0.01252238 -0.027508974 -0.07998117
-0.03834685 -0.11729862 0.05291889 0.07502476 -0.12231564 -0.03923134 -0.053600505 -0.031334683
-0.089407496 -0.0026758125 0.16596235 -0.01668942 0.10490044 0.058308676 -0.058049586 -0.017835684
-0.019045722 0.13360815 0.019864755 -0.115950756 0.019459192 0.08592224 -0.07732658 0.037555408
0.06437392 -0.07570459 -0.035945732 -0.038381085 -0.067062676 0.027355837 0.050432254 0.022554655
-0.09449952 0.013168074 0.18181846 0.08419006 -0.045953676 0.09055538 -0.15583743 0.12566406
-0.079997376 0.07808256 -0.20023198 0.0523419 0.07407453 0.094494544 -0.13179988 0.038340155
0.101407014 -0.050993364 0.13945729 0.14087883 0.09248555 -0.17136453 0.17362732 -0.07331505
0.16416438 -0.08669532 0.2200875 -0.110193424 -0.2228206 0.083552256 -0.19559236 0.04584497
0.1356858 0.04568223 0.10408837 -0.013167918 -0.07981502 -0.042847365 0.07821226 -0.08563918
-0.06198766 -0.09220654 0.103846826 -0.030921696 0.13095835 0.065828465 -0.041950118 -0.1250635
0.08138391 0.024054145 -0.10870053 0.032774854 0.121198945 0.09707222 -0.02823143 0.013087148
-0.061486527 0.030337857 -0.06608904 0.07051579 -0.1415294 0.057423923 0.06402631 0.056153726
-0.09020937 0.05239514 0.0839911 -0.037947748 0.068561465 0.0395449 0.0635171 -0.090418935
0.05142872 -0.019196201 0.089641355 -0.01086395 0.10718689 -0.067781 -0.15977198 0.03050463
-0.08850534 0.05068969 0.102805085 0.041867185 0.08886659 -0.08063878 -0.05841843 -0.03297752
0.061092917 0.04439619 -0.06703234 -0.05587117 0.04885114 -0.036169253 0.033953678 0.0077414033
-0.042794958 -0.036026604 0.03777061 0.06929993 -0.051144984 0.10589973 0.21728705 0.05926386
00000000: 3bb5 643d 6410 b73d 232e fabc 4811 283e
00000010: ac03 a13e 9fdd d93d 1954 33be 8139 db3d
00000020: e1ef 49be d3a0 3b3e a0f6 17be f441 f3bb
00000030: 7cce acbe 0c0d d03d 973f 833d e5ed d4bc
00000040: e31a 83bd b18b 563d 4dd5 0b3e cf73 92bd
00000050: d8bf 4f3e 5408 3f3e b414 263d 24c5 48be
00000060: 1304 6a3e 7f53 8cbd 5031 943e 9bed 17be
00000070: bad7 843e c0e8 d5bd 598b 41be 5dd0 0bbc
00000080: 6905 6bbe fe85 083e 894b 463e 4215 a5bc
00000090: f810 983e d25c a83d d8ec 13be 0db0 70bd
000000a0: 37ea 343d 341f 023d 2526 2ebd ca68 7fbe
000000b0: 6778 423e fb25 6cbc 70ad 973e 0415 58bb
000000c0: 41ca 03bd 428e 9bbc a7f4 0f3d cd35 483d
000000d0: 67c7 bbbd aa5a e43d 12a5 c23e 6343 c63d
000000e0: 73a8 09be 60ab 573e 00d3 7cbe 323a 403e
000000f0: f6ec 07be 7230 913d 202a eabe 07b1 c23d
00000100: 0b49 8f3d 844c da3c 4e81 b3bd a30a a03d
00000110: 6dcc 023e 730d 33bd 2124 6c3e 260a c23e
00000120: 1ed5 b13d 3c31 63be 46e9 8e3e c9eb 17be
00000130: 6568 9b3e b68a 43be 3633 b33e f156 e8bd
00000140: 274a c9be 0135 1d3e 2b72 93be 84f8 023e
00000150: 8de5 483e b738 8d3c fce1 b83e e6cc a83d
00000160: b0ee 14be 4b87 bebd 2871 6d3d a797 1fbe
00000170: 842f d8bd b0bb 85be 1544 773e f4b2 d1bc
00000180: 2365 a03e e5ef 1c3e f04d 6ebd 1d54 45be
00000190: cd35 343c 8203 b13d ff26 563d 7d10 873d
000001a0: 8f8d 9cbd d0b0 9c3c ea04 ebbd 2092 a33d
000001b0: fb8a 093d 6559 ccbd b674 69bc 83c7 7c3c
000001c0: ac1f 9c3d 38e3 163c eb09 fa3b b4e3 18bc
000001d0: 20ba 283d ab2a 4d3c 805a e1bc 2bcd a3bd
000001e0: 9611 1dbd 423a f0bd 7ac1 583d 95a6 993d
000001f0: 9f80 fabd 0bb1 20bd 348c 5bbd cc58 00bd
00000200: 471b b7bd af5c 2fbb 09f2 293e 40b8 88bc
00000210: 0bd6 d63d 14d5 6e3d 67c5 6dbd 241c 92bc
00000220: c605 9cbc 93d0 083e 69bb a23c 9777 edbd
00000230: e268 9f3c 00f8 af3d 665d 9ebd b3d3 193d
00000240: 79d6 833d 020b 9bbd d53b 13bd 7c35 1dbd
00000250: 2858 89bd 5919 e03c 0d92 4e3d 8ac4 b83c
00000260: f788 c1bd e8be 573c 9e2e 3a3e d76b ac3d
00000270: ec39 3cbd 1975 b93d d993 1fbe 14ae 003e
00000280: aad5 a3bd c0e9 9f3d 9d09 4dbe 7664 563d
00000290: 63b4 973d 5b86 c13d 8cf6 06be 910a 1d3d
000002a0: 7bae cf3d 6bde 50bd e4cd 0e3e 8a42 103e
000002b0: 1069 bd3d 2f7a 2fbe 5ccb 313e 3326 96bd
000002c0: b51a 283e 518d b1bd 9e5e 613e 17ad e1bd
000002d0: 152b 64be 721d ab3d 5d49 48be efc7 3b3d
000002e0: 38f1 0a3e 4a1d 3b3d 492c d53d 40be 57bc
000002f0: 0f76 a3bd b880 2fbd c02d a03d 9863 afbd
00000300: c6e6 7dbd c8d6 bcbd a5ad d43d 7f4f fdbc
00000310: f219 063e 13d1 863d e3d3 2bbd a510 00be
00000320: 9bac a63d 330d c53c 629e debd ed3e 063d
00000330: 2737 f83d cdcd c63d 9a45 e7bc 7a6b 563c
00000340: 4cd9 7bbd 1987 f83c b159 87bd 956a 903d
00000350: 15ed 10be 5935 6b3d 3a20 833d 7301 663d
00000360: b1bf b8bd 499c 563d 8703 ac3d 196f 1bbd
00000370: f469 8c3d d5f9 213d 4115 823d 902d b9bd
00000380: eca6 523d 5a41 9dbc e395 b73d b5fe 31bc
00000390: cd84 db3d c4d0 8abd 449b 23be d9e4 f93c
000003a0: 4a42 b5bd fe9f 4f3d 798b d23d ed7c 2b3d
000003b0: b0ff b53d f225 a5bd 2a48 6fbd 7013 07bd
000003c0: 913c 7a3d c8d8 353d 4048 89bd 2bd9 64bd
000003d0: 2218 483d 3626 14bd 0313 0b3d 99ab fd3b
000003e0: c449 2fbd a290 13bd 5bb5 1a3d 1fed 8d3d
000003f0: 677d 51bd f5e1 d83d 7f80 5e3e a9be 723d

shared_encoder.gru_left.bias_ih_l0 f4 [150]
0.017571798 0.00048247105 -0.025104918 0.016774403 0.031265844 0.05658684 -0.0149561465 -0.004110167
0.016639685 0.15153281 0.038491715 -0.050583206 0.036861002 0.0050211693 0.016862711 -0.03940679
0.06410421 0.030635076 0.033468217 -0.022697782 0.024736483 0.010170617 -0.08678431 0.16912726
0.08252547 -0.008594301 0.054220483 -0.016262766 0.07128873 0.02689242 0.047273066 -0.047151443
0.1538358 0.028960273 0.04338413 -0.032748666 0.06580202 -0.014412866 0.013179709 -0.26428464
-0.052925568 -0.06869441 -0.1805541 0.071872376 0.031227196 -0.049851295 0.05108082 -0.08773909
-0.03032539 -0.032732908 -0.25535843 -0.23921424 -0.53449017 -0.20285206 0.05173868 -0.2722632
-0.119127676 -0.10345116 -0.08565283 -0.09012421 -0.17427203 -0.16882195 -0.029353121 -0.13299663
-0.26843256 -0.13126665 -0.29387403 -0.16014376 -0.18362659 -0.23297851 -0.102314465 -0.066286124
-0.20103 -0.17220719 -0.059937496 -0.09759189 -0.059768815 -0.052931074 -0.09577531 -0.18725653
-0.05305867 -0.12362742 -0.19043577 -0.2569714 -0.1506486 -0.48699364 -0.051083557 -0.074593805
-0.11587937 -0.33106777 -0.2905223 -0.07736712 -0.20454185 -0.120265916 -0.16337304 -0.1394037
-0.059767067 -0.07968092 -0.20926951 -0.13982853 0.02966802 0.039221577 -0.05671191 0.013722671
0.02909451 0.0449992 -0.025101192 0.013949816 -0.0130754765 0.024255985 -0.04097766 0.027678926
-0.021548579 0.03983533 0.026893977 0.03213055 0.0028186713 0.05726096 0.031899147 -0.046423584
0.023730028 0.035472605 0.028055914 -0.02003571 0.020208681 -0.024023404 0.018889071 -0.017385287
0.022271506 -0.01826931 -0.04922079 0.023844449 -0.035798945 0.017409736 0.031029249 0.04925079
0.024382295 0.02212484 -0.046072662 0.0018249062 0.033467654 -0.00640892 -0.04474461 -0.027978482
0.020556604 -0.040045608 0.016117705 0.016304148 -0.038493298 -0.02438043
00000000: bbf2 8f3c 2bf4 fc39 d4a8 cdbc 796a 893c
00000010: 9d10 003d 9ac7 673d a00a 75bc 94ae 86bb
00000020: f34f 883c 6b2b 1b3e 7da9 1d3d 5630 4fbd
00000030: 90fb 163d 9f88 a43b ab23 8a3c 0469 21bd
00000040: 1149 833d 69f6 fa3c f815 093d b3f0 b9bc
00000050: 2aa4 ca3c a9a2 263c f9bb b1bd b22f 2d3e
00000060: 1d03 a93d 1ccf 0cbc 4c16 5e3d 7e39 85bc
00000070: d3ff 913d 7e4d dc3c 67a1 413d df21 41bd
00000080: 2287 1d3e 183e ed3c 8fb3 313d 7723 06bd
00000090: 36c3 863d f123 6cbc b5ef 573c 5150 87be
000000a0: 7bc8 58bd a8af 8cbd 2de3 38be d331 933d
000000b0: 2dd0 ff3c df30 4cbd 1f3a 513d 8db0 b3bd
000000c0: f46c f8bc f112 06bd 57be 82be 94f4 74be
000000d0: 59d4 08bf 73b8 4fbe f0eb 533d 1566 8bbe
000000e0: 36f9 f3bd 34de d3bd c06a afbd 0b93 b8bd
000000f0: 5e74 32be a9df 2cbe f575 f0bc 4530 08be
00000100: fe6f 89be c46a 06be a876 96be bafc 23be
00000110: 9c08 3cbe eb91 6ebe 3f8a d1bd 05c1 87bd
00000120: cfda 4dbe 1557 30be 0581 75bd 42de c7bd
00000130: 25d0 74bd 41ce 58bd d925 c4bd 2dc0 3fbe
00000140: 0c54 59bd 5f30 fdbd 9801 43be c191 83be
00000150: a043 1abe 3b57 f9be fe3c 51bd a3c4 98bd
00000160: 2a52 edbd b781 a9be 57bf 94be a772 9ebd
00000170: 6b73 51be fa4d f6bd 434b 27be d8bf 0ebe
00000180: 50ce 74bd c02f a3bd bf4a 56be 362f 0fbe
00000190: 590a f33c cea6 203d bf4a 68bd 0ed5 603c
000001a0: 9c57 ee3c 1551 383d 04a1 cdbc c58d 643c
000001b0: 863a 56bc 7db4 c63c 31d8 27bd eabe e23c
000001c0: a586 b0bc 5f2a 233d c250 dc3c 539b 033d
000001d0: 75b9 383b 788a 6a3d aea8 023d a826 3ebd
000001e0: 7a65 c23c b94b 113d 84d5 e53c ee21 a4bc
000001f0: ad8c a53c bbcc c4bc 41bd 9a3c 976b 8ebc
00000200: bc72 b63c 85a9 95bc bd9b 49bd 6f55 c33c
00000210: eaa1 12bd dd9e 8e3c 0d31 fe3c 32bb 493d
00000220: 61bd c73c 273f b53c b0b6 3cbd b131 ef3a
00000230: 6115 093d eb01 d2bb 2046 37bd 2133 e5bc
00000240: 5366 a83c dd06 24bd 4709 843c 4790 853c
00000250: 26ab 1dbd 78b9 c7bc

shared_encoder.gru_left.bias_hh_l0 f4 [150]
0.017571839 0.0004824358 -0.025104975 0.016774395 0.031265836 0.056586914 -0.014956154 -0.004110185
0.016639631 0.1515328 0.038491793 -0.050583307 0.036861002 0.005021194 0.016862676 -0.039406747
0.06410419 0.030635031 0.03346819 -0.022697747 0.024736457 0.010170603 -0.08678432 0.1691273
0.08252558 -0.0085943015 0.054220527 -0.016262727 0.071288764 0.026892468 0.047273103 -0.047151413
0.15383579 0.028960278 0.043384254 -0.032748647 0.065802 -0.014412874 0.013179678 -0.26428467
-0.05292558 -0.06869442 -0.18055414 0.0718724 0.031227177 -0.049851276 0.051080827 -0.08773902
-0.030325405 -0.032732897 -0.25535855 -0.23921442 -0.5344901 -0.20285195 0.05173873 -0.27226302
-0.1191277 -0.10345118 -0.085652746 -0.09012426 -0.17427209 -0.16882205 -0.029353054 -0.13299654
-0.26843265 -0.13126676 -0.29387414 -0.16014393 -0.18362664 -0.23297854 -0.10231448 -0.06628613
-0.20103005 -0.17220716 -0.059937496 -0.09759187 -0.059768867 -0.052931163 -0.095775366 -0.18725643
-0.053058684 -0.12362749 -0.1904358 -0.2569714 -0.15064873 -0.48699364 -0.051083464 -0.07459378
-0.11587932 -0.33106795 -0.2905223 -0.07736722 -0.20454179 -0.12026595 -0.16337313 -0.13940386
-0.0597671 -0.07968093 -0.20926951 -0.13982853 0.013358024 0.024502307 -0.040010124 0.0048612533
0.018907698 0.02259417 -0.011989357 0.0037233522 0.005883384 0.019299535 -0.02080957 0.014433783
-0.012703106 0.017803978 0.014293264 0.021089178 0.021934142 0.035289668 0.010795365 -0.03377668
0.006774663 0.025915975 0.017379578 -0.016023124 0.012500832 -0.011770125 0.008435698 -0.0049420916
0.009751808 0.0010910142 -0.033725645 0.014203035 -0.02696894 0.0051868088 0.010882413 0.050308045
0.013799368 0.011449812 -0.024949817 0.010206962 0.020087307 -0.0034564107 -0.029780509 -0.016652387
0.007395858 -0.024479765 0.008104728 0.010549863 -0.019742783 -0.014735467
00000000: d1f2 8f3c 70ef fc39 f3a8 cdbc 756a 893c
00000010: 9b10 003d aec7 673d a80a 75bc bbae 86bb
00000020: d64f 883c 6a2b 1b3e 92a9 1d3d 7130 4fbd
00000030: 90fb 163d d488 a43b 9823 8a3c f868 21bd
00000040: 0f49 833d 51f6 fa3c f115 093d a0f0 b9bc
00000050: 1ca4 ca3c 9aa2 263c fabb b1bd b52f 2d3e
00000060: 2c03 a93d 1dcf 0cbc 5816 5e3d 6939 85bc
00000070: d8ff 913d 984d dc3c 71a1 413d d721 41bd
00000080: 2187 1d3e 1b3e ed3c b0b3 313d 7223 06bd
00000090: 33c3 863d fa23 6cbc 93ef 573c 5250 87be
000000a0: 7ec8 58bd a9af 8cbd 2fe3 38be d631 933d
000000b0: 23d0 ff3c da30 4cbd 213a 513d 84b0 b3bd
000000c0: fc6c f8bc ee12 06bd 5bbe 82be a0f4 74be
000000d0: 58d4 08bf 6cb8 4fbe feeb 533d 0f66 8bbe
000000e0: 39f9 f3bd 36de d3bd b56a afbd 1193 b8bd
000000f0: 6274 32be b0df 2cbe d175 f0bc 3f30 08be
00000100: 0170 89be cb6a 06be ac76 96be c5fc 23be
00000110: 9f08 3cbe ed91 6ebe 418a d1bd 06c1 87bd
00000120: d2da 4dbe 1357 30be 0581 75bd 3fde c7bd
00000130: 33d0 74bd 59ce 58bd e025 c4bd 26c0 3fbe
00000140: 1054 59bd 6930 fdbd 9a01 43be c191 83be
00000150: a943 1abe 3b57 f9be e53c 51bd a0c4 98bd
00000160: 2352 edbd bd81 a9be 57bf 94be b472 9ebd
00000170: 6773 51be ff4d f6bd 494b 27be e3bf 0ebe
00000180: 59ce 74bd c12f a3bd bf4a 56be 362f 0fbe
00000190: 9ddb 5a3c 10b9 c83c a8e1 23bd 264b 9f3b
000001a0: 51e4 9a3c 6917 b93c 026f 44bc 7c03 743b
000001b0: 67c9 c03b 0f1a 9e3c d578 aabc ac7b 6c3c
000001c0: b020 50bc a6d9 913c 4b2e 6a3c 36c3 ac3c
000001d0: 3baf b33c e68b 103d 0bdf 303c 6a59 0abd
000001e0: fefd dd3b bd4d d43c 9e5f 8e3c ed42 83bc
000001f0: 4ad0 4c3c 7bd7 40bc e235 0a3c 45f1 a1bb
00000200: 0cc6 1f3c 5d00 8f3a e723 0abd d9b3 683c
00000210: f7ed dcbc 1bf6 a93b 264c 323c cf0f 4e3d
00000220: bf16 623c fe97 3b3c 8f63 ccbc 1a3b 273c
00000230: 238e a43c f384 62bb 41f6 f3bc 966a 88bc
00000240: f458 f23b ca89 c8bc b1c9 043c 55d9 2c3c
00000250: 9ebb a1bc 076d 71bc

shared_encoder.gru_left.weight_ih_l0_reverse f4 [150, 50]
0.25783977 -0.30493632 0.40724295 0.124210306 -0.23278368 0.09493797 -0.2613611 0.15903404
-0.20970573 0.0947869 -0.2543679 0.28953284 -0.4956111 0.43694824 0.21982808 0.37112084
-0.2582048 0.36932912 -0.23820002 0.13137566 -0.32830504 0.39253163 0.28047362 0.24593754
0.2784181 0.44027305 -0.27096662 -0.43782455 0.28577816 -0.2899258 -0.30547985 -0.32214335
-0.27669513 -0.30595356 0.3140651 -0.4300005 0.099311925 0.28392345 0.43130863 0.36399734
-0.42669415 0.18465748 -0.2289565 0.3374802 0.27554485 0.22667861 0.3040071 0.18349792
0.2068361 -0.24734527 -0.12397432 -0.015357419 0.060699284 -0.14076716 -0.045287404 -0.3937904
0.06324783 -0.10217727 0.008305349 -0.15005308 0.24442427 -0.29633513 0.18745193 0.036547776
-0.29776007 0.0044483654 -0.24943005 -0.030202815 -0.06310168 -0.038824562 0.003876791 0.15571609
0.18656224 0.16218553 -0.37716484 0.017767424 -0.056505736 -0.17163983 -0.40005594 -0.033134963
0.019482454 0.1744502 0.028474817 0.05768707 0.16844547 -0.030957827 -0.34416428 -0.35046387
-0.14654766 -0.11476165 0.037320394 0.008161364 -0.049321562 0.062049173 0.13791923 -0.14501195
0.119514 -0.32477954 -0.017791463 0.086873665 0.03247027 -0.029737158 0.021170972 0.29192647
0.079656914 0.59844476 -0.14241324 0.26987064 -0.3264231 0.37954056 -0.28434032 0.3212122
-0.24492154 0.040357232 0.2399147 0.2245972 0.10586058 0.20688026 -0.004174207 0.36546102
-0.0036014323 -0.08752791 0.1450253 -0.070892476 0.2626282 0.050261892 -0.1072913 0.0039069783
0.3197428 -0.06958673 -0.34464982 -0.38817102 -0.24427535 -0.24093293 0.043600768 -0.028579876
0.42257506 0.21033357 0.073880784 0.1593328 -0.03895848 0.14209563 -0.06524386 -0.06323001
-0.06810111 0.28013626 0.3574091 0.32505128 0.27894926 -0.25324106 0.12604105 -0.17711256
0.3232754 -0.04777825 -0.21992035 -0.21665579 -0.13591428 -0.013827986 -0.018687662 -0.07225941
-0.05273134 0.00920187 -0.24158494 0.37231627 0.015718076 0.20601122 -0.27645856 0.21741182
-0.17592935 -0.059184358 -0.19773327 0.36995512 0.18094929 0.23190366 0.058710508 0.28599343
-0.21434246 -0.4034868 0.025771433 -0.16722526 -0.14078976 -0.09277785 -0.14747159 -0.10194659
0.2837005 -0.33231637 -0.12919913 0.033282954 0.2681136 0.18509832 -0.27358446 0.15800986
-0.1824757 0.31089133 0.26887417 0.00080240425 0.17892508 -0.050884914 0.040710147 -0.043689024
0.103796855 -0.22043395 0.3225859 0.12547787 -0.24545836 -0.0104077365 -0.23601569 0.011594897
-0.1739187 0.016557368 -0.12851466 0.10290987 -0.26482284 0.31697273 0.1300753 0.23143888
-0.25442848 0.27821243 -0.22287013 0.08553098 -0.2536501 0.36012894 0.22937043 0.25836405
0.05857553 0.2598728 -0.2125033 -0.3559705 0.0285667 -0.24909024 -0.20455232 -0.19801998
-0.23939565 -0.17365736 0.31941673 -0.3309081 -0.036766943 0.049622774 0.20244357 0.25218508
-0.21543261 0.24211241 -0.23048113 0.3043109 0.2576973 -0.019635357 0.23041117 -0.03961336
0.098202266 -0.13068175 0.29306325 -0.33166566 0.48036894 0.039148595 -0.31088278 -0.2137757
00000000: 9303 843e 9d20 9cbe 2682 d03e f961 fe3d
00000010: d85e 6ebe d76e c23d 1fd1 85be d2d9 223e
00000020: 19bd 56be a21f c23d 823c 82be a63d 943e
00000030: bdc0 fdbe aeb7 df3e 9d1a 613e 8d03 be3e
00000040: 6b33 84be b518 bd3e b5ea 73be 5787 063e
00000050: 9917 a8be e8f9 c83e 3d9a 8f3e 0dd7 7b3e
00000060: d18c 8e3e 786b e13e 23bc 8abe 8a2a e0be
00000070: 8451 923e 2871 94be db67 9cbe f9ef a4be
00000080: fcaa 8dbe f2a5 9cbe 24cd a03e 0729 dcbe
00000090: 0d64 cb3d 6a5e 913e 7cd4 dc3e dc5d ba3e
000000a0: a877 dabe da16 3d3e 9373 6abe 34ca ac3e
000000b0: 3714 8d3e 701e 683e d2a6 9b3e e1e6 3b3e
000000c0: d8cc 533e 1448 7dbe 40e6 fdbd af9d 7bbc
000000d0: d09f 783d 4425 10be 497f 39bd e59e c9be
000000e0: 1488 813d 5142 d1bd 2913 083c 84a7 19be
000000f0: 5b4a 7a3e 3db9 97be 66f3 3f3e 1fb3 153d
00000100: 0274 98be 98c3 913b 976a 7fbe e56b f7bc
00000110: 743b 81bd 8106 1fbd c311 7e3b 0a74 1f3e
00000120: 2c0a 3f3e f713 263e c01b c1be fd8c 913c
00000130: 8f72 67bd 5ac2 2fbe 22d4 ccbe 87b8 07bd
00000140: ab99 9f3c 13a3 323e 0544 e93c 4749 6c3d
00000150: f87c 2c3e 459b fdbc 4d36 b0be 0070 b3be
00000160: 9710 16be 2808 ebbd 45dd 183d 3eb7 053c
00000170: 6805 4abd 4627 7e3d b33a 0d3e 037e 14be
00000180: c2c3 f43d 8149 a6be 67bf 91bc d2ea b13d
00000190: 8cff 043d 579b f3bc bf6e ad3c 6377 953e
000001a0: 2a23 a33d ad33 193f c7d4 11be 7c2c 8a3e
000001b0: ee20 a7be 2453 c23e 0e95 91be ed75 a43e
000001c0: b6cc 7abe a04d 253d 33ac 753e cffc 653e
000001d0: 6fcd d83d 6bd8 533e c9c7 88bb b51d bb3e
000001e0: 0206 6cbb d541 b3bd 8381 143e 1330 91bd
000001f0: 3477 863e 6adf 4d3d 8bbb dbbd 1c06 803b
00000200: 54b5 a33e 7d83 8ebd f175 b0be 5abe c6be
00000210: 5123 7abe 1fb7 76be b896 323d 5820 eabc
00000220: c25b d83e af61 573e cf4e 973d 2328 233e
00000230: ed92 1fbd 8481 113e 939e 85bd bc7e 81bd
00000240: 9878 8bbd 056e 8f3e 53fe b63e 1f6d a63e
00000250: 70d2 8e3e d0a8 81be e810 013e ff5c 35be
00000260: 5a84 a53e 20b3 43bd cd32 61be 04db 5dbe
00000270: 1d2d 0bbe c78e 62bc de16 99bc befc 93bd
00000280: d1fc 57bd 71c3 163c 0b62 77be 3da0 be3e
00000290: 32c3 803c 9bf4 523e fa8b 8dbe 34a1 5e3e
000002a0: d326 34be 4c6b 72bd 977a 4abe c26a bd3e
000002b0: c54a 393e 2778 6d3e 6e7a 703d bb6d 923e
000002c0: 977c 5bbe d295 cebe 9d1e d33c 193d 2bbe
000002d0: 312b 10be 5002 bebd cb02 17be 60c9 d0bd
000002e0: 3141 913e 5f25 aabe c74c 04be b553 083d
000002f0: 3046 893e 6a8a 3d3e 4313 8cbe 56cd 213e
00000300: e9da 3abe 262d 9f3e e0a9 893e 7058 523a
00000310: 2338 373e b36c 50bd afbf 263d 43f3 32bd
00000320: 7293 d43d 70b9 61be fb29 a53e 457d 003e
00000330: 7059 7bbe 3685 2abc 19ae 71be 86f8 3d3c
00000340: be17 32be 51a3 873c 5999 03be 69c2 d23d
00000350: dc96 87be 404a a23e 7632 053e 50fe 6c3e
00000360: 7344 82be dc71 8e3e 1138 64be de2a af3d
00000370: 6dde 81be d262 b83e 15e0 6a3e 4b48 843e
00000380: e5ec 6f3d 0c0e 853e 779a 59be c441 b6be
00000390: b604 ea3c 8311 7fbe 2a76 51be c0c5 4abe
000003a0: 2224 75be 3cd3 31be 978a a33e c96c a9be
000003b0: ef98 16bd 4041 4b3d 5e4d 4f3e 671e 813e
000003c0: 5e9a 5cbe 51ec 773e 3f03 6cbe a3ce 9b3e
000003d0: e7f0 833e 54da a0bc e8f0 6b3e 9e41 22bd
000003e0: 451e c93d 70d1 05be 630c 963e 15d0 a9be
000003f0: ebf2 f53e 475a 203d 072c 9fbe 04e8 5abe

shared_encoder.gru_left.weight_hh_l0_reverse f4 [150, 50]
-0.074348524 -0.12677668 -0.11831709 -0.04612107 0.0011607136 -0.0010277964 0.07937128 -0.10450348
-0.062063135 -0.16294074 -0.05193709 0.15711845 -0.012456485 -0.10584981 0.21292743 0.025275718
-0.027121011 0.03911235 0.084315434 -0.17648782 0.3036944 -0.08797528 0.07148903 -0.2186766
0.056387886 0.08404707 0.15783645 -0.053807825 -0.08261815 0.15830554 0.008733816 -0.090624735
0.008221022 0.020128554 -0.027503092 -0.054733835 -0.01416758 0.07329964 0.31852278 0.042237543
-0.13422555 -0.2632465 -0.1256119 -0.017946696 -0.043786954 -0.14238317 0.014608865 0.11118011
0.16856542 0.09321154 -0.24668656 0.21789142 0.45680285 -0.20173366 -0.25027326 -0.1687971
-0.2819358 -0.063007824 -0.11278168 -0.019191308 0.13220534 -0.25619346 0.20995922 0.23871598
-0.11877316 -0.26825443 0.18951695 -0.31027067 -0.20291537 0.012752679 -0.10808125 0.15640248
0.2754761 0.19018526 -0.18810432 -0.04566552 -0.32192373 0.21507564 0.027839273 -0.38049033
-0.06227162 0.21983388 -0.23234472 0.09649282 -0.28533888 0.34589723 0.106309325 -0.21017401
-0.027257692 -0.3000373 0.003908227 -0.04771091 0.2150282 -0.31402594 0.06770035 -0.24927205
0.16855115 -0.08307264 -0.17305441 0.054660987 -0.036787868 -0.092386365 -0.030513214 0.07535398
0.16806671 0.051817846 0.10621955 -0.10077782 -0.05784494 -0.2109184 -0.17271271 0.114072524
-0.10047018 -0.16024093 0.23752879 0.18949841 -0.1752507 0.0540486 0.18645275 -0.2001673
0.44440824 -0.24650797 -0.060450915 -0.13996863 0.19949946 0.107865565 0.1687984 -0.014215484
-0.066850916 0.21960561 0.039378516 -0.1593115 0.19305001 -0.05235216 -0.071387656 -0.07660637
-0.119074844 0.27754128 0.20378084 0.07287078 -0.14303577 -0.31688192 -0.15287697 0.023495741
-0.034141522 -0.14887187 -0.084583566 0.11390214 0.20398577 0.069320835 -0.113911286 -0.069398105
0.05817522 -0.10715815 -0.12088575 -0.041610084 0.0124304285 -0.05732671 -0.03417708 -0.09463005
0.004761877 0.010406098 0.05954641 -0.012734336 0.023734458 -0.05778364 0.007502675 -0.06129587
-0.017978858 -0.06769447 0.13085619 -0.0014613539 0.14537665 -0.13088812 -0.00783251 0.045150265
0.01031364 0.06744712 -0.002279738 -0.04994253 -0.020489085 0.0403502 -0.008109561 0.037267763
-0.071905434 0.050318837 -0.004568937 -0.0025844008 0.14744772 -0.07311604 -0.08534236 -0.16267908
0.0001985481 -0.12994407 -0.025351565 -0.17218567 -0.016248794 0.018263409 0.03262467 0.03628076
-0.13642277 -0.12637715 0.099540494 -0.08373616 -0.23259473 -0.045193445 -0.09443873 0.023512147
0.07028079 0.02008221 0.042999484 -0.031611014 0.019061308 0.011996827 0.19727941 0.05344619
-0.06213791 -0.06871627 0.13833676 0.029667664 0.1871078 -0.009264848 0.20043045 -0.13180758
0.0963261 0.16155952 -0.035485923 0.07861499 0.05592581 -0.011379064 -0.027209932 0.02024795
0.064352274 -0.019368108 -0.02933239 0.06056383 -0.04938193 0.08328478 0.32366547 -0.084388226
-0.1292705 -0.19926724 -0.060079925 -0.18758184 -0.1380077 -0.13912073 -0.04978641 -0.026250238
-0.053135835 -0.026008349 -0.04741592 -0.04830404 0.13914844 0.05275214 -0.10790105 0.06931313
00000000: 0a44 98bd bfd1 01be 3b50 f2bd 72e9 3cbd
00000010: 1623 983a 20b7 86ba 698d a23d ec05 d6bd
00000020: ea35 7ebd f0d9 26be fcbb 54bd a9e3 203e
00000030: 4916 4cbc c9c7 d8bd a609 5a3e 060f cf3c
00000040: e22c debc 4634 203d 92ad ac3d 39b9 34be
00000050: d57d 9b3e 622c b4bd d768 923d c2ec 5fbe
00000060: fcf6 663d df20 ac3d e19f 213e 9865 5cbd
00000070: b433 a9bd d91a 223e 4818 0f3c 7699 b9bd
00000080: 77b1 063c a3e4 a43c 2a4e e1bc 9630 60bd
00000090: 231f 68bc 1f1e 963d 6b15 a33e 4601 2d3d
000000a0: 6c72 09be 3fc8 86be 68a0 00be f304 93bc
000000b0: f359 33bd e5cc 11be 055a 6f3c 66b2 e33d
000000c0: 6a9c 2c3e b1e5 be3d 679b 7cbe ee1e 5f3e
000000d0: 10e2 e93e 4593 4ebe d123 80be 26d9 2cbe
000000e0: e459 90be 3f0a 81bd 15fa e6bd 1737 9dbc
000000f0: d660 073e ca2b 83be 8dff 563e f671 743e
00000100: 583f f3bd a558 89be bb10 423e ccdb 9ebe
00000110: 0cc9 4fbe 9df0 503c b459 ddbd f927 203e
00000120: 340b 8d3e edbf 423e 6b9e 40be c50b 3bbd
00000130: 30d3 a4be ca3c 5c3e 300f e43c a1cf c2be
00000140: 8710 7fbd 221c 613e c6eb 6dbe 079e c53d
00000150: f017 92be 7119 b13e b4b8 d93d db37 57be
00000160: 864b dfbc 7d9e 99be 9610 803b 846c 43bd
00000170: 5a30 5c3e 02c8 a0be 7ba6 8a3d 2c41 7fbe
00000180: ac98 2c3e fd21 aabd 2d35 31be 33e4 5f3d
00000190: e0ae 16bd 1035 bdbd d9f6 f9bc 3053 9a3d
000001a0: ae19 2c3e f33e 543d a389 d93d 9a64 cebd
000001b0: d1ee 6cbd fefa 57be 9adb 30be db9e e93d
000001c0: 4fc3 cdbd 3316 24be bf3a 733e df0b 423e
000001d0: eb74 33be 1162 5d3d 78ed 3e3e a8f8 4cbe
000001e0: 7a89 e33e 966c 7cbe 619b 77bd f053 0fbe
000001f0: 9649 4c3e 9fe8 dc3d 7dd9 2c3e 10e8 68bc
00000200: 22e9 88bd 4be0 603e 5e4b 213d 8e22 23be
00000210: e7ae 453e 386f 56bd b133 92bd cde3 9cbd
00000220: 83dd f3bd e419 8e3e edab 503e 473d 953d
00000230: f877 12be 593e a2be c88b 1cbe 247a c03c
00000240: fbd7 0bbd de71 18be 263a adbd 8645 e93d
00000250: a5e1 503e 15f8 8d3d 524a e9bd 9820 8ebd
00000260: 2449 6e3d bb75 dbbd f392 f7bd 566f 2abd
00000270: ffa8 4b3c 6acf 6abd 44fd 0bbd 66cd c1bd
00000280: 8509 9c3b 577e 2a3c f0e6 733d ada3 50bc
00000290: c46e c23c 8aae 6cbd 00d9 f53b 6111 7bbd
000002a0: 6648 93bc 66a3 8abd 2aff 053e e68a bfba
000002b0: 9edd 143e 8907 06be ee53 00bc 7cef 383d
000002c0: 8bfa 283c b721 8a3d a867 15bb 8a90 4cbd
000002d0: bad8 a7bc 4046 253d f7dd 04bc 15a6 183d
000002e0: 2843 93bd 201b 4e3d 05b7 95bb 0d5f 29bb
000002f0: 89fc 163e ddbd 95bd fac7 aebd 5895 26be
00000300: 5a31 5039 0f10 05be 16ae cfbc 7151 30be
00000310: 311c 85bc 259d 953c 72a1 053d 229b 143d
00000320: 69b2 0bbe 0369 01be e3db cb3d dd7d abbd
00000330: 502d 6ebe c31c 39bd 1869 c1bd 8c9c c03c
00000340: 60ef 8f3d 7283 a43c 3a20 303d 8d7a 01bd
00000350: 7626 9c3c 578e 443c 9d03 4a3e 64ea 5a3d
00000360: 5284 7ebd 1ebb 8cbd 27a8 0d3e 9a09 f33c
00000370: 3099 3f3e 97cb 17bc a43d 4d3e 91f8 06be
00000380: 9e46 c53d dc6f 253e b059 11bd e500 a13d
00000390: 7612 653d 416f 3abc 5de7 debc 07df a53c
000003a0: 20cb 833d dea9 9ebc 7b4a f0bc c711 783d
000003b0: b544 4abd 3691 aa3d 7bb7 a53e bcd3 acbd
000003c0: 7c5f 04be b60c 4cbe 5e16 76bd 7415 40be
000003d0: e451 0dbe aa75 0ebe d6ec 4bbd bd0a d7bc
000003e0: f6a4 59bd 760f d5bc 3237 42bd 75da 45bd
000003f0: ee7c 0e3e a112 583d 3afb dcbd 0bf4 8d3d

shared_encoder.gru_left.bias_ih_l0_reverse f4 [150]
-0.057372835 0.03103406 -0.27325183 -0.05077899 -0.14518729 -0.068240084 -0.041050203 -0.024574192
-0.009399745 0.021994764 -0.18016809 0.0115542095 -0.09930702 0.0926135 0.049347803 -0.08419559
0.014637918 -0.082517095 -0.04649916 -0.04668649 0.11842275 -0.16056539 -0.14719203 -0.052338284
0.0504146 0.15189981 -0.3169442 -0.7077903 -0.059922177 -0.11406912 -0.25625795 0.05457227
0.039922982 -0.04453593 -0.07895428 -0.07996947 0.04221793 -0.002409826 0.06284774 -0.075774364
0.09796486 0.17168662 0.053575993 -0.08396746 0.088602394 -0.1342414 -0.03341764 0.08996658
-0.024934005 -0.042145237 0.33765778 0.33572 0.19426139 0.37425977 0.4673781 0.28720322
0.27554196 -0.17025633 0.19222817 -0.14521506 0.13403207 0.14235066 0.5773314 0.32251024
0.3914753 0.39139935 0.20001955 0.34146777 0.45793533 -0.19568503 -0.24828324 0.3708701
0.43872148 0.38790545 0.19584559 0.028825311 -0.29905316 0.33992735 -0.16568346 0.35915536
0.20920704 0.31770828 0.18999225 0.14679559 0.4839497 0.44252518 0.20811145 0.069422916
0.36853808 0.39549252 0.3230707 0.06859649 0.34751266 0.42536396 0.123161055 0.5017392
0.23881365 0.10796582 -0.12660792 0.12468229 -0.0017990575 0.05465352 -0.014185525 -0.014946386
-0.007723006 0.008481585 0.022886971 -0.01902059 -0.0106816795 0.024752121 0.0026409654 -0.035929725
0.014867273 0.05856302 -0.076432355 -0.05717279 0.07217491 -0.019932846 -0.06478699 0.006396868
-0.17166816 0.00872007 0.0073921965 0.026401572 -0.0881484 -0.081590965 0.017921312 -0.021641944
-0.04611228 -0.052229617 -0.0007658216 0.039956383 -0.06906249 0.012213775 -0.01666716 0.022157071
0.054515976 -0.11037536 -0.094614595 -0.022798833 0.05576731 0.10830775 0.050975565 -0.008151501
0.057627313 4.7985297e-05 0.07932934 -0.046730906 -0.022196181 0.012151963
00000000: c7ff 6abd 243b fe3c aae7 8bbe a1fd 4fbd
00000010: faab 14be 75c1 8bbd 4224 28bd d14f c9bc
00000020: 6301 1abc 5d2e b43c fc7d 38be de4d 3d3c
00000030: 7b61 cbbd 26ac bd3d ec20 4a3d bd6e acbd
00000040: e1d3 6f3c b9fe a8bd e775 3ebd 553a 3fbd
00000050: a087 f23d 416b 24be 82b9 16be ab60 56bd
00000060: 8a7f 4e3d a08b 1b3e 8346 a2be bf31 35bf
00000070: f570 75bd 129d e9bd 3e34 83be 2c87 5f3d
00000080: 4886 233d 4f6b 36bd c8b2 a1bd 09c7 a3bd
00000090: b5ec 2c3d 2cee 1dbb 51b6 803d 972f 9bbd
000000a0: cda1 c83d 9ece 2f3e 8072 5b3d 22f7 abbd
000000b0: 2c75 b53d 9476 09be efe0 08bd 6640 b83d
000000c0: 6642 ccbc 7ca0 2cbd 7be1 ac3e 7ee3 ab3e
000000d0: 75ec 463e fa9e bf3e 2f4c ef3e 4d0c 933e
000000e0: d613 8d3e ad57 2ebe 76d7 443e 42b3 14be
000000f0: b43f 093e 5fc4 113e fecb 133f 1020 a53e
00000100: 736f c83e 7f65 c83e edd1 4c3e ddd4 ae3e
00000110: 8076 ea3e a861 48be f63d 7ebe b0e2 bd3e
00000120: 1aa0 e03e 8b9b c63e bf8b 483e 0f23 ec3c
00000130: 7f1d 99be f50a ae3e eda8 29be 36e3 b73e
00000140: 5f3a 563e a9aa a23e 548d 423e 9551 163e
00000150: 41c8 f73e a992 e23e 2b1b 553e 9a2d 8e3d
00000160: 06b1 bc3e ff7d ca3e 8669 a53e 517c 8c3d
00000170: 2eed b13e 4ec9 d93e dd3b fc3d fb71 003f
00000180: 918b 743e 2f1d dd3d 82a5 01be 6e59 ff3d
00000190: 5ace ebba 5fdc 5f3d 676a 68bc b0e1 74bc
000001a0: 4511 fdbb 59f6 0a3c 757d bb3c 12d1 9bbc
000001b0: 3602 2fbc f6c4 ca3c 0c14 2d3b 0c2b 13bd
000001c0: dd95 733c c7df 6f3d 9188 9cbd 042e 6abd
000001d0: 70d0 933d 354a a3bc 0baf 84bd d19c d13b
000001e0: c7c9 2fbe a0de 0e3c 3d3a f23b 1c48 d83c
000001f0: 2687 b4bd 2a19 a7bd b7cf 923c 724a b1bc
00000200: 3be0 3cbd b9ee 55bd 6bc1 48ba 4ea9 233d
00000210: a270 8dbd 491c 483c 9189 88bc bf82 b53c
00000220: 254c 5f3d 7a0c e2bd 4cc5 c1bd 9ec4 babc
00000230: 436c 643d 74d0 dd3d c1cb 503d e08d 05bc
00000240: 9e0a 6c3d d243 4938 6c77 a23d e868 3fbd
00000250: c4d4 b5bc 0719 473c

shared_encoder.gru_left.bias_hh_l0_reverse f4 [150]
-0.057372753 0.031034052 -0.2732518 -0.050778955 -0.14518721 -0.06824022 -0.04105016 -0.024574205
-0.009399817 0.021994798 -0.18016809 0.011554268 -0.09930699 0.09261347 0.049347803 -0.08419561
0.014637913 -0.08251719 -0.04649916 -0.046686575 0.11842283 -0.16056535 -0.14719206 -0.05233825
0.050414607 0.15189983 -0.31694427 -0.7077904 -0.05992202 -0.1140691 -0.2562579 0.054572277
0.039922904 -0.044535927 -0.07895422 -0.07996945 0.042217985 -0.0024098768 0.06284791 -0.07577431
0.09796478 0.17168674 0.053575985 -0.08396751 0.08860234 -0.1342414 -0.033417687 0.0899666
-0.024934033 -0.04214516 0.33765775 0.33571985 0.19426143 0.3742598 0.4673782 0.2872031
0.27554166 -0.1702563 0.19222808 -0.14521505 0.13403216 0.14235061 0.5773316 0.32251027
0.39147523 0.39139938 0.20001952 0.34146792 0.45793533 -0.19568504 -0.2482833 0.37087023
0.43872148 0.38790542 0.19584563 0.02882537 -0.29905307 0.33992743 -0.16568342 0.35915536
0.20920698 0.3177085 0.1899922 0.14679554 0.48394966 0.44252527 0.2081115 0.06942293
0.36853808 0.3954925 0.32307065 0.068596505 0.34751284 0.42536396 0.12316104 0.5017392
0.23881362 0.10796588 -0.126608 0.12468235 -0.008427934 0.055673517 -0.0050306353 -0.02014007
-0.014024241 0.0029000163 0.022444682 -0.013929791 -0.013262856 0.03276942 0.00851423 -0.0406586
0.022232989 0.05837757 -0.074186005 -0.05397437 0.07295773 -0.02340983 -0.06521747 0.012818166
-0.1611573 0.011192934 0.01680287 0.0283935 -0.087168075 -0.07953773 0.01518829 -0.018682418
-0.044200715 -0.056084443 -0.008061021 0.03981571 -0.07020246 0.017592402 -0.02285654 0.026954079
0.05757617 -0.10593103 -0.08882578 -0.027595935 0.055253632 0.10100939 0.052104287 -0.015766017
0.060332775 -0.0070149023 0.0782512 -0.044599395 -0.024137465 0.015385642
00000000: b1ff 6abd 203b fe3c a9e7 8bbe 98fd 4fbd
00000010: f5ab 14be 87c1 8bbd 3624 28bd d84f c9bc
00000020: b101 1abc 6f2e b43c fc7d 38be 1d4e 3d3c
00000030: 7761 cbbd 22ac bd3d ec20 4a3d bf6e acbd
00000040: dbd3 6f3c c6fe a8bd e775 3ebd 6c3a 3fbd
00000050: ab87 f23d 3e6b 24be 84b9 16be a260 56bd
00000060: 8c7f 4e3d a18b 1b3e 8546 a2be c031 35bf
00000070: cb70 75bd 0f9d e9bd 3c34 83be 2e87 5f3d
00000080: 3386 233d 4e6b 36bd c0b2 a1bd 06c7 a3bd
00000090: c4ec 2c3d 06ef 1dbb 68b6 803d 902f 9bbd
000000a0: c2a1 c83d a6ce 2f3e 7e72 5b3d 28f7 abbd
000000b0: 2575 b53d 9476 09be fce0 08bd 6940 b83d
000000c0: 7542 ccbc 67a0 2cbd 7ae1 ac3e 79e3 ab3e
000000d0: 78ec 463e fb9e bf3e 324c ef3e 490c 933e
000000e0: cc13 8d3e ab57 2ebe 70d7 443e 41b3 14be
000000f0: ba3f 093e 5cc4 113e 01cc 133f 1120 a53e
00000100: 716f c83e 8065 c83e ebd1 4c3e e2d4 ae3e
00000110: 8076 ea3e a961 48be fa3d 7ebe b4e2 bd3e
00000120: 1aa0 e03e 8a9b c63e c28b 483e 2f23 ec3c
00000130: 7c1d 99be f80a ae3e eaa8 29be 36e3 b73e
00000140: 5b3a 563e b0aa a23e 518d 423e 9251 163e
00000150: 40c8 f73e ac92 e23e 2e1b 553e 9c2d 8e3d
00000160: 06b1 bc3e fe7d ca3e 8469 a53e 537c 8c3d
00000170: 34ed b13e 4ec9 d93e db3b fc3d fb71 003f
00000180: 8f8b 743e 371d dd3d 87a5 01be 7659 ff3d
00000190: 5115 0abc ea09 643d 07d8 a4bb cafc a4bc
000001a0: eec5 65bc 330e 3e3b e9dd b73c c739 64bc
000001b0: 734c 59bc 3a39 063d 457f 0b3c a289 26bd
000001c0: f521 b63c 521d 6f3d d5ee 97bd 3b14 5dbd
000001d0: dd6a 953d f9c5 bfbc bd90 85bd 4903 523c
000001e0: 6b06 25be 9162 373c 2ca6 893c 7c99 e83c
000001f0: 2d85 b2bd ade4 a2bd 4ed8 783c df0b 99bc
00000200: cf0b 35bd cdb8 65bd 5f12 04bc cc15 233d
00000210: 4fc6 8fbd f11d 903c a33d bbbc cdce dc3c
00000220: fdd4 6b3d 5ef2 d8bd 4aea b5bd df10 e2bc
00000230: a251 623d 03de ce3d 4e6b 553d bc27 81bc
00000240: 801f 773d 44dd e5bb 2a42 a03d dbad 36bd
00000250: efbb c5bc 0f14 7c3c
